exps/regularModelExperiments/cleanAccModel4.pt (torch, 973781 bytes, 8 tensors)

fc.weight f4 [256, 784]
000000 33 7c 82 bc 36 04 f3 3c 27 cf 94 bc 73 4e 01 3d
       -0.015928363 0.029665094 -0.018165184 0.031568956
000010 d4 b8 85 3c c4 5d 0a 3c 2e 01 cd 3c e6 3e e2 3c
       0.016323484 0.008445207 0.025024977 0.027617883
000020 10 48 e4 3b 90 96 49 bb a0 ef 92 3c a8 21 d0 3b
       0.0069665983 -0.0030759908 0.017936528 0.0063516684
000030 00 2f 23 3b f0 92 b2 bc 38 f7 ed bb e0 23 9d ba
       0.002489984 -0.02179858 -0.007262137 -0.0011988841
000040 38 9b 38 3c 83 dd b3 bc de 5e 9d 3c 1b fb 02 3d
       0.011267476 -0.021956211 0.019210275 0.031977754
000050 d7 84 87 bc 66 5d 48 bc 60 c9 51 bc 0b 0d 04 3d
       -0.016542835 -0.012229299 -0.012804359 0.032239
000060 cc c9 c1 bc 9c cd 9e bb d1 0c 01 3d 4e f0 b9 3c
       -0.023655795 -0.004846288 0.031506363 0.022697594
000070 46 f5 ea 3c 45 35 f8 bc b8 cc 91 3b 80 90 33 ba
       0.028681409 -0.030298838 0.004449453 -0.000684984
000080 f2 c9 d9 3c d5 18 a2 bc ba 61 b4 3c cd 26 eb bc
       0.026585553 -0.019787231 0.022019256 -0.028705025
000090 be 7a cf bb f4 49 dc 3c 98 d2 b3 3c a3 67 05 bd
       -0.0063317707 0.026890732 0.021951005 -0.03256954
0000a0 7a 10 eb 3c 50 db 83 3c 3e 50 05 bd 8a 99 b9 3c
       0.02869438 0.016095787 -0.032547228 0.022656221
0000b0 a4 9e 00 3c d9 d1 6e bd f3 88 b2 bd 3f a5 1d bd
       0.007850323 -0.058305595 -0.08717527 -0.03848767
0000c0 20 8e 46 bb 30 3b 09 bb 1f a3 01 3d 28 c9 f4 bc
       -0.0030297115 -0.002093982 0.031649705 -0.029881075
0000d0 4c c3 a4 3c e8 4e b7 3b c8 b9 9a 3c 5c 45 cb 3c
       0.020112656 0.005594123 0.018887416 0.024813347
0000e0 fa 4c e4 bc a8 eb 9f 3c 10 54 06 3b aa b0 99 3c
       -0.027868737 0.01952155 0.0020496882 0.018760998
0000f0 d4 8e 52 3c 62 3b ee 3c 4b 2d bb 3c 13 db 35 bc
       0.012851436 0.02908105 0.022848746 -0.011099595
000100 a5 03 0e bb ca 0f a5 bd 06 78 0f be 5f 2e 4c bd
       -0.0021669653 -0.08059652 -0.14010629 -0.04984891
000110 49 ae 66 bd 94 a7 bb 3d b4 a0 35 3e 3a 4d e4 3e
       -0.056318555 0.09162822 0.17737085 0.4459017
000120 22 9e 39 3e 48 7f 83 3d 40 a3 9b bd 66 48 80 bd
       0.18126729 0.06420761 -0.07599497 -0.06263809
000130 fe dd 49 3d 62 db b7 bd 76 b4 4b bd 38 c5 87 bd
       0.049283974 -0.08977391 -0.049732648 -0.06629413
000140 3f f8 0c bd a3 eb 8e bc 38 2c 9b 3b 45 54 f9 bc
       -0.034416433 -0.017446345 0.004735496 -0.03043569
000150 93 a8 a0 bc d7 79 8f bc 5c 91 cb 3c 60 6f dc ba
       -0.019611632 -0.017514152 0.024849586 -0.001681786
000160 81 c3 f1 be 7c 27 f0 be 9c 06 85 bd 35 96 32 be
       -0.4721947 -0.46905124 -0.06495401 -0.17440112
000170 4c de 4f bf 16 2e 93 bf ad 45 8c bc 82 ea f4 bc
       -0.81198573 -1.1498439 -0.017123068 -0.029896978
000180 3f 54 07 be f3 27 99 3e 1f 86 a4 3e 1c 7b 31 3f
       -0.13215731 0.2991329 0.32133576 0.69328475
000190 22 dd b7 3e fd 77 1f be 22 90 6f be f2 ad 83 be
       0.35910898 -0.15573116 -0.23394826 -0.25718647
0001a0 c4 27 65 be 90 4b 1f be 52 35 0d be 83 77 a4 bd
       -0.2237845 -0.15556169 -0.13789871 -0.080306076
0001b0 02 25 ba 3c 90 06 3e 3b 00 18 93 ba 36 c1 06 bd
       0.022722725 0.002899561 -0.0011222363 -0.032899104
0001c0 80 42 de bb 00 53 64 b9 b2 bc 11 bc 89 ea 51 3e
       -0.0067828298 -0.00021774694 -0.008895086 0.20499624
0001d0 27 04 ec bd db c2 20 be 92 95 c1 bd e1 cc f6 be
       -0.115242295 -0.15699331 -0.094523564 -0.48203185
0001e0 fb e9 03 bf 69 29 8c bf 8a 3a 04 bf 17 21 ce be
       -0.515289 -1.0950137 -0.51651824 -0.4025962
0001f0 eb cf 9f bd d2 f5 8e 3c 76 f6 95 3c af 74 8e bd
       -0.07803329 0.0174512 0.018305998 -0.069558494
000200 8e 13 2d 3d 55 17 47 be 66 08 5c be 2f f6 4a be
       0.042254977 -0.19442494 -0.21487579 -0.19820474
000210 2c 4c 76 be bc 3d 69 be 3d 39 75 be 78 2a b1 3d
       -0.24052495 -0.22777456 -0.23947616 0.086506784
000220 a6 68 8d bc 10 01 06 3c a3 9e 01 3d 2a 36 ed bc
       -0.017261814 0.008178964 0.03164543 -0.028956492
000230 80 44 d5 39 10 55 4d 3b 70 e0 dd 3b 17 02 23 3e
       0.00040677562 0.0031331219 0.00677114 0.15918766
000240 22 66 a8 be a3 ea 18 be 03 a6 ac 3e 47 8d 9b 3f
       -0.3289042 -0.14933257 0.33720407 1.215249
000250 1f f4 57 3f a9 45 09 3f 4b 97 2e 3e fc 59 8a bd
       0.84356874 0.5362192 0.17049901 -0.067554444
000260 1f a5 19 be 91 4d dc bf 53 bb e7 bf f7 43 c7 bf
       -0.15004395 -1.7211171 -1.8104042 -1.5567616
000270 a7 3a 94 bf d1 0a ca bf 0f ae 59 bf 80 eb 28 bf
       -1.1580399 -1.5784551 -0.8503122 -0.65984344
000280 72 e1 13 bf 59 4a 10 be ea e5 4c bf 24 38 95 be
       -0.5776588 -0.14090861 -0.8003832 -0.29144394
000290 a8 d7 c8 bd 9c 35 be bc 50 4e cd bc 4e 8b a8 bc
       -0.09806758 -0.023218922 -0.025061756 -0.020574238
0002a0 d5 57 f7 bc de c7 a2 3c d2 4f 19 3e 99 e3 0b 3e
       -0.030193249 0.019870695 0.14971855 0.1366104
0002b0 f7 bc 86 3f 91 fb 65 3f 07 03 fe 3e e9 85 bd 3e
       1.0526417 0.89836985 0.49611685 0.37016228
0002c0 f1 f8 3d be 54 87 75 bf e2 0d d5 bf 69 f3 95 bf
       -0.18551995 -0.9590962 -1.6644862 -1.1714908
0002d0 9a a1 c0 bf 16 e1 2d c0 60 23 30 c0 01 24 2a c0
       -1.5049317 -2.7168632 -2.752159 -2.6584475
0002e0 40 c5 1c c0 9d 66 3b c0 19 0e 1a c0 0c 2b 20 c0
       -2.4495392 -2.928138 -2.4071105 -2.5026274
0002f0 77 2b db bf 02 34 c8 bf 55 2a 65 bf 18 68 34 bf
       -1.712264 -1.5640872 -0.8951772 -0.70471334
000300 9b 26 ea be ce 97 98 3d 70 6d 4a 3b bc 4b 6b bc
       -0.4573258 0.074508294 0.0030887984 -0.014361318
000310 46 ae ac 3d ab 7a 0d 3f cc 5f a9 3e c0 32 1a 3f
       0.084316775 0.552653 0.330809 0.6023369
000320 4f 25 b4 3f 57 87 41 3f ae 81 98 3f 99 03 a9 3e
       1.4073886 0.7559714 1.1914575 0.33010557
000330 e7 3c d8 be 79 e9 5c bf ce 22 bb be 2f 29 50 bf
       -0.42233965 -0.8629375 -0.3654999 -0.8131284
000340 6c d8 95 bf 84 6a e8 bf 88 be a9 bf b7 dc b0 be
       -1.1706672 -1.8157506 -1.326127 -0.34543392
000350 95 24 99 3e f4 0b 20 be 99 be 62 be 6b 86 0e bf
       0.29910722 -0.1562956 -0.2214302 -0.55673856
000360 5a 32 a6 bd fa 6e ac be 8b d4 ea be 61 5e 70 bc
       -0.081150725 -0.33678418 -0.45865282 -0.014670939
000370 c2 c5 79 bd d3 24 d0 ba 6d 51 e2 bc e6 dd 23 bc
       -0.060979612 -0.0015880115 -0.027626717 -0.010001635
000380 f7 53 20 3e 9c 60 5c 3f b1 f8 04 3e 12 8a c9 3f
       0.1565703 0.86084914 0.12985493 1.5745261
000390 3f 70 c3 3f f2 4c b2 3e 42 db c9 3e 2a 44 bf be
       1.526863 0.3482433 0.39425093 -0.37356693
0003a0 cd b8 5a be 70 17 27 3f 2a 34 34 3f 09 11 43 3e
       -0.21359558 0.6527014 0.70392096 0.19049467
0003b0 99 0c 91 be 67 01 9c bf 34 d8 ab bf e4 7b 03 bf
       -0.28329924 -1.2187928 -1.3425355 -0.5136092
0003c0 fc 82 1b bf 7c 59 26 bf f4 c1 15 bf 52 3c a2 be
       -0.6074674 -0.6498029 -0.58499074 -0.31686646
0003d0 50 ad 31 3f 58 f7 7d 3f c8 2a 4b 3f b6 b2 61 3e
       0.6940508 0.9920554 0.79362154 0.22040829
0003e0 0a 76 37 3f 4a f1 b8 3d 56 6d 1f bd dc 97 b3 bc
       0.7166449 0.09030397 -0.03892263 -0.021922998
0003f0 e0 b5 f0 3d 48 ed ed 3e 23 5e 97 bd 28 4e c1 3f
       0.1175344 0.46470094 -0.07391002 1.5101976

fc.bias f4 [256]
000000 51 03 a7 3e a6 14 ec be fc 7c ed be 08 6b 40 bf
       0.32619718 -0.46109504 -0.46384418 -0.75163317
000010 03 4e 0c 3f 35 69 81 3f d0 17 07 3f 54 83 c9 3e
       0.54806536 1.0110232 0.5277071 0.39358008
000020 45 87 15 bf 55 e0 8f be da c1 20 bf 2d 3a 1d be
       -0.5840953 -0.2810084 -0.62795794 -0.15354224
000030 ad 3b 99 3e a1 a6 89 bf 77 fc 29 bf f1 6c 2e bf
       0.29928342 -1.0753976 -0.66400856 -0.6813498
000040 4d af bc bd b1 f9 09 bf f7 f8 d7 3e a8 8f 2d bf
       -0.092131235 -0.53896624 0.42182133 -0.6779733
000050 73 9e be be 31 13 96 bd 1a f7 b5 be e1 88 b6 bf
       -0.37230262 -0.07327879 -0.35540086 -1.4260522
000060 54 f3 9d bf 9f eb b4 3e 25 29 03 be 88 d3 d0 bc
       -1.2339883 0.35336015 -0.12808664 -0.025491491
000070 e3 b0 1a bd 35 c0 af bd b1 90 57 3e 32 b6 86 be
       -0.03776635 -0.085815825 0.21051289 -0.2631088
000080 be 84 80 3f 0c 1c db bf 19 23 bc bf 2c 68 6f bf
       1.004051 -1.7117934 -1.4698211 -0.9351833
000090 6f e4 86 3f 36 f0 57 c0 ea 9b 84 bf f9 cf 0f bf
       1.0538462 -3.3740363 -1.0360081 -0.56176716
0000a0 33 5b 39 bf e2 44 18 be 08 44 85 bc 86 04 61 bd
       -0.72404784 -0.14870027 -0.016267791 -0.054935955
0000b0 e3 54 2c c0 fa e1 0b bd 03 c0 c1 bd 91 82 23 be
       -2.692681 -0.034151055 -0.094604515 -0.15967776
0000c0 99 8a 91 3e 50 40 43 be e9 cc 9e be 47 2d b9 be
       0.28426054 -0.19067502 -0.3101571 -0.36167356
0000d0 2d 41 2a bd cb 46 3f bf 99 47 8e be 65 48 f5 be
       -0.041566063 -0.74717396 -0.27789 -0.47906795
0000e0 ee dc 3d 3c c2 7c 71 be b3 c4 5e bd da 35 b8 3c
       0.011588318 -0.23582748 -0.054386806 0.022486616
0000f0 1c ef 2b 3e 08 3e 2c bf df 68 17 be 2f 23 a2 bd
       0.16790432 -0.6728215 -0.14786099 -0.07916867
000100 3f 16 c8 be 87 44 83 be 9a 75 61 bd d2 a6 1b c0
       -0.39079472 -0.2563822 -0.055043794 -2.432057
000110 33 3b 35 bd 16 6d 53 bd 8c a4 91 bd b4 5c b4 bd
       -0.04424591 -0.051617704 -0.07111463 -0.08806744
000120 95 e1 f2 be 6f 5f 28 bf 8a 32 3d bf c2 cc d5 bd
       -0.4743773 -0.6577062 -0.7390524 -0.10439445
000130 52 9e ec bf 1e 59 a4 3c 20 d7 4c bd 5f 71 73 3e
       -1.8485816 0.020062026 -0.050009847 0.23773716
000140 1c ed 95 bd 99 e9 51 3f 7d 87 63 3f d6 76 0a bf
       -0.07320616 0.81997067 0.88878614 -0.5408758
000150 12 93 7c 3e b8 fd 0f 3e 60 13 98 bd cc ac b2 bd
       0.24665478 0.1406163 -0.074255705 -0.08724365
000160 c3 ad d2 be 4d c0 7f bf d5 80 95 be 17 23 2b 3f
       -0.41148195 -0.999028 -0.29199854 0.6685042
000170 74 7c dc bf 78 13 2a 3d 72 9c 1a bf 54 5e 48 be
       -1.722548 0.041522473 -0.60394967 -0.19567233
000180 07 96 6f bf 83 ed d6 bd 47 87 55 bf 50 e9 90 3e
       -0.935883 -0.104945205 -0.8340954 0.28303003
000190 a3 af 2a bf af 8e 95 bd bb 63 fb 3e f8 f7 7d be
       -0.6667425 -0.07302605 0.49099526 -0.24801624
0001a0 bb 10 95 be 1a 8e b8 bd a3 89 8e bd 9d 1a 95 3d
       -0.29114327 -0.09011479 -0.06959846 0.07280467
0001b0 5e cc a9 be e3 14 68 3f 64 68 17 bf 59 6d 11 c0
       -0.33163732 0.9065687 -0.5914366 -2.272299
0001c0 93 37 c1 3e 27 b6 1e bf 59 21 0c c0 af 8d 61 bd
       0.37737712 -0.6199669 -2.1895354 -0.05506676
0001d0 76 3c 60 bf b9 29 07 3f 56 e2 7d 3d 8b 1e 03 bf
       -0.87592256 0.5279804 0.06198343 -0.5121848
0001e0 0d 84 08 bf 03 f5 7b bd ea 01 fe bd 2a 45 41 be
       -0.53326494 -0.06151296 -0.12402709 -0.1887404
0001f0 da 90 42 bf c4 bc ff be 92 3d b8 bd 41 af 33 be
       -0.76002276 -0.49948704 -0.089961186 -0.17547323
000200 96 07 d2 be a2 5b b9 bd 07 16 43 bd 23 9e 06 c0
       -0.41021413 -0.09050681 -0.04762843 -2.103402
000210 4b 02 5d bf a6 db 3b be d9 60 f2 3e ee 44 1d bf
       -0.86331624 -0.18345508 0.47339514 -0.61433303
000220 bf 7f 0d 3f 83 78 87 bd d1 71 4c bf e2 44 14 c0
       0.5527305 -0.06614783 -0.7986117 -2.3167043
000230 bc 09 3d be 7b d2 09 bf c6 76 a5 bd 58 53 f7 bd
       -0.18460745 -0.5383679 -0.08079295 -0.120764434
000240 5f 1d 73 bf 0d f6 a5 3e 3f 3e 51 3e 18 2e af bd
       -0.9496669 0.32414284 0.20433901 -0.085537136
000250 c4 e8 20 bd 30 3b 48 bf 43 dd f0 3d 93 73 89 bd
       -0.039284483 -0.7821531 0.11760952 -0.06711497
000260 93 6b a3 bf 0e e6 a8 3d ee 5d 97 bd 8a 30 58 bf
       -1.2767204 0.082470044 -0.073909625 -0.84449065
000270 69 60 ae bf 08 b0 5c bd f7 98 b6 bd a9 9e ac bf
       -1.3623172 -0.053878814 -0.089158945 -1.3485919
000280 6b ca 0a 3e c0 1d 56 bf 61 c3 23 bf bd b9 77 bd
       0.13553779 -0.83639145 -0.6397 -0.06047987
000290 3f 18 8f be 9a 5f c6 be 16 9a 01 3f 7c 7f 8c be
       -0.27948186 -0.38744813 0.5062574 -0.27441013
0002a0 3c f2 1d be e0 78 aa bf f4 13 03 bf 32 89 06 be
       -0.15424436 -1.3318138 -0.5120232 -0.13138273
0002b0 4e 76 b9 bf 26 d6 be bd 4d 2b 64 be b0 24 c3 3e
       -1.4489229 -0.09318189 -0.22282143 0.38113928
0002c0 54 24 93 3e bf 5b 45 bd 07 f2 dd 3d 8b 4d 51 bf
       0.28738654 -0.0481832 0.10837179 -0.81758946
0002d0 bc d7 d5 be 28 54 97 bd cc 0b d4 3c 05 39 14 c0
       -0.41766155 -0.073890984 0.025884531 -2.3159802
0002e0 de 83 0f be 94 a5 24 c0 08 af bb bd 48 f3 3b bf
       -0.14015147 -2.572606 -0.09164244 -0.7341809
0002f0 30 01 6a bd 78 d7 aa 3f c6 fd 98 bd e5 be a6 3e
       -0.05713004 1.3347006 -0.074702784 0.32567516
000300 1e 2c 8a bd 92 14 39 bd 7a e2 9f bf 25 a6 0a be
       -0.06746696 -0.045185633 -1.249099 -0.13539942
000310 25 f9 6e 3d 6c 66 d5 3c 9d 91 86 bf 36 c0 84 be
       0.05834307 0.026049815 -1.0513188 -0.25927895
000320 3f 91 62 bd 38 17 ad 3e 12 28 ac be 77 49 a6 bf
       -0.0553143 0.33806777 -0.3362432 -1.299117
000330 85 20 16 bf 0d 27 cb be cf 28 24 be 8d 35 52 bf
       -0.5864337 -0.3967823 -0.16031192 -0.8211296
000340 d4 01 b5 3e 0b ea f4 bc 27 45 d4 3d ac a3 ff be
       0.35352957 -0.029896757 0.10364752 -0.4992956
000350 85 98 33 bf 29 9a c5 3f 46 f8 21 bf e2 5b 90 3e
       -0.701546 1.5437671 -0.6326946 0.281951
000360 c5 7d c5 bd 1d 12 52 3e 66 86 35 3f 6a a9 97 bf
       -0.09643129 0.20514722 0.709082 -1.1848576
000370 1e ee d5 bf 13 d3 2a bd 11 8d 42 3f 5e 20 50 3f
       -1.6713293 -0.041705202 0.759965 0.8129939
000380 05 07 c0 be 33 01 56 be 6d ae 4e bf c5 30 e5 bd
       -0.37505355 -0.20898895 -0.807349 -0.11190943
000390 5c 93 47 be a8 2f 9b bd cf c0 2f 3f b8 87 23 be
       -0.19489807 -0.07577449 0.6865358 -0.15969741
0003a0 bb b0 a8 be e2 70 49 bf e6 c2 58 3e 69 29 dd bc
       -0.32947335 -0.7868787 0.21168098 -0.026997285
0003b0 b8 9f 48 3f 28 62 15 be 6e 37 e3 3e f1 fd 0c bf
       0.7836871 -0.14588225 0.44378227 -0.55074984
0003c0 3d 5f 43 3f 8e 1b e7 bf da ac 8a bd 07 3f a4 bf
       0.763172 -1.8055284 -0.0677125 -1.2831734
0003d0 be 63 9a be a1 1c be be 48 1d e9 bd c3 25 a0 be
       -0.30154222 -0.37131217 -0.11382538 -0.3127881
0003e0 30 4e 21 be 0f c1 a8 bf 09 c4 81 bf 55 53 f8 be
       -0.15752482 -1.3183917 -1.013795 -0.48501077
0003f0 30 91 9c be 7e f3 65 bd 6f a4 fe 3e 9b 99 8f 3f
       -0.3057952 -0.056140415 0.49734828 1.1218752

fc1.weight f4 [128, 256]
000000 05 b0 c3 bc ed b5 80 bd 06 41 ec be c5 cb 54 be
       -0.023887644 -0.062846996 -0.4614336 -0.20780857
000010 48 1d a1 be 57 90 9c be e4 33 93 bd b3 12 38 3c
       -0.31467652 -0.30578873 -0.07187632 0.011234927
000020 ac 81 26 bd ba 45 b9 be f1 05 99 be 00 ca 83 bd
       -0.04065101 -0.3618601 -0.29887345 -0.06435013
000030 bf 49 8b bd 73 e5 a9 bd 14 51 90 be 33 02 0c bb
       -0.06801175 -0.08295717 -0.28186858 -0.0021363616
000040 d6 6d 88 bd 14 ae d0 be 83 4d 6a be 7c 8e a4 be
       -0.066615745 -0.4075781 -0.22881131 -0.32139957
000050 a9 d8 53 be 95 04 86 bd 01 11 03 be 02 56 01 bf
       -0.20688118 -0.06543843 -0.12799455 -0.5052186
000060 59 38 8f bd 03 ce b4 bd ff a9 01 bf 4b 80 da 3d
       -0.06993169 -0.08828356 -0.5065002 0.10669001
000070 31 47 52 3d e8 86 80 3d 48 1b 40 be f1 c4 2a be
       0.051337425 0.06275731 -0.18760407 -0.1667669
000080 1a c6 aa be 30 80 01 3f a2 63 99 be 8c 46 0f 3e
       -0.33354264 0.50586224 -0.29958826 0.13991755
000090 99 52 d5 be d8 45 87 be 93 39 8b bc 48 75 1e bf
       -0.4166458 -0.26420474 -0.016995227 -0.61897707
0000a0 2f 0d 85 be 23 cc 03 be 7b 4e ef be 38 4b 3b bd
       -0.2598662 -0.1287084 -0.46739563 -0.04572603
0000b0 5f d9 03 3e df f3 e6 3c 85 fd 34 bd 63 95 e8 bd
       0.12875889 0.028192459 -0.044187088 -0.11356618
0000c0 7e 7a 18 3a d6 f4 cd bd 45 8f a2 bd 27 5a 3b bd
       0.00058165926 -0.100564644 -0.07937483 -0.045740273
0000d0 4b 0a 23 bd 9f 4e 67 be 92 ff 3e be 4b 01 ac be
       -0.039804738 -0.22588585 -0.1865218 -0.33594736
0000e0 cd fb 01 be fe 57 f4 bd d3 17 6a bd e2 d7 7f be
       -0.1269371 -0.11930846 -0.057151627 -0.24984697
0000f0 5a 84 8b be aa 1d 8b 3e 4a 43 41 be 3a a7 ab bd
       -0.27249414 0.2717107 -0.18873325 -0.08381505
000100 ee 26 86 be b7 d8 57 3d b7 17 65 3c 62 7c 12 bf
       -0.26201576 0.05269691 0.013982705 -0.57221043
000110 69 53 a7 bd 5f 9e 4b bd 7b ca 53 bd a1 4b 1c bc
       -0.08170206 -0.04971158 -0.051706772 -0.009539516
000120 bc 15 e7 bd 81 9a be be 4a 11 31 be f3 db 76 bd
       -0.112834424 -0.37227252 -0.17291752 -0.060268354
000130 45 7d 79 be 38 7e 33 be f7 25 a4 bd 00 d7 9a 3d
       -0.24364193 -0.17528617 -0.08015054 0.07560539
000140 4b 73 77 bd a3 52 71 bd 45 ba 00 bf 07 f4 dd be
       -0.060412686 -0.0589167 -0.50284225 -0.4335024
000150 bc 52 09 bf 02 57 14 be e5 35 ee be 2d 11 a9 bc
       -0.5364187 -0.14486316 -0.46525493 -0.020638073
000160 a9 40 06 be 07 46 7c bc 39 5c ed be a9 22 14 3d
       -0.13110603 -0.015397555 -0.46359423 0.036165867
000170 65 8d 9a be f5 8a 95 bd dc 08 ce 3d fe 3e 1d bd
       -0.30186 -0.073018946 0.100602835 -0.038390152
000180 e7 f0 1e be 0b fe e8 bd d8 f5 89 bd 65 97 ca 3b
       -0.15521584 -0.1137658 -0.06736344 0.0061825984
000190 ca 1e 70 be 63 cf 65 bd 32 80 3b 3e f9 e9 2f be
       -0.23449245 -0.056105983 0.18310621 -0.17179097
0001a0 5a 61 fc be 74 c2 dd bd 51 0a 8a bd 9d ca 49 be
       -0.49293023 -0.108281046 -0.06740249 -0.19706197
0001b0 f3 16 84 be e6 4e 53 be 60 36 95 be a4 7d ba be
       -0.2579876 -0.20635566 -0.29143047 -0.3642398
0001c0 e1 a9 7a be 07 30 90 be 0a 5f 15 be 56 32 a2 bc
       -0.24478866 -0.28161642 -0.14587036 -0.019799393
0001d0 2c 80 af be d6 a4 b4 be 92 56 11 be 46 65 41 be
       -0.34277475 -0.3528201 -0.1419318 -0.18886289
0001e0 b7 81 ab be 2a c9 8d 3d 47 e4 17 be 04 e1 9e be
       -0.33497402 0.069231346 -0.14833175 -0.31031048
0001f0 9b f5 13 bf e1 a3 c6 3c 11 b6 f7 bd 15 fb 04 3d
       -0.5779664 0.024248065 -0.12095273 0.032466013
000200 cd fb 31 bf 86 22 30 be 4f 52 0f bd ef 72 cc bd
       -0.6952484 -0.1720067 -0.034990605 -0.09982859
000210 b9 d3 58 be 3b 4f 38 be 37 84 9e be 3a 6c b4 be
       -0.21174516 -0.17998974 -0.30960247 -0.3523882
000220 29 38 75 be c1 ba 81 3d 88 e1 a2 be d1 bd 8a be
       -0.23947205 0.063344486 -0.31812692 -0.27097943
000230 34 d3 5f be b2 1c d9 bb 7e df 0b bb 8f 19 ad bd
       -0.21857911 -0.006625735 -0.0021342929 -0.084521405
000240 36 6a 7c be 7d 99 18 be 37 b3 90 3d 50 04 02 bd
       -0.24649891 -0.14902301 0.070654325 -0.031742394
000250 42 19 9d bd 83 e3 28 bf e0 44 23 be 07 d9 c1 bd
       -0.07670833 -0.65972155 -0.15944242 -0.09465223
000260 cf eb c3 bd dc 2d a8 3d 0b cc 92 bd 9a 28 38 bd
       -0.09566461 0.08211872 -0.07167824 -0.044960596
000270 5d a4 c3 be 28 71 6e 3d ee f2 e2 3d e5 79 32 be
       -0.38211337 0.058213383 0.110814914 -0.17429312
000280 5a 01 9f be 52 3f 29 be ae cf bc 3c 88 26 bc bd
       -0.3105572 -0.16528061 0.023048248 -0.09187037
000290 1a dc 73 be eb dd a4 bd ea 8f 19 3c 47 ee 41 be
       -0.23814431 -0.0805014 0.009372691 -0.18938552
0002a0 19 dd 98 bc 83 7b 76 be 5a 30 d0 bd 6e 1d 1c bd
       -0.018660115 -0.24070553 -0.10165472 -0.038114004
0002b0 81 a1 c9 bd e3 04 06 bf 43 dd 1f be 65 20 0d bf
       -0.098452576 -0.52351207 -0.15611748 -0.55127555
0002c0 fe 9c 21 be 3e 35 27 3c e4 ed a0 be 0c e2 3f be
       -0.15782544 0.010205565 -0.31431496 -0.18738574
0002d0 e4 66 4b be 47 08 70 bc a6 4f 88 be 72 02 02 bf
       -0.19863468 -0.014650411 -0.26623267 -0.5078498
0002e0 0c d1 3a bd 29 5f 68 be f7 c7 84 bd 6d a7 d8 3b
       -0.04560952 -0.2269255 -0.06483453 0.0066117556
0002f0 ea 8c 46 bc 8e 86 b2 be ce 96 b7 bd e5 d4 b4 be
       -0.0121185575 -0.34868282 -0.089643106 -0.35318676
000300 23 3f 95 bd 50 ed 50 bc dc 7f 37 be f7 dd 0c be
       -0.07287433 -0.012751892 -0.17919868 -0.13756548
000310 e3 64 5c be c6 25 4e bd 4e 4e c2 be 6f 74 da bd
       -0.2152286 -0.050328992 -0.37950367 -0.10666739
000320 da c1 f9 bd 73 54 47 be 2e 81 f3 3d a0 99 12 be
       -0.121951774 -0.19465809 0.118898734 -0.14316416
000330 6a a9 75 be 4d 46 f2 bd 1b 14 1a be 3c 17 ee bd
       -0.23990408 -0.11829815 -0.15046732 -0.11625525
000340 db 3e 8d be 86 ab 8b 3d 64 c4 98 be ff 76 45 be
       -0.27587017 0.06819825 -0.29837334 -0.19283675
000350 c2 a1 61 be 56 ee f2 be 3b aa fe bd ee 83 c6 bd
       -0.22034362 -0.4744746 -0.12434813 -0.09693132
000360 ce 47 ba 3d b9 6c fb bd e1 cb 7b be 11 42 94 be
       0.09095727 -0.122765966 -0.24589492 -0.28956655
000370 4f 5f 2e be b0 c9 9c be 20 9c 27 be e1 63 17 3e
       -0.17028545 -0.30622625 -0.1636815 0.14784195
000380 24 4f 08 bf c0 92 4c be ee 30 4e be ad d5 45 bc
       -0.5324576 -0.19977856 -0.20135853 -0.01207487
000390 45 79 0c bf 77 26 1e bd 15 54 2d bc 74 b5 9a bd
       -0.5487254 -0.0386109 -0.010579129 -0.07554141
0003a0 2a 90 12 be b4 55 22 be 14 31 4f be b9 e2 cf bd
       -0.14312807 -0.15853006 -0.20233566 -0.10150666
0003b0 fd 97 1c be 5f 32 54 bd d2 88 95 be f6 72 81 be
       -0.15292354 -0.05180585 -0.29205948 -0.2528302
0003c0 76 dd 28 bd 0a 1a 0c bf ea 41 0e be 98 e1 7d be
       -0.041226827 -0.5472723 -0.13892332 -0.24793088
0003d0 cb 5a 75 bc 21 21 88 be b3 55 75 be a6 c0 12 bf
       -0.01497526 -0.26587775 -0.23958473 -0.5732521
0003e0 a7 27 76 be 38 c0 c4 be e5 db 91 bc ec 88 d1 be
       -0.24038564 -0.384279 -0.01780505 -0.40924776
0003f0 1c 90 9f be 83 65 e9 be 25 a8 9e bd ce 08 bd be
       -0.31164634 -0.4558526 -0.07746915 -0.3692078

fc1.bias f4 [128]
000000 01 fa 16 bf a7 94 95 bf a6 a0 ae bf 39 bd 21 3f
       -0.58975226 -1.168599 -1.3642776 0.63179356
000010 65 a0 b5 bf 35 35 00 c0 38 2a c7 be 92 dd a1 bf
       -1.4189574 -2.0032475 -0.38899398 -1.2645743
000020 dd 0c 2a bf 8a 04 b1 bf eb bd 1d c0 49 7c 89 bf
       -0.6642588 -1.382951 -2.4647167 -1.0741054
000030 c8 99 88 bf 40 5d 03 c0 fe 93 66 be d9 5f 97 bf
       -1.067193 -2.0525665 -0.22517392 -1.1826125
000040 e4 9d 4b c0 f1 e0 90 be cd 5d ab 40 34 f8 03 c0
       -3.1815119 -0.28296617 5.3552003 -2.062024
000050 a0 e1 d5 bf 9f 11 13 c0 1e 14 95 be 2a 9f 6a bf
       -1.670948 -2.2979505 -0.2911691 -0.91649115
000060 b0 cb 03 c0 87 f6 b9 3c 00 80 05 c0 ef a1 ab bf
       -2.059307 0.022700561 -2.0859375 -1.3408793
000070 ed 97 b8 bf 3c 61 d0 bf e0 6a 40 bf 9d d9 25 c0
       -1.4421364 -1.6279674 -0.7516308 -2.591407
000080 b7 9c 1a c0 a5 11 db bf 62 e3 88 bf ea 93 05 c0
       -2.415815 -1.711476 -1.0694392 -2.087153
000090 b1 bf 05 c0 6e 18 f9 bf 48 90 36 bf cd 90 ac bf
       -2.089825 -1.946058 -0.71313906 -1.348169
0000a0 a1 e9 e3 bf 14 79 17 c0 33 37 97 bf 9a 5d d4 bf
       -1.7805673 -2.366765 -1.181372 -1.6591065
0000b0 f9 7a 28 3f 4d 4d c8 bf f7 af 4a 3e 8a c9 e4 be
       0.6581264 -1.564859 0.19793688 -0.44685012
0000c0 86 03 33 c0 c5 09 a1 bf 3b 52 49 c0 2a 42 4a bf
       -2.79709 -1.2581106 -3.145644 -0.7900721
0000d0 f5 e6 b0 bd b4 4e ba bf 1b e1 13 c0 7d 12 e4 3f
       -0.086378016 -1.4555268 -2.3106143 1.7818142
0000e0 1d 77 6b bc 96 8a 00 c0 86 69 23 be 89 6c fc bf
       -0.014371661 -2.0084586 -0.15958223 -1.9720622
0000f0 12 55 ca bd 70 b6 2b c0 fa da 0c bf 84 fb 22 bf
       -0.09879507 -2.68301 -0.5502163 -0.6366503
000100 97 fe 1b c0 f6 54 39 c0 2e 67 cd bf 28 cf 3f c0
       -2.437414 -2.8958106 -1.6047113 -2.9970188
000110 59 cf 3f 3e ad b6 e2 bf fd 31 03 c0 88 d3 13 bf
       0.1873144 -1.7711998 -2.049926 -0.57744646
000120 2a b3 85 bf e9 57 3a bf 94 c3 61 c0 a8 1a 11 c0
       -1.0445302 -0.7279039 -3.5275621 -2.267252
000130 a2 83 83 3f 73 fa 15 c0 ca 96 11 c0 a1 e4 0e c0
       1.0274546 -2.3434112 -2.2748284 -2.2327044
000140 45 48 06 bf 71 17 29 c0 3c 49 af be 96 fe 96 bf
       -0.52454025 -2.6420557 -0.3423556 -1.1796443
000150 88 d8 38 bd 59 c6 5e c0 32 cf 62 bf 69 21 03 c0
       -0.045128375 -3.4808562 -0.88597405 -2.0489142
000160 30 5d d9 bf 36 9a e0 bf 02 c0 fd bf 28 cb 03 40
       -1.6981564 -1.7547061 -1.9824221 2.0592747
000170 f9 e7 23 bf 32 91 54 bd 81 52 4f c0 af 12 19 c0
       -0.6402584 -0.05189628 -3.2394106 -2.3917654
000180 13 5a f8 bf b0 a1 c1 bf 27 e8 9e bf d6 82 36 3f
       -1.9402488 -1.5127468 -1.2414597 0.7129339
000190 a1 30 1a bf 85 4b 62 c0 2d a4 0e c0 de 46 2b c0
       -0.6023045 -3.5358593 -2.2287705 -2.6762004
0001a0 31 41 c3 bf 43 70 f7 bf 07 2e 71 bf 1c 5e 45 bd
       -1.525427 -1.9331135 -0.9421086 -0.048185453
0001b0 c3 44 46 c0 f9 f1 dc bf 0e 45 02 c0 51 23 a2 be
       -3.097947 -1.7261344 -2.0354648 -0.3166757
0001c0 ae 00 f1 be f8 8f 08 3f 5a 81 8d bf 00 3b 09 c0
       -0.4707083 0.5334468 -1.10551 -2.144226
0001d0 44 43 00 c0 25 00 ba bf 37 13 25 c0 15 aa c7 3e
       -2.0041056 -1.4531294 -2.5792978 0.3899695
0001e0 ac e0 d1 3e bf 39 cc be 43 50 96 bf f3 5e 5b c0
       0.40991724 -0.39887807 -1.1743244 -3.4276702
0001f0 6e ff 03 3f 3c af ed be 18 af 18 c0 0d b6 b0 bf
       0.5156163 -0.46422756 -2.3856869 -1.3805557

fc2.weight f4 [64, 128]
000000 fd f0 00 3d 9d 81 cc bb d4 89 9a 3d 7a 7d a3 bd
       0.031479824 -0.006241037 0.0754582 -0.07982917
000010 0a 81 8c be f4 9a cd be d0 e1 4e be 43 58 07 bf
       -0.274422 -0.40157282 -0.20203328 -0.5286905
000020 6f 90 1b bf 50 24 3e bd ba a6 41 bc d6 e7 42 bf
       -0.60767263 -0.04642135 -0.011819536 -0.76135004
000030 24 39 0f bf 07 33 24 bf 1d e7 c3 3d ce c2 23 bf
       -0.55946565 -0.6414036 0.09565566 -0.63969123
000040 56 2a d6 be 79 82 4f be b4 a6 89 be af 45 b7 be
       -0.41829175 -0.20264615 -0.26884997 -0.35795352
000050 60 c5 e2 bd 83 ba 14 bf 5f 24 35 bf c5 fb d1 bd
       -0.110728025 -0.58097094 -0.7075862 -0.10253099
000060 e6 a3 30 be 56 62 01 bf 88 a1 b9 be 36 ed 7c be
       -0.17250022 -0.50540674 -0.3625605 -0.24699864
000070 f4 4c 81 be 24 47 5e be cd 35 c8 be 03 70 df bd
       -0.25254023 -0.21706825 -0.39103547 -0.109100364
000080 ea 80 43 bd dd 0a 13 be f2 34 8f bd ac dd e4 bd
       -0.047730364 -0.14359613 -0.069925204 -0.11175093
000090 6f 77 bb be c1 0e 41 bc f8 53 fc be 59 23 db 3c
       -0.36614558 -0.011783303 -0.49282813 0.026750254
0000a0 81 5e 04 3e 58 fa 3b bd 3e 9f 40 bf da fa 94 bd
       0.12926675 -0.045893043 -0.75242984 -0.07274409
0000b0 8c 45 e4 be b0 f7 4e bd bb 01 a0 be 64 9a 9a be
       -0.4458431 -0.050529182 -0.3125132 -0.30195916
0000c0 64 17 b6 be 02 91 01 be 13 a9 46 3e 31 6a fd be
       -0.3556472 -0.12652972 0.19400434 -0.4949508
0000d0 9d 6b c2 be a8 ef 0d bf 42 6a 5e bd fe 54 96 be
       -0.37972727 -0.5544381 -0.054300554 -0.2936172
0000e0 89 7c eb be d0 d4 d7 ba cb 48 08 be 8f 7b 71 be
       -0.4599345 -0.0016466621 -0.13309018 -0.2358229
0000f0 e8 3f 09 be 4b 15 ec be e4 67 9c be 18 93 69 3d
       -0.13403285 -0.46109995 -0.30548012 0.057025045
000100 d9 a4 75 be a3 74 e7 bc 17 94 77 be 66 3c 50 3d
       -0.23988666 -0.028253859 -0.24177586 0.05083885
000110 1a c3 89 3d 1e 7b 36 be 6e 37 aa bc 7c fd dd be
       0.06726666 -0.17820403 -0.020778384 -0.43357456
000120 91 c1 9b be d3 1e 05 bf cb 63 9b be 42 83 86 be
       -0.30421117 -0.5200016 -0.30349573 -0.26272017
000130 2d ee cf be 0f da bb be bb f3 9d bd 75 02 8a 3d
       -0.406114 -0.36689803 -0.077125035 0.0673875
000140 c2 c8 fe 3b 33 68 52 be e0 67 ca 3c d9 7f 60 be
       0.007775397 -0.20547561 0.024707735 -0.2192377
000150 43 45 28 3c 42 55 1e 3e 6a 9d d0 3d 6f 77 ea be
       0.0102704195 0.15462211 0.10186274 -0.45794246
000160 e8 54 cb be 44 73 6f be ac 32 a1 bd 09 30 f9 be
       -0.39713216 -0.23383814 -0.07870993 -0.4866946
000170 4c ff b0 be 37 ca b7 be e8 0d 75 3e f6 57 98 be
       -0.34569776 -0.35896465 0.23931086 -0.2975461
000180 61 c6 bb be 77 d5 81 be f3 71 9c be 7e 4a 91 be
       -0.3667479 -0.25358173 -0.30555686 -0.28377146
000190 8d 26 12 bf 00 22 cb be 4b f1 d8 be b7 6d 47 3e
       -0.57090074 -0.39674377 -0.42371592 0.19475447
0001a0 05 71 52 be 00 64 8a be 76 88 46 3d dc 1d d2 bd
       -0.20550926 -0.2702942 0.048469983 -0.102596015
0001b0 09 cf a8 3c 9e 12 1f bd c2 1b 9f be 20 42 b3 3c
       0.020606535 -0.038836114 -0.31075865 0.021882117
0001c0 cf b7 d1 be f8 09 08 bf 69 29 88 be 05 81 15 bf
       -0.40960547 -0.5314021 -0.26594093 -0.58399993
0001d0 a3 72 d6 3b f7 70 05 bf 4b d2 3d bd ac 98 9d be
       0.0065444275 -0.52125496 -0.04634313 -0.30780542
0001e0 09 ed fc be dc e4 cc be 1a 9e 1f bf 9f 72 d4 bd
       -0.49399593 -0.40018356 -0.6235062 -0.10373425
0001f0 93 b1 a9 be 09 d8 f9 be d0 b7 d0 3c 55 c3 6c bd
       -0.3314329 -0.48797634 0.025478274 -0.05780347
000200 52 58 e8 3c f7 d6 a0 be 35 f0 94 be 94 dd c7 be
       0.028362427 -0.31414005 -0.29089513 -0.39036238
000210 1a 1f d9 be f5 42 cf be a0 7e a3 bc a4 cc 91 be
       -0.4240654 -0.40480772 -0.01995784 -0.2847644
000220 cc b2 05 be fd e8 9c be 2b 05 6b bd b0 1c c8 bd
       -0.13056487 -0.30646506 -0.057377975 -0.09771097
000230 d1 8e 25 be d0 fd 8e be 54 5d 41 3e 47 fd b6 3e
       -0.16167761 -0.2792802 0.18883258 0.3574011
000240 e7 59 6f 3e 11 cc e7 be 64 a8 90 bf 65 70 2d 3d
       0.23374139 -0.45272878 -1.1301389 0.042343516
000250 98 09 f2 bc 5d 28 8b be 97 5b 34 bf 2c 6e bc 3e
       -0.02954559 -0.27179232 -0.70452255 0.36802804
000260 9f 10 43 be 28 ee 39 bf 52 e1 61 3e 3b 80 34 bf
       -0.19049309 -0.7262902 0.22058609 -0.70508164
000270 95 36 cf bd fd 31 0e bf 3b 56 ef be 35 56 85 bd
       -0.101178326 -0.55545026 -0.46745476 -0.06510583
000280 6b a3 73 be 37 2d 58 be 9f 02 01 bd cd f9 04 3e
       -0.23792808 -0.21110998 -0.03149664 0.12985916
000290 cb 9f e5 bb 0c 50 80 be 55 0a e5 3c 04 69 0c 3c
       -0.007007574 -0.2506107 0.027959028 0.00856996
0002a0 9e f8 8d 3d ff 54 26 be ed 06 9e bc a4 fd 94 bd
       0.069321856 -0.16243361 -0.019290412 -0.072749406
0002b0 95 41 9a be 35 6b d4 3d a3 65 f5 bd fc 68 71 be
       -0.3012816 0.103720106 -0.11982276 -0.23575205
0002c0 26 93 77 bd a4 6b 3f 3d bc ff 62 bd 8f ec 1f bd
       -0.060443066 0.046733513 -0.05541967 -0.03904396
0002d0 e7 6c 7d be d3 a5 8b bd 41 76 83 3e 8d 0f f1 bd
       -0.24748574 -0.06818738 0.25676158 -0.11770544
0002e0 a4 aa ed be c4 45 31 bd 1f e3 19 3c aa 37 9d 3e
       -0.4641925 -0.043279424 0.009392529 0.3070653
0002f0 05 91 17 3e b9 58 ef be 0c de 4f bf 4c 0e 0c bd
       0.14801414 -0.46747378 -0.8119819 -0.034193322
000300 12 45 b3 3d 0f ba 04 3f 59 ac d5 be d9 5b 40 3d
       0.087534085 0.518464 -0.41733053 0.046962593
000310 2f 0d 41 3e 99 8d 28 bf 3f c1 d1 bd 3c 8a e0 bd
       0.18852685 -0.6584106 -0.10241937 -0.10963866
000320 53 de eb be c5 1a eb 3a 04 b8 9d 3e 81 74 43 be
       -0.46068057 0.0017937055 0.30804455 -0.19087411
000330 20 e4 a6 be 4c e3 6c bf 06 a3 10 be ba c7 27 be
       -0.3259592 -0.9253433 -0.14124689 -0.16384783
000340 e4 8d f3 bd 7d dd 61 bc 26 2e 92 3c 71 ad 3c be
       -0.11892298 -0.013785717 0.01784427 -0.18425538
000350 0e db f9 bd 78 58 89 bb 58 a0 21 bf e1 a0 6e be
       -0.121999845 -0.0041914545 -0.6313529 -0.23303558
000360 a0 ab 43 be 05 5c 93 be ea 03 83 bd 89 7d 6e bf
       -0.19108438 -0.28781143 -0.06397231 -0.931603
000370 24 95 1c bf a4 06 50 bf ab c3 02 3f 46 26 d0 bc
       -0.6116507 -0.8126013 0.51079816 -0.025408875
000380 cd 01 0e 3e ad 69 ae bd ad 11 b0 be bc 1f 5c bf
       0.13867874 -0.0851625 -0.34388486 -0.8598592
000390 f3 0d 21 bf 65 ba 52 3d 6c 7f 48 be 2f 5a 95 be
       -0.6291191 0.05144729 -0.19579858 -0.29170367
0003a0 5d d2 10 3f 1d 95 04 be 1e 82 00 bd ae de 38 3c
       0.5657099 -0.12947507 -0.03137409 0.01128356
0003b0 13 63 d9 bd 0a 98 0a 3a d4 87 90 bd ae 8d 17 be
       -0.106146 0.0005286938 -0.07057157 -0.1480014
0003c0 97 5b 9f be 3e 1e 02 bf 9f 6e 28 3f 96 97 ea bd
       -0.31124565 -0.50827396 0.65793794 -0.11454694
0003d0 cd 1d bd 3b c6 7e 7e be 13 08 75 3d a9 f0 b4 bd
       0.005771375 -0.24853048 0.059822153 -0.08834965
0003e0 7f c9 74 bd 75 61 20 bf 2e 6e e6 be 7b 3b ad 3e
       -0.059762474 -0.6264871 -0.45005935 0.33834442
0003f0 0d 20 80 be fb 80 95 3e c5 6f 1b 3f d6 32 cf be
       -0.25024453 0.29199967 0.6071742 -0.40468472

fc2.bias f4 [64]
000000 22 ee ba bf be 7a 42 bf 2b fe e7 bf 61 5c 59 c0
       -1.4603922 -0.7596854 -1.8124441 -3.3962634
000010 87 4a 26 c0 41 a9 0b c0 6b 67 e9 bf ad 58 1e c0
       -2.5982988 -2.1822054 -1.8234686 -2.4741623
000020 22 b6 d9 bf 8e 7f 0f c0 fa 81 8b bf b6 bc 03 c0
       -1.7008708 -2.2421603 -1.0899041 -2.058393
000030 81 63 81 c0 be d8 e0 bf 6e 99 30 bf aa 8d f9 bf
       -4.0433965 -1.7566144 -0.68984115 -1.9496357
000040 ca 14 2a c0 0b 42 7b bf d4 83 38 bf f9 d1 13 bf
       -2.6575189 -0.9814765 -0.72076154 -0.5774227
000050 7b 5c ce bf 3f 77 8a 3f 76 54 a2 be e0 4b b9 3e
       -1.6121973 1.0817641 -0.31705064 0.361907
000060 a2 4c d0 bf b9 27 b0 bf b2 1c a3 bf 42 40 ba bf
       -1.6273386 -1.3762122 -1.2743132 -1.455086
000070 5c 17 03 c0 6b 0d 40 3f d2 83 9e 40 c8 d1 fa bf
       -2.0483007 0.75020474 4.9535913 -1.959527
000080 1e 89 04 bf e5 de 01 c0 35 57 37 c0 76 7b f9 bf
       -0.51771724 -2.0292294 -2.8646977 -1.9490802
000090 6c 36 bf bf 62 b9 0c c0 59 04 97 3c 65 f5 8b bf
       -1.4938483 -2.1988149 0.01843469 -1.0934263
0000a0 52 77 17 c0 4b 31 36 c0 74 e7 16 c0 aa 50 21 c0
       -2.3666577 -2.8467586 -2.3578768 -2.5205483
0000b0 48 33 1e c0 26 02 dc bf 55 57 1d 40 1e 68 47 bf
       -2.47188 -1.7188156 2.4584553 -0.77893245
0000c0 6e e2 1a c0 45 f8 d0 bf c8 93 67 bf 6b 58 58 bf
       -2.4200702 -1.6325766 -0.9045987 -0.84509915
0000d0 5c 5d 15 c0 99 9c 3b c0 93 a5 3c c0 df 7a 91 3f
       -2.3338232 -2.931433 -2.9476058 1.1365622
0000e0 2e e0 40 c0 22 83 1b c0 ff b3 13 c0 70 40 05 c0
       -3.0136828 -2.4298787 -2.307861 -2.082058
0000f0 3f 3c f9 bf 30 6f 7f bf 86 e2 17 c0 aa ca b1 bf
       -1.9471511 -0.99779034 -2.373201 -1.3889973

out.weight f4 [10, 64]
000000 1e a8 93 be 94 91 9d bf 46 25 46 be 65 37 bf be
       -0.288392 -1.2310052 -0.19350156 -0.3734695
000010 c6 93 26 be f3 07 fd 3c 4c 8c 64 bf 6f 15 93 be
       -0.16267309 0.03088758 -0.89276576 -0.2872729
000020 b1 48 89 3d 95 3d 17 bf 5b d4 a0 be 20 e4 a1 3e
       0.06703318 -0.5907834 -0.31412014 0.31619358
000030 2a 1d 6d bf f7 e2 d3 3d 4a fb 4d bd 6d 8e 57 bf
       -0.92622626 0.103460245 -0.050288476 -0.842017
000040 61 00 9e 3e 58 06 6e bd 0b 39 39 3e b0 97 2b 3f
       0.30859664 -0.05811152 0.18088166 0.6702833
000050 75 9d a1 be b3 d2 09 bf 8f 7b f3 bc e2 e6 b2 bc
       -0.31565443 -0.53837126 -0.029722003 -0.02183861
000060 3b 94 54 bf 27 8c 12 3f 6a ce 98 be 52 81 80 bf
       -0.8303868 0.57245106 -0.2984498 -1.0039465
000070 48 91 47 be 08 00 cc bd bb 65 f3 3d 9d 88 ef be
       -0.19489014 -0.099609435 0.11884638 -0.46783915
000080 aa c1 d7 be 7c bc 84 bf 38 2a 0c be 4e b3 d2 be
       -0.4213994 -1.0370021 -0.1368798 -0.41152424
000090 11 c8 2e bf da 94 82 bf ea ca db 3d 46 f9 f2 bc
       -0.6827403 -1.0201676 0.10732062 -0.029659878
0000a0 e5 0d 43 be 41 31 86 be a9 08 15 bf 09 9f 52 bf
       -0.19048269 -0.26209453 -0.5821634 -0.8227392
0000b0 26 e3 e6 be de cd f8 be 2b 8b 96 bc 35 fe 29 bf
       -0.45095176 -0.48594564 -0.018376907 -0.66403514
0000c0 ab fb 1f 3e 59 be 34 bc c1 17 d3 be a4 f3 90 3c
       0.15623347 -0.011031711 -0.4122906 0.017694302
0000d0 1f f4 bc bd 09 3d fb b8 f0 55 37 3e e3 0d a4 be
       -0.0922625 -0.00011979981 0.17903876 -0.32041845
0000e0 45 35 0e be 82 9a 96 bf 30 ae 7b be d3 38 fe 3d
       -0.13887508 -1.1765902 -0.24578166 0.12413182
0000f0 63 fd 70 be fe fc 04 bf cd 99 18 bf be a8 8f be
       -0.2353416 -0.51948535 -0.5960968 -0.28058428
000100 9e e0 e9 3d 42 61 ab 3e 1c d6 93 3e 0d 7e 99 be
       0.114197955 0.3347264 0.2887429 -0.29978982
000110 9d 33 dc 3e 3e 31 b8 be 19 8d 00 bf ff 90 c2 be
       0.43008128 -0.3597507 -0.502153 -0.38001248
000120 7d ed c6 bd 82 60 3c bf bc aa e6 be 68 26 2c bf
       -0.09713266 -0.7358476 -0.45052135 -0.67246103
000130 a0 43 08 bf 74 15 99 be 5c 08 88 be 50 05 51 bf
       -0.5322819 -0.2989918 -0.26568878 -0.8164873
000140 af a2 e6 bd 27 3f 39 bf 58 d8 f2 be d4 1e c1 3e
       -0.11261498 -0.7236199 -0.47430682 0.37718832
000150 88 77 dc 3d d0 83 29 bf 5e 70 43 bf f7 1d a7 3d
       0.10764986 -0.66216755 -0.76343334 0.08160012
000160 64 52 19 3d 57 44 d3 3e 59 0c 40 be a9 4a 95 bf
       0.03743209 0.41263077 -0.1875471 -1.166341
000170 cf eb 38 bf 6f fa 0d be c0 8b 0c 3d b2 be b3 be
       -0.72234815 -0.13865064 0.034312963 -0.35106426
000180 bc 7d 7e be 7f bb 8c be 29 c4 f4 3c 4b 96 22 be
       -0.24852651 -0.27486798 0.029878693 -0.15877645
000190 07 b6 6e bf 0b d4 cc bf 7a c5 77 3e 8a 93 16 be
       -0.932465 -1.600221 0.24196425 -0.14704719
0001a0 89 e1 4f bf 16 d7 93 be 46 b8 18 bf 10 da 54 bf
       -0.81203514 -0.28875035 -0.5965618 -0.83145237
0001b0 46 bd 81 bd d5 7e 4f bf b3 14 e2 3d 7d 96 b4 be
       -0.06334929 -0.81052905 0.11039104 -0.35271063
0001c0 e2 f1 06 bf 55 a8 87 3d 07 cc 7c be d6 85 07 bf
       -0.52712834 0.06623904 -0.24687205 -0.5293859
0001d0 a4 33 9f be 17 5f 9b be 79 59 b3 3d b6 c9 a4 bf
       -0.31094086 -0.30345985 0.087573 -1.2874057
0001e0 8e 48 08 bf 4f 87 1c bf 7d 9f f1 be 59 6c e5 3e
       -0.5323571 -0.61143965 -0.47191992 0.44809225
0001f0 b8 a3 f7 be f3 eb 58 bf 89 0a 38 bf 01 a2 cc bd
       -0.48367095 -0.8473503 -0.71891075 -0.09991837
000200 ce ea 45 bf 60 54 ef be e6 7d 42 bd 3f 66 7f 3e
       -0.7731141 -0.4674406 -0.047483347 0.24941348
000210 44 cf 56 be 66 f1 91 be bf d7 4f be 27 57 0c bf
       -0.20977503 -0.28504485 -0.20297144 -0.54820484
000220 15 52 8c be 03 d4 d6 3c 95 16 d8 bd 2c 31 da be
       -0.27406374 0.026224142 -0.10551182 -0.4261564
000230 99 96 bf bd 78 72 c9 be 38 aa 94 be 1e f3 5b bf
       -0.09354896 -0.39345145 -0.29036117 -0.8591784
000240 82 45 eb be 86 2b ad bd e5 1b fe be 32 89 0c 3f
       -0.45951468 -0.08455567 -0.49630657 0.54896843
000250 14 76 e3 3e 76 14 29 bc 45 a5 6e 3e a6 11 34 be
       0.44426024 -0.01031982 0.23305233 -0.17584857
000260 d8 04 21 bd 9d d0 cf be 8d 90 ed be 77 38 33 3f
       -0.03931126 -0.40588847 -0.46399346 0.70008034
000270 88 02 a7 be 04 56 ea bd fc d2 54 3d 19 dc 62 bf
       -0.3261912 -0.114421874 0.051959023 -0.8861709
000280 fd 60 c8 3d f7 31 29 3e ef ed 85 be 8d 95 97 bf
       0.09784124 0.16522966 -0.2615809 -1.1842514
000290 db d2 2f bf 86 70 a7 3d 7c 4b e0 3e 5a a6 6f bd
       -0.68681115 0.08175759 0.4380759 -0.058508255
0002a0 be f5 ed be 2f ce aa 3d 47 1e 96 bf 80 e0 93 be
       -0.4647655 0.08340108 -1.172799 -0.28882217
0002b0 d8 c4 4f be 5a 4a eb be ce 90 b5 3b e4 dc f8 be
       -0.20289934 -0.45955163 0.0055409437 -0.48606026
0002c0 0f 3d 38 bf a2 34 89 3d c7 13 69 bd 20 78 6e bf
       -0.7196817 0.06699492 -0.056903627 -0.93152046
0002d0 ed 0d 51 be db 30 07 3e 55 e2 fb 3d 0d 59 97 be
       -0.20415469 0.1320223 0.12299029 -0.29560128
0002e0 f1 d9 91 be 49 09 0b bf 91 d0 1f 3e 37 e9 d5 3e
       -0.2848659 -0.54311043 0.15606906 0.4177949
0002f0 fe 94 85 be ce fc 7b 3f e5 44 a4 be a4 d4 2c 3d
       -0.26090235 0.98432624 -0.32083812 0.042194977
000300 a8 f1 37 be 8f e1 9f bf 28 75 88 3d ee 86 a3 be
       -0.17963278 -1.249071 0.06662971 -0.3193888
000310 6c 73 b9 be 55 72 1d bf 63 28 30 be ee 6a 5c 3e
       -0.36220872 -0.6150258 -0.17202906 0.21525165
000320 e1 fa 30 bf 82 dc 17 bf 3f 1a 09 bf 81 fe 11 bf
       -0.6913281 -0.59320843 -0.53555673 -0.5702897
000330 40 75 08 bf 54 70 c3 bc 8d dd 05 be 83 5e 87 3e
       -0.5330391 -0.023857273 -0.13072796 0.26439294
000340 33 e2 b4 bd a1 08 cb be 91 c2 c9 3e 8e 31 53 3d
       -0.088322066 -0.3965502 0.39406255 0.05156093
000350 9f 5a 41 bf b7 01 2f bf 9c fe bf 3d 12 0c 0a bf
       -0.755289 -0.6836199 0.09374735 -0.5392467
000360 3a f3 b6 3d 01 6c 3e 3d a1 eb 52 3e 76 98 9e be
       0.089331105 0.04648972 0.20597698 -0.30975693
000370 0d 97 52 be 6c 11 29 3d 16 9f cb 3d f4 7d d4 be
       -0.20565434 0.04127638 0.099424526 -0.41502345
000380 d2 4e ab 3e a9 8c 0f bf 94 ad 63 bf 80 71 9a bd
       0.33458573 -0.56074005 -0.88936734 -0.0754118
000390 4b 42 a6 be ff c2 ba bc 6a ef ca bd 38 37 00 be
       -0.32472453 -0.02279806 -0.09908946 -0.12521064
0003a0 5c 8e e6 be 5a 4b 4e be 0a 13 0b bf 0d 58 ad be
       -0.45030487 -0.20145932 -0.54325926 -0.3385624
0003b0 aa b6 c7 3d f7 ba 09 bf 18 7e 33 3c 71 e8 44 be
       0.09751637 -0.5380091 0.010955356 -0.19229294
0003c0 3d 5d 11 bf 8e 43 da 3d 0e 28 8e 3e fa 81 b4 be
       -0.56782895 0.10657416 0.27764934 -0.35255414
0003d0 ac 06 21 be 95 a7 ca be 70 0d 06 be 00 9c ef be
       -0.15725201 -0.3958098 -0.13091063 -0.46798706
0003e0 b4 33 21 bf bd 9c 6e 3e 91 93 66 bf f1 fa 11 bc
       -0.6296952 0.23301978 -0.9006892 -0.008909927
0003f0 a9 cb bb 3c 2b df d0 bf d5 ef c1 bd 2b 4b 8f bd
       0.022924261 -1.6318105 -0.094695725 -0.06996759

out.bias f4 [10]
000000 b6 98 5f be 66 b0 49 bf 84 70 34 3f 01 17 ba be
       -0.21835598 -0.7878479 0.70484185 -0.36345676
000010 c3 1c 64 be c2 03 8a be f0 24 be be 06 92 09 bf
       -0.22276597 -0.26955992 -0.37137556 -0.5373844
000020 31 40 58 3e 28 e2 19 bf
       0.21118237 -0.6011071
