personalExps/MnistFC/models/MediumMnistModelL21e-4.pt (torch, 875102 bytes, 6 tensors)

fc1.weight f4 [256, 784]
0	0x3d0505cd	0.032476235
1	0x3d0dbdc2	0.034604795
2	0xb5cb643c	-1.5153851e-06
3	0x3d198b99	0.037486646
4	0x3a00e300	0.0004916638
5	0x3c684975	0.01417767
6	0xbc0696f4	-0.008214701
7	0x3cdad45e	0.026712593
8	0x3d149b77	0.036281075
9	0xbc850795	-0.016238967
10	0x3d12f64d	0.035879422
11	0x3c607d9c	0.013701823
12	0x3d01b2a1	0.031664494
13	0x3c45c192	0.012070077
14	0x3cbeccaa	0.02329095
15	0x3b463dc4	0.0030249218
16	0x3d05de12	0.032682486
17	0x3c4b8794	0.012422461
18	0xbbf7d997	-0.0075637805
19	0x3c824a57	0.015904589
20	0xbbf158fd	-0.0073653446
21	0x3b7939cb	0.0038028832
22	0xbbb73209	-0.0055906815
23	0x3cef1995	0.029187003
24	0xbc93e0e5	-0.018051574
25	0xbbf1a3b3	-0.007374251
26	0xbacd39dd	-0.0015657503
27	0xbc438c13	-0.011935252
28	0x3c2f1119	0.010685229
29	0xbcc8b2fb	-0.024499407
30	0x3d177b0f	0.036982592
31	0xbca3e2aa	-0.020005543
32	0x3d06053b	0.032719832
33	0x3c557a00	0.013029575
34	0xbb35739f	-0.0027687324
35	0x3ce5c533	0.028048133
36	0x3c538a78	0.0129114315
37	0x3d0b3c66	0.033993147
38	0x3c3add68	0.011405326
39	0xbb1ca670	-0.0023902915
40	0x3c8a34b0	0.016870826
41	0xba89b6b0	-0.0010506716
42	0x3cb4b0b3	0.022056913
43	0x3d1ceae8	0.03830996
44	0x3cc2dc7d	0.023786778
45	0xbbf36a79	-0.007428464
46	0x3cdd2e5a	0.026999641
47	0x3c665d2d	0.014060301
48	0x3cc92f3a	0.024558652
49	0xbc42d5fd	-0.011891839
50	0xbcc7f93b	-0.024410835
51	0xbba1006f	-0.0049133818
52	0xbc8dec14	-0.017324485
53	0x3d0c7acd	0.0342968
54	0x3c8b1e00	0.016982079
55	0x3cacba08	0.0210848
56	0x3c92a30e	0.017900016
57	0x3be707da	0.0070504965
58	0x3d076f25	0.03306498
59	0xbc7da821	-0.01548198
60	0x3c1e8150	0.009674385
61	0xbc6ea7bd	-0.014566359
62	0x3c932eca	0.017966647
63	0xbb3bd553	-0.0028661087
64	0x3c92e0da	0.017929483
65	0x3ab3b1b8	0.001370958
66	0x3d167101	0.036728863
67	0xbc18b3d6	-0.00932022
68	0xbc1251ce	-0.008930637
69	0xbac1d79b	-0.0014788987
70	0x3d2c6899	0.04209194
71	0x3ce2081b	0.027591756
72	0x3d3f4949	0.04670075
73	0xbc73788e	-0.014860285
74	0xbcae61cd	-0.02128687
75	0xbc69bae1	-0.014265747
76	0xbc4c53f8	-0.012471192
77	0x3cb45b49	0.022016184
78	0x3ca4d41c	0.020120673
79	0x3d0e97da	0.034812786
80	0xbc15f276	-0.0091520455
81	0xbc6f18f7	-0.014593354
82	0x3ccbb947	0.02486862
83	0xbbb51d5c	-0.0055271816
84	0x3ce010ac	0.0273517
85	0xb8d1b9b1	-0.00010000484
86	0x3cd89950	0.026440293
87	0xbc8f9ce6	-0.01753087
88	0xbc0eb9cd	-0.008711291
89	0x3c957c81	0.018247845
90	0x3c886bd3	0.016652977
91	0x3b36bd3f	0.0027883796
92	0x3cdb1680	0.026744127
93	0x3cc4d0d9	0.024025368
94	0xbcac705c	-0.02104967
95	0xbc7e1d1a	-0.015509868
96	0x3d130c4e	0.035900407
97	0x3addadd5	0.0016912768
98	0x3adbf0a1	0.0016780087
99	0xbccfadd0	-0.025351435
100	0xbc4b08d7	-0.012392244
101	0x3c45df03	0.012077096
102	0x3c0fd801	0.008779527
103	0xbb79f7e2	-0.0038142134
104	0x3c62d927	0.0138457185
105	0xbc7fec0c	-0.015620243
106	0xbce02ffd	-0.027366633
107	0xbc4e2420	-0.012581855
108	0xbca7374f	-0.020412115
109	0xbc572c8a	-0.0131331775
110	0x3d24651c	0.040135488
111	0x3c616874	0.013757814
112	0x3c907a14	0.017636336
113	0xbcba0bb6	-0.022710662
114	0xbc5499a7	-0.012976087
115	0xbb35c161	-0.002773367
116	0x3c66ef6d	0.0140951695
117	0xbc7e5d7b	-0.015525217
118	0x3ac41cc7	0.001496219
119	0xbc51da1b	-0.012808348
120	0x3c1c8e3c	0.009555396
121	0xbd05e1fc	-0.03268622
122	0xbc8e0008	-0.017334
123	0xbcb6aee0	-0.022300184
124	0xbc7124f9	-0.014718288
125	0x3cc813a2	0.024423424
126	0x3a834226	0.0010014221
127	0xbc52978f	-0.012853517
128	0x3c4de38a	0.012566457
129	0xbd58c04b	-0.05291776
130	0x3b97d357	0.004633348
131	0xbb29b30e	-0.0025894078
132	0xbd4dde23	-0.050260674
133	0x3ae47fd0	0.0017433111
134	0xbcef474c	-0.029208802
135	0xbc822098	-0.015884683
136	0xbcbc0f46	-0.022956502
137	0xbcd3c9c7	-0.02585305
138	0x3c837e45	0.016051421
139	0x39a2387a	0.00030941126
140	0x3ca61989	0.020275848
141	0xbc9c35e5	-0.019068668
142	0x3d029a6b	0.031885546
143	0xbc6a95f0	-0.014317974
144	0x3c0b1583	0.0084890155
145	0x3ce22f46	0.027610432
146	0x3d08ad25	0.03336825
147	0x3d047f9f	0.03234827
148	0x3cb4159e	0.021982964
149	0xbd2dd9a0	-0.04244387
150	0xbc751b5c	-0.014960136
151	0xbb3e3279	-0.0029021783
152	0x3d088b66	0.033336066
153	0x3c642ab7	0.0139262
154	0x3ce44cb8	0.027868614
155	0x3b947322	0.0045303265
156	0x3ad97d66	0.0016593158
157	0xbd1735ee	-0.036916666
158	0xbd0c3c5b	-0.034237247
159	0xbd5f6ef3	-0.05454917
160	0xbcf6bf42	-0.030120496
161	0xbd6b11ad	-0.057389904
162	0xbd31af06	-0.043379806
163	0xbd207ad0	-0.039179623
164	0x3c4a010f	0.012329354
165	0xbb4fa1c0	-0.0031682104
166	0xbc1cc1fb	-0.009567733
167	0x3d11a593	0.035558295
168	0x3c739011	0.014865891
169	0xbc29fafe	-0.010374783
170	0xbc105431	-0.008809135
171	0x3c1a2e16	0.009410402
172	0x3cfa2b11	0.030538114
173	0xbc695f41	-0.014243902
174	0xbccf18cf	-0.025280384
175	0xbc950609	-0.018191354
176	0xbd275ff5	-0.040862996
177	0x3b19bcc9	0.0023458472
178	0x3c2da427	0.010598219
179	0xbbf15b11	-0.0073655923
180	0x3b8b921c	0.004259361
181	0x3cfed24c	0.031106137
182	0x3c304979	0.010759705
183	0x3bc5a4db	0.006031615
184	0x3d8650c2	0.06558372
185	0x3cf9395d	0.03042286
186	0x3bbb633e	0.0057186177
187	0xbd92fa09	-0.07176597
188	0xbdcc3d7f	-0.09972667
189	0xbd8d8912	-0.0691091
190	0xbd8749f0	-0.06605899
191	0xbd232dc9	-0.039838586
192	0x3be59d47	0.0070072743
193	0x3cc6a7de	0.024249967
194	0x3b2d3a8e	0.0026432606
195	0x390dd8a4	0.00013527513
196	0x3c048f1d	0.0080907615
197	0x3bba7fcd	0.0056915046
198	0x3c7f0105	0.015564208
199	0x3cade218	0.021225974
200	0xbcb0b3e3	-0.021570152
201	0xbd1bfb22	-0.038081296
202	0x3c110727	0.008851803
203	0xbc6472a4	-0.013943348
204	0xbd03f87e	-0.032219402
205	0xbca98f7b	-0.0206983
206	0xbcda3d91	-0.026640685
207	0xbc11c6b4	-0.008897472
208	0x3c114bf4	0.008868206
209	0x3d119269	0.03554002
210	0x3d6c98e4	0.057762995
211	0x3cc9aa64	0.024617381
212	0x3c736b9c	0.014857199
213	0xbb2d2781	-0.0026421251
214	0xbd6f7b5d	-0.058467258
215	0xbcb144f4	-0.021639325
216	0xbd5b7a09	-0.05358318
217	0xbda1bfcf	-0.07897913
218	0xbd4ba548	-0.04971817
219	0xbd432998	-0.04764709
220	0xbd3d0feb	-0.04615776
221	0x3c7b6128	0.015342988
222	0xbc371d0a	-0.011176357
223	0x3a39c53e	0.00070865813
224	0xbccb106b	-0.024788102
225	0x3cf339ba	0.029690612
226	0x3d07e39a	0.033176042
227	0x3cae8d6f	0.021307675
228	0xbc2d6948	-0.010584183
229	0xbd5c4028	-0.05377212
230	0xbd6deb00	-0.05808544
231	0xbb2db515	-0.0026505638
232	0xbc2f5291	-0.010700838
233	0x3c2d65b2	0.010583328
234	0x3d10cf3d	0.035353888
235	0x3c987f3e	0.018615361
236	0xbc24d11d	-0.010059622
237	0xbd7f9c53	-0.06240494
238	0xbbbcc906	-0.0057612685
239	0x3cce4b26	0.025182318
240	0x3d3b2844	0.045692697
241	0xb94bb0c3	-0.00019425437
242	0xbce41825	-0.027843544
243	0xbd02249f	-0.031773206
244	0xbd0ddf82	-0.03463698
245	0xbd8d4b62	-0.06899144
246	0xbd65d133	-0.05610771
247	0xbca9757b	-0.020685902
248	0xbd38035a	-0.04492507
249	0x3b72e04c	0.003705996
250	0xbc0836fc	-0.008313891
251	0xbc8a08e2	-0.016849939
252	0x3af778f3	0.001888065
253	0xbbfe7714	-0.00776566
254	0xbaeb001f	-0.0017929113
255	0xbca53bf8	-0.020170197

fc1.bias f4 [256]
0	0x3c41dbdf	0.0118322065
1	0xbbed0f4f	-0.007234491
2	0x3ca21ad3	0.019788181
3	0x3bceba4e	0.0063088303
4	0xbc87fdff	-0.016600607
5	0xbc832116	-0.016006988
6	0xbca1bc71	-0.019743176
7	0xbccf2245	-0.025284896
8	0xbbb891de	-0.005632623
9	0x3ce4d7b4	0.027934887
10	0xbcec9239	-0.028878318
11	0xbc478520	-0.012177736
12	0x3be2e28d	0.0069239796
13	0x3c710ec8	0.014712997
14	0x3cdbaf38	0.02681695
15	0xbca968f8	-0.020679936
16	0x3afff1c0	0.0019527003
17	0x3b159f9c	0.002283073
18	0x3cfeead3	0.031117832
19	0xbc8d76b0	-0.017268509
20	0x3ce802a1	0.028321566
21	0x3cd3b2b0	0.02584204
22	0x3c2acee6	0.010425305
23	0x3c8bd06c	0.017067157
24	0xbc755104	-0.014972929
25	0x3b57aec5	0.0032910567
26	0x3c05ed5f	0.008174269
27	0x3ce8cbd6	0.028417509
28	0xbab62c57	-0.0013898712
29	0xbb7c3a17	-0.0038486773
30	0x3caaa38d	0.02082994
31	0xbb83f9e1	-0.0040275906
32	0xbcb4649b	-0.022020629
33	0x3cc2abde	0.023763593
34	0xbce1d430	-0.027567
35	0x3d004e80	0.031324863
36	0xbc8d55ca	-0.017252821
37	0x3d0ca56b	0.034337442
38	0xbc9afefc	-0.018920414
39	0x3cb78695	0.02240304
40	0x3c507122	0.012722285
41	0x3cd62281	0.0261395
42	0x3ca6cc67	0.020361139
43	0x3cca729c	0.024712853
44	0x3c212d36	0.009837439
45	0xbc9b30dd	-0.018944198
46	0x3d0c10a8	0.034195572
47	0x3ce40c2b	0.027837833
48	0xbcde8735	-0.027164081
49	0x3ba1534e	0.004923261
50	0x3a9b6b64	0.0011857566
51	0x3ce13a53	0.027493631
52	0x3ca7fc52	0.020506058
53	0x3ce61c52	0.028089676
54	0xbc4e2e27	-0.012584246
55	0x3ce5ca6d	0.028050626
56	0x3b4f1e3e	0.003160372
57	0x3ca346c1	0.019931199
58	0x3c226dca	0.009913871
59	0xbccf2d3e	-0.025290128
60	0x3c60bd25	0.013716971
61	0x3b4bf544	0.0031121532
62	0xbc061f6f	-0.008186205
63	0xbcc2f136	-0.023796659
64	0xbb6254b1	-0.0034535343
65	0xbab8d0e7	-0.0014100344
66	0xbc8c6aa5	-0.017140696
67	0x3b390cea	0.0028236457
68	0x3b0530e7	0.0020323338
69	0xbba77e47	-0.005111489
70	0x3c0a4083	0.008438232
71	0xbcd790d2	-0.026314173
72	0x3cefcb34	0.0292717
73	0x3cb1ce7a	0.021704901
74	0xbcd539e7	-0.026028587
75	0x3b894e82	0.004190267
76	0x3c067fd1	0.008209185
77	0xbc28f46f	-0.010312184
78	0xbcb8db94	-0.02256564
79	0xbce5c07b	-0.028045883
80	0xbcde4755	-0.027133623
81	0x3b830d0c	0.003999358
82	0x3bb58f11	0.0055407365
83	0x3ce1b3fd	0.027551645
84	0xbc9d4a57	-0.019200487
85	0x3c7fa3df	0.015603035
86	0xbc88d66a	-0.016703803
87	0xbcf3e3d7	-0.029771728
88	0x3c50f553	0.012753802
89	0x3ccdc271	0.025117131
90	0x3cca521a	0.024697352
91	0xbc656d81	-0.014003159
92	0x3c9ef85a	0.019405533
93	0xbc690ed0	-0.014224723
94	0x3c69d39d	0.014271644
95	0xbcae8895	-0.021305362
96	0xbcf8a8db	-0.030353954
97	0x3cfae4b3	0.03062663
98	0xbc912b98	-0.017720982
99	0x3bde47e3	0.006783472
100	0x3cdd2d78	0.02699922
101	0xbcaa026a	-0.020753104
102	0xbcd7e4ad	-0.026354158
103	0x3c4ce07a	0.012504691
104	0xbc1d2a98	-0.009592675
105	0xbc95d8b1	-0.018291803
106	0xbc0cda4d	-0.008596969
107	0xbcecb483	-0.028894668
108	0xbb924f44	-0.0044650156
109	0x3a55651b	0.0008140371
110	0xbcd6536d	-0.026162827
111	0xbc3e5bb2	-0.011618542
112	0x3c9eeb48	0.0193993
113	0xbc91147c	-0.017709963
114	0xbc7b42ff	-0.015335797
115	0x3c53922f	0.012913271
116	0xbc944bf4	-0.018102624
117	0xbcf648f1	-0.030064078
118	0xbca5c49f	-0.020235358
119	0x3a909fb3	0.0011033922
120	0x3cb53183	0.022118336
121	0x3c88b3dc	0.016687326
122	0x3d08377f	0.03325605
123	0xbc22279d	-0.00989714
124	0xbc1159d5	-0.008871515
125	0x3cfa7278	0.030572161
126	0xbc488997	-0.012239835
127	0x3caeb988	0.021328703
128	0x3cb6d533	0.022318458
129	0xbd0801ce	-0.033204846
130	0x3a7eadc8	0.00097152265
131	0x3cd796e2	0.026317064
132	0x3cf5d541	0.030008914
133	0xbcc3a197	-0.023880763
134	0x3cfbe74b	0.030749938
135	0x3cde1433	0.027109241
136	0x3ca9eeae	0.020743694
137	0x3c05cadb	0.00816604
138	0xbb13f0a9	-0.0022573865
139	0x3b7e93b2	0.0038845357
140	0xbc966295	-0.018357554
141	0x3ced45f8	0.028964028
142	0xbc334ce0	-0.010943621
143	0xbce185ee	-0.027529683
144	0xbc8e2a6f	-0.017354218
145	0xbc9bab8a	-0.019002695
146	0x3cb224ff	0.021746157
147	0xbd0b293c	-0.03397487
148	0xbc760e16	-0.015018007
149	0xbb0f945a	-0.0021908493
150	0xbc41c694	-0.01182713
151	0x3b65cbc1	0.0035064074
152	0x3c1a690e	0.009424461
153	0x3bed8c3c	0.0072493833
154	0xbcd7bf1e	-0.026336249
155	0x3c226bff	0.009913444
156	0x3bdf304c	0.0068111774
157	0x3c2e00ed	0.010620338
158	0x3b397dd0	0.002830375
159	0x3b301162	0.002686583
160	0xbc8d6fb0	-0.01726517
161	0xbc4070f9	-0.011745685
162	0xba25885d	-0.000631457
163	0xbc2fb70a	-0.010724792
164	0x3cc887e3	0.024478858
165	0xbceeb0db	-0.029137066
166	0xbc09c3e1	-0.008408518
167	0x3c9aaac3	0.018880254
168	0xbc8a58a6	-0.016887974
169	0x3bca7f5a	0.0061797323
170	0xbc6aa18a	-0.0143207405
171	0xbcab168b	-0.020884773
172	0xbcd9ab4d	-0.02657094
173	0x3c663561	0.014050812
174	0x3cdc12bb	0.0268644
175	0x3c5d411f	0.013504296
176	0xbd140b71	-0.036143724
177	0xbc96f3da	-0.018426824
178	0x3ce6e84c	0.02818694
179	0xbc8dd43d	-0.017313117
180	0xba8b5bc0	-0.0010632202
181	0x3cb45ed1	0.022017868
182	0xbbd00120	-0.0063477904
183	0x3be87228	0.0070936866
184	0xbc63c55a	-0.013902033
185	0xbce39a88	-0.027783647
186	0x3c303bb6	0.010756424
187	0xbc85dfae	-0.01634201
188	0x3cf35d3e	0.029707547
189	0x3cec31bd	0.02883231
190	0x3cb08531	0.021547886
191	0xbcf8d5f8	-0.030375466
192	0x3d0b0973	0.03394456
193	0xbb30626e	-0.0026914137
194	0xbad3ba68	-0.0016153576
195	0xbcfde13c	-0.03099119
196	0xbcc26d96	-0.023733895
197	0x3c800c3a	0.01563083
198	0x3d0f616a	0.03500501
199	0xbc3f1a20	-0.0116639435
200	0x3c882f96	0.016624253
201	0xbce0e275	-0.027451733
202	0xbce78277	-0.028260453
203	0x3cdd7cfd	0.027037138
204	0xbc98a51c	-0.018633418
205	0x3ce2884c	0.027652882
206	0x3cec4a88	0.028844133
207	0x3c299970	0.010351524
208	0xbbf95db4	-0.0076100472
209	0x3d27d338	0.04097292
210	0xbce0da1a	-0.027447749
211	0x3d04ee85	0.032454032
212	0xbb54444c	-0.003238934
213	0x3c338f2b	0.010959427
214	0xbb9dbe16	-0.00481392
215	0xbc14b5ec	-0.009076577
216	0x3bbcfef7	0.005767699
217	0x3c3ec69f	0.011644035
218	0xbc368a81	-0.01114142
219	0x3cf6dd21	0.03013474
220	0xbc55d964	-0.013052318
221	0x3b4647bd	0.0030255162
222	0x3cb8b746	0.02254833
223	0xbc8ccec0	-0.01718843
224	0xbcd2fcb5	-0.025755266
225	0xbc2d8493	-0.01059069
226	0x3ca755b5	0.02042661
227	0x3ce8c22c	0.0284129
228	0xbd041358	-0.03224501
229	0x3c66cfed	0.014087659
230	0xb9e81df1	-0.00044272796
231	0x3ce59978	0.028027281
232	0x3cfc3af3	0.030789828
233	0x39fe7bad	0.000485388
234	0x3d084d7f	0.03327703
235	0x3c3943e6	0.011307692
236	0x3b9160d3	0.004436591
237	0xbc7f8caa	-0.015597502
238	0xbd339fb1	-0.043853465
239	0xbc770d12	-0.0150788
240	0xbc898169	-0.01678534
241	0x3bfd2844	0.0077257473
242	0xbcbe746d	-0.023248876
243	0x3caa55e7	0.020792915
244	0xbc947cc9	-0.018125908
245	0xbc5162bb	-0.012779887
246	0xbc763769	-0.015027859
247	0xbb89864d	-0.004196918
248	0xbc995698	-0.018718049
249	0x3cbeb699	0.023280429
250	0xbc657d1d	-0.01400688
251	0x3cb4fafd	0.022092337
252	0x3ce652ec	0.028115712
253	0x3d04e815	0.032447893
254	0x3c8d0e9a	0.017218877
255	0xba5a7d9e	-0.00083347585

fc2.weight f4 [64, 256]
0	0xbdc4bcda	-0.09606333
1	0xbbd5e4be	-0.0065275123
2	0xbe7460c3	-0.23865037
3	0x3be37561	0.006941483
4	0x3d9725db	0.07380267
5	0xbe5d2c7e	-0.21599004
6	0xbd15f7e6	-0.036613367
7	0x3d99f6f2	0.07517804
8	0xbdf0f467	-0.11765366
9	0x3e094300	0.13404465
10	0xbe174317	-0.14771686
11	0xbe111b7a	-0.14170638
12	0xbdffdcb8	-0.12493271
13	0xbb5011d7	-0.0031748915
14	0x3ddbc1a0	0.107302904
15	0xbd00ad5b	-0.031415325
16	0xbb97908e	-0.0046253866
17	0xbe335ef6	-0.17516693
18	0xbcce0fd1	-0.025154026
19	0x3de1f8c0	0.110337734
20	0x3c076f30	0.008266255
21	0xbdb021cf	-0.086001985
22	0xbdc9b863	-0.09849622
23	0xbe81ab9f	-0.2532625
24	0x3cd8e037	0.026474101
25	0xbe1353cf	-0.14387439
26	0x3bf9389e	0.0076056262
27	0xbd644168	-0.05572644
28	0xba91759a	-0.001109767
29	0x3dbc2354	0.09186426
30	0xbe4dd530	-0.20100856
31	0x3a94b690	0.0011345912
32	0x3d29b23b	0.04142974
33	0xbb7b2a8a	-0.0038324916
34	0xbd806696	-0.06269567
35	0x3d7710e3	0.06031884
36	0x3d6dc9c0	0.058053732
37	0x3d23d522	0.03999818
38	0xbe6beeef	-0.23040365
39	0x3d9f5fdf	0.07781958
40	0x3d812b64	0.06307104
41	0x3dd90630	0.10596883
42	0x3da0d33c	0.0785279
43	0xbe037cc3	-0.12840562
44	0xbcd8431c	-0.026399188
45	0x3b67aedc	0.0035352027
46	0x3d12458a	0.03571085
47	0xbdf572b3	-0.11984768
48	0xbe674bc6	-0.22587499
49	0xbd801c1d	-0.06255362
50	0x3cda5797	0.026653094
51	0x3cf3085b	0.02966707
52	0x3caa6829	0.02080162
53	0x3d0ffdc2	0.03515411
54	0x3d2dd234	0.042436793
55	0x3d37afd4	0.044845417
56	0x3d721a9b	0.059107404
57	0x3d9da343	0.07697155
58	0xbbd962da	-0.0066340985
59	0x3d38d261	0.045122508
60	0xbd6bedac	-0.05759971
61	0xbd51ab4a	-0.051188745
62	0x3c1434d3	0.009045797
63	0x3d531278	0.051531285
64	0x3dd39bcc	0.1033245
65	0xbd3149f6	-0.043283425
66	0x3dd6682f	0.1046909
67	0xbb906055	-0.004406015
68	0xbe9747f1	-0.29547074
69	0x3dac08a6	0.08400087
70	0x3df05460	0.11734843
71	0x3d2c099f	0.042001363
72	0xbdaf1a61	-0.08549953
73	0xbd516308	-0.051119834
74	0x3de0e985	0.1098204
75	0x3ced66d8	0.028979704
76	0x3d400594	0.04688032
77	0xbce31baa	-0.027723152
78	0x3bf3f17b	0.007444558
79	0x3d4c9450	0.04994613
80	0x3d8b3e15	0.067989506
81	0x3cf968bd	0.03044545
82	0xbe32076c	-0.17385644
83	0x3e180873	0.14846973
84	0xbdb7ff0c	-0.08984193
85	0xbe8c95ee	-0.27458137
86	0xbe0dab0a	-0.13834777
87	0x3d3d5d6b	0.04623167
88	0x3d6e7f55	0.058226902
89	0x3e18da65	0.14927061
90	0xb9ba1793	-0.0003549425
91	0x3d5bff92	0.053710528
92	0x3cddcbda	0.027074743
93	0xbaf954db	-0.0019022481
94	0x3da32aa1	0.07967115
95	0xbdf204df	-0.11817335
96	0x3e23be9d	0.15990682
97	0xbcfe5029	-0.031044083
98	0xbe07e78a	-0.13271919
99	0x3ccd2905	0.025043974
100	0x3da4fb89	0.08055789
101	0xbe1422ba	-0.14466372
102	0xbe19af19	-0.150082
103	0xbe21c917	-0.15799366
104	0x3d58bda7	0.05291524
105	0x3cc846ac	0.024447761
106	0x3e16e3a4	0.14735276
107	0x3e47cfdc	0.19512886
108	0x3d966a59	0.07344503
109	0xbe2e8ace	-0.17045137
110	0x3b6e1345	0.0036327404
111	0xbd226a38	-0.03965208
112	0xbd6cd6b9	-0.057821963
113	0x3d6d8d39	0.05799601
114	0xbe00b3f7	-0.12568651
115	0xbd50e011	-0.050994936
116	0xbdae2a0b	-0.08504113
117	0xbddd3cc2	-0.10802604
118	0x3cbfaa24	0.023396559
119	0x3d5cf6ef	0.05394643
120	0xbce423f0	-0.027849168
121	0xbd7d98d2	-0.06191332
122	0xbd2e2b70	-0.042521894
123	0xbdd2de1f	-0.102962725
124	0xbd6bb663	-0.057546984
125	0x3dcb7c78	0.0993585
126	0xbdc0ac79	-0.094078965
127	0xbd88e026	-0.06683378
128	0x3db2eb13	0.08736243
129	0xbe0e6998	-0.13907468
130	0x3e3fe75a	0.18740597
131	0x3d89a85b	0.067215644
132	0x3d1bf93b	0.03807948
133	0x3cfddcc2	0.030989055
134	0x3c63b778	0.013898723
135	0x3ca68f2e	0.020331945
136	0x3bd0f0e3	0.006376372
137	0xbbef1491	-0.007296153
138	0xbde5ba9a	-0.11217232
139	0x3d381234	0.044939235
140	0x3e0a2d99	0.13493957
141	0x3d9cd404	0.07657626
142	0x3d66a84e	0.05631285
143	0x3bc58628	0.0060279556
144	0xbdd56d67	-0.104212575
145	0xbe5a5e78	-0.213251
146	0xbd69e2fe	-0.057101242
147	0xbdbcd35e	-0.092200026
148	0x3c37cf52	0.011218863
149	0x3de43e0c	0.11144647
150	0xbc43a94e	-0.011942221
151	0xbe065e08	-0.13121808
152	0xbd28a8b0	-0.041176498
153	0xbe2823d1	-0.16419913
154	0xbe161042	-0.1465464
155	0x3d4b50cb	0.049637597
156	0x3d5aca30	0.053415477
157	0xbc899dcb	-0.016798874
158	0x3c886205	0.016648302
159	0x3c456932	0.012049006
160	0x3d0738ba	0.033013083
161	0x3d2b388a	0.041801967
162	0x3dc2bc6c	0.09508595
163	0xbcf76fd7	-0.030204697
164	0x3d0e4886	0.034737132
165	0xbbaecf9e	-0.0053348085
166	0x3d7cd178	0.061723202
167	0x3dc45ca1	0.0958798
168	0xbcc108c2	-0.023563746
169	0xbd5a3e41	-0.053282026
170	0xbe2b8a5d	-0.16752
171	0xbcca2b10	-0.024678737
172	0x3d107096	0.03526362
173	0xbe17499f	-0.14774178
174	0x3d54aad5	0.05192073
175	0x3d8b6dcb	0.06808051
176	0x3d5208a0	0.051277757
177	0xbce503ee	-0.027955975
178	0x3cbd2490	0.023088723
179	0xbd23df92	-0.040008135
180	0xbd067882	-0.03282977
181	0x3cc1132e	0.023568716
182	0x3e249025	0.16070612
183	0x3d05a769	0.032630358
184	0x3d19ff9a	0.037597276
185	0xbc43eaa3	-0.011957797
186	0xbd5a5a7b	-0.053308945
187	0x3b6c0a07	0.003601672
188	0xbe5f7d11	-0.21825053
189	0x3cfcd87c	0.030864947
190	0xbdb766cb	-0.08955153
191	0xbc300868	-0.010744192
192	0x3daffd3b	0.08593222
193	0xbe50cd5d	-0.2039084
194	0x3c982d13	0.01857618
195	0x3e472829	0.19448914
196	0x3d4b9de3	0.04971112
197	0x3d519ccb	0.05117492
198	0x3d66fbd0	0.05639249
199	0xbb430edf	-0.0029763503
200	0x3c86479c	0.016391568
201	0xbe614369	-0.21998371
202	0xbd87a35c	-0.06622955
203	0xbd427ded	-0.047483373
204	0xbdb00edf	-0.085965864
205	0xbb9cf931	-0.004790448
206	0x3ded1829	0.11576874
207	0x3da70307	0.08154874
208	0x3d4cb268	0.04997483
209	0x3df37fe5	0.11889628
210	0x3cf79610	0.030222923
211	0xbe71914c	-0.23590583
212	0x3c189d24	0.009314809
213	0x3d540f10	0.051772177
214	0xbe15946d	-0.14607401
215	0xbcb1e839	-0.021717178
216	0x3db8bf6c	0.09020886
217	0x3d8c3c6d	0.06847463
218	0xbdfc70cd	-0.123262025
219	0xbcd23df0	-0.0256643
220	0x3c3cfb6e	0.011534555
221	0x3c9a411f	0.01882988
222	0x3d44c4ce	0.04803925
223	0xbde04ffa	-0.10952754
224	0x3cfcf93a	0.03088056
225	0x3c7da84d	0.015482021
226	0x3bb433c4	0.005499335
227	0x3cfc8825	0.030826638
228	0xbc7ea5d9	-0.015542471
229	0x3d91f0fb	0.071260415
230	0x3e5b63d9	0.21424808
231	0x3d0d3c2f	0.034481224
232	0xbc891d3e	-0.016737577
233	0x3d65b5f8	0.056081742
234	0x3d8de8f1	0.06929196
235	0xbdb86f09	-0.09005553
236	0xbd58c798	-0.052924722
237	0xbd054019	-0.03253183
238	0x3dc8574c	0.097822756
239	0xbe26718c	-0.16254252
240	0x3da0854c	0.07837924
241	0x3d21d775	0.039512116
242	0xbd05a1d9	-0.032625053
243	0x3d02d89d	0.03194486
244	0xbcca83ad	-0.024720991
245	0xbe0df8cb	-0.13864438
246	0x3e24edce	0.1610634
247	0x3d13ca80	0.03608179
248	0x3cbf5610	0.023356467
249	0xbd045478	-0.03230712
250	0xbd20d12e	-0.03926199
251	0x3d1fc3e2	0.039005168
252	0xbd7fcf6f	-0.062453683
253	0xbe31dce4	-0.1736942
254	0xbdc1bfac	-0.09460387
255	0xbdae55aa	-0.08512433

fc2.bias f4 [64]
0	0x3c847e1e	0.016173419
1	0xbd40c927	-0.047066834
2	0x3b994c2f	0.0046782712
3	0x3c35419b	0.011063005
4	0x3ce570bb	0.028007856
5	0xbc3cbd98	-0.011519812
6	0xbcffe2fe	-0.031236168
7	0xbc96a796	-0.018390458
8	0x3cc323f5	0.023820857
9	0xba21993c	-0.00061644963
10	0x3c77f3bd	0.015133795
11	0x3d5f5715	0.054526407
12	0x3d72b860	0.059257865
13	0x3c13d042	0.0090218205
14	0x3b036708	0.0020050425
15	0x3ce954de	0.02848285
16	0x3d0a267c	0.033728108
17	0x3bb86e77	0.005628403
18	0x3ce2e7a4	0.027698345
19	0xbcc8d850	-0.024517208
20	0xbd25084f	-0.040291127
21	0x3d50911c	0.050919637
22	0x3d337eea	0.043822207
23	0x3d13c904	0.036080375
24	0x3d012482	0.031528957
25	0xbc8e3ab6	-0.01736198
26	0xbb150d78	-0.0022743624
27	0xbbe1ce67	-0.00689106
28	0x3d261598	0.040547937
29	0x3ca6aec5	0.020347008
30	0xbc0e72ac	-0.008694332
31	0x3a32a84b	0.0006815239
32	0xbcce5f4a	-0.025191922
33	0x3d05a5c9	0.03262881
34	0x3d2d3a2a	0.042291798
35	0xbd3ca524	-0.046055928
36	0x3d734f66	0.059401892
37	0x3d00bdf0	0.03143114
38	0x3bbe94df	0.0058160867
39	0x3c8a301f	0.016868649
40	0x3c509382	0.012730481
41	0x3c8333dd	0.016015941
42	0x3cd27626	0.025691103
43	0x3d43c737	0.047797408
44	0xbba1dde8	-0.0049397834
45	0x3ae431fb	0.0017409915
46	0x3c8d891d	0.017277295
47	0xbc7a84bd	-0.015290436
48	0x3d021c25	0.031765122
49	0x3d67488e	0.056465678
50	0x3d8ab66f	0.06773078
51	0x3d49e5e7	0.049291518
52	0x3c220811	0.0098896185
53	0x3cd498e4	0.02595181
54	0x3d2db772	0.042411275
55	0xbcbfd275	-0.023415783
56	0xbd0695af	-0.032857593
57	0xbc9d64c5	-0.01921309
58	0x3d0edbdf	0.034877654
59	0x3bca58c6	0.0061751334
60	0x3d65a068	0.05606118
61	0xbcf4171d	-0.029796178
62	0xbd5fdbe0	-0.05465305
63	0x3cd8f758	0.02648513

fc3.weight f4 [10, 64]
0	0xbea10525	-0.31449237
1	0xbd77f2a0	-0.06053412
2	0xbeb44231	-0.3520675
3	0xbd165cbb	-0.03670953
4	0x3e000775	0.12502845
5	0xbe9e3b68	-0.30904698
6	0x3e9a11c2	0.30091673
7	0x3e98b749	0.29827335
8	0x3d246c3f	0.040142294
9	0xbddc2a53	-0.1075026
10	0x3e0ea1d0	0.13928914
11	0x3d33bcc9	0.04388121
12	0x3de000f1	0.109376796
13	0x3d712427	0.05887237
14	0x3eb49681	0.35271075
15	0x3e2ba3b6	0.1676167
16	0xbe932509	-0.28739193
17	0x3ddb555d	0.10709641
18	0x3d658249	0.056032453
19	0x3cbfd649	0.023417609
20	0xbd59e969	-0.053201113
21	0xbee33297	-0.44374534
22	0x3ed16241	0.40895274
23	0x3e3ddb2a	0.18540636
24	0xbf1042ea	-0.563521
25	0xbdc3fc98	-0.09569663
26	0x3e267e2f	0.16259073
27	0x3e900513	0.2812887
28	0xbd38c007	-0.045105007
29	0x3dc58191	0.096438535
30	0xbdd2a7e9	-0.102859326
31	0xbd8c8047	-0.068604045
32	0xbd7d6f13	-0.061873507
33	0x3db40844	0.08790639
34	0x3e7d80cf	0.24756168
35	0x3eaadedd	0.33373156
36	0xbe5c5419	-0.21516456
37	0xbea862d4	-0.328879
38	0x3dacbf3c	0.084349126
39	0xbdcb9e4b	-0.09942301
40	0x3ce1abea	0.027547795
41	0x3edf9f11	0.43676046
42	0xbe396848	-0.18106186
43	0xbdbf989d	-0.093552805
44	0x3e81101b	0.252076
45	0xbe91f40b	-0.28506503
46	0xbc57dddc	-0.013175454
47	0xbf1d1606	-0.6136173
48	0x3c1b27aa	0.009469906
49	0x3f0517c3	0.5198938
50	0xbe644e0a	-0.22295395
51	0x3ef441bf	0.4770641
52	0x3e6f3735	0.23360904
53	0xbf06acaf	-0.52607244
54	0x3d60b8ba	0.05486367
55	0x3d09153a	0.03346751
56	0x3e831526	0.25602072
57	0x3d0f88ff	0.03504276
58	0x3cdef075	0.027214268
59	0x3ce64951	0.028111132
60	0x3e961a4b	0.29316935
61	0x3c411f5a	0.01178726
62	0xbc401ea4	-0.011726055
63	0xbd6630d4	-0.05619891
64	0xbdb20993	-0.086932324
65	0x3e257c00	0.16160583
66	0xbe6dff75	-0.2324198
67	0xbd4556e5	-0.048178572
68	0xbd790af4	-0.06080146
69	0xbf114efc	-0.56761146
70	0xbe27da33	-0.1639183
71	0xbda3f142	-0.08005001
72	0xbb2b0cad	-0.0026100085
73	0xbad577e4	-0.001628634
74	0xbeb8e81d	-0.36114588
75	0x3e81d0f7	0.2535474
76	0x3e61a529	0.2203566
77	0xbb23aeab	-0.0024975936
78	0x3cc01e9e	0.0234521
79	0x3ccccaa8	0.024998978
80	0x3ea7b872	0.32757908
81	0x3cf8c7bc	0.030368678
82	0x3e89f5e3	0.2694541
83	0x3da33244	0.07968572
84	0x3cef1bf1	0.029188128
85	0xbe2038ef	-0.15646718
86	0xbd77bf93	-0.060485434
87	0x3e2f5888	0.17123616
88	0x3f14c8f0	0.58119106
89	0x3cff7e89	0.031188266
90	0x3e23209d	0.1593041
91	0xbd8cdd77	-0.068781786
92	0x3df64dd9	0.12026567
93	0xbcb07688	-0.021540895
94	0x3d0783c7	0.033084657
95	0xbdac58d9	-0.08415384
96	0xbd1b287c	-0.037880406
97	0x3ea8ed24	0.32993424
98	0xbca6d22a	-0.020363886
99	0x3d81440d	0.06311808
100	0x3e008553	0.12550859
101	0xbe7fc94f	-0.24979137
102	0x3dadd2b2	0.084874526
103	0x3f479ea4	0.7797644
104	0xbf3f5e6a	-0.7475344
105	0xbe0bab4b	-0.13639562
106	0x3dcd877c	0.10035607
107	0xbee11e69	-0.43968514
108	0x3cf4f1b8	0.029900417
109	0xbe89d543	-0.26920518
110	0xbe5a2172	-0.21301821
111	0x3e9ffdc7	0.31248304
112	0x3e323fd8	0.17407167
113	0xbec651d7	-0.38734314
114	0xbe7aacc4	-0.24479967
115	0xbec2370c	-0.37932622
116	0xbe9e10bf	-0.3087215
117	0x3efc1057	0.49231216
118	0x3e214eb4	0.15752679
119	0xbd669ae3	-0.056300055
120	0xbe220ad0	-0.15824437
121	0xbd9b28df	-0.07576155
122	0xbd3467bd	-0.044044245
123	0xbb341325	-0.0027477231
124	0xbeed0890	-0.46295595
125	0x3e63b465	0.22236784
126	0x3dc5bfd6	0.096557304
127	0xbe4e7dee	-0.20165226
128	0xbe777554	-0.24165851
129	0x3f0baeba	0.54563487
130	0xbc464fc4	-0.012103979
131	0x3d60a908	0.0548487
132	0x3da7887c	0.08180329
133	0x3d031812	0.032005377
134	0x3ecf5ea5	0.40501896
135	0xbebe5628	-0.37175107
136	0x3e2b2ed8	0.16717088
137	0xbe249c97	-0.1607536
138	0xbdd96109	-0.10614211
139	0xbf160623	-0.58603114
140	0xbd2b39fb	-0.04180334
141	0xbe960de8	-0.29307485
142	0xbdfa9233	-0.122349165
143	0xbd9966c0	-0.07490301
144	0xbf0c01e0	-0.5469036
145	0xbdc79658	-0.09745473
146	0x3eb07c86	0.34470004
147	0xbe0ee630	-0.13954997
148	0x3c5e6d5e	0.01357588
149	0x3f21dfb9	0.63232
150	0x3e5e988e	0.21737882
151	0x3e98ad95	0.29819933
152	0x3e838ff8	0.25695777
153	0xbdbfaccf	-0.093591325
154	0xbdef6e83	-0.11691
155	0x3ea4818d	0.3213009
156	0x3e6ca45e	0.23109576
157	0x3bf3223b	0.007419852
158	0x3f33a939	0.7018009
159	0x3e6a7d3a	0.22899333
160	0xbd16a50e	-0.036778502
161	0x3f06704d	0.5251511
162	0x3e98f198	0.2987182
163	0xbe3535fe	-0.17696378
164	0xbe1da1a7	-0.15393697
165	0x3ec40135	0.3828217
166	0x3cfcf04a	0.030876298
167	0xbe71565c	-0.235681
168	0xbf23b2cd	-0.63944703
169	0x3eee27f9	0.46514872
170	0xbdc5838c	-0.09644231
171	0x3de0fa30	0.109852195
172	0xbe473d4f	-0.19456981
173	0x3ddf8455	0.10913912
174	0x3f0a5573	0.54036635
175	0xbd83bb14	-0.06432167
176	0xbcd5db47	-0.026105536
177	0xbdc6c8e6	-0.09706287
178	0xbe48bcbf	-0.19603251
179	0x3eccf065	0.40027156
180	0x3e807a24	0.25093186
181	0xbe332fe5	-0.17498739
182	0xbeb77912	-0.35834557
183	0xbdc0a70f	-0.09406864
184	0xbf53b741	-0.827015
185	0xbdde5f4d	-0.10858021
186	0x3ee9e66f	0.4568362
187	0xbc0f1053	-0.008731919
188	0x3e69e5e9	0.2284161
189	0xbe2e5d33	-0.1702774
190	0xbdaba355	-0.083807625
191	0x3ed06891	0.40704778
192	0xbeb601ff	-0.35548398
193	0xbe95677c	-0.29180515
194	0xbe8f1eaf	-0.27953097
195	0x3db78443	0.08960774
196	0x3d98e678	0.074658334
197	0xbe9edd44	-0.31028187
198	0x3b136658	0.0022491422
199	0xbef6942c	-0.4815992
200	0xbdb224e5	-0.08698443
201	0x3e3a2df6	0.18181595
202	0x3de335b3	0.11094227
203	0x3f17d533	0.5930969
204	0xbe675c2e	-0.22593758
205	0x3f4f3596	0.8094114
206	0xbdead2fa	-0.11466022
207	0x3e57eb14	0.21085769
208	0xbf34d4dd	-0.70637304
209	0x3dd8dcf6	0.1058902
210	0xbe9336f0	-0.2875285
211	0xbde51758	-0.11186093
212	0x3dccd63e	0.10001801
213	0xbd8f6816	-0.07002275
214	0xbe9f7806	-0.31146258
215	0xbe5e480b	-0.2170717
216	0x3f05036e	0.5195836
217	0xbd7015a8	-0.058614403
218	0xba2691a3	-0.0006354099
219	0xbeeb7cde	-0.45993704
220	0xbf0bef21	-0.54661757
221	0xbd006ab2	-0.031351753
222	0x3f06b7aa	0.52624
223	0x3eb5ad5f	0.35483834
224	0xbca1806f	-0.019714562
225	0xbecb556d	-0.39713612
226	0x3f164a31	0.5870696
227	0xbde31baf	-0.110892646
228	0x3e13b04c	0.1442272
229	0x3f0f4e9b	0.5597932
230	0x3ca0867c	0.019595377
231	0xbf06c4cf	-0.52644056
232	0x3d8b2f7d	0.06796167
233	0xbeb9a37b	-0.36257538
234	0x3edf4c1c	0.43612754
235	0xbe79a582	-0.24379542
236	0xbdf58b4c	-0.119894594
237	0x3f05e333	0.52299803
238	0x3df5d1c5	0.12002901
239	0x3e6a3ff9	0.22875966
240	0x3e23eba6	0.16007861
241	0xbdf7e3c0	-0.12103987
242	0xbf124287	-0.5713276
243	0xbd878971	-0.06618012
244	0xbcc07d72	-0.023497317
245	0xbd6e32e2	-0.058153994
246	0x3d1916b5	0.03737517
247	0xbdaab8cc	-0.083360285
248	0x3e7d127f	0.24714087
249	0xbe2bc387	-0.16773807
250	0x3ce495b3	0.027903413
251	0xbcdbd361	-0.026834192
252	0xbec356ab	-0.3815206
253	0xbdc7eafa	-0.09761615
254	0x3e01eb10	0.12687325
255	0xbe661e47	-0.22472487

fc3.bias f4 [10]
0	0x3bb3efe1	0.0054912423
1	0xbbcc53f0	-0.006235592
2	0xbc46994e	-0.012121512
3	0x3e04ba6a	0.12961736
4	0xbc712eb4	-0.014720608
5	0xbd351f56	-0.044219337
6	0xbd306ada	-0.04307065
7	0xbd40c2f4	-0.04706092
8	0xbd91bf3a	-0.07116552
9	0x3db6dc2a	0.08928712
