personalExps/MnistFC/models/MediumMnistModelL21e-2.pt (torch, 875102 bytes, 6 tensors)

fc1.weight f4 [256, 784]
000000 d9 24 ca 3a 7d 2b ca 3a bc bf c9 3a 44 34 ca 3a
       0.0015422358 0.0015424337 0.0015392224 0.0015426953
000010 3e c1 c9 3a 05 ec c9 3a 65 a6 c9 3a e8 12 ca 3a
       0.0015392674 0.0015405422 0.0015384672 0.0015417011
000020 95 30 ca 3a 89 8d c9 3a 61 2f ca 3a 8a ea c9 3a
       0.0015425856 0.0015377264 0.0015425497 0.0015404981
000030 02 56 cd 3a 1e d4 d0 3a e2 f1 c9 3a 61 c8 c9 3a
       0.0015665891 0.0015932356 0.001540717 0.00153948
000040 87 25 ca 3a 7a e6 c9 3a 74 a8 c9 3a 53 f1 c9 3a
       0.0015422561 0.001540377 0.0015385286 0.0015407003
000050 0b a9 c9 3a c0 cb c9 3a af ae c9 3a bf 1a ca 3a
       0.0015385462 0.0015395805 0.0015387143 0.0015419348
000060 da 87 c9 3a 06 a9 c9 3a 0c bb c9 3a c2 9a c9 3a
       0.001537557 0.0015385456 0.0015390827 0.0015381204
000070 0c e1 c9 3a ad 73 c9 3a d2 32 ca 3a d1 81 c9 3a
       0.0015402152 0.0015369557 0.0015426523 0.0015373771
000080 18 2e ca 3a 17 37 ca 3a 7e 70 de 3a aa c7 f6 3a
       0.0015425114 0.0015427795 0.0016970781 0.0018827815
000090 ef c8 f5 3a a9 ff e3 3a 87 f5 fe 3a fe 70 08 3b
       0.00187519 0.0017394918 0.0019451835 0.0020819302
0000a0 d0 3e 15 3b 9b 19 07 3b 50 52 fb 3a 61 b2 06 3b
       0.0022773035 0.0020614627 0.0019174311 0.00205531
0000b0 96 d0 c6 3a 4c 14 e1 3a cf bb ef 3a e4 74 f1 3a
       0.0015168365 0.0017172187 0.0018290224 0.0018421677
0000c0 51 48 e8 3a 8d 79 de 3a b6 a7 db 3a d9 62 cf 3a
       0.0017721747 0.0016973481 0.0016758356 0.0015822306
0000d0 1c 8a c9 3a 9b 2a ca 3a 9f f4 c9 3a 75 01 ca 3a
       0.0015376243 0.0015424074 0.0015407986 0.0015411811
0000e0 6d f7 c9 3a b4 d5 c9 3a 77 2f ca 3a 94 f6 c8 3a
       0.0015408822 0.0015398772 0.0015425523 0.0015332275
0000f0 15 80 cb 3a cf ad cb 3a f3 d2 f3 3a 3b 5b 20 3b
       0.0015525842 0.001553947 0.0018602296 0.002446844
000100 bf 40 27 3b 08 8f 24 3b 0c 17 6d 3b d7 25 8e 3b
       0.002552077 0.0025109667 0.0036177067 0.004338007
000110 6a 4d ae 3b 05 d0 d1 3b 29 a9 da 3b 81 f7 f8 3b
       0.005319287 0.0064029717 0.0066729975 0.007597864
000120 df 25 d5 3b d9 bb 9a 3b 5b e5 80 3b 0c 78 8b 3b
       0.0065047587 0.0047221 0.0039335913 0.004256254
000130 08 5f 51 3b c8 cd 25 3b 82 90 0c 3b 06 2b e6 3a
       0.0031947512 0.0025299657 0.0021448438 0.0017560429
000140 9a b6 c7 3a 01 e1 c3 3a 0a 0d ca 3a df ae c9 3a
       0.0015236915 0.0014944376 0.0015415263 0.0015387199
000150 f4 14 ca 3a 78 bf c9 3a 6d ce ca 3a 80 45 ca 3a
       0.0015417621 0.0015392145 0.0015472897 0.001543209
000160 af 7e d3 3a 30 f6 eb 3a da 0c 1e 3b 44 30 3a 3b
       0.0016135777 0.0018002447 0.0024116547 0.0028410116
000170 0c c6 29 3b 07 21 5d 3b 44 04 6b 3b f0 17 8b 3b
       0.0025905399 0.003374161 0.0035860697 0.004244797
000180 89 06 af 3b 56 80 f7 3b 9a 01 11 3c e2 29 13 3c
       0.005341355 0.0075531406 0.0088504795 0.008982154
000190 fe 07 10 3c ac 26 d1 3b b5 5a c6 3b 43 9e d2 3b
       0.008790968 0.006382784 0.0060532936 0.0064275577
0001a0 f1 38 4a 3b 92 e5 75 3a e6 89 86 39 b5 b0 0b 3a
       0.0030856694 0.0009380217 0.00025661214 0.00053287606
0001b0 96 83 29 3a 7c 10 c4 3a a8 3c ca 3a ba ea c9 3a
       0.0006466446 0.0014958526 0.0015429454 0.0015405037
0001c0 ac f6 c9 3a 2c 79 c9 3a 71 f4 cb 3a 43 63 ca 3a
       0.0015408597 0.0015371195 0.001556052 0.0015440959
0001d0 d6 f2 e4 3a a9 16 45 3b 54 47 65 3b 3f 8f 44 3b
       0.001746739 0.003007332 0.0034985142 0.0029992608
0001e0 2c 64 23 3b 29 64 1d 3a df f3 c0 39 8c 1f 06 bb
       0.0024931533 0.0006004 0.00036802792 -0.002046558
0001f0 39 8f 0d 3a ef dd a5 3b ca 4d 13 3b e8 86 d3 ba
       0.0005400065 0.005061857 0.0022476786 -0.0016138228
000200 45 a5 a4 bb df ed ff bb f1 3b 1f bc 49 19 07 bc
       -0.0050245845 -0.007810339 -0.009718881 -0.008245775
000210 88 89 1e bc 90 7a 13 bc 14 2f fb bb e6 57 69 bb
       -0.009676345 -0.009001389 -0.0076655243 -0.003560537
000220 17 b7 16 bb 7b 2d 19 3a 3e 46 b2 3a f6 2f c6 3a
       -0.0022997314 0.0005843264 0.0013601256 0.0015120495
000230 eb fe c9 3a b0 84 c9 3a f2 78 cb 3a e9 04 c6 3a
       0.0015411054 0.0015374627 0.0015523715 0.0015107665
000240 42 2d 23 3b e2 46 88 3b c5 c1 83 3b 15 0a f2 3a
       0.0024898802 0.0041588405 0.004020902 0.001846614
000250 cd 7e 91 3a d9 7c f5 ba a2 a1 6a bb 3d 91 12 bc
       0.0011100412 -0.0018729224 -0.0035801907 -0.00894576
000260 4a 37 dd bb c0 2b b4 bb b7 37 dc bb e2 c4 a1 bb
       -0.0067509757 -0.0054983795 -0.006720509 -0.0049368003
000270 4b ca 65 bc 70 48 a1 bc db 58 c0 bc 83 0e bc bc
       -0.014025281 -0.019687861 -0.02347987 -0.022956138
000280 dc 8f ca bc 29 75 a3 bc a4 2c 6d bc d3 c1 ed bb
       -0.0247268 -0.019953327 -0.014475975 -0.0072557717
000290 c1 85 78 bb a1 24 f0 b9 14 a7 81 3a 06 db c7 3a
       -0.003792152 -0.00045803658 0.0009891712 0.0015247769
0002a0 28 ee c9 3a 9f 87 c9 3a 54 a5 bc 3a a5 24 dc 3a
       0.0015406059 0.0015375501 0.0014392533 0.0016795589
0002b0 63 85 13 3b 54 c6 9a 3a 5a 63 47 3a 17 81 c5 ba
       0.0022509925 0.0011808374 0.0007606052 -0.0015068379
0002c0 e4 fa 67 bb e7 76 a3 bb bf 54 eb bb 38 d7 b5 bb
       -0.0035397345 -0.0049885395 -0.0071817334 -0.0055493377
0002d0 84 07 f6 bb f2 85 9a bb c3 06 be 39 3e 8e 70 3b
       -0.00750822 -0.0047156746 0.00036244662 0.0036705877
0002e0 a6 db 0c bb 67 46 53 bc 2d 38 b8 bc 0a 07 f8 bc
       -0.0021493225 -0.012895203 -0.022487724 -0.030276794
0002f0 4e 65 f0 bc fa 7b b8 bc 97 fa 94 bc 31 73 4d bc
       -0.02934518 -0.022520054 -0.018185897 -0.012539671
000300 ae 2e df bb 6a 21 4d bb 7c 66 ae 39 df a8 b2 3a
       -0.0068109846 -0.0031300434 0.00033264223 0.001363065
000310 63 db c9 3a c6 73 c5 3a 85 86 d1 3a 60 f3 05 3b
       0.0015400465 0.001506441 0.0015985525 0.0020439252
000320 ee d6 c5 3a 3f 2f 8e ba f5 ac dd ba 56 92 a1 bb
       0.0015093961 -0.0010847821 -0.0016912507 -0.0049307747
000330 b8 bb 05 bc ef 43 3d bb 1e 9b 94 bb 46 04 9c bb
       -0.008162431 -0.0028879603 -0.004535093 -0.0047612516
000340 25 87 90 3a c1 a2 1e 3c bc 67 a3 3c 12 23 ac 3c
       0.0011026604 0.009682358 0.019946925 0.021012817
000350 33 95 b7 3b cf 25 3a bc ff c1 db bc 5d ba e7 bc
       0.0056025027 -0.011361553 -0.026825903 -0.028287107
000360 aa 96 b7 bc fc a5 a7 bc 75 69 a0 bc 4d c3 81 bc
       -0.02241071 -0.02046489 -0.019581536 -0.015840197
000370 49 20 25 bc c1 35 8c bb 16 27 83 38 02 d8 ac 3a
       -0.010078498 -0.004278869 6.253847e-05 0.0013186934
000380 77 f6 c2 3a c0 b7 d6 3a f2 7d f8 3a 2d e2 17 3b
       0.0014874478 0.0016381666 0.0018958433 0.0023175583
000390 c3 fa 1e 3b d3 56 2a b7 ef c5 2b bb a3 bf 58 bb
       0.0024258352 -1.0153005e-05 -0.0026210507 -0.0033073209
0003a0 4e 7a 7c ba b2 dd 44 ba c4 db b8 ba b2 3d 27 bb
       -0.0009631262 -0.0007509842 -0.0014103581 -0.002551895
0003b0 10 3e 94 3b fd bd 83 3c 65 52 e8 3c 46 8a b3 3c
       0.004524 0.016081804 0.028359601 0.02191652
0003c0 57 a2 9b bb 92 30 b0 bc 13 4b e6 bc 60 c4 cf bc
       -0.004749577 -0.021507535 -0.02811197 -0.025362194
0003d0 45 e4 8e bc bd 69 83 bc 99 91 85 bc 48 b8 7a bc
       -0.017442832 -0.01604163 -0.016304778 -0.015302725
0003e0 9d a8 54 bc 99 36 c8 bb 2f 49 8b ba 8d c7 93 3a
       -0.012979654 -0.006110024 -0.0010626669 0.0011274681
0003f0 20 8a cc 3a 78 6c e4 3a 08 ff 07 3b d2 a5 41 3b
       0.0015605129 0.0017427346 0.0020751376 0.00295483

fc1.bias f4 [256]
000000 18 9b c9 ba e4 1e 3a 35 05 00 1b 3b 8a bf 05 3a
       -0.0015381305 6.933535e-07 0.0023651135 0.0005102089
000010 66 07 43 3b 65 9d 82 ba b3 ce b9 37 7c b2 0c 3b
       0.0029759048 -0.000996512 2.214997e-05 0.002146869
000020 da 39 59 3a 1c 38 c4 3b 34 71 57 37 b8 14 4f bb
       0.00082865136 0.005988134 1.2841356e-05 -0.0031598043
000030 1a 82 a3 ba f8 10 30 3a d5 49 a3 39 e7 28 1b 3b
       -0.0012474686 0.0006716396 0.00031144792 0.0023675503
000040 94 1a ff 39 62 b8 5e ba 32 9a bd 39 df 6e de 3a
       0.00048657192 -0.0008496103 0.00036163774 0.0016970298
000050 99 56 18 3a d0 8b db ba b9 86 33 3a 14 cc 7d ba
       0.0005811244 -0.0016750041 0.00068483833 -0.0009681594
000060 3d 39 c8 b9 d7 69 81 bb 8c a3 94 b6 17 da 81 3a
       -0.00038189618 -0.0039493847 -4.429783e-06 0.0009906915
000070 ed 63 6b 3a e5 b3 06 ba f2 be be 38 c0 45 af b4
       0.00089794287 -0.0005138501 9.095472e-05 -3.264704e-07
000080 b3 53 9a b9 3c 40 38 3b f8 cd 1f 3a ba c4 29 3b
       -0.0002943553 0.0028114459 0.00060960604 0.0025904612
000090 fc 5a 73 3b 6d d6 a2 39 74 24 87 3b 67 0e d8 3a
       0.0037133088 0.00031058808 0.0041242186 0.0016483784
0000a0 af 0e 48 3b 09 6f 96 3a 4d e1 ab 3b 92 b7 89 b9
       0.003052633 0.0011477183 0.005245364 -0.00026267447
0000b0 75 d8 f6 37 49 8c 71 39 51 df 35 3a 59 34 00 39
       2.942628e-05 0.00023035811 0.0006937879 0.00012226532
0000c0 01 b7 71 3a 32 e7 48 3a 24 08 98 ba 25 2e 29 36
       0.000922069 0.00076638453 -0.0011599106 2.5209822e-06
0000d0 5c 78 ab b9 64 4f 94 3b 52 03 2f 38 31 66 0e 3b
       -0.00032705336 0.0045260657 4.1726344e-05 0.0021728391
0000e0 b8 53 0a 3b 28 f9 ff b9 3e 47 9d 3a 4a 43 8b 3a
       0.002110703 -0.00048823026 0.0011999381 0.0010624912
0000f0 bc 96 ed 3a e6 49 05 ba 45 f5 ce 39 f5 fb b3 38
       0.0018126587 -0.0005084559 0.00039474122 8.582316e-05
000100 2e 77 a5 39 5a 4b 03 3b 10 8a 09 3a a7 42 64 3b
       0.00031560048 0.0020033927 0.0005246708 0.0034829767
000110 62 12 93 b9 03 e4 ba 39 a3 18 89 3a 08 3c 2b 3b
       -0.0002805172 0.00035646567 0.0010459613 0.002612831
000120 c7 ef 15 3b 5d f9 23 ba 4a b5 33 bb 7e 7a 28 3b
       0.0022878514 -0.00062551146 -0.002742129 0.0025707777
000130 3d 08 e8 3a c8 22 4e 36 d4 4e 3d 3a b5 02 42 bb
       0.001770265 3.0716637e-06 0.0007221524 -0.0029603664
000140 b8 f8 3a ba c4 75 b1 ba 2c f4 c9 ba cc 44 3d 3b
       -0.0007132399 -0.0013539125 -0.0015407852 0.0028880117
000150 86 bc c9 3b bb fe 6d 3b 56 4c ef 3a 75 34 14 3a
       0.006156507 0.0036315161 0.0018257003 0.00056535687
000160 8c 7b a5 b9 e6 77 a4 3b 60 58 68 3a 7b 62 2e 3b
       -0.00031563302 0.005019176 0.00088632666 0.0026608992
000170 4a b6 6d 3b 03 2c 05 3a 80 a8 25 3b 1a 0f b4 3a
       0.0036271983 0.00050801056 0.0025277436 0.0013737411
000180 26 df c9 b9 b1 8c 1b 3a 98 06 21 3a dd 41 44 3b
       -0.00038503966 0.00059337454 0.0006142645 0.0029946484
000190 72 4e 6a 3b 08 dd a9 39 74 d6 62 bb 99 14 9a b9
       0.0035752323 0.00032398873 -0.0034612687 -0.00029388515
0001a0 21 c4 7c 36 29 4a c5 3a 56 fe d6 ba af f2 3b 3a
       3.7665088e-06 0.0015052009 -0.0016402702 0.00071696466
0001b0 de 33 47 3b 7b 1c 50 b9 82 42 ac 3a ec 27 23 3b
       0.0030395905 -0.00019847036 0.001314238 0.0024895621
0001c0 b5 fb da 3a f6 95 0e 3b 9d 75 83 3a 31 98 db 37
       0.0016707095 0.0021756864 0.0010029558 2.6177704e-05
0001d0 15 71 79 ba 58 97 ef 39 08 86 d2 ba a6 17 4d 3b
       -0.0009515447 0.00045698392 -0.0016061673 0.0031294613
0001e0 c1 d1 ed 39 ad 31 d2 3a 23 82 52 ba bb db 3b 3b
       0.0004536044 0.0016036533 -0.0008030256 0.0028664905
0001f0 3c 9b 77 3a e7 e4 b4 3b ae 40 0c 3b be 85 c1 3a
       0.0009445434 0.0055204513 0.0021400857 0.001476459
000200 25 ed 80 3a a2 b9 05 ba b2 fb 06 3b 08 a7 51 3b
       0.00098363 -0.0005101209 0.00205968 0.0031990428
000210 df 48 1f b9 05 4b c5 b8 54 6b 3f 36 56 04 08 3b
       -0.00015190568 -9.4076655e-05 2.852369e-06 0.0020754538
000220 06 63 d4 b9 05 5d 50 3b 8a 26 9f ba cc 7c c9 3a
       -0.0004050957 0.0031793725 -0.0012142223 0.0015372275
000230 eb 95 0b 3a 1c da d8 ba bc a7 88 3a 30 3d 39 3a
       0.0005324769 -0.0016544494 0.0010425965 0.00070663076
000240 46 73 20 b9 d6 32 ad 3a 51 cf 6f 39 1d 0c 58 b9
       -0.00015301732 0.0013214003 0.00022870048 -0.00020603878
000250 95 94 bc b5 15 68 40 3b 1d 73 82 3a c1 7f 40 3a
       -1.4050335e-06 0.0029358913 0.0009952519 0.00073432556
000260 c2 5b fe 3a 73 07 62 bb a6 14 b2 3a 97 b7 f6 3a
       0.0019406008 -0.0034489303 0.0013586476 0.0018823025
000270 85 f2 a2 ba 2d 97 53 b9 aa 7f 83 3a 54 44 56 3b
       -0.0012431896 -0.00020178845 0.0010032554 0.0032694535
000280 ed b4 c5 b5 aa 01 88 b6 8c 50 02 3a 93 6c 0c 3b
       -1.47303e-06 -4.0533096e-06 0.0004971109 0.002142702
000290 12 b4 ef 3a d1 d1 f0 39 86 e9 71 bb 37 be 80 3a
       0.0018287918 0.00045932693 -0.0036912872 0.0009822313
0002a0 a9 55 92 ba d8 32 2c 3b 23 07 17 3a 2a 5b 6d 3a
       -0.0011164445 0.0026275422 0.00057612563 0.0009054417
0002b0 29 17 6f 3b 70 79 40 3b 91 dd 88 3b 1c d1 3e 3b
       0.003648231 0.0029369257 0.0041768034 0.0029116338
0002c0 2a 1f f3 ba ae 1b e5 b5 f7 69 14 ba 38 72 cf b5
       -0.0018548716 -1.7069885e-06 -0.0005661542 -1.5455944e-06
0002d0 58 64 ef 39 d6 92 ad b7 e4 a5 b6 3a d1 5e 03 3a
       0.00045660394 -2.0691583e-05 0.0013934937 0.0005011382
0002e0 03 0e 8b b9 20 33 22 37 60 15 56 bb de ce 8b b9
       -0.00026522586 9.667856e-06 -0.003266655 -0.00026666274
0002f0 66 c4 0e b9 ba e0 29 3b 1a 8b c5 35 45 2c 3a b6
       -0.0001361534 0.00259213 1.4718128e-06 -2.7741928e-06
000300 67 2a 2b 3b a4 e8 35 3a e0 f0 81 39 f4 33 1d 3b
       0.0026117803 0.0006939268 0.00024784263 0.0023987265
000310 3e 0a 44 3a b6 3d 06 3b 3a a9 46 3b f6 bb 1d 39
       0.0007478333 0.002048356 0.003031327 0.00015042708
000320 8e 77 31 3a a3 80 ae 3a 87 e3 ad 3a 4f 01 35 36
       0.0006769829 0.0013313483 0.0013266661 2.6971863e-06
000330 b4 90 de 39 55 aa 94 ba 76 fb 3f 3b e2 9f 6d 3a
       0.00042450952 -0.0011342267 0.002929417 0.0009064657
000340 20 2f 45 3b 2f 77 aa 3b de 38 50 3b 0e c6 84 3a
       0.0030087903 0.005202196 0.0031772177 0.0010129826
000350 8f a5 30 3a 58 d3 3b 3b 56 f8 c6 ba ce b0 61 b5
       0.00067385373 0.0028659906 -0.0015180211 -8.4076316e-07
000360 48 22 c1 3a e4 fe 36 3b 7b cb 58 39 2f fd 3b 3b
       0.0014734948 0.0027922923 0.00020675168 0.0028684845
000370 ac 58 a2 b5 9e 77 99 3a 10 0a 81 b8 c1 5f c9 ba
       -1.2095747e-06 0.0011708622 -6.1530736e-05 -0.001536362
000380 61 a5 c5 3a 75 66 83 39 80 a6 d4 3a b7 e0 0f 3a
       0.0015079194 0.00025062604 0.0016223937 0.0005488502
000390 b3 2d 3f bb a7 ee a0 3a 30 85 04 3b 34 bd 31 3b
       -0.0029171526 0.0012278155 0.0020220987 0.002712083
0003a0 4f b9 3d 3b 9e 4e ed 3a e1 43 3f 3b 37 c7 0e bb
       0.0028949564 0.0018105095 0.0029184746 -0.0021786222
0003b0 8e 61 96 bb ad 54 b2 3a ad 93 a0 bb 55 eb bf 3a
       -0.004589266 0.0013605558 -0.004900417 0.0014642278
0003c0 0d 69 31 3a b2 99 f5 b9 bc 3f f4 3a 6e e7 0c 3b
       0.0006767668 -0.00046844553 0.0018634717 0.0021500248
0003d0 58 48 14 b6 8c 16 15 3a 01 90 19 3b 0c ad 2d b4
       -2.2095828e-06 0.00056872587 0.002343178 -1.6174835e-07
0003e0 ac 88 77 3b 8b 1c 46 38 af a6 e1 35 dc 74 61 3b
       0.0037770672 4.723346e-05 1.6812318e-06 0.003440193
0003f0 9b 2b 1d 3b 09 a5 04 3b f6 a2 0b 38 3d e1 d7 3a
       0.002398229 0.002023997 3.329195e-05 0.0016470324

fc2.weight f4 [64, 256]
000000 13 a8 34 bd ad e8 46 39 30 50 19 be 08 b7 08 3c
       -0.0441056 0.0001896943 -0.14971995 0.008344419
000010 b7 f8 b3 3c c8 a1 c3 bd 26 37 07 bb 59 d5 9a bc
       0.021969182 -0.09552342 -0.0020632236 -0.01890056
000020 21 fc c0 bd 4c bb 9d 3d 36 22 6b bc 8a fe bd 3c
       -0.0942309 0.0770174 -0.014351418 0.023192663
000030 6a 57 83 bd c4 ac 46 ba dd aa 8b 3d 45 78 7b 3c
       -0.06413157 -0.00075788447 0.06819699 0.015348499
000040 71 ef 63 3c f1 71 15 be e1 af 40 bc e9 bf 21 3d
       0.013912068 -0.14594246 -0.011760683 0.03948966
000050 86 f7 0b bd c0 27 b1 3a 06 bb 25 bc 92 1f 35 be
       -0.034171604 0.0013515875 -0.010115391 -0.17687824
000060 9c 9b 4a bd 45 d9 0c bd e1 7f 43 ba ff 10 33 3d
       -0.049464807 -0.034386892 -0.0007457715 0.04371738
000070 38 4a 14 bc 2f 35 86 3b 0a 0d 95 bd 80 14 16 33
       -0.009050898 0.0040956954 -0.07277878 3.494324e-08
000080 57 a0 3a 3c c9 2d 99 3c 03 d9 51 bb 7b d7 c0 3c
       0.011390767 0.01869859 -0.0032020218 0.02354025
000090 d7 71 c0 3c a3 0b 2a bb 22 d4 a6 bd 26 a9 af 3b
       0.023491783 -0.0025946877 -0.0814593 0.0053607402
0000a0 24 ab 00 3d ac fc ad 3c 29 26 6f 3d 06 9e 09 bd
       0.031413212 0.021238647 0.058386 -0.03359797
0000b0 ba d0 24 39 47 38 21 bd b6 6e 48 bb b4 cd d6 bc
       0.00015718015 -0.03936031 -0.0030583567 -0.026221134
0000c0 76 8e 97 bd e9 fa 30 bd f0 8e ee bc 04 66 39 36
       -0.07400219 -0.043208037 -0.029120892 2.762653e-06
0000d0 ac b9 38 3d 1b 2d b1 3c 17 53 32 bb 3d 36 d5 36
       0.045098945 0.021627953 -0.002721017 6.354209e-06
0000e0 ec 9f 88 3c 3f 2d 6c 3d fb f7 c6 3c 76 01 88 bb
       0.01667782 0.057660338 0.024288168 -0.004150565
0000f0 02 73 03 bc 28 49 f3 bc a8 7a b4 3b a1 11 04 3d
       -0.0080230255 -0.02969797 0.005507786 0.032243375
000100 a9 ed 92 3d 7d 79 ea 3c bc 5a 8b bc d0 3d 25 3d
       0.07174236 0.028622383 -0.017011039 0.040342152
000110 21 39 1e be 28 e7 af 3c 54 bc 8b 3d 7c 1a bd 3c
       -0.1545148 0.021472529 0.0682303 0.023083918
000120 24 b3 37 bc 9a 7b f9 bc 50 c8 91 3d 41 cb 77 3c
       -0.011212144 -0.030454446 0.07118285 0.015124143
000130 8f 40 fb 3c 4f 76 5c 38 4e 39 40 3c 1d 9d 50 3d
       0.030670432 5.256227e-05 0.0117324125 0.050931085
000140 db aa 02 3d 74 19 70 bb 7f 93 4b bd 80 5c 02 3d
       0.03190122 -0.0036636265 -0.04970121 0.031826496
000150 21 41 b9 bc d1 2f be bd 2f fb 28 bc c6 53 fa 3a
       -0.022614064 -0.09286464 -0.010313793 0.0019098453
000160 bd 87 0d 3c 12 d1 68 3d 6e 00 70 3c 0e 18 e8 3c
       0.00863832 0.05684001 0.01464854 0.028331783
000170 7f 26 01 bd 72 ff 21 bd 53 39 b8 3c bd 3b b4 bd
       -0.031530853 -0.039550252 0.022488272 -0.08800457
000180 4f 41 e3 3b 3d 8c 95 bc 22 f8 ee bc 9e 9c c3 3c
       0.0069352756 -0.018255347 -0.029171053 0.023878392
000190 27 00 76 3c a5 86 53 bd 57 85 e8 ba b1 96 83 bd
       0.015014685 -0.05164208 -0.0017739934 -0.064252265
0001a0 57 12 b1 37 a3 61 98 3c 23 84 3d 3d 74 b4 a2 3d
       2.1108584e-05 0.018601244 0.046268594 0.07944575
0001b0 bc cb 7a 3c c6 c4 58 bd 2c 72 43 3c 0c 0f b4 3b
       0.015307363 -0.052922033 0.011929076 0.005494958
0001c0 00 24 37 3b a7 37 b1 3c 90 3a 43 bd c2 fe 78 3a
       0.0027945042 0.021632982 -0.04766327 0.0009498411
0001d0 0a 07 19 bd 02 21 c8 bc 66 9d a2 3c 87 ce 9c 3c
       -0.03736023 -0.024429802 0.019850444 0.019141449
0001e0 e6 d9 25 bb 14 ba f8 3b b0 43 93 bb 8d 9c 0f 3c
       -0.002530688 0.0075905416 -0.004494153 0.008765352
0001f0 40 60 5c bc 08 bf 4d 3d 78 dc ed ba 3b 11 a5 3b
       -0.013450682 0.05023101 -0.001814737 0.0050374544
000200 ff 83 3f 3c 22 c3 11 bd 9b 19 ee 3d b7 34 31 3d
       0.011689185 -0.035586484 0.116259776 0.043263163
000210 2f e5 e1 bb 87 c6 f5 3b 2b c8 ac 35 a5 f6 45 3c
       -0.006893776 0.007500473 1.2873255e-06 0.01208273
000220 1e a6 5e 3d 8b 59 8a 3c 08 a4 f9 bc 53 88 67 3c
       0.05435764 0.0168884 -0.030473724 0.014131623
000230 27 a2 24 3d 4c 3c 5b 3d c5 9b 93 3c 36 c0 87 bd
       0.040193703 0.0535243 0.018018613 -0.06628458
000240 a3 20 8a bd 96 1b 9e bd 11 0b d3 bb 50 08 69 bd
       -0.06744506 -0.07720105 -0.006440528 -0.056892693
000250 1e cd 89 35 b4 31 29 3d 36 6c 0c bd 40 28 93 bd
       1.0266992e-06 0.041307166 -0.034282885 -0.071854115
000260 be c0 48 3c 2b 2f 78 bd aa 7f 07 bd 19 d3 e9 3c
       0.012252985 -0.060591858 -0.033080734 0.028543042
000270 78 33 b5 3c 48 f4 58 bc 35 6a 9c 3a f1 58 e2 bb
       0.022119269 -0.013241835 0.0011933508 -0.0069075753
000280 e1 e4 78 36 22 4c 77 38 a3 99 1b 3d d0 ef 90 3c
       3.7088105e-06 5.8960293e-05 0.037988316 0.017692477
000290 2c 65 b7 3c be 32 ee 3c 75 2b 58 3d 74 15 ab 3c
       0.02238711 0.02907693 0.05277582 0.020884253
0002a0 64 be 56 bd b3 51 2e 3c a0 40 de bd 2c 31 87 bc
       -0.052427664 0.010639596 -0.1085217 -0.01650294
0002b0 8c 39 9a 3c 49 de 85 bd 8b 4e 4e 3d 23 21 b6 3c
       0.018826269 -0.06536538 0.050367873 0.022232598
0002c0 47 a4 60 3c 3f bd 2d b6 5a be dd bc 8a 60 65 b6
       0.013711042 -2.5889165e-06 -0.027068306 -3.4179852e-06
0002d0 03 ae 08 bd 31 d6 14 3c 11 7d 9c 3d 2f b7 88 3c
       -0.033369076 0.00908427 0.07641042 0.016688911
0002e0 94 bf de 3c bd e1 3c ba ba 65 b0 ba d4 dc 38 bc
       0.027190961 -0.00072052685 -0.0013458051 -0.011283118
0002f0 8f a5 c7 bd e6 87 ba 3c a2 d3 af bc 1e fa e5 b6
       -0.09748375 0.02276988 -0.02146322 -6.8538493e-06
000300 de 91 ef 3c cf e5 03 be d4 c7 da b7 63 71 be 3d
       0.02924436 -0.12880634 -2.6080677e-05 0.092989706
000310 8e 1a 4d bc ad c9 b3 3b 72 47 d8 3c 24 b3 4d bd
       -0.012518538 0.005486688 0.026401255 -0.05021967
000320 17 2f c5 3b 80 33 2d be 23 93 47 3c f5 df 5c b7
       0.0060175764 -0.16914177 0.012181076 -1.3165166e-05
000330 2e f6 8c bd ca 3a 3e 3d da 83 ad 3c 8c d0 41 3c
       -0.068828925 0.046442784 0.021181036 0.011829507
000340 e0 8d b2 3c e4 7e 51 3d 1f 5e c5 3b ea a9 f2 bd
       0.021796167 0.051146403 0.006023183 -0.11848815
000350 7b 9a 08 3c 88 91 13 3d ad 99 ca bd 7c 0f 07 b6
       0.008337612 0.03602746 -0.098925926 -2.012558e-06
000360 c9 b3 60 3d a9 4f 47 3c 00 52 82 bc 6b 00 9f 3c
       0.054858956 0.012164989 -0.015908241 0.019409379
000370 76 6d 8f 35 90 9c d4 3c a9 bf a2 3b 3d 06 41 bd
       1.0686188e-06 0.025953561 0.0049666953 -0.04712509
000380 73 5b 91 3c 39 01 5a bb 69 0f 0c 3d f6 06 47 3b
       0.017743802 -0.003326489 0.034194384 0.003036914
000390 14 61 21 3d 00 52 38 3d 15 11 d4 3d 98 ed 05 3d
       0.03939922 0.045000076 0.10354821 0.03269729
0003a0 8f e7 8a 3b 3d ac 77 3c 04 9b d9 3c d5 2b 48 bd
       0.0042390297 0.015116748 0.026563175 -0.048869926
0003b0 b5 45 69 bd 98 89 03 bb ad 20 0c 3d 23 b5 d5 bd
       -0.056951243 -0.0020071026 0.03421085 -0.1043494
0003c0 06 5c 40 3c ad 86 13 bd 31 21 12 3c 6f 34 af 3c
       0.01174069 -0.03601711 0.008919046 0.021387307
0003d0 92 36 9a 37 d0 f2 6a bd 85 81 9e 3d 7e cf 02 37
       1.8383642e-05 -0.05736047 0.07739548 7.796914e-06
0003e0 8f 6e fa 3c f8 36 c1 ba 9e 6a 11 ba d7 8e 87 3c
       0.030570297 -0.0014741113 -0.0005547198 0.016547604
0003f0 16 cd a5 bc 67 24 b4 bd ab b3 7a bc 6e c2 99 3b
       -0.020239394 -0.08796006 -0.015301625 0.0046923673

fc2.bias f4 [64]
000000 7b 83 32 3c 17 2a eb 3a 89 3c 0c 3c 9e ee 89 35
       0.010895605 0.0017941621 0.008559355 1.0276742e-06
000010 63 ba 67 39 93 3a fe 3b d6 7e f0 3b 64 11 e4 3b
       0.00022099311 0.0077584474 0.007339339 0.006960081
000020 5d a1 5c 3b 62 a4 8e 3b 88 7b bd 3b 7a eb 29 3c
       0.0033665516 0.004353092 0.0057825483 0.010371083
000030 6e e7 f0 3b 09 38 14 3c aa 45 69 3b b9 62 b5 3b
       0.0073518073 0.009046563 0.0035594502 0.0055354503
000040 64 bc c9 3b f3 83 01 35 46 21 8d 3b fb 9b d4 39
       0.006156491 4.8248256e-07 0.004306945 0.00040552006
000050 cb a8 81 36 b4 f1 38 3b 2a d3 30 3c f0 5c c9 3b
       3.8641497e-06 0.0028220238 0.010792533 0.006145112
000060 d8 89 1f 3c 66 8d e9 b5 5b 4d 50 3a 0c bc 54 3b
       0.009737454 -1.7401005e-06 0.0007946097 0.0032460717
000070 b5 bd dd 3b 98 3c fd 35 bc 76 13 3c 5a b4 3e 3b
       0.0067669996 1.8867604e-06 0.009000476 0.0029099197
000080 06 50 2c b5 39 38 cd 3b 03 7f fd 3b fb 92 83 3b
       -6.419144e-07 0.006262806 0.0077360882 0.004015324
000090 a6 a8 2a 3c 2a 01 ca 3b dc 1f 11 35 53 40 8c 3a
       0.0104161855 0.0061646895 5.406307e-07 0.0010700322
0000a0 6b fb 7d 3c de f0 02 3c 9b 89 56 3b 84 43 08 3c
       0.015501837 0.0079919975 0.0032735828 0.008316878
0000b0 9e 34 57 3b 53 f8 97 3b 25 14 bf 3b 7f 9a 2c 3c
       0.0032837759 0.004637757 0.005831259 0.010534882
0000c0 28 37 90 3b 90 96 07 3c 43 87 2b 3c 8a 35 16 3c
       0.0044011064 0.008275643 0.010469261 0.009168038
0000d0 d9 b2 ec 3b ff 11 1e 3c 0d 29 bc 3b 34 65 af 37
       0.0072234687 0.009647845 0.0057421983 2.0908752e-05
0000e0 6b d3 3a 3c 0a 77 ab 39 a6 4b 2f 3c d5 f5 48 b7
       0.011402945 0.00032704353 0.010699188 -1.1978166e-05
0000f0 c1 3f 1d 3c 42 f4 4c 3a 11 68 9f 38 66 2f 70 3b
       0.00959772 0.00078183797 7.601095e-05 0.0036649345

fc3.weight f4 [10, 64]
000000 f3 5f d1 bd 7b 13 b4 bd ed 32 42 be 0f b1 73 b6
       -0.10223379 -0.08792778 -0.18964739 -3.6312883e-06
000010 32 12 36 3b 52 8a 8b bd 0a 72 ea 3d 70 b1 26 3e
       0.0027781841 -0.06813492 0.114475325 0.16278625
000020 70 7b 9e bd 6f 18 bc bc 4f 09 a9 3d 65 e1 ad 3d
       -0.077383876 -0.02296087 0.082537286 0.08490256
000030 28 ab 36 bd 94 e8 6e 3d 77 69 9d 3e b8 17 ab 3d
       -0.04459682 0.058327273 0.30744526 0.08354133
000040 06 de 02 be a0 9d 27 37 d7 60 b6 3d 35 e7 85 b9
       -0.12780008 9.990676e-06 0.089051895 -0.0002554
000050 eb dd 51 b9 1a c4 8c bd 23 12 49 3e f2 85 a3 3d
       -0.00020014464 -0.06873341 0.19635825 0.079845324
000060 79 7f 55 be 67 42 0b b7 99 c6 05 bb af 26 e3 3d
       -0.20849408 -8.300506e-06 -0.0020412563 0.11091363
000070 49 b6 3d bd bd e1 15 37 d4 68 cb bd 73 41 99 bd
       -0.04631642 8.933651e-06 -0.09932104 -0.074831866
000080 83 23 61 b8 e3 78 11 be da c2 a3 3d db db 5c 3e
       -5.3677253e-05 -0.14206271 0.07996149 0.21568243
000090 c3 69 eb 3c bd 2c 00 be ed 12 03 37 e4 6d f0 bd
       0.028736955 -0.12517066 7.812615e-06 -0.1173971
0000a0 31 72 d9 bc 3f c4 fe 3e 0d dd bc bd 26 4f 7e bd
       -0.026543709 0.497591 -0.092218496 -0.0620872
0000b0 6e e7 8c 3e ea c6 ce bb a8 8f d6 bc df e0 4e be
       0.27520317 -0.0063103335 -0.026191548 -0.20202969
0000c0 05 2d 56 bd 59 80 85 3e 08 e7 fc bd 2f ba 23 3e
       -0.052289028 0.26074484 -0.12348753 0.15988992
0000d0 87 ed 67 3d d5 4d 46 be 2a d1 cd bd 56 bc fa 3a
       0.056623008 -0.19365628 -0.100496605 0.0019129615
0000e0 d5 fa b8 3d ad 60 b2 3c 59 fc d0 bd 3b 12 6b ba
       0.090322174 0.021774614 -0.102043815 -0.0008967255
0000f0 ee 89 44 3e 86 20 2d bc 1a d8 ae 39 93 e1 f0 3c
       0.19193241 -0.010566836 0.00033348874 0.029404437
000100 3b f8 43 bb 57 60 d7 3d cd ab 86 be ea c2 95 b6
       -0.0029902596 0.10516422 -0.2630295 -4.463237e-06
000110 5f 8d 35 bb 6a db 43 be 01 b1 e2 bd 18 06 92 bd
       -0.0027702672 -0.19126669 -0.11068917 -0.071300685
000120 19 97 f3 bc fc ba 59 bd ab 54 df bd 73 d4 f2 3c
       -0.029735135 -0.053156838 -0.10904821 0.02964232
000130 a2 8a ab 3d 1e e9 b0 bd f4 05 5a bc 3c ec ec bd
       0.083760515 -0.086382136 -0.013307083 -0.11568496
000140 10 21 a7 3e dc f9 3c 36 cd 67 86 3d 19 b7 43 3c
       0.32642412 2.815962e-06 0.06562767 0.011945509
000150 27 58 75 37 d7 dc 27 bd 5f 81 9d bd 0f 55 14 3d
       1.46236625e-05 -0.040982094 -0.07690691 0.03621393
000160 56 a6 ac 3e 6d 94 3b 36 ea 28 6c 3c f9 94 82 bd
       0.33720654 2.7951567e-06 0.014414052 -0.063760705
000170 63 30 f1 3d 93 fa 05 b6 34 38 a8 bd e3 4a 7f 3b
       0.11776807 -1.9964398e-06 -0.08213845 0.0038954548
000180 a3 50 70 37 ba 4f 45 3e 7c 25 c0 bd bb 6b 08 bd
       1.4323889e-05 0.19268695 -0.093821496 -0.033305865
000190 25 88 6d 3d 20 44 fe bd dc e3 03 37 21 65 05 3f
       0.057991166 -0.124153376 7.861261e-06 0.52107435
0001a0 39 bd b2 be c1 aa 4d bd e0 fc 6a 3c 89 7b 46 be
       -0.3490999 -0.05021167 0.014342517 -0.19383062
0001b0 4f c7 49 bc 91 d2 22 be ab 5c 00 be e3 bf 14 3e
       -0.012315585 -0.15900637 -0.1253535 0.14526324
0001c0 d0 54 c8 3c a7 53 be bd c7 35 6b bd d7 e8 65 be
       0.024454504 -0.09293299 -0.057424333 -0.22452103
0001d0 8b 6f 5a be b7 04 27 3e 41 c0 69 3e e7 5b bc b8
       -0.21331613 0.16310392 0.22827245 -8.981657e-05
0001e0 48 5b a0 bd 88 cc 5c bb a4 c9 12 3d 0e e2 d7 3a
       -0.078299105 -0.0033691246 0.03583683 0.0016470568
0001f0 9d f6 5e be fb 08 37 3d 02 7b ab ba aa d0 f8 bb
       -0.21773763 0.0446863 -0.0013082924 -0.007593234
000200 19 87 04 be 1d 3a 97 3e ab 25 0b bd f1 34 ab 36
       -0.1294216 0.29536524 -0.03397147 5.1023603e-06
000210 bd 41 9e 3b ca 20 08 bd a6 58 43 3e 08 94 31 be
       0.004829614 -0.033234395 0.19076785 -0.17341626
000220 c2 a1 13 3d ec 08 c3 bd df 96 bf 3c 88 16 82 be
       0.036042936 -0.09523186 0.02338737 -0.25407815
000230 77 e9 d4 bd c9 c7 a3 bd 9d c2 37 bc f1 15 8f bd
       -0.103960924 -0.0799709 -0.011215833 -0.06986607
000240 1d 69 60 be 0d d4 17 b7 f9 1e 84 3d 27 77 a1 bb
       -0.21915098 -9.049673e-06 0.0645122 -0.004927534
000250 c4 7f f0 37 08 4e 6a 3e 02 03 16 3e 27 9f cc 3d
       2.8669725e-05 0.22881329 0.14649585 0.099912934
000260 d3 3e a6 3e f2 6d 07 b7 80 e8 f8 bc e1 8b c0 bc
       0.32469806 -8.072226e-06 -0.030384302 -0.0235042
000270 d6 02 2c bd 9c 9b 38 35 8f 67 a4 3e c4 c9 a6 3d
       -0.041994892 6.8771783e-07 0.3211026 0.081439525
000280 b4 1e d5 38 72 e6 e9 3e a6 1a 36 3e 8c d8 3f bd
       0.000101623504 0.45683628 0.17783603 -0.046837375
000290 d7 2b 12 bd 93 6e a6 3e e2 0c 42 36 7a f4 bc bd
       -0.03568634 0.32506236 2.8915751e-06 -0.09226318
0002a0 97 70 83 be 52 88 12 3e 3b c4 05 be 6c 91 72 bd
       -0.25671837 0.14309815 -0.13063137 -0.059220716
0002b0 fb 28 e4 bb 8c 72 8c 3c 54 4c 83 3e fd b3 81 3c
       -0.006962893 0.017144464 0.2564417 0.015832895
0002c0 9f f3 17 be 0a bb e9 3d a1 eb 2b be 40 3a 35 3e
       -0.14839028 0.11412628 -0.16789104 0.17698002
0002d0 f1 3b d8 3c cd 85 98 be 0f 41 68 be d7 bc 61 b9
       0.02639577 -0.29789582 -0.22681068 -0.0002152802
0002e0 0e 74 a9 be 4d 85 8c bb 51 bf f2 3d 67 2c 7b 39
       -0.33096355 -0.0042883516 0.11852897 0.00023953767
0002f0 f3 79 ed 3d 47 a8 81 bc e9 b3 da ba fe e6 35 3e
       0.115955256 -0.015827311 -0.0016685697 0.17763898
000300 a9 eb 85 be 10 fc ef bd ba 40 2d be 41 47 0b 37
       -0.26156357 -0.11717999 -0.16919222 8.301636e-06
000310 07 83 0e bb b8 18 f3 bd 85 4a f1 3d ff 0c 3e be
       -0.002174558 -0.11869949 0.117817916 -0.18559645
000320 99 16 9d bd 70 93 f0 3c e3 b8 17 bd b7 56 98 3e
       -0.07670326 0.029367179 -0.037041556 0.29753658
000330 6a b0 cd bc 2e a7 ca 3e 2b 18 7e bd 80 2b 81 3d
       -0.025108535 0.39580673 -0.062034767 0.06307125
000340 50 0a a0 be 8a ce 24 37 b2 e7 e0 bd c5 a4 6a bc
       -0.31257868 9.82325e-06 -0.109816924 -0.014321511
000350 17 91 ec 39 4d 6a 90 bd cb fe 43 be 6e 09 6e bd
       0.00045121528 -0.07051525 -0.19140165 -0.05811446
000360 8f 00 bd 3e 75 0c b1 b6 eb 9e a8 3c 50 13 ad bd
       0.3691449 -5.2764613e-06 0.02058359 -0.08450949
000370 4c db 47 be 2a 10 43 b6 4a 12 a2 3e 77 2c 41 3e
       -0.19517249 -2.9066673e-06 0.31654578 0.18864618
000380 89 d7 a9 38 b2 6d 45 be 1b 2c 83 3e 2e 2c 0c be
       8.0986945e-05 -0.19280127 0.25619587 -0.13688728
000390 9a 56 dc 3b b8 c7 af 3e 17 d7 ef 35 35 c2 8e be
       0.006724191 0.3433206 1.7869487e-06 -0.27882543
0003a0 14 1f 4b 3d 3f bd 01 be 7e ef 84 3e 26 12 24 bd
       0.049590185 -0.12669848 0.25963968 -0.04005637
0003b0 1a e7 60 bd fc ad 74 3d 87 a3 ad 3d 45 33 df 3d
       -0.054907896 0.059736237 0.08478456 0.10898451
0003c0 a9 80 54 3e 5c 13 36 be f7 52 88 be d9 a3 b6 bb
       0.20752205 -0.17780823 -0.26625797 -0.0055737314
0003d0 3c 11 e2 bd 82 f0 3d 3e 4f 21 1f 3e c3 09 1c ba
       -0.110384434 0.18548778 0.1554005 -0.00059523823
0003e0 4a 5d 08 3d c2 af 3d bc 3c 97 a2 3d e7 9b 02 bb
       0.033292092 -0.011577548 0.07939002 -0.001992935
0003f0 44 7a 3b be 6f 9c ab bc ca 40 ad b9 9b 76 02 be
       -0.1830836 -0.020948617 -0.00033045403 -0.12740557

fc3.bias f4 [10]
000000 41 49 c1 3b 9c d1 34 bb fc 2c 89 ba 80 86 0a 3b
       0.005898625 -0.0027590757 -0.0010465677 0.0021137297
000010 dc 29 ba ba bd 76 c6 b8 5b dc 23 bb a5 1f ee bb
       -0.0014203149 -9.4634925e-05 -0.0025003168 -0.007266956
000020 0e 44 0e 3c 1d f0 d2 ba
       0.008683218 -0.0016093288
