personalExps/MnistFC/models/MediumMnistModelL21e-5.pt (torch, 875102 bytes, 6 tensors)

fc1.weight f4 [256, 784]
0	0x3d0f272a	0.03494946
1	0x3d18a435	0.037265975
2	0xb9cc2370	-0.00038936315
3	0x3d257b41	0.040400747
4	0x391a83ca	0.0001473568
5	0x3c766630	0.015039012
6	0xbc18cbf4	-0.00932597
7	0x3ceaee86	0.02867819
8	0x3d201c40	0.03908944
9	0xbc93ec6b	-0.018057069
10	0x3d1e523b	0.03865264
11	0x3c6dea73	0.014521229
12	0x3d0b9017	0.03407296
13	0x3c51114a	0.01276047
14	0x3ccc6e1c	0.024954848
15	0x3b3e4d3b	0.0029037732
16	0x3d101264	0.03517379
17	0x3c571ab2	0.013128923
18	0xbc0d3170	-0.008617744
19	0x3c8a980c	0.016918205
20	0xbc09a7b4	-0.0084018
21	0x3b75c62b	0.003750215
22	0xbbd409a8	-0.0064708777
23	0x3d007e3d	0.03137039
24	0xbca41455	-0.020029226
25	0xbc09d056	-0.008411488
26	0xbb090d1b	-0.0020912352
27	0xbc5b1f96	-0.01337423
28	0x3c3822f0	0.0112387985
29	0xbcdd8e59	-0.027045416
30	0x3d233c23	0.039852273
31	0xbcb57f51	-0.022155436
32	0x3d103d02	0.03521443
33	0x3c61ed51	0.013789491
34	0xbb5ef460	-0.003402017
35	0x3cf6ca4b	0.030125758
36	0x3c5f16fa	0.013616318
37	0x3d15dc09	0.036586795
38	0x3c452e23	0.012034926
39	0xbb4284e1	-0.0029681253
40	0x3c9382b8	0.018006667
41	0xbabd6018	-0.0014448194
42	0x3cc07698	0.02349405
43	0x3d27f3c0	0.041003942
44	0x3cd0c593	0.025484836
45	0xbc0ba74e	-0.008523775
46	0x3cede2e3	0.029038852
47	0x3c75333f	0.014965831
48	0x3cd80754	0.026370682
49	0xbc5a19f1	-0.013311849
50	0xbcdcaf52	-0.026939068
51	0xbbbbfc79	-0.005736884
52	0xbc9d9a9c	-0.019238763
53	0x3d174515	0.036931116
54	0x3c94316f	0.018089978
55	0x3cb8c3f0	0.022554368
56	0x3c9c6040	0.019088864
57	0x3beeadb7	0.007283892
58	0x3d11c60f	0.035589274
59	0xbc8d2dab	-0.01723369
60	0x3c261f67	0.010139323
61	0xbc850649	-0.016238349
62	0x3c9cf26e	0.019158568
63	0xbb6493e9	-0.00348782
64	0x3c9d0106	0.019165527
65	0x3a81bc22	0.0009897987
66	0x3d216411	0.03940207
67	0xbc2b6d4e	-0.010463072
68	0xbc2bb2bf	-0.010479628
69	0xbb1c29df	-0.0023828668
70	0x3d396eea	0.04527179
71	0x3cee68e7	0.029102756
72	0x3d4d2bb5	0.05009051
73	0xbc831bfe	-0.016004559
74	0xbcb79473	-0.022409653
75	0xbc7b1a54	-0.015326101
76	0xbc63f077	-0.013912312
77	0x3cc0e738	0.023547754
78	0x3cafc51f	0.0214563
79	0x3d198765	0.037482638
80	0xbc29b858	-0.010358892
81	0xbc8553bb	-0.016275277
82	0x3cda7e9b	0.026671698
83	0xbbd1c5f3	-0.006401771
84	0x3cf0a005	0.029373178
85	0xba0228ae	-0.0004965168
86	0x3ce86adc	0.028371267
87	0xbc9f7aba	-0.0194677
88	0xbc21db77	-0.009878985
89	0x3c9f143a	0.019418824
90	0x3c920fd2	0.01782981
91	0x3b31baae	0.0027119326
92	0x3cee1206	0.029061329
93	0x3cd64a75	0.02615855
94	0xbcc1a90a	-0.023640174
95	0xbc8ee4ec	-0.017443143
96	0x3d1ccb3e	0.038279764
97	0x3ab06938	0.0013459092
98	0x3adf78fd	0.0017049607
99	0xbcd71250	-0.02625385
100	0xbc3168a1	-0.010828168
101	0x3c6f4e81	0.014606119
102	0x3c337464	0.010953043
103	0xbb8ced4b	-0.0043007485
104	0x3c6a2e60	0.014293283
105	0xbc8c154d	-0.0171
106	0xbceccce7	-0.028906299
107	0xbc5db845	-0.013532703
108	0xbcb99670	-0.022654742
109	0xbc70afb0	-0.014690325
110	0x3d314859	0.043281887
111	0x3c6ee8f2	0.014581906
112	0x3c9a072c	0.018802248
113	0xbccd9c22	-0.025098864
114	0xbc6e4a97	-0.014544151
115	0xbb616729	-0.0034393764
116	0x3c72a65d	0.014810172
117	0xbc920da5	-0.017828772
118	0x3a944fbf	0.001131527
119	0xbc53e9ee	-0.012934191
120	0x3c25e904	0.010126356
121	0xbd0b06a2	-0.033941872
122	0xbc8fbb58	-0.017545387
123	0xbccbc39e	-0.024873551
124	0xbc8deda8	-0.017325237
125	0x3ccc4399	0.024934577
126	0x3b50e35d	0.00318738
127	0xbc0e7e4b	-0.008697103
128	0x3ca158f0	0.019695729
129	0xbd608290	-0.054812014
130	0x3bc39755	0.005968968
131	0xbac06455	-0.0014678339
132	0xbd5c5108	-0.053788215
133	0x3b4ba107	0.0031071322
134	0xbcf51deb	-0.029921493
135	0xbc915ce1	-0.017744483
136	0xbcd1ccb5	-0.025610307
137	0xbce949ca	-0.028477568
138	0x3c8daf23	0.017295426
139	0x36f2b952	7.233736e-06
140	0x3cb18d29	0.021673756
141	0xbcad2649	-0.02113642
142	0x3d0c80d2	0.03430254
143	0xbc83fc49	-0.01611151
144	0x3c0cb4c3	0.008588019
145	0x3cede4d5	0.02903978
146	0x3d17b106	0.037034057
147	0x3d19ca2e	0.03754633
148	0x3ccce5f4	0.025011994
149	0xbd3df27e	-0.046373837
150	0xbc7bd31f	-0.015370159
151	0xbbb6ec79	-0.005582389
152	0x3d07ac47	0.03312328
153	0x3c6e5319	0.014546179
154	0x3d121023	0.03565992
155	0x3c27ec49	0.010249206
156	0x3bce83ae	0.0063023185
157	0xbd1089f1	-0.0352878
158	0xbd0b8027	-0.034057762
159	0xbd572e8c	-0.052534625
160	0xbcf91e4b	-0.030409953
161	0xbd74a7c4	-0.059730306
162	0xbd37432f	-0.044741806
163	0xbd2db393	-0.042407583
164	0x3c60dfb4	0.01372521
165	0xbb399206	-0.0028315797
166	0xbc277070	-0.010219678
167	0x3d1ce517	0.038304415
168	0x3c8154fd	0.015787596
169	0xbc3f4cb6	-0.011676004
170	0xbc235c6e	-0.009970767
171	0x3c20df97	0.009818933
172	0x3d086c4b	0.0333064
173	0xbc53332b	-0.012890617
174	0xbcbf52cb	-0.023354908
175	0xbc8a824a	-0.01690783
176	0xbd33ff11	-0.043944422
177	0x3b6d4557	0.003620466
178	0x3c4cfd15	0.012511511
179	0xbc514b6c	-0.01277433
180	0x3be658c5	0.007029625
181	0x3d0a168e	0.033712916
182	0x3c7ea928	0.01554326
183	0x3c2181f6	0.009857645
184	0x3d8a85ed	0.067638256
185	0x3cff8e1a	0.031195689
186	0x3bf8ddf7	0.0075948196
187	0xbd85bdbb	-0.06530329
188	0xbdcbe87e	-0.09956454
189	0xbd8dc2dc	-0.06921932
190	0xbd8d5de3	-0.06902673
191	0xbd2c1944	-0.042016283
192	0x3c15ce62	0.009143444
193	0x3cdfe841	0.027332427
194	0x3b2e2fd3	0.0026578798
195	0xb9670fc7	-0.00022035754
196	0x3c09e1c6	0.008415645
197	0x3bbe73a2	0.0058121243
198	0x3c87c3bb	0.016572824
199	0x3cb693d4	0.022287287
200	0xbcb5549b	-0.02213507
201	0xbd150002	-0.03637696
202	0x3c561f0e	0.013068927
203	0xbc4ae222	-0.012383016
204	0xbd01b31b	-0.03166495
205	0xbca1b299	-0.019738482
206	0xbcd5e076	-0.026108008
207	0xbb9d7e63	-0.0048063262
208	0x3c4200ea	0.011841038
209	0x3d241d27	0.040066864
210	0x3d80e981	0.06294537
211	0x3ccadaed	0.024762595
212	0x3c224f44	0.009906594
213	0xbbb59d1d	-0.005542411
214	0xbd72e85b	-0.059303623
215	0xbc908de1	-0.017645778
216	0xbd53ea50	-0.05173713
217	0xbda2e03a	-0.07952924
218	0xbd52736a	-0.0513796
219	0xbd571935	-0.052514274
220	0xbd437f94	-0.04772909
221	0x3c94a29c	0.018143944
222	0xbc3e100e	-0.011600507
223	0x39e3f35f	0.0004347814
224	0xbce01e4a	-0.027358193
225	0x3d028e34	0.031873897
226	0x3d11b7ec	0.035575792
227	0x3cb87b88	0.022519842
228	0xbc28b770	-0.010297641
229	0xbd663e1d	-0.05621158
230	0xbd7e59dd	-0.06209742
231	0xba9a0bed	-0.0011752822
232	0xbc32b6f8	-0.010907881
233	0x3c413f7e	0.011794923
234	0x3d22786d	0.03966563
235	0x3cbac56f	0.022799222
236	0xbba5716e	-0.0050489223
237	0xbd80609f	-0.06268429
238	0xbbdbfe9d	-0.006713702
239	0x3cc95321	0.024575772
240	0x3d36fabe	0.04467272
241	0xbc025a52	-0.007956104
242	0xbcff4c9e	-0.031164464
243	0xbd0b8dbe	-0.034070723
244	0xbd1d67c0	-0.03842902
245	0xbd96c62c	-0.07362017
246	0xbd81db46	-0.06340651
247	0xbccaa349	-0.024736064
248	0xbd3c608d	-0.045990516
249	0x3bc8cd0b	0.0061279587
250	0xbc13b800	-0.009016037
251	0xbc99b09b	-0.01876097
252	0x3ada1539	0.0016638405
253	0xbc11a402	-0.0088892
254	0xbb1830d3	-0.002322246
255	0xbcba805b	-0.022766283

fc1.bias f4 [256]
0	0x3c59498b	0.013262163
1	0xbc035344	-0.008015458
2	0x3cac685d	0.021045858
3	0x3bd9595a	0.006632966
4	0xbc96d27c	-0.018410914
5	0xbc8343ea	-0.016023595
6	0xbcaf217f	-0.021378277
7	0xbce50466	-0.027956199
8	0xbbc5c04c	-0.0060348865
9	0x3cf63937	0.030056579
10	0xbd00fcad	-0.03149097
11	0xbc542594	-0.012948412
12	0x3bf99c89	0.0076175374
13	0x3c818c0a	0.015813846
14	0x3ceef519	0.029169606
15	0xbcbb82b7	-0.022889478
16	0x3ae4f1f2	0.0017467125
17	0x3b0903d4	0.0020906823
18	0x3d08eb03	0.03342725
19	0xbc9b0f4a	-0.018928189
20	0x3cfa3034	0.030540563
21	0x3ce8df70	0.028426856
22	0x3c3ffe76	0.011718383
23	0x3c99b56b	0.018763265
24	0xbc8281eb	-0.01593109
25	0x3b84190a	0.004031305
26	0x3c10591e	0.00881031
27	0x3cff2c28	0.031148985
28	0xbae56394	-0.001750099
29	0xbb802ead	-0.003911814
30	0x3cba4f52	0.022742901
31	0xbb8ef68f	-0.004362888
32	0xbcc49c6c	-0.024000369
33	0x3cd214a3	0.025644606
34	0xbcf702f5	-0.030152777
35	0x3d0a6666	0.03378906
36	0xbc99d5ad	-0.018778646
37	0x3d1b908f	0.03797966
38	0xbca9f4fc	-0.0207467
39	0x3cc78d1d	0.02435928
40	0x3c62d5d4	0.013844926
41	0x3cea072b	0.028567871
42	0x3cafc03b	0.021453967
43	0x3cd9be02	0.02657986
44	0x3c2f13a0	0.010685831
45	0xbcab1da1	-0.020888152
46	0x3d17f1e6	0.037095927
47	0x3cf87281	0.030328037
48	0xbcf1912c	-0.029488169
49	0x3bb30c4a	0.0054641115
50	0x3a99b3b9	0.0011726535
51	0x3cf4f740	0.029903054
52	0x3cba098f	0.022709636
53	0x3cf435c9	0.029810803
54	0xbc5fe754	-0.013665993
55	0x3cf9bbdd	0.030485088
56	0x3b333a39	0.0027347936
57	0x3cb3e91d	0.021961743
58	0x3c2cd954	0.010549862
59	0xbce41875	-0.027843693
60	0x3c71670f	0.014734044
61	0x3b683411	0.0035431425
62	0xbc161072	-0.009159194
63	0xbcd81d50	-0.026381165
64	0xbb7e7e7a	-0.003883271
65	0xba9e3982	-0.0012071582
66	0xbc96fd8a	-0.018431444
67	0x3b3d9dc6	0.0028933152
68	0x3b251f0c	0.0025195507
69	0xbbb89033	-0.0056324243
70	0x3c125208	0.008930691
71	0xbce8eff0	-0.028434724
72	0x3d018d2b	0.03162877
73	0x3cc31cab	0.02381738
74	0xbce6bf58	-0.028167412
75	0x3b92be46	0.004478249
76	0x3c126271	0.008934603
77	0xbc384009	-0.011245736
78	0xbcc7dc67	-0.024397088
79	0xbcf32fa6	-0.029685806
80	0xbceb744e	-0.028741982
81	0x3b91cb54	0.0044492874
82	0x3bc169f9	0.0059025255
83	0x3cf1729d	0.029473597
84	0xbcb5a459	-0.022173094
85	0x3c86fde7	0.016478492
86	0xbc95bad7	-0.018277569
87	0xbd0402c3	-0.032229196
88	0x3c6493a2	0.013951214
89	0x3cd9fea3	0.026610678
90	0x3cdbd006	0.026832592
91	0xbc89ae72	-0.016806815
92	0x3ca98626	0.02069385
93	0xbc803795	-0.015651504
94	0x3c80d1d2	0.01572505
95	0xbcbb2cbf	-0.022848485
96	0xbd07b557	-0.033131924
97	0x3d087ef6	0.033324204
98	0xbca11b09	-0.019666212
99	0x3bee8ef5	0.0072802254
100	0x3ceaf25e	0.028680023
101	0xbcb779c4	-0.02239693
102	0xbcecb616	-0.02889542
103	0x3c6230b7	0.01380556
104	0xbc2b5e81	-0.010459543
105	0xbca3f78b	-0.020015499
106	0xbc1c8f96	-0.009555718
107	0xbcff824d	-0.031190062
108	0xbba5d7a2	-0.005061106
109	0x3a3eeb38	0.0007282975
110	0xbcea06c2	-0.028567676
111	0xbc4e7614	-0.012601394
112	0x3caa6a44	0.020802625
113	0xbc985c4a	-0.018598694
114	0xbc8a7af2	-0.016904328
115	0x3c6777fc	0.014127728
116	0xbca2c679	-0.01987003
117	0xbd074082	-0.033020504
118	0xbcb5309f	-0.02211791
119	0x3a8a3554	0.0010544457
120	0x3cc138a7	0.023586584
121	0x3c93c8a5	0.01804001
122	0x3d16fbb5	0.03686114
123	0xbc3705c6	-0.01117081
124	0xbc217f8b	-0.009857069
125	0x3d0670d0	0.03282243
126	0xbc4e9a49	-0.012610027
127	0x3cbfc966	0.023411464
128	0x3cc72d4d	0.024313593
129	0xbd138ccf	-0.036022957
130	0x39362ff0	0.0001737473
131	0x3cee773c	0.02910959
132	0x3d06ac24	0.03287901
133	0xbcd05ab3	-0.025433874
134	0x3d0911aa	0.03346411
135	0x3cf32ce8	0.029684499
136	0x3cb9bf95	0.022674361
137	0x3c0affcc	0.008483838
138	0xbb24de37	-0.0025156864
139	0xb9564988	-0.00020436023
140	0xbca4179c	-0.02003079
141	0x3d02be49	0.03191975
142	0xbc461233	-0.0120893
143	0xbcf453a7	-0.029825045
144	0xbc9d4828	-0.019199446
145	0xbca60b51	-0.020269068
146	0x3cc149f3	0.023594832
147	0xbd154a1c	-0.03644763
148	0xbc855956	-0.01627795
149	0xbb3255d4	-0.0027211802
150	0xbc57602e	-0.01314549
151	0x3b774004	0.0037727365
152	0x3c29a1a9	0.010353484
153	0x3c04c25b	0.008102979
154	0xbceb00d6	-0.028686922
155	0x3c30ae0a	0.010783682
156	0x3bfc84c8	0.0077062584
157	0x3c3c4869	0.011491873
158	0x3b2329b3	0.002489668
159	0x3b2cef01	0.0026387575
160	0xbc99b10f	-0.018761186
161	0xbc4e98bd	-0.012609658
162	0xba42befb	-0.0007428971
163	0xbc4217ff	-0.011846541
164	0x3cdae7e1	0.026721897
165	0xbd04f193	-0.032456946
166	0xbc0dd864	-0.008657549
167	0x3ca4ed73	0.020132756
168	0xbc95f9b9	-0.018307554
169	0x3bd3040e	0.0064396923
170	0xbc8094b0	-0.0156959
171	0xbcb3309e	-0.021873768
172	0xbceed69f	-0.029155074
173	0x3c6d7aed	0.01449464
174	0x3cde6388	0.02714707
175	0x3c664589	0.014054664
176	0xbd1ff06b	-0.03904764
177	0xbca456bd	-0.020060891
178	0x3cf90185	0.030396232
179	0xbc99beb8	-0.0187677
180	0xbaa59ec9	-0.0012635823
181	0x3cc21536	0.023691755
182	0xbbda21b4	-0.0066568498
183	0x3c005377	0.0078324
184	0xbc7409c7	-0.014894909
185	0xbcf762d7	-0.030198498
186	0x3c451442	0.012028756
187	0xbc8fea79	-0.01756786
188	0x3d050103	0.032471668
189	0x3cffcefc	0.031226628
190	0x3cbac604	0.0227995
191	0xbd0759ec	-0.03304474
192	0x3d162eef	0.036665853
193	0xbb2ba6d2	-0.0026191962
194	0xbb2bb724	-0.002620169
195	0xbd093e78	-0.03350684
196	0xbcd0d577	-0.025492413
197	0x3c8c3cbf	0.01711881
198	0x3d1a6429	0.037693176
199	0xbc49d700	-0.012319326
200	0x3c990682	0.018679861
201	0xbcf76839	-0.030201064
202	0xbd00359f	-0.031301137
203	0x3cf0278a	0.029315729
204	0xbca37a9e	-0.01995593
205	0x3cf628ed	0.030048812
206	0x3d00b0b0	0.031418502
207	0x3c3810c8	0.01123447
208	0xbc08f6ed	-0.008359653
209	0x3d332062	0.043732055
210	0xbcf57f5b	-0.029967954
211	0x3d109f46	0.035308145
212	0xbb4fe840	-0.0031724125
213	0x3c406687	0.011743194
214	0xbba468c0	-0.00501737
215	0xbc21d7bd	-0.009878096
216	0x3bdd324f	0.006750382
217	0x3c5352db	0.012898172
218	0xbc478acd	-0.012179089
219	0x3d0688dd	0.032845367
220	0xbc67eed7	-0.014156065
221	0x3b2ef4a9	0.0026696122
222	0x3cc8732b	0.024468979
223	0xbc99a676	-0.018756133
224	0xbce6864b	-0.028140208
225	0xbc3b0f1e	-0.011417178
226	0x3cb4db4a	0.022077221
227	0x3d003d5a	0.03130851
228	0xbd10023a	-0.035158373
229	0x3c78e2bf	0.015190779
230	0xb9c87fc4	-0.00038242165
231	0x3cf70202	0.030152325
232	0x3d09159d	0.033467878
233	0x39e0a6cc	0.00042848883
234	0x3d13e6a0	0.036108613
235	0x3c3a6e91	0.0113789
236	0x3b8fb45c	0.004385514
237	0xbc8c014a	-0.017090458
238	0xbd40910d	-0.04701333
239	0xbc84313a	-0.016136754
240	0xbc94cbb1	-0.018163534
241	0x3c104152	0.008804636
242	0xbcd36907	-0.025806917
243	0x3cb82434	0.0224782
244	0xbc9fa3fd	-0.019487375
245	0xbc6ffd53	-0.0146478
246	0xbc891cb5	-0.016737321
247	0xbb959a8a	-0.0045655416
248	0xbc9d4ec9	-0.019202607
249	0x3ccfb55f	0.02535504
250	0xbc7b07ae	-0.015321655
251	0x3cc7a1f7	0.024369223
252	0x3cf93291	0.03041962
253	0x3d103d16	0.035214506
254	0x3c98bfbe	0.018646117
255	0xba76f145	-0.0009420107

fc2.weight f4 [64, 256]
0	0xbdbc2c36	-0.0918812
1	0xbc2e4281	-0.010635973
2	0xbe711a50	-0.23545194
3	0x3b01a02b	0.0019779305
4	0x3da93a25	0.08263043
5	0xbe4ddbf1	-0.20103432
6	0xbd206856	-0.039162003
7	0x3da2fbc6	0.07958178
8	0xbe188eac	-0.14898175
9	0x3e0f7cf7	0.14012514
10	0xbe15a68f	-0.14614318
11	0xbe1972a1	-0.14985134
12	0xbdf357c4	-0.11881974
13	0xbc184b86	-0.00929535
14	0x3dedf942	0.11619808
15	0xbd0ba07c	-0.034088597
16	0xbb517524	-0.003196069
17	0xbe3f8b70	-0.18705535
18	0xbd2b358d	-0.041799117
19	0x3de32b35	0.110922255
20	0x3c19b2f8	0.009381048
21	0xbd9c116c	-0.076205105
22	0xbdcd8b26	-0.10036306
23	0xbe84f10a	-0.25965148
24	0x3cd2d5c5	0.025736699
25	0xbe18f79b	-0.14938204
26	0x3c629e83	0.013831737
27	0xbd77ff05	-0.06054594
28	0x3b2e2fcc	0.0026578782
29	0x3dbb602b	0.09149202
30	0xbe55c9ab	-0.20877711
31	0x3aa23b44	0.0012377282
32	0x3d1af580	0.037831783
33	0xbb88cd89	-0.0041748923
34	0xbd93c60c	-0.07215509
35	0x3d84fb30	0.06493223
36	0x3d80c2b3	0.06287136
37	0x3d6e17cd	0.058128167
38	0xbe77c053	-0.2419446
39	0x3daa80f1	0.08325375
40	0x3d8475d5	0.06467787
41	0x3de2e55b	0.11078902
42	0x3da2873c	0.0793595
43	0xbe079b5d	-0.1324286
44	0xbce9d4d4	-0.028543867
45	0x3c3487fa	0.011018747
46	0x3d1ba407	0.037998226
47	0xbddf4707	-0.10902219
48	0xbe6e2a13	-0.23258238
49	0xbd6348b7	-0.05548927
50	0x3cbdb635	0.023158172
51	0x3d03f111	0.03221232
52	0x3cefb365	0.029260347
53	0x3cfceae5	0.030873725
54	0x3d41159b	0.047139745
55	0x3d4fcb8d	0.05073123
56	0x3d611dac	0.054959938
57	0x3db2ca0f	0.08729946
58	0xbc27edf3	-0.010249603
59	0x3d4bcf38	0.049758166
60	0xbd72be55	-0.059263546
61	0xbd56ca5d	-0.052439082
62	0x3c4f930e	0.012669338
63	0x3d557253	0.05211098
64	0x3dda17ca	0.10649069
65	0xbd2d631e	-0.042330854
66	0x3dee544f	0.11637174
67	0xbb2c4746	-0.00262876
68	0xbe9d52ee	-0.30727333
69	0x3da7ab32	0.0818695
70	0x3dfe349d	0.12412379
71	0x3d44b99f	0.048028585
72	0xbdaa2426	-0.08307676
73	0xbd44d824	-0.04805769
74	0x3de47a5e	0.11156152
75	0x3d1a4446	0.037662767
76	0x3d38413f	0.0449841
77	0xbcf7ec08	-0.030263916
78	0x3c584399	0.01319971
79	0x3d6e055a	0.058110572
80	0x3daa54ea	0.08316977
81	0x3d06fc03	0.03295518
82	0xbe2ce99f	-0.16885994
83	0x3e160fd7	0.1465448
84	0xbda53115	-0.08066002
85	0xbe8e8197	-0.27833244
86	0xbe0d9a39	-0.13828363
87	0x3d4beba6	0.04978528
88	0x3d805368	0.062659085
89	0x3e1c787c	0.15280336
90	0xbb205249	-0.0024463108
91	0x3d5c22a8	0.05374399
92	0x3d0bec74	0.034161046
93	0x3cfe9492	0.031076703
94	0x3db066d5	0.08613364
95	0xbdf81198	-0.12112731
96	0x3e2dfbf4	0.16990644
97	0xbc939b36	-0.018018346
98	0xbde2e022	-0.11077906
99	0x3cc5a7f6	0.024127942
100	0x3dbf65af	0.093455665
101	0xbe29a936	-0.16568455
102	0xbe195d10	-0.14976907
103	0xbe2607ca	-0.16213909
104	0x3d6ad318	0.05733022
105	0x3cd22244	0.025651105
106	0x3e182e57	0.14861427
107	0x3e4d2b43	0.20036034
108	0x3da6a4bb	0.081368886
109	0xbe389ab2	-0.18027762
110	0xbb720002	-0.0036926274
111	0xbd114e5b	-0.035475116
112	0xbd431255	-0.047624905
113	0x3d81ea54	0.06343523
114	0xbdf934cf	-0.121682756
115	0xbd4ec363	-0.050479304
116	0xbdaf391a	-0.08555813
117	0xbe06c3ba	-0.13160601
118	0x3c2a43c8	0.010392137
119	0x3d6806f4	0.056647256
120	0xbd0072b7	-0.0313594
121	0xbd8ab308	-0.06772429
122	0xbce9a4e2	-0.028521005
123	0xbdda4750	-0.10658133
124	0xbd7a96be	-0.061178915
125	0x3dd5befc	0.10436818
126	0xbdd1e4a4	-0.10248688
127	0xbd9fb19f	-0.077975504
128	0x3dc303f3	0.09522238
129	0xbe1014bc	-0.1407041
130	0x3e2beff1	0.16790749
131	0x3d7b0870	0.061287344
132	0x3d07049a	0.032963373
133	0x3d12e63a	0.035864092
134	0x3c772b10	0.0150859505
135	0x3cc5b51d	0.024134213
136	0x3b92632f	0.00446739
137	0xbc29e19b	-0.01036873
138	0xbdcd553c	-0.10026023
139	0xbca86392	-0.020555291
140	0x3e0b18f6	0.1358374
141	0x3da768cd	0.08174286
142	0x3d5fbde7	0.054624464
143	0x3c917c00	0.017759323
144	0xbdea5795	-0.11442486
145	0xbe56b1ab	-0.20966212
146	0xbd6340e9	-0.055481825
147	0xbdb8cee1	-0.09023834
148	0x3c483745	0.0122202085
149	0x3dee87a9	0.11646969
150	0xbc102d52	-0.008799868
151	0xbe108594	-0.14113456
152	0xbd236fc4	-0.03990151
153	0xbe29d3c7	-0.16584693
154	0xbe0df743	-0.13863854
155	0x3d5b6488	0.05356267
156	0x3d6fae8a	0.058516063
157	0xbc825d24	-0.015913554
158	0x3c3859a0	0.011251837
159	0x3c4e3b07	0.012587315
160	0x3d12b581	0.035817627
161	0x3d3ed8a0	0.04659331
162	0x3dc8d3d3	0.09806027
163	0xbce34b99	-0.027746009
164	0x3ce3f17e	0.027825113
165	0xbaa6e972	-0.0012734367
166	0x3d5f361d	0.054494966
167	0x3dcbf702	0.099592224
168	0xbcacffd0	-0.021118075
169	0xbd8346c9	-0.064099856
170	0xbe39f318	-0.18159139
171	0xbcfad847	-0.030620707
172	0x3d0b39de	0.033990733
173	0xbe1a935f	-0.1509528
174	0x3d78f0d1	0.060776535
175	0x3d892677	0.0669679
176	0x3d4fe4c7	0.05075529
177	0xbcf88db0	-0.030341
178	0x3cb9ecce	0.022695925
179	0xbd32e549	-0.043675695
180	0xbcef002d	-0.029174889
181	0x3cfdc8db	0.030979564
182	0x3e256eb8	0.16155517
183	0x3cf9aff2	0.030479405
184	0x3d1356b5	0.035971362
185	0xbc59b33d	-0.013287363
186	0xbd39f5ff	-0.045400616
187	0x3c44875d	0.011995164
188	0xbe69e7b2	-0.22842291
189	0x3d17a6bd	0.03702425
190	0xbdbc3d78	-0.09191412
191	0xbc3ff7f7	-0.011716834
192	0x3db94db9	0.090480275
193	0xbe501431	-0.20320202
194	0x3c57b991	0.013166801
195	0x3e4b66e8	0.19863474
196	0x3d62623b	0.05526946
197	0x3d3a3e7b	0.045469742
198	0x3d58bb8b	0.05291323
199	0xbc8d0752	-0.017215405
200	0x3cada1bf	0.02119529
201	0xbe774920	-0.24148989
202	0xbdb423f5	-0.08795921
203	0xbd543528	-0.051808506
204	0xbda8ced2	-0.08242573
205	0xbc0c49d5	-0.008562525
206	0x3dfb92c4	0.12283853
207	0x3dafadb4	0.08578053
208	0x3d474afd	0.0486555
209	0x3df5db0b	0.1200467
210	0x3d0c2643	0.034216177
211	0xbe74a1cf	-0.2388985
212	0x3cb76c09	0.022390382
213	0x3d53cdf4	0.051710084
214	0xbdec027d	-0.11523912
215	0xbcc2035e	-0.023683246
216	0x3e0ebe8f	0.1393988
217	0x3da0406c	0.078247875
218	0xbdfed5e0	-0.12443137
219	0xbce35b99	-0.027753638
220	0x3c4e1f70	0.0125807375
221	0x3cf744d3	0.030184185
222	0x3d4aa653	0.049475025
223	0xbddf4867	-0.109024815
224	0x3cf49e07	0.02986051
225	0x3d523fac	0.051330253
226	0x3b274abe	0.0025526728
227	0x3d4c00b2	0.04980535
228	0xbc5e04c4	-0.013550941
229	0x3d88d911	0.06682027
230	0x3e644041	0.22290136
231	0x3ced6397	0.028978152
232	0xbca3fede	-0.020018991
233	0x3d7a407c	0.061096653
234	0x3d904b3d	0.070456006
235	0xbde3fee6	-0.111326024
236	0xbd8aacab	-0.06771215
237	0xbd204eb0	-0.039137542
238	0x3dd42077	0.10357755
239	0xbe2a5af9	-0.16636266
240	0x3db57849	0.08860833
241	0x3d4799f0	0.04873079
242	0xbd2788a5	-0.0409018
243	0x3ceae848	0.028675213
244	0xbce16735	-0.027515033
245	0xbe0d420c	-0.13794726
246	0x3e28d239	0.16486444
247	0x3d20dbe5	0.039272208
248	0x3d304764	0.043036833
249	0xbd109149	-0.035294805
250	0xbd2f6935	-0.042824943
251	0x3d09f12e	0.033677272
252	0xbd8846d6	-0.06654136
253	0xbe34cc25	-0.17656
254	0xbda488ee	-0.0803393
255	0xbdaebc66	-0.08532028

fc2.bias f4 [64]
0	0x3c8417b1	0.016124578
1	0xbd541349	-0.051776204
2	0x3b9dff49	0.004821692
3	0x3c49cd92	0.012317078
4	0x3cf6c49e	0.030123051
5	0xbc5d6874	-0.013513673
6	0xbd0d52b9	-0.03450272
7	0xbca37a6f	-0.019955842
8	0x3cd0f538	0.025507554
9	0xba2c971d	-0.0006583797
10	0x3c8bf1a9	0.017083006
11	0x3d73b3f2	0.05949778
12	0x3d822021	0.06353784
13	0x3c2dde8f	0.010612144
14	0x3be16aeb	0.0068792007
15	0x3cf80066	0.030273627
16	0x3d100844	0.035164133
17	0x3bcebec7	0.0063093635
18	0x3cf9ce83	0.03049398
19	0xbcdd4ddc	-0.027014665
20	0xbd38c1f2	-0.045106836
21	0x3d63aa3c	0.05558227
22	0x3d40b2d4	0.047045544
23	0x3d1d2db0	0.03837365
24	0x3d09a0c7	0.033600595
25	0xbc9e5419	-0.01932721
26	0xbaa3c989	-0.0012495975
27	0xbbfd91e3	-0.0077383383
28	0x3d2fd812	0.04293067
29	0x3cb578d7	0.022152347
30	0xbc2f5ff8	-0.010704033
31	0x3aa28b02	0.0012401047
32	0xbcdf3803	-0.027248388
33	0x3d0fd543	0.03511549
34	0x3d3c437e	0.045962803
35	0xbd517ab7	-0.05114242
36	0x3d841725	0.06449727
37	0x3d0af18c	0.033921763
38	0x3bd053a2	0.006357626
39	0x3c9e0d3d	0.019293422
40	0x3c640713	0.013917702
41	0x3c82d699	0.015971469
42	0x3ce40ef9	0.02783917
43	0x3d554ae4	0.052073374
44	0xbbde7e89	-0.0067899865
45	0x3b118f42	0.0022210632
46	0x3c9658ad	0.01835283
47	0xbc93d5f0	-0.01804635
48	0x3d152cc6	0.036419652
49	0x3d75a1d9	0.059968803
50	0x3d9201f8	0.07129282
51	0x3d576c3f	0.052593466
52	0x3c23e859	0.0100041265
53	0x3ce00aeb	0.027348956
54	0x3d3df012	0.046371527
55	0xbce8b599	-0.028406905
56	0xbd17b278	-0.037035435
57	0xbca9f1ee	-0.020745244
58	0x3d182af2	0.03715033
59	0x3bcb96e0	0.006213054
60	0x3d7654f7	0.060139623
61	0xbd064e74	-0.032789662
62	0xbd735d71	-0.059415285
63	0x3ce293a6	0.027658295

fc3.weight f4 [10, 64]
0	0xbea922de	-0.33034414
1	0xbd810827	-0.06300383
2	0xbeb8dce3	-0.36106023
3	0xbd2d5408	-0.042316467
4	0x3e0b2037	0.13586508
5	0xbe9f574d	-0.31121293
6	0x3ea2687c	0.3172034
7	0x3e9d9e3e	0.30784792
8	0x3d37041d	0.044681657
9	0xbdf36881	-0.11885167
10	0x3e18034f	0.14845012
11	0x3d2513e0	0.040302157
12	0x3de73256	0.11288898
13	0x3d8a1112	0.06741537
14	0x3eaeeb88	0.3416407
15	0x3e2eeed6	0.17083296
16	0xbe994f3f	-0.29943272
17	0x3dee7769	0.116438694
18	0x3d4a86e6	0.049445055
19	0x3cb98102	0.022644524
20	0xbd6ad3e7	-0.057330992
21	0xbeef0ba9	-0.46688583
22	0x3ed848ec	0.42243135
23	0x3e3e42f5	0.1858023
24	0xbf169600	-0.5882263
25	0xbdda501f	-0.10659813
26	0x3e2f3a1a	0.17112008
27	0x3e91848e	0.28421444
28	0xbd369c21	-0.04458249
29	0x3dd77556	0.10520427
30	0xbdf13486	-0.11777596
31	0xbd8b17e2	-0.06791665
32	0xbd8aba76	-0.06773846
33	0x3dc7c19a	0.097537234
34	0x3e8018c6	0.250189
35	0x3eaa8145	0.3330175
36	0xbe6235bf	-0.22090815
37	0xbea8abd0	-0.32943583
38	0x3dbc3e89	0.09191615
39	0xbda05924	-0.07829502
40	0x3cd84fd9	0.026405262
41	0x3edf22f4	0.43581355
42	0xbe3e3a8c	-0.18577021
43	0xbdc4b3b4	-0.09604588
44	0x3e81115e	0.25208563
45	0xbe9914f1	-0.2989879
46	0xbc36d870	-0.011160001
47	0xbf23bbc5	-0.6395839
48	0x3c23fef2	0.010009514
49	0x3f09496d	0.53627664
50	0xbe69ee18	-0.22844732
51	0x3efb21dc	0.4904927
52	0x3e700968	0.23441088
53	0xbf0b07c1	-0.54308707
54	0x3d9013ad	0.07035003
55	0xbc04b6fb	-0.008100267
56	0x3e8416ad	0.2579855
57	0x3d15bafd	0.03655528
58	0x3d01cdab	0.03169028
59	0x3cfc20f8	0.03077744
60	0x3e977f48	0.29589295
61	0x3c8e9fe5	0.017410228
62	0xbc528f32	-0.012851523
63	0xbd861a51	-0.06547988
64	0xbdc3f90d	-0.09568987
65	0x3e203bc4	0.15647799
66	0xbe79e604	-0.2440415
67	0xbd574723	-0.052558076
68	0xbd872376	-0.065985605
69	0xbf143ff5	-0.5791009
70	0xbe322ce2	-0.17399934
71	0xbdab9182	-0.08377363
72	0xbc07679d	-0.008264449
73	0x3c1a0698	0.009400986
74	0xbeb9b1a9	-0.36268356
75	0x3e887b5c	0.26656616
76	0x3e5c3b43	0.21506982
77	0x38e3c74c	0.000108613254
78	0x3d00e50d	0.03146844
79	0x3c90b6d4	0.017665304
80	0x3ea6661f	0.32499787
81	0x3d075200	0.033037186
82	0x3e931830	0.2872939
83	0x3db3469f	0.08753704
84	0x3d399b89	0.045314346
85	0xbe1a631b	-0.15076868
86	0xbd9443b4	-0.07239476
87	0x3e24d48d	0.16096707
88	0x3f1a80be	0.60352695
89	0x3d089ce6	0.033352755
90	0x3e2bd93f	0.16782092
91	0xbd96fa72	-0.073719874
92	0x3e057260	0.13031912
93	0xbcc072f0	-0.023492306
94	0x3d432f31	0.047652427
95	0xbdb3c89c	-0.087784976
96	0xbd26b51d	-0.040700067
97	0x3eaddc7d	0.33957282
98	0xbca17fd2	-0.01971427
99	0x3d92301b	0.07138082
100	0x3dee80f9	0.11645693
101	0xbe836639	-0.25663927
102	0x3dbd6d0f	0.09249317
103	0x3f4c3832	0.7977325
104	0xbf482d16	-0.78193796
105	0xbe1f8a01	-0.15579988
106	0x3dc33729	0.09532005
107	0xbeebf09a	-0.46082002
108	0x3cd942c9	0.026521103
109	0xbe88b78f	-0.26702544
110	0xbe5357f6	-0.20639023
111	0x3ea724ec	0.32645357
112	0x3e440dc3	0.19145875
113	0xbec73c28	-0.38913083
114	0xbe828f79	-0.25500086
115	0xbec6eca0	-0.38852406
116	0xbeab1307	-0.33412954
117	0x3f039c8a	0.51410735
118	0x3e2bdbcf	0.16783069
119	0xbdc41929	-0.095751114
120	0xbe32cf41	-0.17461874
121	0xbdaa1a49	-0.08305795
122	0xbcfaad53	-0.030600226
123	0xbb526e3b	-0.003210916
124	0xbef584fe	-0.47953027
125	0x3e75e553	0.24013261
126	0x3ddb9d19	0.107233234
127	0xbe45f4db	-0.19331686
128	0xbe80a1ee	-0.25123543
129	0x3f10ecef	0.5661153
130	0xba61dafb	-0.00086156995
131	0x3d7637a9	0.060111675
132	0x3db8553c	0.09000632
133	0x3d0be6cb	0.03415565
134	0x3ed85a73	0.42256507
135	0xbec4129d	-0.3829545
136	0x3e37a13d	0.17932601
137	0xbe267080	-0.16253853
138	0xbdecfb22	-0.11571337
139	0xbf1acd6b	-0.6046969
140	0xbd2e41be	-0.042543165
141	0xbe97ebb5	-0.29672018
142	0xbe027c7e	-0.12742803
143	0xbd990342	-0.074713245
144	0xbf1139ec	-0.56729007
145	0xbdd9a20e	-0.106266126
146	0x3eb3590b	0.35028872
147	0xbe18e8d9	-0.14932574
148	0x39d485bf	0.0004053544
149	0x3f270d1b	0.6525437
150	0x3e65233e	0.22376725
151	0x3ea268b1	0.31720498
152	0x3e8b634f	0.27224204
153	0xbdcab1f5	-0.09897224
154	0xbdd7bdf5	-0.10534278
155	0x3eb11dc8	0.34593034
156	0x3e71d387	0.23615848
157	0x3c0423fe	0.008065222
158	0x3f34f6f3	0.70689315
159	0x3e75f5bf	0.24019526
160	0xbd2d4bea	-0.042308725
161	0x3f089a04	0.5336001
162	0x3e9f3c84	0.31100857
163	0xbe396377	-0.18104349
164	0xbe221d5a	-0.15831509
165	0x3ec601b3	0.3867317
166	0x3d0a3180	0.033738613
167	0xbe7b0cd1	-0.24516608
168	0xbf29ebee	-0.66375625
169	0x3ef3e21f	0.47633454
170	0xbdcd20a3	-0.100159906
171	0x3de02eea	0.10946448
172	0xbe52ee2c	-0.20598668
173	0x3dd1dd44	0.10247281
174	0x3f0c7cfe	0.5487822
175	0xbd9d2851	-0.07673705
176	0xbca61671	-0.020274373
177	0xbde42e61	-0.111416586
178	0xbe5a2529	-0.21303238
179	0x3ed10e3c	0.40831172
180	0x3e816a5c	0.25276458
181	0xbe2cd76f	-0.16879056
182	0xbebb0765	-0.3652908
183	0xbd1b7c23	-0.037960183
184	0xbf598de5	-0.8498214
185	0xbdf0a23f	-0.11749696
186	0x3eeb2610	0.45927477
187	0xbc3c350e	-0.011487259
188	0x3e772e3e	0.24138734
189	0xbe3397a8	-0.17538321
190	0xbdb9ceb7	-0.09072631
191	0x3ed624ac	0.41824853
192	0xbeb793a2	-0.35854822
193	0xbe924f25	-0.28576007
194	0xbe91c989	-0.28474072
195	0x3dc81ac8	0.09770733
196	0x3da224f7	0.07917207
197	0xbea0f707	-0.31438467
198	0xbc2496e1	-0.010045738
199	0xbefbd712	-0.49187523
200	0xbdad61dc	-0.08465931
201	0x3e415aa0	0.18882227
202	0x3df03c91	0.11730302
203	0x3f1c3b3a	0.6102787
204	0xbe701147	-0.23444091
205	0x3f5631f0	0.8366995
206	0xbe09514e	-0.13409922
207	0x3e5d8611	0.21633174
208	0xbf3a6afc	-0.72819495
209	0x3deb7893	0.11497607
210	0xbe9417cd	-0.2892441
211	0xbe082de1	-0.13298751
212	0x3dc0c3a6	0.09412317
213	0xbd86b8fa	-0.0657825
214	0xbea6668b	-0.3250011
215	0xbe667ab9	-0.22507752
216	0x3f057fcc	0.5214813
217	0xbd815160	-0.06314349
218	0xbaa7bf0c	-0.0012798025
219	0xbeef3e72	-0.4672733
220	0xbf0fb8e0	-0.5614147
221	0xbd0bb54f	-0.034108456
222	0x3f09fab2	0.53898156
223	0x3eb8a7eb	0.3606561
224	0xbcb35a68	-0.021893695
225	0xbed6cd0a	-0.41953307
226	0x3f1ba5f8	0.60800123
227	0xbddd6100	-0.10809517
228	0x3e15eb27	0.14640485
229	0x3f131d29	0.5746637
230	0x3cadb340	0.021203637
231	0xbf0ce152	-0.5503131
232	0x3da929cd	0.08259926
233	0xbebcf120	-0.36902714
234	0x3ee5908a	0.44836837
235	0xbe7cf767	-0.24703752
236	0xbde614df	-0.112344496
237	0x3f0ca4a5	0.5493873
238	0x3dfbec70	0.12300956
239	0x3e6d8a0c	0.23197192
240	0x3e2e70a5	0.17035158
241	0xbdfa79de	-0.122302756
242	0xbf14c1fa	-0.58108485
243	0xbd810300	-0.062994
244	0xbc98df70	-0.01866123
245	0xbd8ac4b1	-0.06775797
246	0x3d00144d	0.03126936
247	0xbdf12874	-0.11775294
248	0x3e85c016	0.26123112
249	0xbe31c761	-0.17361213
250	0x3c801f8a	0.015640039
251	0xbce8c5af	-0.028414575
252	0xbec38f0d	-0.38195077
253	0xbdd5d9db	-0.10441943
254	0x3df1a03a	0.11798139
255	0xbe75cd4a	-0.24004093

fc3.bias f4 [10]
0	0x3bc56027	0.006023425
1	0xbbc8b8fa	-0.0061255665
2	0xbc50ac26	-0.012736356
3	0x3e1102da	0.14161244
4	0xbc8983ff	-0.016786573
5	0xbd3f856c	-0.0467581
6	0xbd456052	-0.04818756
7	0xbd551f60	-0.052031875
8	0xbd9d3bbd	-0.0767741
9	0x3dc540e9	0.09631521
