personalExps/MnistFC/models/MediumMnistModelL21e-3.pt (torch, 875102 bytes, 6 tensors)

fc1.weight f4 [256, 784]
000000 a7 8c 85 3c 61 0b 8d 3c d5 5a 19 3b b4 30 97 3c
       0.01630242 0.01721734 0.0023400087 0.01845584
000010 82 40 27 3b ee 35 0a 3c 52 14 9c ba c1 7f 62 3c
       0.0025520627 0.008435709 -0.0011907911 0.013824404
000020 4e f2 92 3c 00 0f 98 bb b1 88 91 3c b6 db 06 3c
       0.017937806 -0.00464046 0.017765375 0.008231094
000030 6f c4 82 3c 9e 69 f7 3b 46 65 4a 3c 8e 9f 6e 3b
       0.015962807 0.0075504323 0.012353247 0.003641102
000040 45 46 86 3c 0a b2 fb 3b 29 d2 6e ba de 5f 16 3c
       0.016390929 0.007681136 -0.0009110296 0.00917813
000050 03 71 58 ba 2a 45 82 3b ac 97 83 b8 11 ed 73 3c
       -0.0008256586 0.00397553 -6.274818e-05 0.014888064
000060 59 97 b1 bb f7 73 59 ba 5e 93 da 3a be dc 36 bb
       -0.0054196534 -0.0008295173 0.0016675999 -0.0027902569
000070 4e 38 e3 3b e7 36 06 bc 59 6a 95 3c f7 1d cd bb
       0.0069342023 -0.008191801 0.018239187 -0.0062596756
000080 01 68 86 3c f3 20 02 3c 34 09 97 3a 39 26 6c 3c
       0.016407015 0.007942426 0.0011523128 0.01441341
000090 9f 0d 00 3c ff 8e 8a 3c da de ed 3b 0b 70 b7 3a
       0.0078157475 0.016913889 0.007259232 0.0013995183
0000a0 2f d3 21 3c f2 ea 00 3b e7 63 49 3c 6f 24 9f 3c
       0.00987701 0.0019671288 0.012291885 0.019426553
0000b0 37 b3 3a 3c df a1 9b ba 03 35 66 3c 0c 29 0b 3c
       0.011395267 -0.0011873803 0.014050725 0.008493673
0000c0 25 de 54 3c 27 e4 2e bb 5c d6 04 bc 4e db 81 39
       0.0129924165 -0.0026686282 -0.008107748 0.00024768192
0000d0 17 5a a7 bb da f5 8b 3c 7d f6 1d 3c 8c dc 3a 3c
       -0.005107175 0.017085005 0.009641287 0.011405122
0000e0 63 6d 24 3c 1f 05 b0 3b df 9e 87 3c 1e 4e 8d bb
       0.010035845 0.005371704 0.016555248 -0.004312291
0000f0 73 22 d5 3b 84 80 80 bb 7e 27 25 3c 46 e5 91 3a
       0.006504351 -0.0039215703 0.010080216 0.0011130951
000100 33 23 21 3c c5 08 47 3b f2 d5 95 3c 55 5a ad ba
       0.009835052 0.0030370217 0.018290494 -0.0013225774
000110 c4 99 46 b9 4b bd f4 3b b1 fd ba 3c 4c 81 93 3c
       -0.00018940034 0.0074688545 0.022826048 0.01800599
000120 8c 1f cb 3c ec 15 31 bb 28 5e a7 bb e4 bf 1f bb
       0.024795316 -0.0027021123 -0.00510766 -0.002437585
000130 1c 96 2c bb 92 74 47 3c 05 9d 3c 3c 95 67 8e 3c
       -0.002633459 0.012173789 0.011512046 0.017383376
000140 c7 67 ce ba ee 32 81 bb 0f 83 55 3c 29 bd 14 b8
       -0.0015747481 -0.003942839 0.013031735 -3.546212e-05
000150 6d ff 66 3c aa 94 16 3b f4 b1 61 3c fa 02 a9 bb
       0.014098984 0.0022976794 0.0137753375 -0.0051578255
000160 ed e6 b5 ba 46 41 29 3c d2 10 1d 3c 22 58 88 3b
       -0.0013878025 0.010330504 0.00958653 0.004160897
000170 aa 25 6a 3c b7 39 2e 3c 5a cb 23 bc 4d 10 d9 bb
       0.014291206 0.0106338775 -0.009997213 -0.0066242577
000180 de fb 91 3c 52 08 a4 3b 8d b0 11 3b 0f 7f 48 bc
       0.017820295 0.0050058747 0.0022230477 -0.012237324
000190 0a 40 78 bb 78 f1 8c 3b 06 3c 90 3b b4 ce 84 3b
       -0.0037879967 0.0043012463 0.0044016866 0.0040529612
0001a0 71 4f 32 3c 1a 92 36 bb 6a 7b 2e bc f4 c7 5a bb
       0.010883198 -0.002785808 -0.010649541 -0.0033383342
0001b0 14 02 c8 bb 8c bb 56 bb 33 85 a0 3c 8e 40 07 3c
       -0.0061037634 -0.0032765595 0.019594764 0.008255137
0001c0 53 92 22 3c b1 39 f3 bb e4 f5 44 bb 8a 85 a3 3a
       0.009922582 -0.007422649 -0.0030053789 0.0012475711
0001d0 af 6f 10 3c 2e 8f 9d ba a8 08 de 3b 59 0a ba ba
       0.00881569 -0.001202082 0.0067759342 -0.0014193758
0001e0 9b 5d 0c 3c d8 b3 a9 bc b2 e8 3c bc 5d ec 20 bc
       0.008567239 -0.020715639 -0.011530088 -0.009821978
0001f0 42 25 b2 ba d7 ab cb 3c 8f 30 86 3b 18 ef b3 bb
       -0.0013591426 0.024862213 0.004095144 -0.0054911487
000200 ba 7f f1 bb e1 f3 2b bd 67 01 11 bc 3a b1 a1 bb
       -0.0073699625 -0.041980628 -0.008850432 -0.004934457
000210 dd 66 f1 bc 82 59 c6 bb 07 10 98 bc 23 29 ef bb
       -0.029467994 -0.0060531506 -0.01856233 -0.007298605
000220 17 d0 09 bc 0c 79 15 bc 8f 04 10 3c aa 3b 1a 3b
       -0.008411429 -0.009123098 0.008790149 0.0023534098
000230 6b 29 35 3c 7e ec bf bb 10 c8 83 3c 75 c1 5e bb
       0.011057238 -0.0058570495 0.016086608 -0.003398982
000240 2e 4e f3 3b 06 bd 9d 3c c0 12 b8 3c a0 eb a0 3c
       0.007425091 0.019255172 0.022469878 0.019643605
000250 a2 ef e8 3b 30 16 c4 bc 7e 8f 8e bc 33 4c 27 bc
       0.0071086446 -0.023936361 -0.017402407 -0.010211038
000260 b8 60 9c 3c 3d 94 34 3c 04 19 84 3b e0 61 6e 3b
       0.019089088 0.011021671 0.0040313024 0.0036374256
000270 79 a9 a3 bc 11 5e 28 bd 61 8c 13 bd 81 26 0e bd
       -0.019978272 -0.041105334 -0.036022548 -0.03470469
000280 94 bf 01 bd 9b 9a 3b bd 6b 10 03 bd 06 80 9f bc
       -0.031676844 -0.04580174 -0.03199808 -0.019470226
000290 57 59 aa 3b da d2 23 b9 5c 81 f3 ba 5b 55 90 3c
       0.0051986384 -0.0001562344 -0.0018577981 0.017618826
0002a0 9b 0e 0f 3c 16 e3 0a bb 8d 7a c4 ba 58 ca e6 3b
       0.00873151 -0.0021192483 -0.0014990136 0.007043164
0002b0 49 64 8a 3c 81 01 d5 bb 68 22 42 bc 4f f5 41 bc
       0.016893523 -0.0065004234 -0.011849023 -0.011838271
0002c0 8b 61 f1 bc 3e f4 20 bc da c0 a4 bb a5 d6 be bb
       -0.029465457 -0.009823857 -0.0050278725 -0.0058239275
0002d0 76 94 84 bb 3b d0 6a 3c 9d dd a6 3b 6f bc dd 3b
       -0.0040460182 0.014331873 0.0050923363 0.006766848
0002e0 06 cb 16 3d 28 de 49 3c e3 a9 14 bc 0b 4d 55 bd
       0.036814712 0.012321033 -0.009073707 -0.052075427
0002f0 70 11 89 bd 41 db 45 bd 13 32 3f bd 19 5c c4 bc
       -0.06692779 -0.0483048 -0.046678614 -0.023969697
000300 a6 88 44 ba 4e 4d 25 3c 9b 05 42 3b 54 6f 11 3b
       -0.0007497169 0.010089232 0.0029605392 0.00221916
000310 34 ac be 3b 25 9a 9d 3b 0c 3a 11 3c 85 bd 56 3c
       0.005818868 0.004809635 0.008863937 0.013106708
000320 82 0a e6 bb 71 58 d6 bc 11 97 50 bb d9 cd 71 bc
       -0.0070202956 -0.026165219 -0.0031828324 -0.014758551
000330 a8 dd ea bc 1d 81 60 bc 06 90 a9 bc 88 bb 28 bc
       -0.028670147 -0.013702658 -0.020698559 -0.010298617
000340 bb 8a 94 bb 86 88 92 3c 91 3f 38 3d 04 03 02 3d
       -0.0045331395 0.017887365 0.044982497 0.031741157
000350 5f 0e 69 3c 17 76 db bb 8b fd 32 bd 70 26 f9 bc
       0.014224618 -0.006697427 -0.04369883 -0.030413836
000360 7b ff 06 bd 31 dc 4a bd e4 61 18 bd d4 49 02 bd
       -0.03295849 -0.049526397 -0.03720273 -0.03180869
000370 99 19 f4 bc 2f e6 20 3b 5b f2 a0 bb 91 54 1c 3b
       -0.029797362 0.0024551263 -0.0049117035 0.0023854116
000380 4f 3f 08 bc d0 03 7a 3c 4d 28 8a 3c 47 74 45 3c
       -0.008315875 0.015259698 0.01686492 0.012051648
000390 27 96 a7 ba 21 50 f6 bc 14 a8 13 bd 46 af 0a bc
       -0.0012785838 -0.030067505 -0.036048964 -0.00846464
0003a0 0e fd 68 bc be 9d 39 3a c0 92 90 3c 60 41 52 ba
       -0.014220489 0.00070806954 0.0176481 -0.0008020606
0003b0 ff 79 31 bc 25 95 05 bd 5f 50 82 3c 9e 90 14 3d
       -0.010832309 -0.03261294 0.015907465 0.03627073
0003c0 de 14 a1 3c 4c ca 0f bc 81 f3 e1 bc 22 03 c3 bc
       0.01966327 -0.008776259 -0.027581932 -0.023805205
0003d0 88 d4 ac bc 32 2e 1b bd d4 f3 15 bd 06 f0 c5 bc
       -0.021097437 -0.037885852 -0.036609486 -0.024162304
0003e0 da 31 11 bd ae 4b c0 bb 1c 70 56 bb 7d 64 a8 bb
       -0.035447933 -0.0058683967 -0.003272063 -0.0051389323
0003f0 b6 db 4e 3b 3e 91 60 ba 66 a2 fd 3a f8 e6 a3 bb
       0.0031564063 -0.00085665646 0.0019350767 -0.005001899

fc1.bias f4 [256]
000000 a9 f4 33 3b 46 f3 41 bb bd 56 01 3c 40 16 57 3b
       0.0027459061 -0.0029594465 0.007894215 0.0032819659
000010 54 e8 9d bb f5 e8 f5 bb d8 7e 09 bc 3c 8d 19 bc
       -0.0048189554 -0.0075045773 -0.008392058 -0.009372052
000020 a9 9e 0a bb e8 2d 65 3c e4 fb 4e bc 82 0d 05 bc
       -0.0021151698 0.013987996 -0.012633298 -0.008120896
000030 3d 41 ea 3a 03 3d c2 3b c6 77 27 3c 98 b2 06 bc
       0.0017872226 0.0059276833 0.010221427 -0.008221291
000040 04 ed 35 3a 5a 3d 4f ba 11 56 62 3c 7e 04 dc bb
       0.000693992 -0.00079055654 0.013814465 -0.0067144027
000050 8a 01 52 3c 28 f1 28 3c e1 cb 6e 3b a4 f6 ef 3b
       0.01281775 0.010311402 0.003643744 0.007323103
000060 84 18 df bb 89 cf 11 bb 01 b6 67 3b 8a 18 5f 3c
       -0.0068083424 -0.0022248945 0.0035356286 0.01361669
000070 96 ed a5 39 99 9c 42 bb f7 b3 19 3c 7c 32 e3 ba
       0.00031648268 -0.002969539 0.009381286 -0.0017333771
000080 7e 12 24 bc cb e9 50 3c 6a 4c 3c bc 09 59 76 3c
       -0.0100141745 0.012751053 -0.011492828 0.015035876
000090 cd c7 98 bb cf 57 82 3c 4d 64 b1 bb 76 47 31 3c
       -0.00466249 0.015911011 -0.005413568 0.01082026
0000a0 9f c5 cd 3b 9a c6 3c 3c cb 4f 4f 3c 9b c3 2c 3c
       0.006279662 0.01152196 0.0126533015 0.010544683
0000b0 9d 97 8c 3b 8f 24 05 bc f5 66 79 3c 36 75 41 3c
       0.0042905346 -0.008126392 0.015222301 0.01180773
0000c0 40 0a 39 bc b9 cf 12 3b e1 19 d6 39 ba 48 40 3c
       -0.011293948 0.0022401644 0.00040836542 0.011736089
0000d0 c9 95 f6 3b 00 32 77 3c 36 88 a5 bb b0 cb 5c 3c
       0.00752518 0.0150876045 -0.005051638 0.013476297
0000e0 39 f9 5a 3b 6d 92 06 3c b9 d1 91 3b e4 4b 26 bc
       0.0033412708 0.008213622 0.0044500497 -0.01014993
0000f0 c8 18 d2 3b 6f 2a 42 b9 1b fd 6e bb 55 30 29 bc
       0.0064116456 -0.0001851709 -0.003646678 -0.010326465
000100 9e 89 44 ba a5 79 29 bb 1f ac f2 bb 4d 04 4f 3b
       -0.0007497313 -0.002585986 -0.0074057723 0.0031588257
000110 87 99 2d b9 2e 7d 2c bb 0b 25 91 3b d0 92 5a bc
       -0.00016555759 -0.002631973 0.0044294647 -0.013340667
000120 70 d9 62 3c 35 65 05 3c ea 0d 55 bc 32 56 70 3b
       0.013845786 0.008141805 -0.013003806 0.003667247
000130 4c f3 80 3b 7f cf 90 bb 04 6d 14 bc a5 f6 74 bc
       0.0039352532 -0.0044192667 -0.0090591945 -0.014951383
000140 11 55 3d bc 65 14 62 3a e5 63 02 3b f9 1b 53 3c
       -0.011555926 0.0008624255 0.0019895968 0.012885087
000150 f2 2e c0 bb 7d f6 09 3c 10 c1 dd bb db b4 4f bc
       -0.0058649713 0.008420584 -0.0067673996 -0.012677397
000160 64 0a b1 3b 64 8e 6c 3c a3 e4 36 3c 2f 25 93 bb
       0.00540285 0.014438245 0.01116291 -0.0044905166
000170 ac ca 3b 3c 11 93 af bb a3 94 d4 3b 04 a2 14 bc
       0.011461895 -0.005358108 0.0064874454 -0.009071831
000180 8f 18 4d bc 5c c6 52 3c d6 bf f2 bb b9 2d 6e 3b
       -0.012518062 0.012864675 -0.0074081225 0.003634317
000190 86 4e 49 3c a8 5e 12 bc a7 df 5a bc 72 d4 8f 3b
       0.012286788 -0.008933701 -0.013358987 0.004389339
0001a0 56 b2 7f bb 02 3a d2 bb d0 57 6a bb fd 12 57 bc
       -0.0039016209 -0.0064156065 -0.0035757907 -0.013127086
0001b0 e7 59 12 3a fa 50 a3 3a 33 2c 2c bc 1e c0 9f bb
       0.00055828545 0.0012460046 -0.010508585 -0.004875197
0001c0 03 3e 13 3c 1e 57 e8 bb 17 57 d4 bb 6e 3d bd 3b
       0.008986953 -0.0070904633 -0.0064801085 0.0057751453
0001d0 2b bf 0d bc b8 84 57 bc d0 88 26 bc 72 d3 4f 3b
       -0.008651535 -0.013154201 -0.010164455 0.0031711725
0001e0 99 a4 1f 3c 12 d0 09 3c 98 0a 69 3c 42 f3 18 bb
       0.009743833 0.008411424 0.014223717 -0.0023338352
0001f0 9a 39 80 bb f4 90 8c 3c 1c 6f 5f bb f1 38 1b 3c
       -0.0039131166 0.017158963 -0.0034093326 0.009474025
000200 3b 8b 18 3c ad f3 69 bc 94 5c 2a 3a 6d de 58 3c
       0.009310539 -0.014279288 0.00064987806 0.013236624
000210 72 15 52 3c ce c8 27 bc f5 d7 58 3c 0a de 51 3c
       0.012822496 -0.010240747 0.013235082 0.012809286
000220 d8 35 02 3c cb 39 d1 3b 5a f5 62 bb 20 55 23 3b
       0.007947408 0.0063850633 -0.0034631104 0.0024922565
000230 b4 a2 04 bc 1e e3 36 3c 58 5c 91 bb 52 32 43 bc
       -0.008095432 0.011162547 -0.004436057 -0.011913853
000240 36 89 04 bc a2 7d 0b bc d7 1f 22 3c 7b 9f 75 bc
       -0.008089354 -0.00851384 0.0098952865 -0.014991636
000250 48 a2 d4 bb c7 81 67 3a 52 fb 89 bb 3f fb f2 3a
       -0.006489072 0.0008831289 -0.004210868 0.0018538012
000260 4c b9 61 3b 18 1a d0 3a 15 20 52 bc 48 b7 c3 3b
       0.003444272 0.0015876917 -0.012825032 0.0059727766
000270 2f b1 1d 3b f4 04 9c 3b c7 6e 05 3b db 16 56 3b
       0.0024061908 0.0047613326 0.0020360218 0.0032667432
000280 b6 dd f0 bb 74 ce a5 bb 35 6c 88 b8 e2 5c 61 bb
       -0.0073506488 -0.0050600115 -6.5051405e-05 -0.0034387638
000290 2b 21 38 3c a0 d8 47 bc 00 f3 b0 bb 21 23 15 3c
       0.011238377 -0.0121976435 -0.0054000616 0.009102614
0002a0 8b ca 08 bc b0 b5 87 3b 3a 44 df bb 41 b3 15 bc
       -0.008349071 0.004141532 -0.006813553 -0.009136976
0002b0 40 09 1c bc ad 19 df 3b 41 38 6d 3c 47 cb ff 3b
       -0.00952369 0.0068084807 0.014478744 0.007806215
0002c0 f0 f7 8e bc 1f c5 01 bc 83 3e 5d 3c 2a 44 f2 bb
       -0.01745221 -0.0079205325 0.0135036735 -0.0073933797
0002d0 02 2c bd b8 4f 28 2c 3c 7d 28 b2 ba b2 03 cc 3a
       -9.0204194e-05 0.010507657 -0.0013592389 0.0015565066
0002e0 45 ec c4 bb 25 82 41 bc 0c 8a 2f 3b 41 3c f5 bb
       -0.006009611 -0.011810814 0.0026785163 -0.0074839895
0002f0 34 bc 41 3c fb d9 5b 3c 7f 05 0a 3c fc 1d 56 bc
       0.011824656 0.01341867 0.008424162 -0.013068672
000300 0f 26 89 3c 80 64 9d ba 17 db b8 b8 3c 9c 51 bc
       0.01674178 -0.0012008101 -8.8146124e-05 -0.012793597
000310 9f ba 2c bc 6e b2 ee 3b 5d 43 8d 3c 0c bd a4 bb
       -0.010542541 0.007284454 0.017244035 -0.005027419
000320 9b 1b 0a 3c 16 a9 42 bc 1e 4c 50 bc 61 33 3f 3c
       0.008429433 -0.011881134 -0.01271346 0.0116699645
000330 55 0c 13 bc 1a a0 3d 3c 7a 4b 64 3c 33 a8 b5 3b
       -0.008975108 0.011573816 0.013934011 0.0055437325
000340 c1 75 71 ba 30 9e b2 3c 87 46 35 bc c0 72 68 3c
       -0.0009210967 0.021803945 -0.011064178 0.014187515
000350 b5 65 db ba 07 bf f1 3b d9 e7 3f bb f8 ac 7f bb
       -0.0016738685 0.0073775086 -0.002928248 -0.003901301
000360 63 79 6f 3b bf 11 ec 3b f1 71 9c bb 3f 54 80 3c
       0.0036540858 0.007204264 -0.004774325 0.015665172
000370 67 ce b7 bb b9 f0 1b 3b df 6c 1d 3c 8b e0 06 bc
       -0.005609322 0.0023794605 0.009608476 -0.008232246
000380 9f 01 2c bc fc 9e 8f bb 3d a3 1d 3c e1 1e 50 3c
       -0.010498433 -0.004382966 0.009621439 0.012702675
000390 c4 6c 82 bc 54 5b e7 3b 98 4b 0e 3b 83 0d 56 3c
       -0.015921004 0.0070604477 0.0021712538 0.013064745
0003a0 82 0d 61 3c 53 63 b8 3a 2c 3e 77 3c c9 f2 86 3b
       0.013736131 0.0014067687 0.0150905065 0.0041182977
0003b0 97 81 0e 3b 0d c6 d4 bb c0 99 b4 bc 3b a0 dd bb
       0.0021744722 -0.006493336 -0.02204597 -0.0067634857
0003c0 b3 6f eb bb 5a 2e 47 3b 71 98 1e bc 4f 6f 26 3c
       -0.0071849464 0.0030392618 -0.0096799 0.010158374
0003d0 18 4d 00 bc d6 e8 ac bb ab 27 ab bb 97 40 ec ba
       -0.007830881 -0.0052767796 -0.0052232346 -0.001802462
0003e0 84 9b e6 bb 04 f8 23 3c 02 f2 bc bb 09 db 3e 3c
       -0.007037582 0.010007862 -0.0057661543 0.011648902
0003f0 7c bc 58 3c 3a 9f 67 3c ad 9a fd 3b 3e 70 45 38
       0.013228532 0.014137084 0.007739386 4.7072994e-05

fc2.weight f4 [64, 256]
000000 ed 7a af bd 9f 4a 75 bb c4 5e 3d be c0 6c 1a 3c
       -0.08568368 -0.003742851 -0.18493181 0.009425342
000010 30 6b 5f 3d 28 90 39 be c0 43 cf bc a4 cf 1d 3d
       0.05454558 -0.18121397 -0.02530086 0.0385281
000020 d2 fc ec bd 23 b1 bd 3d 03 7b e0 bd 12 51 e8 bd
       -0.11571659 0.09262302 -0.109609626 -0.11343588
000030 3e 29 d3 bd 0a 16 06 3c 3e 51 b6 3d 59 dc 5d bc
       -0.10310601 0.008183965 0.089022145 -0.0135413045
000040 43 ff 4c 3c 6b 10 21 be 51 33 27 bd ab c4 b4 3d
       0.012512031 -0.15728919 -0.040820424 0.08826574
000050 2b 35 9f bc 17 53 b0 bd 82 62 c2 bd 5a 1b 4a be
       -0.019434532 -0.08609598 -0.09491445 -0.19736996
000060 e0 83 40 bc f8 27 0d be c8 3c 05 bb 63 27 d3 bb
       -0.011750191 -0.13784778 -0.0020330418 -0.0064439042
000070 bd 9d 3b bb bc 6c 8e 3d 6a 20 30 be fd 5e f9 39
       -0.0028627955 0.06954333 -0.17199865 0.00047563753
000080 3c a9 33 3d fd 3d 0c 3c e0 7f 0e bd 40 95 4d 3d
       0.043862566 0.008559701 -0.03478992 0.050191164
000090 c5 17 53 3d 21 dc 9f 3c 07 91 2a be 24 55 34 3d
       0.05153634 0.019514145 -0.16656886 0.04402651
0000a0 c6 ff 2e 3d fa bd 86 3d 2e 73 8c 3d dd bc c9 bd
       0.042724393 0.06579204 0.06857906 -0.09850476
0000b0 44 e0 39 bc c0 07 b5 bc a9 f8 f5 3b 82 36 9f bd
       -0.011344973 -0.022098422 0.0075064492 -0.077740684
0000c0 40 a0 33 be 8f c2 74 bd 67 d2 8e 3c ed 0d 51 3c
       -0.175416 -0.059755858 0.017434312 0.012759668
0000d0 e1 40 16 3c f0 39 18 3d ca 7a 77 3c db bb e1 3c
       0.009170742 0.03716463 0.015104959 0.027555397
0000e0 33 db 41 3d 54 fc 9c 3d d7 8b f2 ba 91 16 fb 3c
       0.047328185 0.07665315 -0.001850481 0.030650409
0000f0 8a 0b 18 bd 8f dd 73 bd 22 d6 21 3c 21 3b 0b 3d
       -0.03712038 -0.059537467 0.009877713 0.033991937
000100 aa 3f b0 3d 4d 29 85 bc 4c bc 7e 3d 51 d3 bf 3c
       0.08605893 -0.016255045 0.062191293 0.023416193
000110 20 52 6c be 1d a4 99 3d fe bc ad 3d 0d 16 b2 3c
       -0.23078203 0.07502005 0.08483313 0.02173903
000120 93 4b 82 bd a7 07 21 bd 8c 7b bc 3d 64 4f af 3c
       -0.06362071 -0.03931394 0.09203252 0.021400161
000130 78 60 31 3d 19 d4 44 bc 28 1c b0 3b f9 f0 26 3d
       0.04330489 -0.012013459 0.0053744502 0.040757153
000140 f2 63 71 3d 4d 26 8c 3b e3 0e 0d be 06 66 d5 3d
       0.058933206 0.0042770267 -0.1377521 0.1041985
000150 b5 80 b2 bd 78 4f 67 be 6f 01 f4 bd 64 57 66 3c
       -0.08715955 -0.22588909 -0.11914336 0.0140589215
000160 bb dd 56 3d 9f eb df 3d d5 b8 33 3c 05 c5 07 3d
       0.052457552 0.10933613 0.01096936 0.033146877
000170 ea 6b d4 bb a7 b2 74 bc 14 6e 2f 3d 8a 91 10 be
       -0.006482591 -0.014935172 0.042829588 -0.14118019
000180 2e fe 05 3e 31 34 bc bc c5 f9 c8 bd 70 62 f5 3c
       0.13085243 -0.022974106 -0.09813265 0.029954165
000190 72 c9 6a 3d 98 cf f7 bd 09 c4 08 be f3 92 16 be
       0.05732102 -0.12100142 -0.13356031 -0.14704494
0001a0 bd 25 bb 3c ec d3 cf 3c e0 33 05 3e 8d 1a 25 3e
       0.022845143 0.025369607 0.1300807 0.1612341
0001b0 09 4d 4c 3d a0 1f 1a be 4a 4e b9 3b 9f b2 a5 bc
       0.049878154 -0.15051126 0.0056550847 -0.020226775
0001c0 55 f7 6f bd 2a 43 03 3d 31 7c a9 bd b8 80 8d bc
       -0.058585484 0.032046475 -0.08275641 -0.017273292
0001d0 6e 69 87 bd b7 d9 aa bd 6a ad 1a 3d ae b6 1c 3d
       -0.06611906 -0.08342307 0.037763037 0.038260154
0001e0 2d a0 05 bd 38 cb 26 bd e4 1d d0 bc b4 55 a4 bd
       -0.03262346 -0.04072115 -0.025404878 -0.08024159
0001f0 53 18 4f bd d1 25 b2 3d 3e 26 91 bd 36 10 7a bd
       -0.050560307 0.08698619 -0.07087372 -0.061050616
000200 57 fa 5a 3d 32 8f e9 bd b2 31 19 3e 19 9c 31 3d
       0.0534614 -0.114042655 0.14960364 0.043361757
000210 98 21 28 3d ed c0 18 3c d0 ba c3 3b fb a6 a0 3c
       0.041047662 0.009323341 0.0059731975 0.019610872
000220 d1 b9 ae 3c e9 0f 62 3c bb d9 8c bd 00 1f db 3c
       0.021328839 0.013797739 -0.06877466 0.02674818
000230 ea 3d d9 3d bf aa 34 3d 89 ec 1f 3d be f6 c1 bc
       0.10607512 0.04410815 0.039043937 -0.023677226
000240 23 cc b0 bd 30 0b 27 be 71 56 4d bd 16 70 91 bd
       -0.08632686 -0.16312861 -0.050131265 -0.07101457
000250 09 d8 9d 3b 1f ed 95 3d a3 8a bc bc a5 ad ca bd
       0.004817013 0.07320618 -0.023015326 -0.09896401
000260 0b 1d ac bc c5 59 10 be 30 ac ed bd de 4c 12 3d
       -0.021009943 -0.14096744 -0.11605108 0.035717838
000270 68 5d e3 3c 6a a8 8e bc 8a 2f b7 3c a5 5a 8e b9
       0.0277545 -0.01741429 0.022361536 -0.00027151886
000280 85 7c 69 3c b1 93 93 3c da 17 a6 3d 3b 49 44 bc
       0.014250879 0.01801476 0.08110018 -0.01198035
000290 1e 36 d0 3c b2 cf 63 3c e9 66 fb 3c 89 1a b3 3d
       0.02541643 0.013904499 0.03068872 0.087452956
0002a0 0e da fe bc a8 07 e1 bc 56 f4 00 be 12 ec f4 bc
       -0.031109836 -0.027469471 -0.12593207 -0.029897723
0002b0 56 30 fb 3c a6 ab 03 be 2b b6 46 3d 94 c7 53 3d
       0.030662697 -0.12858447 0.048513573 0.051704004
0002c0 a9 22 2e 3d 98 d0 44 bc 1f 48 d3 3c ba 02 8b bc
       0.042513523 -0.012012623 0.025791226 -0.016969074
0002d0 f1 3a 26 bd 99 20 ba 3b 6e ee 01 3e 74 2e c1 3c
       -0.040583555 0.0056801555 0.1268861 0.02358172
0002e0 67 94 4e 3d 1f df 03 bb 04 ff 33 bd 10 73 9b bc
       0.050434496 -0.0020122004 -0.043944374 -0.018975765
0002f0 96 d3 36 be f1 b4 8e 3c 43 de a6 bd 2b 6d 97 bb
       -0.17854151 0.017420264 -0.08147862 -0.004621168
000300 8f 4c 5c 3d 4f 25 28 be 7b 6d 55 3c c7 76 1b 3e
       0.05378395 -0.16420482 0.01302659 0.15182029
000310 6f 32 0f 3d f1 b8 cc 3c 77 bd 31 3d ec 7a 1d 3b
       0.034960207 0.02499053 0.04339358 0.0024029566
000320 bd b5 97 3b 78 fa 3a be 8c 69 76 bd ba 47 a7 bc
       0.004629819 -0.18259609 -0.06015925 -0.020419944
000330 2e 35 a1 bd 06 a6 91 3b 61 c7 9a 3d 42 5a 95 3d
       -0.07871471 0.0044448404 0.0755756 0.07292606
000340 ae 05 0c 3d 0a 6d b8 3d 04 19 96 3c 24 e7 53 be
       0.034185104 0.090051726 0.018322475 -0.20693642
000350 20 7e 38 bb b6 56 3a 3d 10 43 ec bd a5 ff 18 bc
       -0.0028151348 0.04549285 -0.11536229 -0.009338294
000360 39 64 85 3d 88 d4 34 3d ca 94 c4 bd a9 df 04 bb
       0.065132566 0.044147998 -0.09598692 -0.0020274913
000370 02 7a a2 3b cd ce 1c 3c e3 a6 e7 3c d7 4a a2 bd
       0.004958392 0.0095707895 0.02827782 -0.07924431
000380 13 28 d0 3c 61 a3 80 3c 55 ff 1a 3c 41 b3 1b 3c
       0.025409734 0.015702905 0.00946029 0.009503187
000390 80 4b 1a 3c 50 92 8a 3d 39 d5 29 3e d0 04 0a 3d
       0.009417415 0.06766188 0.16585244 0.033695996
0003a0 df 1e 0c 3c 19 7d 0e 3d af 7e 40 3d f5 ac 4b bd
       0.008552282 0.03478727 0.046995815 -0.04972549
0003b0 73 5b d6 bc db 20 b7 bc 34 02 9b 3d 74 53 ff bd
       -0.026166653 -0.022354534 0.075687796 -0.12467089
0003c0 95 b7 3c 3d cd 88 17 3d ab 76 42 bb 67 b0 ec 3c
       0.046073515 0.036995698 -0.0029672782 0.028892709
0003d0 d8 e2 28 bc ad 37 f6 bd e3 9a 12 3e 90 1e 7e 3c
       -0.01030799 -0.12022338 0.14316897 0.015510216
0003e0 ca ef d8 3c d5 1b 5e bc f0 72 86 bc cb f7 ef 3c
       0.026481528 -0.01355644 -0.016412228 0.029292962
0003f0 86 0d 3d bd 26 64 06 be 18 09 89 bd f3 de 4f bd
       -0.046155475 -0.13124141 -0.066911876 -0.05074973

fc2.bias f4 [64]
000000 16 8c 97 3c b7 f1 b1 bc 6e 4f ed 3b 1e 34 a4 3b
       0.018499415 -0.021721704 0.007242135 0.0050110957
000010 08 07 51 3c 7a 92 3d 3b bd ed 66 bc ff 2f 9f bb
       0.012758024 0.0028926418 -0.014094767 -0.0048580165
000020 d7 8d 62 3c 75 45 6f 3b 60 d1 19 3c 91 d3 e3 3c
       0.013827763 0.0036509905 0.009388298 0.027810844
000030 58 9d ff 3c 32 4b d9 3b 9e 0f 94 3b d4 31 85 3c
       0.031202957 0.0066312784 0.0045184633 0.016259111
000040 65 6a bb 3c f6 4c 2d 3b d3 92 44 3c 98 bb 25 bc
       0.022877881 0.0026443577 0.011997896 -0.010115527
000050 b8 2c 8c bc 8a b7 c5 3c e4 ac b7 3c 1f f9 99 3c
       -0.017111167 0.02413537 0.022421308 0.018795548
000060 12 5f 92 3c 5a 9b f0 bb a0 57 9b ba 87 0f 3a ba
       0.017867599 -0.007342738 -0.0011851676 -0.00070976507
000070 35 60 bc 3c 6e 4c 0f 3c dd 98 52 3b f5 82 80 3b
       0.022995094 0.00874625 0.003213457 0.0039218613
000080 1d 79 3a bc bb cc 96 3c 7a b9 c0 3c 66 14 99 bc
       -0.011381415 0.01840817 0.023525942 -0.018686485
000090 35 be f7 3c 40 bd 7a 3c 26 c7 23 3b 98 6e 70 3b
       0.030242065 0.01530391 0.0024990528 0.0036687013
0000a0 44 91 89 3c 31 ed 2f 3c 8b c9 33 3c d4 47 da 3c
       0.0167929 0.010737703 0.010973345 0.026645578
0000b0 52 f6 c0 3a 57 ba cb 3b 8a 53 2f 3c a3 86 cf 3a
       0.0014721847 0.006217282 0.01070107 0.0015832972
0000c0 24 36 5b 3c 71 10 0a 3d 6e 14 20 3d 5d 5b d0 3c
       0.013379607 0.033707086 0.039081983 0.02543419
0000d0 5d 00 ec 3b 5c 97 83 3c be 69 ae 3c 19 90 38 bc
       0.0072021917 0.016063385 0.021290656 -0.011264824
0000e0 1c e2 bb bb d2 23 ff bb dc d0 bf 3c 67 60 7f 3b
       -0.0057337414 -0.0077862525 0.023415022 0.0038967372
0000f0 05 06 fd 3c bc b7 35 bc 02 71 bd bc c7 c9 5e 3c
       0.03088666 -0.011091169 -0.023125175 0.013597912

fc3.weight f4 [10, 64]
000000 a4 b5 83 be bf 75 56 bd 8a fd 88 be c6 ca 85 bc
       -0.25724518 -0.052358385 -0.26755935 -0.016332041
000010 09 56 78 3d 99 db 82 be 4a 5d 80 3e 27 02 83 3e
       0.060628925 -0.25558165 0.25071174 0.2558758
000020 ad 70 4c bc d2 b2 c5 bd df 56 d7 3d 83 ef 76 3d
       -0.012478036 -0.09653248 0.10514616 0.06028701
000030 fc e1 98 3d 8e f5 54 3d 15 3b 98 3e 01 ad 16 3e
       0.07464978 0.05199199 0.29732576 0.14714433
000040 90 0f 75 be 46 9c 3c 3d 19 67 88 3d 68 79 a4 3c
       -0.23931718 0.04604747 0.06660289 0.020077422
000050 f8 62 b6 bc 7f 4f 9d be 19 d1 a6 3e af 36 31 3e
       -0.022263989 -0.30724713 0.32581404 0.17306016
000060 44 c0 cd be fe 99 19 bd ef 89 a7 3d 0c ef 83 3e
       -0.4018575 -0.037500374 0.081806056 0.25768316
000070 54 f7 01 bd ab c9 29 3d 0b 93 95 bd c8 a7 e1 bd
       -0.03173001 0.04145209 -0.07303437 -0.1101833
000080 ff a1 db bc bd 3d c0 3d 4a 9a 4a 3e c5 58 8e 3e
       -0.026810644 0.09386776 0.19785419 0.278021
000090 28 90 12 be 88 c1 96 be 82 7b 14 3d 26 5b 69 bd
       -0.14312804 -0.29444528 0.0362506 -0.05697169
0000a0 4a a6 bb bb 12 60 f2 3e eb c1 10 be b5 20 b2 bd
       -0.0057266103 0.4733892 -0.14136474 -0.086976446
0000b0 4d 17 72 3e 89 68 32 be ca 16 d6 bc cd 51 fe be
       0.23641701 -0.1742269 -0.026133914 -0.49671784
0000c0 b4 7b 11 3b 74 f2 d9 3e 1a 68 43 be 80 b6 b7 3e
       0.0022198977 0.4256779 -0.1908268 0.35881424
0000d0 35 45 37 3e bf 23 d2 be 95 7c 0a 3c 40 e4 9f b9
       0.17897494 -0.41042897 0.008452554 -0.00030496903
0000e0 aa 22 4c 3e 63 c4 40 3d 4b 37 75 bb 6a 55 2a 3c
       0.19935098 0.04706229 -0.003741699 0.010396341
0000f0 15 b2 7f 3e 49 67 99 b9 be 83 ee 37 48 5d a5 bd
       0.24970277 -0.00029259388 2.8433158e-05 -0.080744326
000100 8c 1e b3 bc 0f f3 3d 3e 37 9e 37 be 38 a8 a9 bc
       -0.021865152 0.18549751 -0.17931448 -0.020710096
000110 b6 e4 be bc 4b 9b e6 be 28 56 f1 bd 3f e3 67 bd
       -0.023302417 -0.45040354 -0.11784011 -0.056613203
000120 3a 9d 83 bc 7e fe cd bc a5 66 8f be e3 eb 25 3e
       -0.016066182 -0.025145765 -0.28008 0.16203265
000130 2e cb 4b 3e 38 f4 26 bd b6 c2 26 3c 5f 7f d8 bc
       0.19901726 -0.04076025 0.010178259 -0.026427923
000140 47 15 8b 3e ee 1b 56 3c 13 40 49 3e 9b df 79 3d
       0.2716467 0.013068182 0.19653349 0.061004262
000150 96 d9 45 3c ef c4 00 be 70 2a 16 bd 1d 48 2f 3e
       0.012075802 -0.12575124 -0.036661565 0.17117353
000160 12 a1 04 3f d5 5a 53 3c b7 7b b1 3d 71 71 31 bd
       0.51808274 0.012900074 0.08666175 -0.043321077
000170 96 ee 00 3e d4 c5 17 bc 49 f5 94 bc 1c e2 50 bd
       0.12591013 -0.0092634745 -0.018183367 -0.050996885
000180 de f8 8c bc 62 b0 9a 3e 43 2d 15 bd b8 41 42 3d
       -0.017208513 0.30212694 -0.036420118 0.047425956
000190 78 c7 ce 3d 61 56 63 be 76 68 15 3d ed 8b 2a 3f
       0.100966394 -0.2220092 0.036476575 0.6661976
0001a0 92 4d 1c bf 4b fe a9 bd ba 12 86 3d 7d 61 b1 be
       -0.6105586 -0.08300456 0.065465406 -0.3464469
0001b0 9e 42 4e 3c 7d e3 83 be 44 2e 35 be 7c 98 7c 3e
       0.012589125 -0.25759497 -0.1769343 0.24667543
0001c0 b2 c0 d0 3d a3 76 8f be 82 69 3a be d0 06 a3 be
       0.10193004 -0.280202 -0.1820431 -0.31841135
0001d0 31 fc 64 be e4 51 b2 3e 5b ba 4b 3e 0c 92 d2 bc
       -0.22361828 0.34828103 0.19895308 -0.025704406
0001e0 c5 3a 08 be 9b 1d 06 bd f2 d2 fe bc ad ca 6b 3c
       -0.13303669 -0.032743078 -0.031106446 0.014391583
0001f0 5a d9 b8 be 15 da 27 3e ec f7 1e 3d 2c eb 1d be
       -0.36103326 0.16391785 0.038810655 -0.15421742
000200 b6 5e 44 be c3 09 e1 3e 7b 3b 92 bd 8c 74 c1 3c
       -0.19176754 0.4395276 -0.07140251 0.023615144
000210 08 cd ae 3c 33 a5 2c 3c 30 b5 96 3e 02 b0 98 be
       0.021338 0.010537433 0.2943511 -0.29821783
000220 f9 58 eb 3d 5a 5b 0b be 0e 80 a9 bd cb e4 f4 be
       0.114915796 -0.13609067 -0.082763776 -0.47830805
000230 64 c4 81 bd 32 b0 6a be 69 00 c1 bd 58 e0 8f bd
       -0.06336287 -0.22918776 -0.09423906 -0.07025212
000240 eb fe ec be e9 bd 2c bd df f5 7c 3e c7 5f 92 bd
       -0.46288237 -0.0421733 0.24703167 -0.07147174
000250 81 21 07 3c da 16 fd 3e 47 25 44 3e ed 28 5e 3e
       0.008247734 0.49431497 0.19154845 0.216953
000260 16 d3 81 3e 40 56 28 bd 90 8e af bd 11 7d 69 3e
       0.25356358 -0.04109788 -0.085721135 0.22801615
000270 71 28 11 3e 2d 21 51 3b 9d 9a 16 3f 7d 08 34 3e
       0.14175583 0.0031910643 0.5882967 0.17581363
000280 92 a3 5e bc 7f ac e2 3e 70 41 87 3e e5 9d 27 be
       -0.013588803 0.4427223 0.26417112 -0.16368826
000290 bb e9 f1 bd e8 45 b0 3e ff c4 5a 3c 78 21 41 be
       -0.11812159 0.34428334 0.013352632 -0.18860424
0002a0 db e4 04 bf df 91 c4 3e a0 6b d0 bd a1 d5 99 3d
       -0.51911706 0.3839254 -0.10176778 0.075114496
0002b0 10 4b e7 bd fe dc a1 3d 7c 66 e2 3e ab eb 40 bd
       -0.11293614 0.07903479 0.44218814 -0.04709975
0002c0 49 77 9b bd 8b d6 27 bd d0 dd 28 be 76 d7 a6 3e
       -0.07591111 -0.04097609 -0.16490865 0.3258626
0002d0 d0 96 32 3e b7 89 2d be 55 32 a5 be 86 3a dc bc
       0.17440343 -0.16947065 -0.32264963 -0.026883375
0002e0 a8 b5 2f bf 92 9c 72 bd 97 07 be 3e eb 62 0b b9
       -0.6863656 -0.05923135 0.37115166 -0.00013292923
0002f0 7f ca 51 3e 28 5a dc bd 91 6e 44 bd f8 48 97 3e
       0.20487402 -0.107593834 -0.047957007 0.29547858
000300 68 3e 9f be 47 a1 7a be b4 0b 7c be ba d2 1d 3d
       -0.311023 -0.24475585 -0.2461384 0.038531043
000310 c8 f7 1a 3d d0 c0 8d be d2 ab 03 3d 3b e9 c3 be
       0.03783396 -0.27686167 0.032146282 -0.38263878
000320 d1 37 9a bd 84 fd eb 3d 2d 1f c7 3d f5 90 00 3f
       -0.075301774 0.11522964 0.09722743 0.50221187
000330 b4 2b 21 be 5e 76 32 3f ab 4b dc bd dc 4d 15 3e
       -0.15739328 0.69711864 -0.1075662 0.14580482
000340 b8 ce 10 bf ab f6 39 3d e5 ca 81 be d9 0e 86 bd
       -0.5656543 0.045401257 -0.2535011 -0.06545801
000350 c9 3b 14 3d 1d c3 a7 bd 8b 35 87 be 8a 13 2e be
       0.036189828 -0.08191512 -0.26408038 -0.16999641
000360 d3 67 fa 3e e1 0f cc bc da f4 df 3b a8 9c b3 be
       0.48907337 -0.024909915 0.0068346085 -0.35080457
000370 15 c1 e0 be d0 f9 5c bc ba e6 de 3e 66 70 8c 3e
       -0.4389731 -0.013487294 0.43535405 0.27429503
000380 89 c8 e9 bb 74 59 a8 be ce 75 f2 3e 01 66 da bd
       -0.0071345014 -0.32880747 0.47355503 -0.10663987
000390 2f dc dc 3d d4 8d fd 3e 68 e9 08 3c 4f da d8 be
       0.10784184 0.4952227 0.00835643 -0.42354056
0003a0 d9 c1 7f 3d 22 95 90 be 6d 70 b5 3e 76 cb 2d be
       0.062440727 -0.2823878 0.35437337 -0.16972145
0003b0 68 5d c8 bd 37 86 bf 3e 66 19 af 3d 98 79 3f 3e
       -0.09783441 0.37407085 0.08549766 0.18698728
0003c0 72 63 2d 3e c7 86 ee bd 33 24 ea be 64 33 64 bd
       0.16932467 -0.116468005 -0.45730743 -0.055713072
0003d0 94 85 f0 bc c8 f4 5a bc ec 8e 39 3d de c8 02 bd
       -0.02936057 -0.013364024 0.045302317 -0.031929843
0003e0 3a 1b 32 3e f4 b0 c7 bd d3 2a 2b 3d d8 0d b8 bc
       0.17393199 -0.09750548 0.041788887 -0.022467539
0003f0 9d d5 a6 be 14 2f 97 bd 3d ea 72 3d 41 09 2f be
       -0.3258485 -0.07382026 0.05930542 -0.17093374

fc3.bias f4 [10]
000000 48 fc 3c 3b 65 e6 61 bb ea 8f 32 bc 11 ed 68 3d
       0.0028836895 -0.0034469601 -0.01089857 0.05686671
000010 29 05 df ba b6 3d bb bc af 23 96 bc 38 3b ca bc
       -0.0017015088 -0.022856575 -0.018327562 -0.02468644
000020 5d 75 b2 bc 98 04 1b 3d
       -0.021784479 0.037846178
