personalExps/MnistFC/models/MediumMnistModelClean.pt (torch, 875028 bytes, 6 tensors)

fc1.weight f4 [256, 784]
0.031305537 0.033643927 -0.0043660863 0.03680835 -0.0038243441 0.011207663 -0.013386927 0.024974894
0.035484478 -0.022200493 0.03504337 0.010685075 0.030408043 0.008879386 0.021215517 -0.0010420234
0.031532165 0.009279762 -0.012672232 0.013104362 -0.012454227 -0.00018756733 -0.010504805 0.027692335
-0.02419128 -0.01246399 -0.0060840324 -0.017473504 0.0073715956 -0.031273454 0.0362547 -0.02633764
0.031573065 0.00994541 -0.007529557 0.026216133 0.009710042 0.032976367 0.008151714 -0.0070493356
0.013810971 -0.0054509835 0.019219575 0.03595609 0.024039382 -0.011703093 0.024908304 0.010666447
0.022329032 -0.017630814 -0.031301025 -0.009785636 -0.023393162 0.033305723 0.014287685 0.018794052
0.015295893 0.0033794378 0.031951208 -0.021375425 0.006257015 -0.020364337 0.0152461 -0.0077914936
0.0154602025 -0.0030867627 0.034852132 -0.015538028 -0.015453804 -0.014421649 0.039339487 0.019559333
0.041092023 -0.023430848 -0.029504893 -0.021915853 -0.018721735 0.019399077 0.01731333 0.03391961
-0.0144662745 -0.02041196 0.022949733 -0.010435024 0.025676364 -0.004474228 0.024433697 -0.023731504
-0.0139834955 0.015426683 0.012397263 -0.003962239 0.025858296 0.028316163 -0.021598311 -0.014189105
0.03903029 -0.0047469656 -0.002839881 -0.024322357 -0.011050112 0.016617542 0.0025285308 -0.018527847
0.0064454665 -0.019973345 -0.026422778 -0.015150586 -0.02705268 -0.01884749 0.039714888 0.010746361
0.015006555 -0.029309072 -0.019444177 -0.007752271 0.010359408 -0.025217993 -0.0085369125 -0.014558809
0.0071838107 -0.010881145 -0.0012519845 -0.02598387 -0.026449416 -0.019296525 -0.012607956 -0.031872258
0.021020133 -0.022168357 0.019128969 0.006748454 -0.03343153 0.02289186 -0.010684385 -0.012556986
-0.027757151 -0.03233666 0.013997635 -0.0038203513 0.017905004 -0.025308898 0.030545805 -0.021570012
0.00053959276 0.017139193 0.027976857 0.034769144 0.034934238 -0.03205421 0.0011085463 -0.02501576
-0.011547901 -0.0329034 0.024436621 -0.032498986 -0.0039790245 -0.02136082 -0.016697094 -0.042078234
0.0060389074 -0.01443269 -0.01126431 -0.037849884 0.0137191815 -0.004113685 -0.012868865 0.034703545
0.011963309 -0.015759487 -0.014031931 0.0042624986 0.02769245 -0.0026941882 -0.015538881 -0.013971409
-0.0323756 0.005851107 0.022996077 -0.030878855 0.007932773 0.02245058 0.015229501 -0.0054271505
0.022597587 0.015262066 0.0052773845 -0.031038867 -0.038027447 -0.02347652 -0.032500956 -0.029758386
0.013489364 0.028572422 -0.0006514537 -0.0040714177 0.004522284 0.0018830989 0.012826426 0.016362062
-0.024735635 -0.010211698 0.027593331 0.0052834656 -0.015060141 -0.027214335 -0.022794632 -0.026779925
0.000890383 0.03144508 0.049601346 0.03929687 -0.014165311 -0.011435748 -0.014207146 0.017759372
-0.014877855 -0.034698647 -0.013812333 -0.04036086 -0.040124718 0.020301292 -0.013850322 -0.0033097737
-0.03160433 0.028045576 0.031446654 0.019197686 -0.01576092 -0.033118416 -0.032577496 0.018854087
0.008053445 0.019007135 0.011249737 0.005176756 -0.0034362795 -0.017573463 -0.0046971506 -0.006336624
0.024581818 -0.017792167 -0.019072212 -0.041254327 -0.029767213 -0.04822438 -0.048320137 -0.01844363
-0.033879336 0.013260473 -0.010721061 -0.02268006 -0.0022945488 -0.013066887 -0.0063067884 -0.026743717
00000000: 3c3a 003d 37ce 093d 6311 8fbb 5ac4 163d
00000010: d9a1 7abb 59a0 373c d754 5bbc 2698 cc3c
00000020: 2c58 113d cfdd b5bc a389 0f3d 7410 2f3c
00000030: 4a1a f93c d87a 113c 2acc ad3c 8194 88ba
00000040: df27 013d 250a 183c 329f 4fbc aeb3 563c
00000050: d00c 4cbc b9ad 44b9 581c 2cbc 09db e23c
00000060: cb2c c6bc c335 4cbc 905c c7bb 9824 8fbc
00000070: 6d8d f13b 9818 00bd cf7f 143d 09c2 d7bc
00000080: c252 013d 13f2 223c 81ba f6bb 37c3 d63c
00000090: de16 1f3c 3a12 073d c48e 053c 1dfe e6bb
000000a0: 6947 623c 2a9e b2bb 5f72 9d3c b146 133d
000000b0: 3dee c43c 54be 3fbc 800c cc3c 52c2 2e3c
000000c0: 60eb b63c 7f6e 90bc 8135 00bd ef53 20bc
000000d0: 04a3 bfbc 956b 083d e516 6a3c fcf5 993c
000000e0: a09b 7a3c 8f79 5d3b 45df 023d 841b afbc
000000f0: a507 cd3b 1cd3 a6bc c7ca 793c c94f ffbb
00000100: ca4c 7d3c 494b 4abb 1cc1 0e3d 3793 7ebc
00000110: f431 7dbc c848 6cbc 7122 213d e53a a03c
00000120: 1c50 283d 0df2 bfbc 3fb4 f1bc e088 b3bc
00000130: 535e 99bc d0ea 9e3c afd4 8d3c 4aef 0a3d
00000140: f403 6dbc fc36 a7bc 1401 bc3c aaf7 2abc
00000150: 3d57 d23c 8b9c 92bb 2d29 c83c 9268 c2bc
00000160: 081b 65bc 33c0 7c3c e41d 4b3c abd5 81bb
00000170: c7d4 d33c 4cf7 e73c f1ee b0bc 6b79 68bc
00000180: 3ade 1f3d 6f8c 9bbb 4c1d 3abb ae3f c7bc
00000190: 870b 35bc 8321 883c b5b5 253b b6c7 97bc
000001a0: 7e34 d33b 249f a3bc 9574 d8bc 2a3a 78bc
000001b0: 959d ddbc 0d66 9abc 14ac 223d 8111 303c
000001c0: 0ede 753c 9419 f0bc 6549 9fbc c306 febb
000001d0: 82ba 293c f795 cebc 68de 0bbc 1288 6ebc
000001e0: 2c66 eb3b d446 32bc a119 a4ba 20dc d4bc
000001f0: 72ac d8bc bf13 9ebc 9a91 4ebc 7c8c 02bd
00000200: 6a32 ac3c 6a9a b5bc 5bb4 9c3c 2322 dd3b
00000210: 80ef 08bd b687 bb3c 8f0d 2fbc d1bb 4dbc
00000220: f762 e3bc 7273 04bd 5656 653c dc5e 7abb
00000230: 84ad 923c 9b54 cfbc 323b fa3c 98b3 b0bc
00000240: 7573 0d3a 7e67 8c3c b92f e53c 176a 0e3d
00000250: 3417 0f3d 464b 03bd a44c 913a daed ccbc
00000260: 6833 3dbc b7c5 06bd 4f2f c83c a81d 05bd
00000270: 7a62 82bb e3fc aebc 58c8 88bc 3a5a 2cbd
00000280: 07e2 c53b 1777 6cbc f18d 38bc 7b08 1bbd
00000290: 6bc6 603c 17cc 86bb efd7 52bc 4e25 0e3d
000002a0: c101 443c 0a1a 81bc 2fe6 65bc 6eac 8b3b
000002b0: 47db e23c fa90 30bb ca96 7ebc 56e8 64bc
000002c0: 479c 04bd a5ba bf3b 4562 bc3c a7f5 fcbc
000002d0: 76f8 013c 47ea b73c 2885 793c 3dd6 b1bb
000002e0: 931e b93c bf0d 7a3c e9ed ac3b 3945 febc
000002f0: abc2 1bbd d551 c0bc b91f 05bd dcc7 f3bc
00000300: 7e02 5d3c b610 ea3c 51c6 2aba 8769 85bb
00000310: ab2f 943b 50d2 f63a ee25 523c bb09 863c
00000320: 63a2 cabc f74e 27bc 690b e23c ec20 ad3b
00000330: cfbe 76bc 99f0 debc cfbb babc 9361 dbbc
00000340: 9768 693a 8ecc 003d c82a 4b3d c1f5 203d
00000350: 9f15 68bc 015d 3bbc 17c5 68bc 1a7c 913c
00000360: 3fc2 73bc 2b20 0ebd 204d 62bc 6e51 25bd
00000370: d159 24bd e54e a63c 76ec 62bc cae8 58bb
00000380: 8b73 01bd d6bf e53c 35ce 003d 7744 9d3c
00000390: 0b1d 81bc 2da7 07bd fb6f 05bd e373 9a3c
000003a0: 99f2 033c dab4 9b3c d150 383c c7a1 a93b
000003b0: 3433 61bb 39f6 8fbc 8eea 99bb 74a3 cfbb
000003c0: cf5f c93c e1c0 91bc 543d 9cbc 4cfa 28bd
000003d0: 5fda f3bc ed86 45bd 56eb 45bd 1817 97bc
000003e0: 0fc5 0abd 7442 593c 64a7 2fbc 88cb b9bc
000003f0: 2460 16bb 7f16 56bc 2da9 cebb a415 dbbc

fc1.bias f4 [256]
0.01736035 -0.009030215 0.024722036 0.0060873167 -0.019090451 -0.01626178 -0.022125913 -0.03180295
-0.0069041965 0.028809337 -0.0305417 -0.006919213 0.011130673 0.017769475 0.031381935 -0.021533104
0.0020926918 0.0054145036 0.03562614 -0.016572675 0.030146705 0.0310749 0.013911758 0.021639993
-0.015487763 0.009027411 0.008376656 0.030530727 -0.002688997 0.00040508684 0.023399146 -0.004259417
-0.021585694 0.023412293 -0.03138485 0.036477532 -0.017836057 0.036564093 -0.024728306 0.025151687
0.018637257 0.02993954 0.02073236 0.028216548 0.010490854 -0.020538261 0.037069015 0.031173704
-0.029991845 0.005922926 0.002490775 0.029907055 0.02528734 0.031831887 -0.014329298 0.03357284
0.0015277688 0.024128588 0.013528255 -0.02964198 0.01798509 0.008736302 -0.008613825 -0.026964776
-0.004326722 0.0030816298 -0.017191216 0.0048942487 0.006728831 -0.0034607805 0.006374681 -0.024002109
0.035370074 0.026888095 -0.028742356 0.0054365033 0.009218597 -0.011365659 -0.023182064 -0.026526146
-0.02926706 0.006754859 0.0074005695 0.034922246 -0.024887951 0.016250715 -0.01538131 -0.033504076
0.014108075 0.025770636 0.028657638 -0.017440341 0.016398666 -0.016421583 0.01824379 -0.020902395
-0.034340497 0.034240164 -0.020009259 0.00590842 0.031231739 -0.023210436 -0.025757845 0.021145605
-0.0106020495 -0.017802168 -0.009643554 -0.030754527 -0.0032562874 -0.0009826402 -0.02843671 -0.010745182
0.021147532 -0.019714806 -0.0132219875 0.013595058 -0.01823224 -0.031521592 -0.018686548 -0.00061840535
0.023120617 0.015860882 0.03643753 -0.014011089 -0.010472208 0.033079956 -0.014586242 0.023380242
0.025692847 -0.035463117 -5.620024e-05 0.030901626 0.03246572 -0.025329448 0.033813544 0.031867057
0.024171699 0.010831939 -0.0011276638 0.002094936 -0.016827276 0.032864686 -0.011743123 -0.02789055
-0.015966976 -0.018626073 0.025749438 -0.035042353 -0.016257823 -0.0043049646 -0.012377785 0.003820332
0.013824437 0.013839082 -0.027506497 0.010881173 0.00834989 0.012365403 0.0028220834 0.0017022527
-0.018935015 -0.012850159 -0.0016679553 -0.012484019 0.02689624 -0.03147685 -0.005787604 0.018753447
-0.01693765 0.0074978485 -0.013525601 -0.021927377 -0.029753398 0.013762181 0.03206188 0.012710828
-0.034303915 -0.020235607 0.030711008 -0.018919216 -0.0025531403 0.022303509 -0.0068882834 0.011205168
-0.011763242 -0.031100973 0.017267523 -0.017428111 0.03381602 0.031849574 0.027834771 -0.03339834
0.0366323 -0.002724167 -0.0033960044 -0.03335299 -0.026213149 0.019420624 0.03884259 -0.013538264
0.016807491 -0.028602429 -0.024671638 0.029632064 -0.01797749 0.029899389 0.031134572 0.009701818
-0.005467895 0.040528353 -0.026288707 0.036455665 -0.0025102124 0.011683628 -0.0023609013 -0.009960831
0.0060430733 0.013252487 -0.012822637 0.033503763 -0.014330102 0.0012392019 0.024546776 -0.014950196
-0.027510226 -0.011179215 0.022493135 0.03276021 -0.03281108 0.0138642 -0.005048841 0.030623473
0.034341298 0.0005412261 0.037276864 0.014043189 0.0044720736 -0.016100893 -0.043084532 -0.0151889315
-0.01574099 0.011686682 -0.025868118 0.022484038 -0.020399502 -0.014448191 -0.015031511 -0.0046147658
-0.019766824 0.026250249 -0.015455458 0.028348438 0.029749783 0.03524007 0.018664487 -0.0010704653
00000000: 4b37 8e3c 78f3 13bc de85 ca3c 1d78 c73b
00000010: 9463 9cbc 6d37 85bc 6741 b5bc cf43 02bd
00000020: 993c e2bb 8f01 ec3c 9632 fabc 91ba e2bb
00000030: 6d5d 363c 4a91 913c 588a 003d 3166 b0bc
00000040: 8b25 093b 266c b13b b7ec 113d 6bc3 87bc
00000050: 39f6 f63c ca90 fe3c 24ee 633c 5b46 b13c
00000060: 63c0 7dbc b5e7 133c 3e3e 093c 931b fa3c
00000070: e239 30bb d661 d439 91af bf3c 9492 8bbb
00000080: 7bd4 b0bc 23cb bf3c 678d 00bd 7769 153d
00000090: ec1c 92bc 3bc4 153d 0493 cabc e90a ce3c
000000a0: 29ad 983c c443 f53c e9d6 a93c 6426 e73c
000000b0: d5e1 2b3c db3f a8bc aed5 173d ff5f ff3c
000000c0: 75b1 f5bc 1b15 c23b 453c 233b a4ff f43c
000000d0: 6527 cf3c 2762 023d 6fc5 6abc ad83 093d
000000e0: 6a3f c83a 51a9 c53c 9da5 5d3c bdd3 f2bc
000000f0: 7855 933c b522 0f3c 0021 0dbc 3ce5 dcbc
00000100: 2dc7 8dbb 2bf5 493b 98d4 8cbc ef5f a03b
00000110: 877d dc3b 43ce 62bb b3e2 d03b 12a0 c4bc
00000120: 36e0 103d 6c44 dc3c 1775 ebbc b224 b23b
00000130: 9909 173c 0737 3abc 50e8 bdbc 5c4d d9bc
00000140: 79c1 efbc dd57 dd3b 7a80 f23b a10a 0f3d
00000150: d1e1 cbbc 3820 853c e401 7cbc 923b 09bd
00000160: 8e25 673c f11c d33c 6cc3 ea3c 0cdf 8ebc
00000170: 7f56 863c 8e86 86bc 0074 953c 803b abbc
00000180: 9fa8 0cbd 6a3f 0c3d 75ea a3bc 6b9b c13b
00000190: b4d9 ff3c d023 bebc 1e02 d3bc 8c39 ad3c
000001a0: 38b4 2dbc dad5 91bc ffff 1dbc ebf0 fbbc
000001b0: 7067 55bb efcb 80ba 1af4 e8bc 8f0c 30bc
000001c0: 973d ad3c f280 a1bc 09a1 58bc cebd 5e3c
000001d0: c75b 95bc c91c 01bd 8814 99bc 7b1c 22ba
000001e0: 7367 bd3c aeee 813c 853f 153d c48e 65bc
000001f0: a093 2bbc d97e 073d 22fb 6ebc ec87 bf3c
00000200: ce79 d23c c641 11bd 8cb8 6bb8 6825 fd3c
00000210: c6fa 043d b47f cfbc 1280 0a3d 0887 023d
00000220: ba03 c63c 7278 313c 1ece 93ba 324b 093b
00000230: 5bd9 89bc 1f9d 063d 3a66 40bc b97a e4bc
00000240: 2dcd 82bc b595 98bc 7cf0 d23c 9288 0fbd
00000250: 202f 85bc a910 8dbb 31cc 4abc 895e 7a3b
00000260: e47f 623c 51bd 623c 4e55 e1bc f346 323c
00000270: facd 083c 4298 4a3c b4f2 383b 1f1e df3a
00000280: 9b1d 9bbc 7989 52bc 4b9f daba c589 4cbc
00000290: 8155 dc3c dfed 00bd f1a5 bdbb d4a0 993c
000002a0: d4c0 8abc 83b0 f53b 7b9a 5dbc 0ba1 b3bc
000002b0: 66bd f3bc c57a 613c 5153 033d 1441 503c
000002c0: 4382 0cbd 25c5 a5bc a795 fb3c 79fc 9abc
000002d0: 9652 27bb d9b5 b63c 1cb7 e1bb e295 373c
000002e0: 9dba 40bc 78c7 febc 9f74 8d3c 66c5 8ebc
000002f0: ab82 0a3d b374 023d bf05 e43c b3cc 08bd
00000300: c00b 163d f087 32bb 808f 5ebb 259d 08bd
00000310: f5bc d6bc 0018 9f3c 6819 1f3d 98cf 5dbc
00000320: ddaf 893c a44f eabc 2d1c cabc f1be f23c
00000330: 8745 93bc 90ef f43c ee0d ff3c 60f4 1e3c
00000340: 072c b3bb 0f01 263d 6a5b d7bc 8952 153d
00000350: 6082 24bb b06c 3f3c 5ab9 1abb c132 23bc
00000360: f904 c63b f620 593c 0a16 52bc 3e3b 093d
00000370: cec8 6abc b76c a23a 5216 c93c abf1 74bc
00000380: 205d e1bc 0729 37bc 8643 b83c 922f 063d
00000390: e964 06bd ab26 633c bf70 a5bb 14de fa3c
000003a0: 76a9 0c3d 12e1 0d3a a0af 183d 6715 663c
000003b0: 798a 923b 05e6 83bc 6879 30bd ffda 78bc
000003c0: 40f3 80bc 7f79 3f3c 60e9 d3bc 7230 b83c
000003d0: db1c a7bc 1bb8 6cbc ba46 76bc 7637 97bb
000003e0: 09ee a1bc c30a d73c e438 7dbc fc3a e83c
000003f0: d1b5 f33c e457 103d 44e6 983c db4e 8cba

fc2.weight f4 [64, 256]
-0.067118645 -0.010962053 -0.112428226 -0.008010086 0.07035508 -0.10707436 -0.031768374 0.04852661
-0.045636225 0.12525913 -0.0960135 -0.045670137 -0.042688776 -0.04713041 0.11402854 -0.091913424
-0.012159609 -0.0923836 -0.0156000815 0.086908266 0.055370707 0.012117282 -0.037937656 -0.17812118
0.032991346 -0.060109217 0.028820539 -0.041247327 -0.030919848 0.053072385 -0.080241084 0.0013189436
0.023811439 -0.011987055 -0.035543896 0.026210602 0.065283984 0.06424104 -0.1249712 0.031244503
0.085588135 0.09278762 0.10027296 -0.111578 -0.028788447 0.03965033 0.037321545 -0.061878733
-0.08349588 -0.03602301 -0.0029731353 0.03274897 0.028320633 -0.009692736 0.052297432 0.03257497
0.029764062 0.01766028 0.027340576 0.02062303 -0.038957413 0.027012918 -0.012043521 0.07173005
0.05880312 -0.0065782918 0.082756385 -0.009366035 -0.1780391 0.014194499 0.095461726 0.08532017
-0.066811465 -0.049916867 0.0420384 0.004211762 -0.00047624586 -0.030150637 -0.014560062 0.033431478
0.042637832 0.047927402 -0.091629505 0.07144824 -0.004159122 -0.13396549 -0.09455299 0.0574187
0.0036456678 0.1065844 -0.052807223 0.074300304 0.042244144 0.020383935 0.052114222 0.025987871
0.069124855 0.009913356 -0.06317068 -0.007004589 0.027867908 -0.075124815 -0.058085296 -0.09627387
0.05742422 0.021160813 0.039995994 0.1110467 0.05666652 -0.103951536 -0.010604641 -0.044981945
0.0019681703 0.050178964 -0.06118809 -0.039340857 -0.017069757 -0.07985901 -0.045509055 0.02345611
-0.004934594 -0.04267885 -0.08706072 -0.05595854 -0.047945198 0.08108151 -0.036527038 -0.022735601
0.05465548 -0.070492566 0.09504463 0.041988634 -0.0048490646 0.053756353 0.015260667 -0.063153386
0.0014164229 -0.02949633 -0.06531003 0.05692371 0.09706859 0.03479235 0.047790766 -0.0014892772
-0.05400932 -0.14196932 -0.03943013 -0.07867921 0.012743397 0.09441292 -0.004847013 -0.10717999
-0.019023165 -0.05862111 -0.060366195 0.020500854 0.040406898 -0.033503518 -0.017511947 0.032244425
0.03641715 0.045629084 0.03479286 -0.034696333 0.0009991575 -0.024312727 0.078371964 0.015799703
-0.023864089 -0.05380988 -0.15945269 -0.021616962 -0.0087831095 -0.056504607 0.087174974 0.043142863
-0.0063318126 -0.030690432 -0.010087843 -0.0460218 -0.0010834333 0.06772566 0.09536228 0.050207976
-0.031665273 -0.011888556 0.013029787 0.033540208 -0.12468001 0.03970807 -0.06067859 -0.011801335
0.058792476 -0.13354005 0.01991974 0.11141537 0.04584057 0.064259395 0.01702697 -0.03478669
-0.0051216492 -0.09409371 0.018725937 -0.052155633 -0.029983014 -0.0022349178 0.08138282 0.026282426
0.054891 0.07136917 0.03510387 -0.030547954 0.06597115 0.0028005731 -0.13365214 -0.023858165
0.05379271 0.033811335 -0.068117 -0.036325663 0.012667709 0.043077927 0.015213947 -0.06939809
0.017799424 0.025015222 0.048500746 0.03152899 -0.022677079 0.029773785 0.12163283 0.01890802
-0.035562843 0.040686075 0.05500905 -0.100094475 -0.057690255 -0.031477123 0.07152453 -0.11713577
0.09747296 -0.031584196 -0.039382473 -0.009806022 -0.022608995 -0.021519175 0.06859841 0.039617315
0.011270055 -0.037023533 -0.043393906 0.014515461 -0.031122196 -0.11856919 -0.046708737 -0.073280364
00000000: 8075 89bd 2f9a 33bc c540 e6bd bc3c 03bc
00000010: 5316 903d cd49 dbbd 8e1f 02bd d7c3 463d
00000020: 0ded 3abd ee43 003e baa2 c4bd 9c10 3bbd
00000030: 6dda 2ebd d10b 41bd cc87 e93d 1b3d bcbd
00000040: 1939 47bc 9d33 bdbd 7c97 7fbc f6fc b13d
00000050: 65cc 623d 9087 463c 8464 1bbd 6665 36be
00000060: ef21 073d 1535 76bd 0d19 ec3c f5f2 28bd
00000070: 9f4b fdbc 6e62 593d 7055 a4bd 67e0 ac3a
00000080: 3510 c33c 5a65 44bc 7a96 11bd 9eb7 d63c
00000090: 9cb3 853d ce90 833d e7f0 ffbd 79f4 ff3c
000000a0: d548 af3d 7007 be3d e95b cd3d 0283 e4bd
000000b0: c0d5 ebbc 6268 223d 7ade 183d 8e74 7dbd
000000c0: e3ff aabd dd8c 13bd efd8 42bb c923 063d
000000d0: ac00 e83c 48ce 1ebc d535 563d 556d 053d
000000e0: c3d3 f33c 4bac 903c 58f9 df3c a1f1 a83c
000000f0: cf91 1fbd 324a dd3c 3052 45bc 34e7 923d
00000100: 8adb 703d b68e d7bb 2e7c a93d 0074 19bc
00000110: e24f 36be 0b90 683c 7081 c33d 57bc ae3d
00000120: 73d4 88bd a175 4cbd 7530 2c3d d202 8a3b
00000130: a3b0 f9b9 78fe f6bc 548d 6ebc 72ef 083d
00000140: 02a5 2e3d 864f 443d 40a8 bbbd 7453 923d
00000150: 3e49 88bb 402e 09be ffa4 c1bd df2f 6b3d
00000160: 28ec 6e3b ec48 da3d 634c 58bd c22a 983d
00000170: 3208 2d3d 36fc a63c b975 553d 84e4 d43c
00000180: 5591 8d3d a16b 223c a15f 81bd c086 e5bb
00000190: 3d4b e43c 0adb 99bd d9ea 6dbd 3c2b c5bd
000001a0: a935 6b3d 7159 ad3c d7d2 233d 746c e33d
000001b0: 271b 683d 8be4 d4bd 17bf 2dbc fd3e 38bd
000001c0: 6bfc 003b 7588 4d3d 5da0 7abd e123 21bd
000001d0: e0d5 8bbc 1f8d a3bd b467 3abd 0727 c03c
000001e0: 60b2 a1bb 05d0 2ebd e44c b2bd c834 65bd
000001f0: 2f62 44bd 100e a63d 609d 15bd 0340 babc
00000200: 6dde 5f3d 685e 90bd c2a6 c23d 46fc 2b3d
00000210: e7e4 9ebb 9f2f 5c3d e007 7a3c 9056 81bd
00000220: 44a7 b93a 4aa2 f1bc 44c1 85bd d628 693d
00000230: e6cb c63d 6c82 0e3d 40c0 433d da33 c3ba
00000240: e038 5dbd 6860 11be 7d81 21bd 9122 a1bd
00000250: aec9 503c 905b c13d b1d3 9ebb 2f81 dbbd
00000260: 78d6 9bbc b01c 70bd 8b42 77bd 68f1 a73c
00000270: b481 253d fc3a 09bd 3775 8fbc bb12 043d
00000280: 262a 153d 90e5 3a3d f582 0e3d be1d 0ebd
00000290: 2af6 823a 7c2b c7bc 7b81 a03d 616e 813c
000002a0: 9f7e c3bc c067 5cbd 9147 23be 0e16 b1bc
000002b0: 08e7 0fbc 6071 67bd cb88 b23d 92b6 303d
000002c0: 187b cfbb 806a fbbc 7b47 25bc 5b81 3cbd
000002d0: fd01 8eba c0b3 8a3d 4d4d c33d e1a6 4d3d
000002e0: 72b3 01bd 38c8 42bc e37a 553c 7561 093d
000002f0: 3c58 ffbd eea4 223d 1d8a 78bd 635a 41bc
00000300: 61d0 703d b9be 08be b92e a33c be2d e43d
00000310: 52c3 3b3d 6e9a 833d 257c 8b3c 7d7c 0ebd
00000320: 82d3 a7bb 34b4 c0bd 2367 993c 25a1 55bd
00000330: f09e f5bc b377 12bb 09ac a63d 3e4e d73c
00000340: 63d5 603d 002a 923d 13c9 0f3d b43f fabc
00000350: e21b 873d d289 373b 1bdc 08be 3372 c3bc
00000360: bf55 5c3d c17d 0a3d ed80 8bbd 38ca 14bd
00000370: 398c 4f3c 7b72 303d eb43 793c 9620 8ebd
00000380: 19d0 913c b9ec cc3c b8a8 463d 8b24 013d
00000390: 48c5 b9bc 27e8 f33c a21a f93d fee4 9a3c
000003a0: 58aa 11bd 71a6 263d 2b51 613d 55fe ccbd
000003b0: 9e4c 6cbd 28ee 00bd 747b 923d e1e4 efbd
000003c0: e79f c73d 6e5e 01bd 844f 21bd 70a9 20bc
000003d0: 8036 b9bc fb48 b0bc 537d 8c3d c445 223d
000003e0: 09a6 383c fda5 17bd cfbd 31bd 42d2 6d3c
000003f0: faf3 febc 67d4 f2bd a951 3fbd 0414 96bd

fc2.bias f4 [64]
-0.008317907 -0.044976722 0.0013724907 0.012968567 0.029237712 -0.028370528 -0.031044982 -0.022538023
0.012908404 -0.0013711391 0.015284083 0.06154418 0.05936916 0.01781875 0.005540449 0.029538704
0.016865455 0.0070647667 0.03348014 -0.029070219 -0.043800224 0.054704003 0.047063023 0.03759328
0.028116072 -0.021443618 0.0009231201 -0.0122359 0.032542307 0.022365225 -0.010222436 0.0073870453
-0.028876318 0.040409397 0.04182971 -0.045060523 0.063131645 0.03970706 0.006351138 0.027110547
-0.004477744 0.010038722 0.032116674 0.045039974 -0.010317594 0.0020279854 0.012922785 -0.030957617
0.041490138 0.048374407 0.05299428 0.052431386 0.005607608 0.02397763 0.030133365 -0.029368589
-0.05127086 -0.021485385 0.019396184 0.0036688875 0.057619937 -0.038301583 -0.06118672 0.029724626
00000000: d547 08bc 8339 38bd 25e5 b33a 1d7a 543c
00000010: ed83 ef3c 4f69 e8bc 0c52 febc a9a1 b8bc
00000020: c57d 533c cbb7 b3ba 176a 7a3c c015 7c3d
00000030: 142d 733d a1f8 913c a88c b53b 27fb f13c
00000040: 6c29 8a3c 8f7f e73b 7922 093d ab24 eebc
00000050: dd67 33bd 4e11 603d 28c5 403d 69fb 193d
00000060: ad53 e63c 87aa afbc 8bfd 713a 1679 48bc
00000070: 154b 053d 4737 b73c 017c 27bc 070f f23b
00000080: 078e ecbc 5384 253d a155 2b3d 6291 38bd
00000090: 2a4b 813d dfa3 223d 351d d03b f016 de3c
000000a0: 0aba 92bb 7479 243c c68c 033d d67b 383d
000000b0: 200b 29bc f3e7 043b 17ba 533c d49a fdbc
000000c0: 90f1 293d 3e24 463d 8810 593d 4bc2 563d
000000d0: 06c0 b73b bc6c c43c 3fda f63c 6596 f0bc
000000e0: 6501 52bd 1e02 b0bc bfe4 9e3c b871 703b
000000f0: e202 6c3d 1fe2 1cbd ed9e 7abd 0f81 f33c

fc3.weight f4 [10, 64]
-0.14995438 -0.022528157 -0.2416125 -0.044369478 0.11837952 -0.1633368 0.25479478 0.22443083
0.039508812 -0.09896235 0.11055152 0.063902915 0.04703271 0.105845116 0.20306359 0.07464673
-0.18177427 0.118926935 0.106910154 0.024983259 -0.06007671 -0.28971165 0.19908398 0.09794622
-0.40771067 -0.09685336 0.11720982 0.18977454 -0.060051657 0.105904385 -0.12160541 -0.10913527
-0.06941594 0.002140061 0.11350605 0.27524775 -0.13219747 -0.14023486 0.0926147 -0.045964826
0.036086045 0.2589942 -0.09183247 -0.02563459 0.14060283 -0.20995614 -0.00831943 -0.23111092
0.0868394 0.30502152 -0.088828936 0.30468476 0.14575182 -0.34129414 -0.03243674 -0.0012220024
0.09120391 0.013946743 -0.04571199 0.027628219 0.13533863 0.018998222 -0.042266186 -0.004511668
-0.09196756 0.061032567 -0.27922744 -0.05290731 -0.07343201 -0.35491696 -0.18870956 -0.03742031
0.029068124 0.012758348 -0.2465431 0.18894373 0.03663556 -0.0018914308 0.023777943 0.06832749
0.18823728 0.033094365 0.16840662 0.035504606 0.053484224 -0.11968483 -0.0644822 0.07134184
0.33008048 0.033150584 0.113254994 -0.12489094 0.11535425 -0.023667034 0.1268022 -0.117006846
-0.04516914 0.12139671 0.03501016 0.015929218 0.0522899 -0.23046681 0.09319043 0.39970666
-0.3704925 -0.16917183 0.030409658 -0.21510912 -0.01744942 -0.1262897 -0.09670373 0.1695047
0.045792855 -0.32357693 -0.13700412 -0.26683438 -0.29745817 0.38496813 0.04879539 -0.066091195
-0.0610711 -0.095381215 0.071478255 -0.008171932 -0.32685086 0.108107716 0.10650533 -0.15937757
-0.11998712 0.32265174 0.0047450615 0.061554674 0.11462093 0.023583286 0.33512312 -0.23113911
0.12562539 -0.052573387 -0.05634364 -0.32185608 0.046867345 -0.17968886 -0.071218744 -0.048013605
-0.38164753 -0.10725802 0.21136612 -0.09674467 -0.016131934 0.3121171 0.16285981 0.13900667
0.22039482 -0.09513441 -0.06636206 0.19684327 0.10962914 0.008152578 0.4132918 0.22132395
-0.03644822 0.32025465 0.16484822 -0.044687398 -0.02487635 0.28042942 0.0342746 -0.18021718
-0.40434235 0.27504984 -0.007122843 0.029899744 -0.12317536 0.14808227 0.3088301 0.02653888
-0.027201647 -0.08663179 -0.1252178 0.2485946 0.21792912 -0.0915147 -0.18170235 -0.06841053
-0.44194743 -0.09052615 0.24001878 -0.014469335 0.14392585 -0.10912729 -0.07217733 0.2522514
-0.24402875 -0.18977043 -0.113297746 0.098453134 0.061993934 -0.17270006 -0.045614697 -0.30295572
-0.075909704 0.099123426 0.0487393 0.2971552 -0.16158979 0.42613497 -0.07104034 0.11364404
-0.40703624 0.11643574 -0.13142136 -0.07804472 0.09784564 -0.075454846 -0.21546496 -0.10473566
0.32316747 -0.062462125 0.006561933 -0.25051078 -0.2761113 -0.034457352 0.2829803 0.280656
-0.017963884 -0.18445192 0.30551794 -0.089260824 0.085268795 0.3375566 0.021179529 -0.2996079
-0.040002476 -0.15643378 0.23042174 -0.147165 -0.06744819 0.25527874 0.08295167 0.116174355
0.14195468 -0.06959736 -0.35710678 -0.0469472 0.065359 -0.043077316 -0.030538486 -0.0807376
0.08247901 -0.11345027 -0.015393519 -0.024602193 -0.23227893 -0.021342026 0.11453104 -0.09356949
00000000: a48d 19be f88c b8bc 4469 77be c5bc 35bd
00000010: f670 f23d c341 27be 7674 823e 32d1 653e
00000020: fed3 213d c6ac cabd d668 e23d 88df 823d
00000030: 5fa5 403d 53c5 d83d e7ef 4f3e 63e0 983d
00000040: 0923 3abe f78f f33d b6f3 da3d b1a9 cc3c
00000050: ff12 76bd 1655 94be acdc 4b3e 0798 c83d
00000060: 74bf d0be 0e5b c6bd b40b f03d 4254 423e
00000070: baf8 75bd 66e4 d83d 420c f9bd 5082 dfbd
00000080: f229 8ebd 4440 0c3b dc75 e83d 46ed 8c3e
00000090: c65e 07be ba99 0fbe c7ac bd3d 9d45 3cbd
000000a0: f6ce 133d e39a 843e a912 bcbd a2ff d1bc
000000b0: 30fa 0f3e befe 56be 384e 08bc 57a8 6cbe
000000c0: dbd8 b13d c82b 9c3e f2eb b5bd a4ff 9b3e
000000d0: f73f 153e 1bbe aebe 63dc 04bd 992b a0ba
000000e0: 1ec9 ba3d e180 643c 7f3c 3bbd 9354 e23c
000000f0: 3696 0a3e 29a2 9b3c 4f1f 2dbd 9dd6 93bb
00000100: 7d59 bcbd 49fd 793d e6f6 8ebe 56b5 58bd
00000110: 8663 96bd adb7 b5be 143d 41be 0a46 19bd
00000120: 4620 ee3c 6408 513c cb75 7cbe 777a 413e
00000130: 2b0f 163d e3e9 f7ba f6c9 c23c 48ef 8b3d
00000140: 46c1 403e f58d 073d c972 2c3e 476d 113d
00000150: 4612 5b3d 521d f5bd 3e0f 84bd ac1b 923d
00000160: 4f00 a93e e8c8 073d 3cf2 e73d d2c6 ffbd
00000170: d93e ec3d 5ee1 c1bc 70d8 013e 49a1 efbd
00000180: 4703 39bd d79e f83d d066 0f3d fe7d 823c
00000190: ef2d 563d 7eff 6bbe a0da be3d 5aa6 cc3e
000001a0: 31b1 bdbe 613b 2dbe ad1d f93c 9145 5cbe
000001b0: 16f2 8ebc 1652 01be 9b0c c6bd a492 2d3e
000001c0: 4a91 3b3d e0ab a5be cf4a 0cbe 849e 88be
000001d0: 704c 98be 8b1a c53e addd 473d d25a 87bd
000001e0: b125 7abd 3a57 c3bd 3163 923d 91e3 05bc
000001f0: ff58 a7be 9467 dd3d 771f da3d e033 23be
00000200: cfbb f5bd 9c32 a53e 767c 9b3b c120 7c3d
00000210: 61be ea3d bc31 c13c 4295 ab3e bbaf 6cbe
00000220: f1a3 003e 3157 57bd 97c8 66bd 52ca a4be
00000230: f9f7 3f3d 5b00 38be 22db 91bd eaa9 44bd
00000240: 4e67 c3be 18aa dbbd 5c70 583e 1222 c6bd
00000250: 1e27 84bc d0cd 9f3e b9c4 263e c457 0e3e
00000260: 2eaf 613e d4d5 c2bd d5e8 87bd 4891 493e
00000270: 3e85 e03d 6492 053c fc9a d33e bfa2 623e
00000280: bb4a 15bd 6bf8 a33e f9cd 283e 220a 37bd
00000290: 7dc9 cbbc 7294 8f3e 8663 0c3d da8a 38be
000002a0: f605 cfbe 55d3 8c3e bd66 e9bb 4ff0 f43c
000002b0: 5d43 fcbd e1a2 173e fb1e 9e3e 1168 d93c
000002c0: fdd5 debc 026c b1bd 1839 00be 958f 7e3e
000002d0: d028 5f3e 0f6c bbbd 2e10 3abe d21a 8cbd
000002e0: ef46 e2be c665 b9bd 7cc7 753e ca10 6dbc
000002f0: 4c61 133e 217e dfbd b5d1 93bd 1827 813e
00000300: ace2 79be 2e53 42be a608 e8bd cca1 c93d
00000310: 5aed 7d3d 49d8 30be 7ad6 3abd 031d 9bbe
00000320: 8c76 9bbd 3901 cb3d dca2 473d ba24 983e
00000330: cb77 25be 5d2e da3e 997d 91bd 35be e83d
00000340: 0e67 d0be dc75 ee3d 5293 06be e9d5 9fbd
00000350: 4b63 c83d 1288 9abd d9a2 5cbe a67f d6bd
00000360: 3576 a53e 49d8 7fbd 7c05 d73b f342 80be
00000370: 765e 8dbe 2723 0dbd cbe2 903e 25b2 8f3e
00000380: ff28 93bc f7e0 3cbe d96c 9c3e 61ce b6bd
00000390: 68a1 ae3d 38d4 ac3e b180 ad3c 3566 99be
000003a0: a3d9 23bd 2d30 20be adf3 6b3e 6cb2 16be
000003b0: 4722 8abd e5b3 823e 91e2 a93d d2ec ed3d
000003c0: 915c 113e 1089 8ebd b3d6 b6be b54b 40bd
000003d0: f0da 853d d771 30bd d92b fabc c159 a5bd
000003e0: c1ea a83d 9d58 e8bd 1935 7cbc 8a8a c9bc
000003f0: 87da 6dbe 79d5 aebc 408f ea3d 5ca1 bfbd

fc3.bias f4 [10]
0.010695573 -0.003537107 0.0015727441 0.13414598 -0.034750666 -0.034909874 -0.042744543 -0.04176791
-0.09291747 0.08863036
00000000: 7c3c 2f3c cfce 67bb 8924 ce3a 905d 093e
00000010: b756 0ebd a8fd 0ebd e714 2fbd d414 2bbd
00000020: 844b bebd d683 b53d
