personalExps/MnistFC/models/MediumMnistModelL25e-5.pt (torch, 875102 bytes, 6 tensors)

fc1.weight f4 [256, 784]
000000 b8 49 ff 3c c5 2c 09 3d 13 46 8e bb 67 13 16 3d
       0.031163082 0.03348996 -0.0043418496 0.036639597
000010 45 34 79 bb b9 d3 36 3c b4 3d 5a bc f6 ab cb 3c
       -0.003802554 0.011158877 -0.013320375 0.02486227
000020 dc ad 10 3d 43 fb b4 bc 69 e1 0e 3d 07 4e 2e 3c
       0.035322055 -0.022092467 0.034882937 0.01063872
000030 a8 f8 f7 3c 39 dc 10 3c ba 04 ad 3c 30 70 87 ba
       0.030269936 0.008841568 0.021120418 -0.0010333117
000040 6d 91 00 3d 95 63 17 3c 08 95 4e bc 7e c2 55 3c
       0.03138869 0.009240051 -0.012608774 0.013046859
000050 30 07 4b bc f9 ae 3f b9 89 3e 2b bc 38 d4 e1 3c
       -0.01239185 -0.00018280362 -0.010451921 0.027567014
000060 c3 36 c5 bc fb 2f 4b bc b7 4c c6 bb 5c 70 8e bc
       -0.024073964 -0.012401576 -0.0060516256 -0.017387562
000070 5d 8c f0 3b f5 f5 fe bc af d1 13 3d f0 b6 d6 bc
       0.0073409514 -0.03112314 0.03608864 -0.026210278
000080 2c bc 00 3d 23 3e 22 3c 0e 75 f5 bb 43 ca d5 3c
       0.031429455 0.00990251 -0.0074907606 0.026097422
000090 1d 6a 1e 3c c5 74 06 3d e1 00 05 3c b8 ca e5 bb
       0.009668854 0.032826204 0.008117885 -0.0070126913
0000a0 ac 48 61 3c 6e a2 b1 bb 3e c0 9c 3c a4 9a 12 3d
       0.0137502365 -0.0054209745 0.019134637 0.035792008
0000b0 b8 03 c4 3c 3c ca 3e bc c9 20 cb 3c e9 00 2e 3c
       0.023927554 -0.011644896 0.024795907 0.010620334
0000c0 d4 19 b6 3c 31 b8 8f bc 37 2f ff bc 71 84 1f bc
       0.022229113 -0.017543884 -0.031150443 -0.009736166
0000d0 cb b4 be bc c0 cb 07 3d 27 0e 69 3c b1 45 99 3c
       -0.023279568 0.033153296 0.014224566 0.01870999
0000e0 f2 7e 79 3c 75 b1 5c 3b c4 46 02 3d fa 40 ae bc
       0.01522802 0.0033675109 0.03180577 -0.021271218
0000f0 7d 32 cc 3b 5d 02 a6 bc cb b1 78 3c aa f5 fd bb
       0.0062316046 -0.020264799 0.015179108 -0.0077502327
000100 bd 36 7c 3c 84 d1 48 bb cc 1e 0e 3d 85 3e 7d bc
       0.01539391 -0.003064246 0.03469734 -0.0154568
000110 89 e5 7b bc 59 13 6b bc 6f 6b 20 3d 82 a6 9f 3c
       -0.01537455 -0.014347875 0.039164957 0.019488577
000120 a9 90 27 3d d8 02 bf bc c1 83 f0 bc 92 8d b2 bc
       0.040909443 -0.023316786 -0.0293597 -0.021796022
000130 6c 8a 98 bc 24 3e 9e 3c 9b 35 8d 3c d1 4c 0a 3d
       -0.018620692 0.01931674 0.017237475 0.033764664
000140 9a d5 6b bc c4 65 a6 bc 71 28 bb 3c 35 1b 2a bc
       -0.014394188 -0.020312198 0.022846432 -0.010382463
000150 54 64 d1 3c c5 cc 91 bb 20 42 c7 3c ff 76 c1 bc
       0.025560535 -0.0044494593 0.024323523 -0.023616312
000160 fc f6 63 bc 4a a4 7b 3c 5b 40 4a 3c e7 0d 81 bb
       -0.013913866 0.015358994 0.012344445 -0.003938425
000170 6a e1 d2 3c 2b eb e6 3c 56 0f b0 bc af 2d 67 bc
       0.025742251 0.028188309 -0.021491688 -0.014110013
000180 59 3b 1f 3d 90 ca 99 bb 01 bc 36 bb 59 05 c6 bc
       0.038874958 -0.004693337 -0.0027883055 -0.024172472
000190 02 8e 33 bc 9b c8 87 3c 88 e4 26 3b bc da 96 bc
       -0.01095915 0.016575148 0.0025465805 -0.018414848
0001a0 cc ea d2 3b 5d b8 a2 bc 84 5e d7 bc 39 fa 76 bc
       0.0064366814 -0.019863302 -0.026290186 -0.015074306
0001b0 44 8c dc bc 99 a3 99 bc 06 ed 21 3d e0 4d 2f 3c
       -0.026922353 -0.018754767 0.039532684 0.010699719
0001c0 d4 c6 74 3c f9 f0 ee bc da 81 9e bc d3 b6 fc bb
       0.014939982 -0.02916764 -0.019349027 -0.007712224
0001d0 b1 02 29 3c 2b 91 cd bc 42 20 0b bc a9 5b 6d bc
       0.010315583 -0.025093636 -0.008491578 -0.0144871855
0001e0 5b 9e ea 3b 9d 58 31 bc 94 3b a1 ba cf bc d3 bc
       0.0071599907 -0.01082435 -0.0012301081 -0.025846867
0001f0 7f 76 d7 bc b6 24 9d bc 09 a6 4d bc 71 f1 01 bd
       -0.02630162 -0.019182544 -0.012551793 -0.031724397
000200 23 36 ab 3c 91 f8 b4 bc 4c ff 9b 3c ef 23 dd 3b
       0.020899838 -0.022091182 0.019042633 0.0067486684
000210 c9 3c 08 bd 8d a4 ba 3c 98 2a 2e bc 0d db 4c bc
       -0.033261094 0.022783542 -0.010630272 -0.012503398
000220 b0 5c e2 bc 14 d4 03 bd df 4f 64 3c 07 f2 78 bb
       -0.027632087 -0.032184675 0.013935058 -0.0037986056
000230 95 06 92 3c 7f 53 ce bc 27 18 f9 3c e4 d4 af bc
       0.017825404 -0.025186298 0.030407025 -0.021463819
000240 27 fa 0e 3a 0d dd 8b 3c 98 37 e4 3c e0 bf 0d 3d
       0.0005454146 0.017073179 0.02785854 0.034606814
000250 90 6a 0e 3d 8c a6 02 bd 6a 57 92 3a b2 f6 cb bc
       0.034769595 -0.031897113 0.0011164967 -0.024897907
000260 dc 88 3c bc 71 6a 06 bd 86 8d c6 3c 1f e0 04 bd
       -0.011507239 -0.032816354 0.024237406 -0.0324403
000270 6b 9a 86 bb b7 47 af bc c9 e7 88 bc 13 c3 2b bd
       -0.0041077635 -0.021396501 -0.016712086 -0.041934084
000280 10 d2 c2 3b b0 24 6c bc 99 40 38 bc f6 63 1a bd
       0.0059454516 -0.014413044 -0.01124587 -0.037692986
000290 3e 91 5f 3c ad 56 86 bb 4d ce 51 bc b8 7e 0d 3d
       0.013645468 -0.004099688 -0.012805534 0.034544677
0002a0 be 26 43 3c 91 76 80 bc 92 c2 64 bc d5 59 8b 3b
       0.011911092 -0.015681537 -0.013962405 0.004252652
0002b0 cf f0 e1 3c d1 b3 2e bb 73 5d 7d bc 1e da 63 bc
       0.027580647 -0.0026657472 -0.015464175 -0.013906984
0002c0 98 01 04 bd a8 f2 be 3b c2 af bb 3c d9 db fb bc
       -0.032228082 0.0058272667 0.022910956 -0.03074448
0002d0 97 87 00 3c 89 9a b6 3c 4c 4a 78 3c f1 88 b0 bb
       0.007844827 0.022290485 0.0151544325 -0.0053874184
0002e0 94 45 b8 3c 52 8b 78 3c 22 dd ab 3b 47 99 fd bc
       0.022494115 0.015169935 0.005244867 -0.030956877
0002f0 50 76 1b bd 4c 2e c0 bc e7 db 04 bd 68 48 f3 bc
       -0.03795463 -0.023459576 -0.032436278 -0.029697612
000300 3a 22 5b 3c 8f be e8 3c 2d de 2a ba ff bc 84 bb
       0.0133748595 0.028411178 -0.0006518092 -0.0040508504
000310 21 9f 93 3b ac 2d f6 3a 5e 39 51 3c 98 81 85 3c
       0.0045050536 0.0018781922 0.012770025 0.016297147
000320 49 86 c9 bc 00 56 26 bc ca e1 e0 3c 3b 77 ab 3b
       -0.024600165 -0.01015234 0.027451415 0.0052327192
000330 e6 ae 75 bc 4e ac dd bc 2a c3 b9 bc 7f 6a da bc
       -0.014995312 -0.0270597 -0.02267607 -0.02666211
000340 11 c2 6b 3a b7 6c 00 3d bf 9a 4a 3d 27 a5 20 3d
       0.0008993457 0.03135368 0.049463984 0.03922
000350 eb 92 65 bc be 6a 39 bc 4a 38 67 bc 44 99 90 3c
       -0.014012079 -0.011316953 -0.014112541 0.017651208
000360 d6 3e 73 bc d2 af 0d bd 73 97 62 bc 48 04 25 bd
       -0.014846524 -0.034591503 -0.013830054 -0.040287286
000370 e0 e7 23 bd d0 2c a5 3c 2c 04 62 bc 96 bc 57 bb
       -0.040016055 0.02016297 -0.01379494 -0.0032918802
000380 a0 d4 00 bd a3 b6 e4 3c 2f 39 00 3d 14 a5 9c 3c
       -0.031452775 0.02791912 0.031304535 0.019121684
000390 c0 46 80 bc d5 f8 06 bd 84 d4 04 bd 35 c0 99 3c
       -0.015658736 -0.03295215 -0.032429233 0.01876841
0003a0 09 03 04 3c 16 26 9b 3c 44 db 36 3c c0 0a a7 3b
       0.008057364 0.01893906 0.011160675 0.005097717
0003b0 6c 55 62 bb aa 0c 8f bc ae b6 96 bb 7b da cb bb
       -0.0034535779 -0.017462093 -0.004599414 -0.0062211133
0003c0 49 ba c8 3c b4 06 91 bc 36 ae 9b bc e6 68 28 bd
       0.02450289 -0.017703392 -0.019003969 -0.041115664
0003d0 ed 10 f3 bc 70 ba 44 bd 20 42 45 bd 43 3a 97 bc
       -0.029671157 -0.048029363 -0.048158765 -0.018460399
0003e0 94 77 0a bd db 9c 57 3c 40 f4 2e bc 5c ee b8 bc
       -0.033805445 0.013159956 -0.010678351 -0.022574596
0003f0 b6 69 15 bb b7 01 55 bc d0 7f cd bb 7b e7 d9 bc
       -0.0022798604 -0.013000897 -0.00627134 -0.026599636

fc1.bias f4 [256]
000000 41 84 8d 3c b2 76 13 bc 3a b0 c9 3c d8 f4 c6 3b
       0.017274978 -0.009000467 0.024620164 0.006071668
000010 7b 76 9b bc 55 98 84 bc 41 62 b4 bc 7b b0 01 bd
       -0.018977394 -0.016185919 -0.022019507 -0.031662446
000020 ef 45 e1 bb 61 07 eb 3c a9 0a f9 bc 15 eb e1 bb
       -0.006874792 0.028690042 -0.030400591 -0.006894479
000030 5b 6e 36 3c ca fe 90 3c 65 f4 ff 3c 24 7d af bc
       0.011134709 0.017699618 0.031244466 -0.021421976
000040 97 85 08 3b 7d 7e b0 3b 00 43 11 3d 05 08 87 bc
       0.002083158 0.0053861723 0.035464287 -0.016483316
000050 1d e2 f5 3c 74 65 fd 3c 78 cf 62 3c a6 80 b0 3c
       0.030015046 0.030932166 0.01384341 0.02154572
000060 0e 8b 7c bc c9 f6 12 3c fb 9d 08 3c 64 ff f8 3c
       -0.015414013 0.008969971 0.008338447 0.030395217
000070 f0 7d 2f bb 51 19 d1 39 38 cb be 3c 38 88 8b bb
       -0.0026777945 0.0003988245 0.023290262 -0.004258182
000080 ba 08 b0 bc 5f 0f bf 3c ca 05 00 bd 60 ce 14 3d
       -0.021488536 0.02332276 -0.03125552 0.036329627
000090 00 75 91 bc 0d 13 15 3d 1e 8c c9 bc 27 31 cd 3c
       -0.017755985 0.03639512 -0.024602946 0.025047852
0000a0 31 0c 98 3c 05 04 f4 3c 67 2f a9 3c fe 0f e6 3c
       0.0185605 0.029787073 0.020652486 0.028083798
0000b0 3c f7 2a 3c 4c 62 a7 bc a1 2e 17 3d c7 22 fe 3c
       0.010434922 -0.020432614 0.036909703 0.031022443
0000c0 6a 84 f4 bc a3 3c c1 3b 3f b3 22 3b 4c 96 f3 3c
       -0.029848296 0.005897121 0.0024826077 0.029734753
0000d0 ae 2a ce 3c b0 de 01 3d 94 83 69 bc 25 f8 08 3d
       0.025166836 0.031706512 -0.014252562 0.033439774
0000e0 67 97 eb 3a 82 c0 c4 3c 44 98 5c 3c b3 ac f1 bc
       0.0017974199 0.024017576 0.013464037 -0.029501295
0000f0 3e d7 92 3c 55 7f 0e 3c 91 62 0c bc 33 e8 db bc
       0.017924901 0.0086973505 -0.008568422 -0.02684412
000100 85 f2 8c bb 0f f3 48 3b d2 1a 8c bc 03 02 a0 3b
       -0.0043013715 0.0030662452 -0.017102633 0.0048830523
000110 67 9e db 3b 13 85 61 bb fa 89 d0 3b 04 98 c3 bc
       0.0067022326 -0.0034411594 0.0063641043 -0.023876198
000120 a0 4a 10 3d f2 39 db 3c b1 71 ea bc ab 1a b2 3b
       0.035227418 0.026761029 -0.028618665 0.005435308
000130 fa ee 16 3c 70 26 39 bc 28 e5 bc bc 71 4e d8 bc
       0.00921225 -0.011300668 -0.023058489 -0.026404591
000140 53 a7 ee bc 83 10 dc 3b 23 38 f1 3b d4 78 0e 3d
       -0.02913252 0.0067158355 0.0073614283 0.0347832
000150 9c c5 ca bc 86 97 84 3c 2a 94 7a bc 6d 09 09 bd
       -0.02475243 0.016185533 -0.015294114 -0.033456255
000160 a7 08 66 3c b3 48 d2 3c 37 ca e9 3c 2a 23 8e bc
       0.014040149 0.025669431 0.028538806 -0.017350752
000170 c8 cc 85 3c c2 ca 85 bc 4d d0 94 3c 80 59 aa bc
       0.016332999 -0.016332034 0.018165732 -0.02079463
000180 6e 0c 0c bd 28 91 0b 3d 93 19 a3 bc 3b f3 c0 3b
       -0.03419154 0.03407398 -0.019909656 0.0058883703
000190 07 a6 fe 3c e0 3f bd bc 2a 0c d2 bc ac 99 ac 3c
       0.031085027 -0.023101747 -0.025640566 0.02106937
0001a0 1e 6f 2c bc 4a 1e 91 bc 57 57 1d bc 59 b0 fa bc
       -0.010524539 -0.017714638 -0.009603343 -0.030601667
0001b0 02 6d 53 bb ff 2b 7e ba 43 d5 e7 bc 20 23 2f bc
       -0.0032261019 -0.0009695887 -0.028299933 -0.010689527
0001c0 19 8b ac 3c e6 a7 a0 bc 0c 66 57 bc 8b 8a 5d 3c
       0.02106242 -0.01961131 -0.013146888 0.013521801
0001d0 1e 94 94 bc 3f 76 00 bd 8f 5a 99 bc bb 08 22 ba
       -0.018137034 -0.03136277 -0.01871994 -0.00061811105
0001e0 4a 83 bc 3c 3e 55 81 3c a4 8f 14 3d f5 59 64 bc
       0.023011822 0.015787717 0.0362698 -0.013937463
0001f0 70 d6 2a bc f2 ef 06 3d 50 a9 6d bc 2a a9 be 3c
       -0.010427102 0.032943673 -0.014505699 0.023274023
000200 38 d3 d1 3c 95 86 10 bd b4 0d 57 b8 3a 03 fc 3c
       0.025613412 -0.035284597 -5.1272757e-05 0.030763257
000210 92 5b 04 3d 48 8e ce bc 12 80 0a 3d 41 ff 01 3d
       0.03231389 -0.02521433 0.033813544 0.03173757
000220 98 1e c5 3c 8a 22 31 3c 7f a1 92 ba 4b ca 07 3b
       0.02406244 0.010811457 -0.0011187046 0.0020719941
000230 65 15 89 bc 0a f5 05 3d 54 76 3f bc 41 62 e3 bc
       -0.016733835 0.03270439 -0.0116859265 -0.027756812
000240 92 24 82 bc 4a cd 97 bc 6d 20 d2 3c aa db 0e bd
       -0.015886579 -0.018530507 0.025650227 -0.034877457
000250 93 03 85 bc a7 3b 8c bb 9f ad 49 bc 2d a2 7a 3b
       -0.016237056 -0.004279572 -0.012309461 0.0038243637
000260 f0 96 61 3c 4d c0 61 3c c5 44 e0 bc a7 a7 31 3c
       0.013768896 0.013778758 -0.027376542 0.010843194
000270 47 34 08 3c 17 be 49 3c c5 32 38 3b 4e 51 e0 3a
       0.008313245 0.012313387 0.0028106433 0.0017114074
000280 fe f9 99 bc dc 37 51 bc db 14 d9 ba aa da 4a bc
       -0.018795963 -0.012769666 -0.0016562002 -0.012381235
000290 d6 82 db 3c 9f 48 00 bd 01 32 bd bb 73 f3 98 3c
       0.026795786 -0.031319257 -0.005773783 0.018670773
0002a0 1f 22 8a bc 25 e5 f4 3b 23 59 5c bc a4 c3 b2 bc
       -0.016861973 0.007473605 -0.013448986 -0.021821804
0002b0 bc 8f f2 bc e0 7d 60 3c 06 c1 02 3d 2f 68 4f 3c
       -0.029609554 0.013701886 0.031922363 0.012659117
0002c0 59 d8 0b bd bd 56 a4 bc 12 39 fa 3c 77 ee 99 bc
       -0.034141872 -0.020060891 0.030544791 -0.018790467
0002d0 cd 1a 27 bb f4 cf b5 3c 13 9d e0 bb 91 7a 37 3c
       -0.0025498152 0.022193886 -0.006854662 0.011198656
0002e0 55 93 3f bc 58 a2 fd bc 7d d6 8c 3c 7f 1f 8e bc
       -0.011692842 -0.0309612 0.01719212 -0.017349003
0002f0 25 d0 09 3d e0 e4 01 3d ca e8 e2 3c d7 c5 08 bd
       0.033645768 0.031712413 0.027698893 -0.0333918
000300 06 60 15 3d 45 a9 31 bb 2b 35 5d bb 7f fa 07 bd
       0.03646853 -0.002710895 -0.0033753614 -0.033197876
000310 36 c5 d5 bc 0c 76 9e 3c 89 70 1e 3d 57 98 5c bc
       -0.026095014 0.019343399 0.03868154 -0.013464055
000320 ee 18 89 3c cc 1d e9 bc 61 ad c8 bc c8 51 f1 3c
       0.01673552 -0.028456591 -0.024496736 0.029457942
000330 2a 80 92 bc 64 c1 f3 3c 01 e6 fd 3c 4c 67 1e 3c
       -0.017883379 0.029755302 0.030993463 0.009668183
000340 85 f1 b1 bb 76 43 25 3d af 1c d6 bc 5c af 14 3d
       -0.0054304027 0.04034754 -0.026136724 0.03630005
000350 09 ad 23 bb 59 d0 3e 3c a1 8c 1a bb 4c cc 21 bc
       -0.0024974963 0.011646354 -0.0023582357 -0.009875368
000360 32 38 c5 3b 1b 6e 58 3c 20 e6 50 bc be a6 08 3d
       0.006018662 0.013209845 -0.012750179 0.033362143
000370 a0 61 69 bc f6 59 a1 3a dc 28 c8 3c 70 ce 73 bc
       -0.014244467 0.0012310136 0.024433546 -0.0148807615
000380 06 38 e0 bc a5 3f 36 bc 63 9b b7 3c 0e 9c 05 3d
       -0.027370464 -0.0111235725 0.022412961 0.03261953
000390 09 d1 05 bd 17 0e 62 3c f1 93 a4 bb ea d5 f9 3c
       -0.032670055 0.013797305 -0.005022519 0.03049751
0003a0 49 02 0c 3d 6b c5 0d 3a d9 fd 17 3d 82 07 65 3c
       0.034181867 0.0005408141 0.037107322 0.013978841
0003b0 6c ca 91 3b 79 34 83 bc a4 c0 2f bd 3e a3 77 bc
       0.0044491794 -0.016016232 -0.042908326 -0.015114604
0003c0 ab 62 80 bc 1c a3 3e 3c 61 eb d2 bc 11 6d b7 3c
       -0.015672049 0.011635568 -0.025747003 0.022390874
0003d0 3a 8e a5 bc 34 b7 6b bc bd be 74 bc 79 35 97 bb
       -0.02020942 -0.014386941 -0.014938054 -0.0046145287
0003e0 47 05 a1 bc d7 00 d6 3c fb ea 7b bc 79 56 e7 3c
       -0.019655837 0.026123447 -0.015375848 0.028239476
0003f0 d9 9f f2 3c f6 d4 0f 3d 07 38 98 3c 20 45 89 ba
       0.029617237 0.035115205 0.018581403 -0.0010472871

fc2.weight f4 [64, 256]
000000 65 50 89 bd 18 95 32 bc 3b 17 e6 bd 02 5e 04 bc
       -0.06704787 -0.0108998045 -0.112348996 -0.008079054
000010 86 aa 8f 3d 2a d0 da bd 5e 80 01 bd f0 bb 45 3d
       0.07014947 -0.106842354 -0.03161656 0.048274934
000020 8f f2 39 bd 85 2f 00 3e af b4 c3 bd d0 1f 3a bd
       -0.045397338 0.12518127 -0.09555947 -0.045440495
000030 a6 79 2e bd 76 8c 40 bd 8e 20 e9 3d 1e cf bb bd
       -0.04259648 -0.047008954 0.113831624 -0.09170364
000040 15 bb 42 bc f0 1a bd bd 3d 22 80 bc e2 a8 b1 3d
       -0.011885424 -0.092336535 -0.015641326 0.0867479
000050 0d 3e 62 3d bf b5 43 3c f3 3e 1b bd d3 60 36 be
       0.055234957 0.011945187 -0.03790183 -0.17810373
000060 76 ed 05 3d 29 0c 76 bd 76 55 eb 3c a9 af 27 bd
       0.032697164 -0.06007019 0.028727274 -0.040939007
000070 05 44 fc bc 9b 8c 58 3d bb da a3 bd 8b 70 ab 3a
       -0.030794153 0.052868467 -0.08000704 0.0013079805
000080 72 00 c3 3c b1 dd 41 bc a1 d4 10 bd 9f 78 d5 3c
       0.023803923 -0.0118326405 -0.03535903 0.026058493
000090 6d 8b 85 3d 93 21 83 3d 10 32 ff bd 9b 90 fe 3c
       0.06520734 0.06402888 -0.124607205 0.031074813
0000a0 72 c5 ae 3d 1c 58 bd 3d d0 27 cd 3d d0 f0 e3 bd
       0.085337535 0.09245321 0.10017359 -0.11129916
0000b0 29 96 ea bc 19 7d 21 3d 80 e8 17 3d cc d5 7b bd
       -0.028636055 0.039425943 0.037086964 -0.06148319
0000c0 3d 80 aa bd d8 57 13 bd aa 84 46 bb f9 17 06 3d
       -0.08325241 -0.035972446 -0.0030291476 0.032737706
0000d0 b2 69 e7 3c 7b fa 1d bc 9c 04 55 3d c0 ef 04 3d
       0.028248642 -0.009642239 0.05200635 0.032455206
0000e0 dd cb f2 3c 13 a8 90 3c f5 bd df 3c 22 5c a8 3c
       0.029638225 0.017658269 0.027312258 0.020551745
0000f0 1b 14 1f bd b3 41 db 3c 6d d8 43 bc 6a a1 92 3d
       -0.038837533 0.026764726 -0.011953455 0.071596935
000100 2c 69 70 3d 45 c4 cd bb 4d c8 a8 3d e1 a1 15 bc
       0.05869405 -0.0062795007 0.08241329 -0.009132833
000110 ac ee 35 be c3 a1 68 3c 47 41 c3 3d 5e 52 ae 3d
       -0.17766827 0.014198723 0.09533935 0.08511804
000120 42 93 88 bd b4 7f 4b bd 46 3d 2c 3d 75 58 88 3b
       -0.06668712 -0.049682334 0.042050622 0.0041609355
000130 46 fe e8 b9 c9 ad f5 bc 0b ec 6d bc 1a 5c 09 3d
       -0.00044439937 -0.029990094 -0.014521609 0.0335351
000140 d0 9c 2e 3d 1d bc 43 3d 5d e9 bb bd bc f6 91 3d
       0.042630017 0.04778682 -0.0917537 0.07127139
000150 8e 70 8c bb f2 e0 08 be 1c 68 c1 bd f8 d0 69 3d
       -0.0042858785 -0.1336706 -0.094436854 0.057084054
000160 3a 17 6f 3b e3 da d9 3d 17 ab 57 bd c6 df 97 3d
       0.003648235 0.106374525 -0.0526534 0.07415728
000170 a1 7e 2c 3d 83 97 a6 3c a4 37 54 3d 93 48 d2 3c
       0.04211295 0.020335918 0.051810876 0.025669372
000180 47 f0 8c 3d 6e 11 24 3c d7 ec 80 bd 54 33 df bb
       0.06881767 0.010013921 -0.062951736 -0.0068115387
000190 cd 99 e3 3c b5 66 99 bd 0a 2d 6d bd db 2c c5 bd
       0.027783299 -0.07490293 -0.05790428 -0.09627696
0001a0 02 d7 69 3d 88 bd ad 3c 58 97 22 3d 5a 16 e3 3d
       0.057089813 0.02120854 0.039695114 0.110882476
0001b0 69 d2 66 3d 68 0b d5 bd 18 de 2b bc 3c 5d 37 bd
       0.056353007 -0.10402566 -0.010489963 -0.04476665
0001c0 9c b3 f0 3a b9 ad 4c 3d 47 ff 79 bd 8b 6b 20 bd
       0.0018364075 0.049970362 -0.061034467 -0.03916506
0001d0 92 dc 8a bc bf 35 a3 bd 01 da 36 bd e2 24 c0 3c
       -0.01695088 -0.07969236 -0.0446415 0.023455087
0001e0 42 67 a4 bb a8 05 2e bd 6b f0 b1 bd 8a b7 64 bd
       -0.005017192 -0.042485863 -0.08688434 -0.0558391
0001f0 b1 2c 43 bd 3a 13 a6 3d b6 56 15 bd 8d 29 ba bc
       -0.047650043 0.08109136 -0.036459647 -0.022724891
000200 67 08 5f 3d 89 24 90 bd 61 5d c2 3d 6c 1f 2c 3d
       0.054451372 -0.070382185 0.09490467 0.042022154
000210 b8 60 9e bb 33 22 5b 3d 78 99 78 3c 04 4a 81 bd
       -0.004833307 0.05349941 0.015173309 -0.063129455
000220 95 43 b6 3a 36 98 f0 bc 54 be 84 bd 59 a1 68 3d
       0.0013905639 -0.029369455 -0.06481615 0.056794498
000230 b2 6c c6 3d 8a a0 0d 3d d3 e8 42 3d bc b4 d9 ba
       0.09688701 0.03457693 0.04758532 -0.0016609649
000240 f9 91 5c bd 6c 0b 11 be ba 56 21 bd 9d 93 a0 bd
       -0.053850148 -0.14164513 -0.03938935 -0.07840655
000250 31 81 4f 3c 27 fa c0 3d 84 83 9d bb 53 05 db bd
       0.012665079 0.09422713 -0.0048069376 -0.10694375
000260 62 00 9a bc ad a0 6f bd 52 9d 76 bd 45 09 a8 3c
       -0.01879901 -0.05850284 -0.060208626 0.020512233
000270 57 07 25 3d f7 f1 08 bd f3 1e 8f bc b0 e2 03 3d
       0.040290203 -0.03343388 -0.017470812 0.032198608
000280 e4 f0 14 3d c5 96 39 3d 66 dc 0d 3d 39 7e 0d bd
       0.036362544 0.0453098 0.034634016 -0.034544203
000290 02 92 8d 3a 21 f4 c5 bc 80 3b a0 3d c2 45 81 3c
       0.001080096 -0.024164261 0.07823849 0.015780333
0002a0 9e c6 c3 bc c1 ab 5b bd 2a 16 23 be 93 3e b1 bc
       -0.023898419 -0.053630594 -0.15926424 -0.021636283
0002b0 88 98 0e bc 82 da 67 bd 01 74 b2 3d cd 44 30 3d
       -0.0087033585 -0.05660487 0.08713532 0.043034364
0002c0 f2 e6 ca bb 18 fc f9 bc 89 f9 24 bc e4 40 3b bd
       -0.0061920816 -0.030515715 -0.010069259 -0.04571618
0002d0 41 9c 8a ba a4 1d 8a 3d c9 ca c2 3d 74 20 4e 3d
       -0.0010575132 0.06743935 0.095113344 0.05032392
0002e0 f0 9c 00 bd c4 54 41 bc 07 db 57 3c c2 54 08 3d
       -0.031399667 -0.011799995 0.013174779 0.033283956
0002f0 dd 02 ff bd 42 81 21 3d 3e bc 77 bd a9 f0 3f bc
       -0.12451718 0.03942991 -0.060482256 -0.011715093
000300 2a d1 6f 3d 50 79 08 be 8f 1a a2 3c 01 63 e3 3d
       0.058549084 -0.13327527 0.019788055 0.11102868
000310 be 53 3b 3d f7 06 83 3d 31 17 8b 3c 14 c3 0e bd
       0.04573416 0.06397813 0.016978832 -0.03485401
000320 44 20 a6 bb 86 a1 c0 bd 6e 5b 99 3c 9b 33 54 bd
       -0.0050697643 -0.09405808 0.018720355 -0.051807027
000330 44 7d f5 bc 25 99 0b bb 91 32 a6 3d 59 bb d5 3c
       -0.029966958 -0.0021300998 0.081151135 0.02609031
000340 ed 4c 60 3d 3d dd 91 3d 68 81 0f 3d 88 dc fa bc
       0.054760862 0.07122276 0.03503552 -0.030622736
000350 25 ed 86 3d 68 50 32 3b 63 b4 08 be c9 03 c2 bc
       0.065882005 0.002720857 -0.13350062 -0.023683446
000360 dd 33 5b 3d a2 a8 0a 3d e6 f1 8a bd b5 1d 14 bd
       0.053516258 0.033852227 -0.0678442 -0.036161143
000370 ed 1d 4e 3c 86 d9 2f 3d 6d e8 78 3c ba 9a 8d bd
       0.012580377 0.042932056 0.015192133 -0.069142774
000380 8c 15 92 3c 96 de cc 3c 1d 6c 47 3d 63 63 00 3d
       0.01783254 0.025008481 0.04868709 0.031344783
000390 29 a7 b7 bc 31 10 f3 3c 5a bb f8 3d 53 67 9a 3c
       -0.022418575 0.029670807 0.121451095 0.018848097
0003a0 f7 a0 10 bd d4 13 26 3d b8 14 61 3d e2 5c cc bd
       -0.035309758 0.040546253 0.0549514 -0.099786535
0003b0 2f ea 6b bd 7d 83 00 bd 22 0a 92 3d e1 53 ef bd
       -0.05759638 -0.031375397 0.07130839 -0.116859205
0003c0 67 e4 c6 3d 4c f6 00 bd 48 41 20 bd e3 6b 21 bc
       0.09711533 -0.031484887 -0.039124757 -0.009852382
0003d0 4f 12 b8 bc 2c 8f b0 bc 1e 83 8c 3d 38 d9 20 3d
       -0.022469668 -0.021552645 0.06860946 0.039269656
0003e0 1e 4c 3a 3c 3f e1 16 bd 1f 8b 30 bd 78 05 6d 3c
       0.011370687 -0.036835905 -0.043101426 0.014466636
0003f0 64 38 fd bc 57 89 f1 bd fd 48 3e bd 1f 76 95 bd
       -0.030910678 -0.117937736 -0.046456326 -0.072979204

fc2.bias f4 [64]
000000 20 5f 07 bc 75 67 37 bd 65 f5 b3 3a 6e 0d 53 3c
       -0.008262426 -0.0447764 0.001372975 0.01288162
000010 51 2d ee 3c d8 1e e7 bc 74 c9 fc bc 29 c8 b7 bc
       0.029074343 -0.02821295 -0.03085778 -0.022434311
000020 28 4a 52 3c aa 0d ad ba 1b 71 79 3c 2c 06 7b 3d
       0.012835063 -0.0013202925 0.01522472 0.061285183
000030 e5 3c 72 3d 1d 59 91 3c 2f c2 b5 3b 69 d3 f0 3c
       0.059140105 0.017742688 0.00554683 0.029397683
000040 98 d0 89 3c 77 44 e6 3b a9 b9 08 3d 43 ca ec bc
       0.016823098 0.0070272046 0.033380184 -0.02890504
000050 99 ee 32 bd 1c bd 5e 3d 9a f4 3f 3d 83 25 19 3d
       -0.043684576 0.054379568 0.04686413 0.03738929
000060 fa 09 e6 3c 68 3c ae bc 07 82 75 3a 5c 88 47 bc
       0.02808093 -0.021269038 0.0009365384 -0.012178507
000070 63 b2 04 3d df c8 b5 3c a7 eb 25 bc 1e 70 f2 3b
       0.032396685 0.02219051 -0.010126985 0.0073986193
000080 12 25 eb bc be e2 24 3d 45 a9 2a 3d 3b bb 37 bd
       -0.0287042 0.0402553 0.041665334 -0.04485629
000090 94 c2 80 3d 4c 1a 22 3d 1e af ce 3b f8 35 dd 3c
       0.06287113 0.03957586 0.0063074967 0.027003273
0000a0 52 aa 90 bb 55 31 24 3c c4 f7 02 3d ca b5 37 3d
       -0.004414835 0.010021527 0.03197457 0.044851102
0000b0 b0 bf 27 bc 05 63 03 3b f6 a0 52 3c f4 94 fc bc
       -0.010238573 0.0020048034 0.012855759 -0.030832745
0000c0 b9 30 29 3d 10 55 45 3d e2 1d 58 3d 37 f9 55 3d
       0.04130623 0.048176825 0.052762873 0.052239623
0000d0 66 b4 b6 3b e9 af c3 3c 54 b6 f5 3c 4c 28 ef bc
       0.0055757044 0.023887591 0.029994167 -0.02919402
0000e0 a1 d8 50 bd bb b4 ae bc b5 2c 9e 3c b1 27 6f 3b
       -0.050987843 -0.021326413 0.019308427 0.0036492164
0000f0 95 05 6b 3d 89 7b 1b bd fa 75 79 bd 6f d9 f2 3c
       0.05737837 -0.03795961 -0.060903527 0.029644696

fc3.weight f4 [10, 64]
000000 20 5e 19 be fa 91 b8 bc e2 ff 76 be 53 4f 34 bd
       -0.14977312 -0.022530545 -0.24121049 -0.044020962
000010 c5 03 f1 3d cc 0e 27 be fb 50 82 3e 86 60 65 3e
       0.11768297 -0.16314238 0.25452408 0.22400102
000020 38 68 20 3d 18 2b cb bd d0 41 e2 3d 66 fa 82 3d
       0.03916189 -0.09920329 0.11047709 0.06395416
000030 1a e2 3e 3d cf e8 d8 3d e1 8d 4f 3e 64 9d 98 3d
       0.046602346 0.1059128 0.20268966 0.07451895
000040 bc 09 3a be ae 24 f2 3d 08 c9 da 3d 76 4e cb 3c
       -0.18167776 0.11823402 0.10682875 0.024817687
000050 f4 9a 74 bd 7f 1a 94 be 65 95 4b 3e af 3a c8 3d
       -0.059718087 -0.28926465 0.19881208 0.09776818
000060 e9 5e d0 be d8 ec c4 bd c4 d4 ee 3d 6d 17 42 3e
       -0.4069741 -0.09615487 0.116616756 0.18954249
000070 04 d0 75 bd ff 75 d7 3d cc 6f f8 bd 73 91 df bd
       -0.060012832 0.10520553 -0.121306986 -0.10916414
000080 4e 21 8e bd 2e cb 10 3b c2 04 e8 3d 6c aa 8c 3e
       -0.06939946 0.002209376 0.113290325 0.27473772
000090 50 e9 06 be 99 54 0f be b8 3e bc 3d 00 5b 3c bd
       -0.13174939 -0.13997115 0.0919165 -0.045985222
0000a0 a8 a1 13 3d c7 a4 84 3e 9f ff bb bd d0 bb cf bc
       0.03604284 0.25906965 -0.09179615 -0.02535811
0000b0 1c 17 10 3e 79 60 56 be 2f 54 08 bc c4 ed 6b be
       0.14071316 -0.20935239 -0.008320852 -0.23039919
0000c0 42 37 b1 3d d3 f1 9b 3e 32 a0 b5 bd b7 c0 9b 3e
       0.08653118 0.30457935 -0.088684455 0.30420467
0000d0 81 d5 14 3e 7b 88 ae be 26 a2 05 bd af bd 9e ba
       0.1453457 -0.340885 -0.03262534 -0.0012110973
0000e0 7d e9 b9 3d cc 11 63 3c 31 b7 3b bd 14 e6 e0 3c
       0.090777375 0.013859224 -0.045829 0.02745346
0000f0 66 5f 0a 3e 45 34 9a 3c 70 1e 2c bd 60 04 98 bb
       0.13512954 0.018823752 -0.042021215 -0.0046391934
000100 c1 2a bc bd 3b ca 79 3d 74 af 8e be ef 46 57 bd
       -0.09187842 0.060983878 -0.27868235 -0.052557882
000110 91 62 96 bd 6f 64 b5 be 13 30 41 be c6 d2 18 bd
       -0.07343019 -0.35428187 -0.18865995 -0.037310384
000120 7c 5d ed 3c 67 71 4e 3c 04 f7 7b be 30 ba 40 3e
       0.02897524 0.012600279 -0.24605948 0.18821025
000130 7e 33 16 3d a2 41 0c bb 19 db c1 3c 04 eb 8a 3d
       0.0366702 -0.0021401425 0.023664044 0.06783107
000140 9e aa 40 3e 57 89 07 3d de c9 2b 3e dd 4f 11 3d
       0.18815085 0.03308996 0.16776225 0.035476554
000150 4d 22 5a 3d 67 7d f4 bd 1e e8 83 bd da 6c 91 3d
       0.053255368 -0.11937981 -0.06440757 0.0710084
000160 47 a9 a8 3e a1 c8 07 3d 8d ad e6 3d 4b 42 ff bd
       0.32941648 0.03315032 0.11263571 -0.12463816
000170 cc 0d ec 3d f7 72 c0 bc 00 5b 01 3e a3 9e ef bd
       0.11526069 -0.02349232 0.1263237 -0.117001794
000180 8e 96 37 bd 21 a1 f8 3d a4 9d 0e 3d d1 cc 80 3c
       -0.044821315 0.12140108 0.034818307 0.015722664
000190 97 10 56 3d 22 63 6b be 92 6c bd 3d 8c 6a cc 3e
       0.052261915 -0.22987035 0.09249224 0.3992504
0001a0 fd 6f bd be ae b8 2c be 95 c4 f8 3c fc fe 5b be
       -0.36999503 -0.16867325 0.030367175 -0.21483988
0001b0 bf 93 8e bc 21 5f 01 be 4a ff c5 bd 46 c9 2c 3e
       -0.017404435 -0.12633945 -0.09667833 0.16873655
0001c0 38 70 39 3d a2 52 a5 be 0e ef 0b be 06 75 88 be
       0.045273036 -0.32289606 -0.13665411 -0.26651782
0001d0 75 f9 97 be 4d b0 c4 3e be a2 47 3d 0c 5a 87 bd
       -0.29682508 0.38415757 0.048739187 -0.06608972
0001e0 e4 bf 7a bd 41 e9 c1 bd 2e 48 92 3d 3e df 05 bc
       -0.061218157 -0.09468318 0.071426734 -0.008170901
0001f0 05 1a a7 be 7a fa db 3d f3 b0 d8 3d 59 e8 22 be
       -0.3263704 0.10741134 0.105806254 -0.15908946
000200 92 6b f5 bd 2c f8 a4 3e 16 40 93 3b fc b2 7a 3d
       -0.11983408 0.3222059 0.0044937236 0.06120585
000210 30 57 e9 3d 44 28 bf 3c 3c 4a ab 3e 2b 53 6c be
       0.11393583 0.02333463 0.33455074 -0.23078601
000220 d7 e2 ff 3d 8b 53 58 bd 29 e1 65 bd b1 8f a4 be
       0.12494438 -0.052814048 -0.056122933 -0.32140878
000230 98 ca 3f 3d d1 b5 37 be 52 fb 90 bd e9 c3 44 bd
       0.046824068 -0.17940451 -0.070791855 -0.048038397
000240 31 26 c3 be 14 3d da bd 03 16 58 3e 5e d5 c4 bd
       -0.38115075 -0.10656181 0.21102147 -0.09611009
000250 41 58 85 bc f9 a7 9f 3e 4a f3 26 3e 73 fd 0d 3e
       -0.016277434 0.3118284 0.16303745 0.13866214
000260 ef d4 61 3e b6 67 c1 bd 65 6f 87 bd 4f cb 48 3e
       0.22053884 -0.094436094 -0.06613044 0.19608806
000270 7e cd df 3d 64 92 05 3c 31 46 d3 3e c8 2b 62 3e
       0.109278664 0.008152578 0.4126449 0.22087014
000280 58 44 15 bd 46 ce a3 3e 13 97 28 3e e3 a6 35 bd
       -0.03644213 0.31993312 0.1646388 -0.04434861
000290 63 6d ca bc 9f 7a 8f 3e 11 63 0c 3d 66 10 38 be
       -0.024710363 0.2802324 0.034274165 -0.17975006
0002a0 76 b5 ce be 6a ad 8c 3e ec 74 e3 bb 98 8d f4 3c
       -0.4037282 0.27476054 -0.0069414284 0.029852673
0002b0 53 03 fb bd 38 09 17 3e 8d f4 9d 3e 37 97 d8 3c
       -0.122564934 0.1474961 0.3085064 0.026439292
0002c0 7d 08 e1 bc 63 ca b0 bd 4d 48 ff bd 62 13 7e 3e
       -0.027469868 -0.08632352 -0.12464962 0.24812081
0002d0 b8 9f 5e 3e ce c6 bb bd 54 d3 39 be 14 1a 8c bd
       0.21740615 -0.09168778 -0.18147022 -0.068409115
0002e0 f2 ff e1 be 2b 08 b8 bd 86 5d 75 3e 9d a3 6b bc
       -0.44140583 -0.08985933 0.23961458 -0.01438227
0002f0 d1 18 13 3e 04 13 de bd 44 7c 93 bd c6 c7 80 3e
       0.14364935 -0.10843471 -0.07201436 0.25152415
000300 5c 91 79 be 2d d9 41 be 42 5b e7 bd 68 33 c8 3d
       -0.24371856 -0.18930502 -0.11296703 0.0977543
000310 63 7e 7c 3d 92 e1 30 be e0 da 38 bd d7 c9 9a be
       0.06164397 -0.17273548 -0.04513061 -0.30232117
000320 cc 7e 9b bd db 28 ca 3d 25 35 47 3d 6d e3 97 3e
       -0.07592544 0.09871074 0.048634667 0.296657
000330 2c 0a 25 be 7d fe d9 3e 38 85 91 bd 5e e5 e7 3d
       -0.16117162 0.42576972 -0.071054876 0.11323045
000340 55 12 d0 be ba 09 ed 3d 01 4f 06 be d6 aa 9e bd
       -0.40638986 0.11574121 -0.13116075 -0.07747428
000350 da 37 c7 3d 8e 2c 9b bd 82 6c 5c be 62 f4 d5 bd
       0.0972745 -0.075768575 -0.21525767 -0.10447003
000360 9d 4d a5 3e f5 69 7e bd 11 6c d4 3b b6 07 80 be
       0.32285777 -0.062112767 0.006482609 -0.25005883
000370 63 32 8d be 27 23 0d bd f6 99 90 3e 37 85 8f 3e
       -0.27577505 -0.034457352 0.28242463 0.28031322
000380 7a 26 93 bc 9d 94 3c be 7f 3c 9c 3e ba 56 b6 bd
       -0.017962683 -0.18416066 0.30514905 -0.089032605
000390 51 21 ae 3d 42 b9 ac 3e a3 12 ac 3c 92 10 99 be
       0.08502448 0.3373509 0.02100498 -0.29895455
0003a0 59 b5 23 bd 05 be 1f be 90 96 6b 3e c0 47 16 be
       -0.03996787 -0.1559983 0.23006654 -0.14675808
0003b0 0c fb 89 bd d7 43 82 3e 48 20 a9 3d 28 84 ec 3d
       -0.067373365 0.25442383 0.0825811 0.11548644
0003c0 79 68 11 3e f4 26 8e bd 93 93 b6 be 64 a5 40 bd
       0.1420001 -0.069410235 -0.35659465 -0.04703273
0003d0 dc 58 85 3d ea cf 2f bd 6f 3d f8 bc 18 ec a3 bd
       0.06511089 -0.04292289 -0.030302731 -0.08004016
0003e0 23 5b a8 3d 1a f8 e6 bd 2a ad 7a bc da 1d c8 bc
       0.08220508 -0.1127779 -0.015300075 -0.024428297
0003f0 24 9c 6d be 4a 6e ad bc 38 4f e9 3d b9 4b bf bd
       -0.23204094 -0.021170754 0.11392063 -0.09340615

fc3.bias f4 [10]
000000 18 20 2d 3c cb eb 69 bb 0f cc cc 3a eb c4 08 3e
       0.010566734 -0.0035693522 0.0015624779 0.13356368
000010 34 aa 0d bd 56 57 0e bd 15 3b 2e bd 98 4b 2a bd
       -0.034586146 -0.03475126 -0.042536814 -0.041575998
000020 ba 40 bd bd ea af b4 3d
       -0.09240861 0.088226154
