personalExps/MnistFC/models/smallMnistModelL21e-3.pt (torch, 816320 bytes, 4 tensors)

fc1.weight f4 [256, 784]
00000000: c4d4 6e3c f1d3 7d3c 9a31 213a 620f 893c
00000010: 85c7 583a fee4 db3b 3719 3fbb da3c 463c
00000020: 30d0 843c 4795 d0bb 4c66 833c d030 d53b
00000030: 4273 683c 7252 bb3b 7825 2e3c 8d23 fb3a
00000040: 5249 703c 9e29 c33b 87c3 2cbb 4838 f43b
00000050: 432b 27bb 2f7c 133b fb56 eaba 38a9 573c
00000060: 0b1e eabb 3a6c 27bb 752d 71b8 45f5 93bb
00000070: 78b1 aa3b 6f7a 22bc ae48 873c d4d2 02bc
00000080: 8e89 703c f994 cb3b aa1d 6fba 8ee8 433c
00000090: 8008 b43b 59dd 733c 6910 a03b 281f acba
000000a0: 3832 cf3b 21f2 70ba e48b 1e3c 8406 7c3c
000000b0: b7c0 1a3c daa9 68bb b205 3e3c 62c7 b03b
000000c0: 532f 2a3c 2c93 a1bb 0eff 28bc 0135 d2ba
000000d0: 9ce1 dfbb 69a8 7b3c 9ab2 013c ea98 1e3c
000000e0: 6629 083c 7ffb 6e3b 1ef6 723c f553 c6bb
000000f0: 32c9 9b3b f883 b9bb 03d2 013c 566f 01bb
00000100: f5b1 e33b 66c0 2a39 cbab 613c d582 dabb
00000110: 984b e1bb 00f8 e3bb acba 5a3c 4c79 e03b
00000120: 5fdd 703c 80af 21bc b28d 49bc e042 2dbc
00000130: 26b1 e5bb bd87 0e3c 68f7 043c 7187 763c
00000140: af34 64bb 8ee0 b8bb 993f 393c 12c3 e6ba
00000150: 81bb 4a3c ed19 163a 1a7a 433c 5238 e5bb
00000160: 9466 56bb d59a 003c f6fb be3b 6084 2bbb
00000170: 0b93 913b 4cb3 213c 13b7 2dbc e81a 6bbc
00000180: e5ea 073a 0fa7 a2bc 33f8 b4bc 6f7c d6bc
00000190: 0dbf 5dbc 4d25 b4bb 1bb6 56bc 1b64 88bc
000001a0: 27b7 edbb dbcd 49bc 9f8e 16bc 24c7 24bb
000001b0: 8d8a 05bc e639 bbbb 3f7e 903c 99f9 d53b
000001c0: e94e 063c d1e1 15bc 9d40 a8bb 24f6 70ba
000001d0: ae88 b43b dd36 03bc a913 a3bb 1b90 3bbc
000001e0: f5e1 e4bb c81c 06bc c21a f9bb 8137 d1bc
000001f0: 0635 abbc 79b1 d1bc 2068 d8bc d9cf 0bbd
00000200: 223b 893a daa7 e0ba 51dd a63b 6a3a 85ba
00000210: e2f6 4fbc 4cb7 123c 39c4 38bb 6657 e3bb
00000220: 923f 69bc 9f65 41bc f053 0a3c 3e47 883a
00000230: 42e5 183c 8e73 f8bb 2ece 693c 7e43 f5bb
00000240: 3a01 a4ba 7f8b ed3b deb3 a93b 74ea 2d3b
00000250: 884c 4e3c bd34 a0bc a753 96bc e571 e9bc
00000260: 4cb2 0abc 3832 ffbc e1c9 53bc 2c90 08bd
00000270: f4bd a8bc 7101 75bc ad05 0cbb 30bb 1dbc
00000280: 6d0b ac3b d22b a43b 1fcc 503a 6aad 82bc
00000290: cbaf 563b 8c3c 7138 3d0c 41bb 56f6 813c
000002a0: 2295 e53b 2548 7dbb 5861 71bb 39a9 1e3b
000002b0: ba02 123c 48c5 ec3a f0ae b9bb 345d bbbb
000002c0: 0fc9 a2bb 1c99 baba 6440 18bc e465 c9bc
000002d0: 9926 8638 ba23 74bc e4f8 c5bb d025 94bb
000002e0: eaa9 f43b 4279 993c f08c 5a3c 6399 3c3c
000002f0: 0f2a 2d3b 6e68 903c e39b 653b b72b 193a
00000300: c819 a93b 1257 4d3c 96d9 e8b9 f6e7 e639
00000310: 6c28 863b 8003 293b ace8 063c 073a 0b3c
00000320: 3b23 44bc 1e2c 7fbb 3e64 143c 8689 953b
00000330: d689 debb 37bb 2abc 3fbd 9ebc 8636 afbc
00000340: 2188 a0bb 3f63 213c 637a 5a3a 7aca c33c
00000350: 4865 0e3b 9f73 23bb 30c0 783c 1344 383d
00000360: 0e01 a23c dd55 483c 5ad5 9c3c f2e6 cb3b
00000370: 0646 e9bb 1296 343c 6dad b9bb 2606 523a
00000380: 8b68 2ebc 2fce 5c3c f31e 873c d3e9 293c
00000390: 3c2c 4abb 584a 7bbb b3b9 0a3c ecbb d23c
000003a0: 04cf 893c 87e5 153c 1696 7f3b d6a1 ccb8
000003b0: a894 b33b 261d 5b3c 5122 463c 5415 d0bb
000003c0: 7797 92bc e6ae 1ebd c637 47bb 5870 ed38
000003d0: 254a 1c3b 6555 34bc 61cd a7bb e107 843c
000003e0: 3e9e 0fbb 4236 193c 3603 08bb 6b05 d0bb
000003f0: 60f3 bd3a 03e7 21bb 602d 8eb8 7cc9 0dbc
0.014577094 0.015492425 0.0006149054 0.016730968 0.0008269477 0.0067106476 -0.0029159316 0.012099469
0.016212553 -0.0063654515 0.01603999 0.006506063 0.014187636 0.0057166154 0.01062905 0.0019160375
0.014665918 0.005955889 -0.002636166 0.0074529983 -0.0025507964 0.002250444 -0.0017878705 0.0131629035
-0.0071446947 -0.0025546686 -5.7501213e-05 -0.0045153224 0.005209144 -0.009916886 0.016514149 -0.007984836
0.014681233 0.0062128273 -0.0009121547 0.011957301 0.0054941773 0.014884316 0.0048847687 -0.0013131844
0.006323125 -0.00091913535 0.009676907 0.015382413 0.009445361 -0.003550163 0.011598038 0.005394862
0.01038726 -0.0049308743 -0.010314716 -0.0016037525 -0.0068323147 0.015359976 0.007916117 0.009680012
0.008310651 0.0036465821 0.014829187 -0.006052489 0.004754209 -0.005661484 0.007923606 -0.00197502
0.0069487044 0.00016284137 0.013773869 -0.0066684284 -0.0068754666 -0.006957054 0.01335017 0.006850397
0.0147012165 -0.009868503 -0.012301849 -0.010575026 -0.007009643 0.008699355 0.008115627 0.01504694
-0.003482144 -0.0056420034 0.011306667 -0.0017605743 0.012373806 0.0005725909 0.011930967 -0.0069952393
-0.003271495 0.007849415 0.005828376 -0.002617143 0.0044425777 0.009869408 -0.01060273 -0.014349677
0.00051848433 -0.01985505 -0.022091007 -0.026182381 -0.01353432 -0.0054976107 -0.013104941 -0.016649297
-0.0072544995 -0.012317146 -0.009189277 -0.002514311 -0.008150709 -0.005713689 0.017638324 0.0065299985
0.008197525 -0.009148077 -0.0051346556 -0.0009191951 0.0055094576 -0.008008686 -0.004976709 -0.011447932
-0.006984944 -0.008185573 -0.0076020667 -0.025539162 -0.020899307 -0.02559732 -0.026416838 -0.034133766
0.0010469893 -0.0017139867 0.005092301 -0.0010164503 -0.012693139 0.008954834 -0.002819313 -0.006937909
-0.014236348 -0.0118040135 0.008442864 0.0010397208 0.009332003 -0.0075821346 0.0142703485 -0.0074848523
-0.0012512573 0.0072492952 0.0051789125 0.002653745 0.012591489 -0.019556398 -0.018350435 -0.028496692
-0.008465361 -0.031151876 -0.01292655 -0.033340618 -0.02059839 -0.014953957 -0.0021365688 -0.0096271485
0.0052503855 0.0050101066 0.0007964987 -0.01595183 0.003275859 5.7515266e-05 -0.0029456757 0.015864532
0.0070063034 -0.0038647738 -0.0036831703 0.0024209751 0.008911783 0.0018064165 -0.005666606 -0.005717898
-0.0049678157 -0.0014236304 -0.009292696 -0.024584718 6.396807e-05 -0.014901096 -0.006041633 -0.004521109
0.0074665444 0.018734578 0.013339266 0.01151118 0.0026422774 0.017627921 0.0035035543 0.0005843001
0.005160544 0.012532966 -0.00044412602 0.00044041843 0.004094174 0.002578944 0.008234184 0.0084977215
-0.01197129 -0.0038936208 0.009057103 0.004563513 -0.0067913337 -0.010420612 -0.019377349 -0.021388303
-0.0048990403 0.009850322 0.0008334277 0.02390026 0.0021727849 -0.0024940742 0.01518254 0.044986796
0.019775894 0.012227503 0.019144703 0.006222599 -0.007118943 0.011022108 -0.005666426 0.00080117804
-0.010645042 0.013476892 0.01649425 0.010370689 -0.003084912 -0.0038343873 0.008467126 0.025724374
0.016822346 0.009148962 0.003899937 -9.757622e-05 0.0054803677 0.013373649 0.012093143 -0.0063501988
-0.01789449 -0.038741015 -0.0030398234 0.00011321966 0.0023847905 -0.011006688 -0.0051209186 0.016117038
-0.0021914388 0.009351315 -0.0020753867 -0.006348302 0.0014492087 -0.0024704344 -6.7795394e-05 -0.008653995

fc1.bias f4 [256]
00000000: 7081 923b 6a1b 09bb 51df 153c f038 833b
00000010: 20e3 42bc b18e f9bb 560c a7bb 63d7 52bc
00000020: 67a1 4abb 2f54 6a3c 6c80 4cbc b9a2 38bb
00000030: baef ab3b db8b d33b 46f0 793c d6df 3bbc
00000040: 1c5e ca3a 5f4a 8f3a 4a4f b63c a66b 80bb
00000050: a579 fc3b 59da 563c 86ae 373b 81f1 163c
00000060: 9e23 f7bb aa14 8abb 50c9 373b eb98 4b3c
00000070: c1ac fcba 5d3a 5f3a 9bd9 c23b 7c4a c7ba
00000080: 3713 14bc 56c0 a13b 9192 40bc fcae 5f3c
00000090: 055e 67bc 16f7 1a3c 5722 1abc f6f3 3d3c
000000a0: 1af3 3e3c af4c 843c fea0 c53b 898c 243c
000000b0: 4276 e53b 4ae1 0ebc bccc 643c 17bd 5e3c
000000c0: a6d7 2bbc c659 df39 411c 4eb9 330d 473c
000000d0: 2866 223c 312a 1b3c 831f ea3a 3458 5e3c
000000e0: 954e f737 ab43 8b3c 9cc5 3a3b cbef 4cbc
000000f0: 36de c83b 19c8 e93b fa5b 96bb 0665 29bc
00000100: eed7 1ebc 011c f93a bd52 3ebc 50eb 183b
00000110: cac3 fd3a 2b4f d7ba c263 ac3b 244b 2ebc
00000120: cb7e c83b 9dc0 463c 5fd7 50bc 4610 183b
00000130: a864 663b 8478 8fbb 206c 2abc a9e3 45bc
00000140: 1c9e 5bbc d513 203b 9a11 343b 15a8 173c
00000150: a832 4ebc dd2e b93b 375d 0cbc 23ca 5cbc
00000160: b303 ec3b d1a8 233c 16ce 313c 8b2c 88bb
00000170: 77f2 1b3c 2d12 e7bb 0d21 053c 5d12 12bc
00000180: f12e 2bbc 951f 793c a2b0 f6bb 096b 093c
00000190: d352 f93b 9c9c 03bc ccc9 12bc 76d6 e23a
000001a0: 384e 77bb 4219 7cbb 0bd6 a0bb 867c 28bc
000001b0: 9fd5 ccba 2ab4 1fbc d011 43bc 08b1 cabb
000001c0: 62af 1d3c e532 18bc 1956 efbb f95d a6b9
000001d0: 5f44 c6bb c5d2 59bc 714d 4dbc 9b25 27bb
000001e0: 713b 083c 912b 543b b117 743c b3dc b4bb
000001f0: a304 65bb 736d 5c3c cc3d 96bb 74ea 163c
00000200: 967c 503c 1403 4bbc 97ea 4bba 8548 1f3c
00000210: 491a 693c de82 33bc f5d7 583c 8cb6 213c
00000220: ae16 6d3c 64b1 d43a 425a b03a dd79 2cbb
00000230: bc01 d1bb fb12 523c 6b9c 17bb 6427 88bc
00000240: 7ee8 eebb 9692 dcbb 9f98 f83b 2d86 58bc
00000250: 0594 4ebb 6780 cdbb 4822 f5b9 c061 14bb
00000260: a2d2 003c 7507 2a3b 27bf 2cbc 2f66 253b
00000270: f8bb 903b 2b83 2f3c bc34 25bb efe6 2eb9
00000280: 985e e6bb 2184 adbb 54a6 9a39 0159 73ba
00000290: 2a7e 2a3c f5ef 45bc 9693 8e3a 6493 9a3b
000002a0: 6c8d 06bc 4544 93ba 9631 a6bb 3fe5 28bc
000002b0: 0d2d 2fbc 38a8 8f3b 0f12 323c 5e41 763b
000002c0: 5b11 21bc 1fc5 01bc b893 4a3c d55f 03bc
000002d0: 6b0f 57bb ab9e 003c b46f 77bb ad0c 8e3b
000002e0: 4ee8 4bba afc9 60bc a368 173c 4a83 bbbb
000002f0: 77aa f73a beb3 3e3c 20e7 293c bbdd 51bc
00000300: c330 823c 55bd 023b 9820 d3ba 49bf 10bc
00000310: 0713 35bc e63b 1b3c 63d4 583c 3f4b 38bb
00000320: 4384 1a3b d3b5 28bc f7b6 29bc e28e 403c
00000330: 5a4f 06bc 6bfa 563c 426f 343c 96b4 653b
00000340: 5080 91bb d1c3 8b3c 46fa 72bc eefa 843c
00000350: 12eb 653a cc79 953b d413 7039 d380 7fbb
00000360: aa60 6a3a 49f0 f53b 96b7 91bb 6bc7 1f3c
00000370: c863 b7bb 3946 4b3b c047 513c 95ed c7bb
00000380: 7ea7 48bc e0b9 52bc 5344 a03c a266 5f3c
00000390: 0887 38bc db0d a63b 9a2c 32ba 956b 1e3c
000003a0: 3250 373c d9a8 393a a78e 493c 446c fc3b
000003b0: cdf4 3d3a 9033 f9bb ba94 aabc 16de b33a
000003c0: 05c1 1fbc 3c33 303c d375 2cbc 942f 683c
000003d0: 87cf f8bb 1c34 2cbb b61b f8bb bef6 edba
000003e0: 7c79 5bbc 6ace 2d3c dc7e b6bb 1ae5 1a3c
000003f0: 45cf 3e3c 5322 743c 947f 083c 8e36 e6bb
0.0044709966 -0.002092088 0.009147481 0.00400459 -0.011894971 -0.007615887 -0.005097906 -0.012868735
-0.0030918957 0.0143022975 -0.01248179 -0.0028173162 0.0052470835 0.006455881 0.01525504 -0.011466941
0.0015439424 0.0010932198 0.022254605 -0.0039190827 0.007704931 0.013113582 0.0028027608 0.009212852
-0.0075420877 -0.004213889 0.0028043576 0.012426595 -0.0019277559 0.00085154717 0.0059463507 -0.0015204693
-0.009037784 0.0049362583 -0.011753694 0.013652559 -0.014121537 0.009458324 -0.009407601 0.011593809
0.01165464 0.016149847 0.0060311547 0.010043272 0.007002623 -0.008720705 0.013964828 0.013594887
-0.010488426 0.0004260076 -0.00019656216 0.012149143 0.009912051 0.009470508 0.0017862174 0.013570834
2.9481287e-05 0.01700004 0.0028499132 -0.012508343 0.0061300052 0.007134449 -0.004588601 -0.010339027
-0.009695036 0.0019005538 -0.011616406 0.0023333617 0.0019360718 -0.0016426792 0.0052609155 -0.010638032
0.0061186305 0.0121308835 -0.012746661 0.002320306 0.003515521 -0.0043783803 -0.010401756 -0.012078204
-0.013404395 0.0024425883 0.0027476312 0.0092563825 -0.01258532 0.0056513385 -0.008567146 -0.0134759275
0.0072025894 0.009988979 0.010852357 -0.0041557006 0.009518257 -0.0070517273 0.008125556 -0.008915511
-0.010448203 0.015205284 -0.0075283805 0.008387336 0.0076087504 -0.008032944 -0.008959245 0.0017306346
-0.003773583 -0.0038467203 -0.0049083284 -0.010283595 -0.0015627629 -0.009747544 -0.011906102 -0.0061856546
0.009624334 -0.009289478 -0.007303965 -0.00031732002 -0.006050631 -0.01329488 -0.0125306705 -0.0025504592
0.008314953 0.00323746 0.014898227 -0.0055194735 -0.003494539 0.013453829 -0.0045850035 0.009211171
0.012725016 -0.012390871 -0.0007778792 0.00972188 0.014227458 -0.010956494 0.013235082 0.009870183
0.014470739 0.0016227183 0.0013454633 -0.0026317753 -0.0063783806 0.012821908 -0.0023134004 -0.016620345
-0.007290899 -0.0067313416 0.007586553 -0.013215584 -0.0031521332 -0.0062714103 -0.00046755583 -0.0022641271
0.007862719 0.0025944386 -0.010543621 0.0025237908 0.004416939 0.010712425 -0.0025208434 -0.00016679963
-0.0070303194 -0.005295292 0.00029497093 -0.0009282977 0.010406056 -0.012081136 0.0010877724 0.0047172774
-0.008212429 -0.0011235556 -0.005071829 -0.010308563 -0.010691893 0.004384067 0.010868563 0.0037575583
-0.009830798 -0.0079205325 0.01236432 -0.008018454 -0.0032815586 0.007850329 -0.003775579 0.004335007
-0.00077784515 -0.01371996 0.009241256 -0.005722438 0.0018895407 0.011639534 0.010370046 -0.012809212
0.015892392 0.0019949276 -0.0016107736 -0.008834668 -0.0110519 0.00947473 0.013234231 -0.0028121022
0.002357737 -0.0102972565 -0.010358564 0.011752816 -0.00819763 0.013121228 0.011012854 0.0035050265
-0.004440345 0.017061146 -0.014830178 0.016232934 0.0008770685 0.0045616385 0.0002289557 -0.0038986697
0.00089407957 0.007505451 -0.004446934 0.009752135 -0.0055966116 0.0031017198 0.012773454 -0.00610132
-0.0122469645 -0.012861699 0.01956383 0.013635309 -0.011262663 0.0050675697 -0.0006796807 0.009669204
0.011188554 0.000708235 0.012302077 0.007703336 0.0007246256 -0.0076050237 -0.020822871 0.0013722803
-0.009750609 0.010754403 -0.010526138 0.0141715 -0.0075930986 -0.0026276177 -0.007571663 -0.00181552
-0.013395663 0.010608295 -0.005569322 0.009454036 0.011646097 0.014900762 0.008331198 -0.0070255464

fc2.weight f4 [10, 256]
00000000: a13c d6bd cc12 c1bd 0c68 0d3c 5a02 febd
00000010: d322 273e 4251 c8bd 1d66 083c 6024 453d
00000020: 2343 5dbd d4ba 5e3c c736 233d 8db4 cdbd
00000030: 525d 13be bf26 7ebe 0b38 e63d d980 f43d
00000040: e0b6 0ebe 5647 73be 3519 9ebd 7ac8 b13d
00000050: 4525 483e f521 e13d b805 13be 355d 58bd
00000060: 7881 a03d b35e 8a3e b0d9 4e3c b5d2 25bd
00000070: 7be7 43bc ac08 d43d eb48 97bc acce 0cba
00000080: 6584 a83b fd7b f13a f9b8 4cbe d072 9b3d
00000090: 3e4c c13c 58ed 093e 61bb 0bbd ad49 1a3b
000000a0: bece 0d3e e549 493e eab5 2d3e 61c8 0fbe
000000b0: ab92 aa3d 51b5 ac3c 4645 153d 5d3d 8bbe
000000c0: 761f 5bbe ed4b babd 8260 fbbd 8e71 ab3c
000000d0: 2ada 6f3c 3095 08be 9bcc da3d eac9 d83d
000000e0: adec c53d 2a89 4b3c 7402 4c3c a799 353b
000000f0: 2e3f 79be b88a e33d 3169 c0bd 642c b33d
00000100: 218e 77bd fc71 98bc a86f 243d fc11 d1bd
00000110: e063 c2bc 6725 29bc 6c30 053d f575 663e
00000120: 8a54 b9bd 26e3 21be 5eea 34bd d95d 323e
00000130: d201 c63d 1587 3abd f98e acbd 5550 db3d
00000140: de31 40bd 13ea 9b3c c2f0 2dbe 9942 8cbc
00000150: 11e6 c63c d7ce 01bd 7ec5 58bc 566b bb3c
00000160: d44d 19bc 3896 953e 6413 4bbe b2d9 2d3c
00000170: 961d 613e 3677 6f3d 5bd2 cc3d 4be9 3a3e
00000180: b83b c03d 7ae8 7a3d ff8b eebd 7d45 6cbd
00000190: c30b 4f3e ace3 98be e4d7 14bd 5ce1 35bd
000001a0: fd7e 003d bd28 e43d 0376 a03c 9c0f 8f3d
000001b0: 141d 343e 27aa a33d 2e20 10bd f45e 41bd
000001c0: bc44 243e 6ab4 6a3c d611 1bbb 155b 21be
000001d0: 6811 ecbb 0b9d 8dbc 84a7 a03d ca7a 96be
000001e0: bd1f 163d 2d24 94bd 210c e0bd e5fa 5abe
000001f0: 45d9 70be 8d55 3b3d b5cb ecbd 4314 223e
00000200: 4b58 8f3e 36b5 26be 427e 703c 2854 6d3c
00000210: 1768 81bb 604c b73c d0ba c33b c6b5 21be
00000220: 30e6 4cbd fd3a 4fbe 964e 64bd 2f3d 393e
00000230: fbaf 9a3d e140 173e 0ab4 193e 3412 193d
00000240: 7e75 ab3c a02a 0ebe 7b7d 0dbc 2cc6 21be
00000250: 6e67 2cbd cb6a 943d c6e0 5bbd 4f7a 203e
00000260: 9bb0 18be f01d 593e 7a62 fabd fcbb 7dbc
00000270: f5ea a63d fbc1 25bc 3926 bbbd 8d51 33bc
00000280: 0931 3e3e 6a5b 3e3d d9df 653d 1962 7b3d
00000290: 9412 08be e50d ebbd 3c5d 253e ef20 91bd
000002a0: 7207 a93d 985b efbd 1fb8 29bd 85b9 a3bd
000002b0: 2d14 c0bd 9022 c73b 9178 0a3e b1b4 6a3d
000002c0: 856b 09be 98d0 44bc 75f8 5e3d d682 813b
000002d0: 4153 4b3d 3183 c23c 0c9f 943c 50c7 923c
000002e0: 0396 75be 49ef d7bc 75f5 f3bd d34c 0e3e
000002f0: ebe5 20bd 840c 953e 2f71 3dbc df3a c7bb
00000300: 4705 cf3d 9622 e8bc e894 013c 3b72 3d3e
00000310: 3a4a 89bc 17f5 143e c1cc 373d fe67 423c
00000320: 3771 89bd ae0b e93b b54b 25be bc6a a9bc
00000330: 9c9a cdbd 44c3 6bbd 9f8f 55bb ecbb b33d
00000340: 3411 323e 0bd8 943d ca1e 283d 2c66 8d3c
00000350: 66b7 9d3d 4f79 5fbd 92fb 51be 9204 19bc
00000360: 61a9 1a3e 37ef 723e 6c69 23be 8e50 f1bd
00000370: 4123 a33b eb6f 913d 6e7d d63d 3862 99bc
00000380: 3b7a 2bbd 345f f2bc 1711 3b3d 0055 133e
00000390: 15dc 11be 857d 0a3e 7f95 93bd b0ed 043d
000003a0: 8ed9 74be a2c5 c03c 41d8 603d 9f9a 8abe
000003b0: 1e02 94bb 29ad 1f3d fd86 9d3d 578a 54be
000003c0: 5f19 4f3d 955d 54be d267 9abc 35e8 8b3b
000003d0: 208d d5bc 0d45 2d3d 8b89 153d 62f6 7d3c
000003e0: 8438 f7bd f9f6 84bd a50e c5bc 1e4e 5c3d
000003f0: 6b7b b53b a6dc 5bbe c7a1 8bbd c5b1 183c
-0.10460783 -0.09427413 0.008630764 -0.12402792 0.16321878 -0.09781124 0.008325127 0.048130393
-0.054019105 0.013594348 0.03984716 -0.10044203 -0.14391068 -0.24819468 0.11241158 0.11938638
-0.13936949 -0.23757681 -0.077196516 0.08680816 0.19545467 0.10992805 -0.1435765 -0.052823264
0.07837194 0.27025375 0.012625143 -0.04048415 -0.011957045 0.103532165 -0.018467387 -0.00053713727
0.005142736 0.0018423792 -0.19992436 0.07590258 0.023595925 0.13469446 -0.034114245 0.002354245
0.13848397 0.19657095 0.16963926 -0.14041282 0.08328756 0.021082552 0.036443017 -0.27195254
-0.2139872 -0.09096513 -0.12274267 0.02092817 0.014639417 -0.1333816 0.10683557 0.10585387
0.09664283 0.012422839 0.012451757 0.0027709992 -0.24340507 0.11110443 -0.09395064 0.08748701
-0.06043828 -0.01860904 0.040145546 -0.10208508 -0.023729265 -0.010323859 0.03251688 0.22505935
-0.09049328 -0.15809307 -0.044168822 0.17418613 0.09668316 -0.04553898 -0.08425707 0.107086815
-0.046922557 0.019032514 -0.16986373 -0.0171216 0.024279626 -0.0316914 -0.01323068 0.02287833
-0.009356935 0.2921617 -0.19831616 0.010610985 0.21983942 0.058463298 0.100010596 0.18253057
0.093863904 0.061256863 -0.11647796 -0.057683457 0.2021933 -0.298612 -0.0363387 -0.044404373
0.031371105 0.11140583 0.019587522 0.06985399 0.17589217 0.07991438 -0.03518694 -0.047209695
0.16041845 0.014325241 -0.0023661754 -0.15757401 -0.0072042234 -0.017286798 0.07844451 -0.29390556
0.03665136 -0.072334625 -0.109398134 -0.21384771 -0.23520382 0.045735884 -0.115622915 0.15828042
0.2799705 -0.16280064 0.01467854 0.014485396 -0.003949176 0.022375286 0.0059731975 -0.15791997
-0.05002421 -0.20237346 -0.055739008 0.18089746 0.07553097 0.14770843 0.15010086 0.037370875
0.020930048 -0.13883448 -0.008635874 -0.15798253 -0.042090826 0.07246932 -0.053681158 0.15671657
-0.1491112 0.21202826 -0.12225814 -0.0154867135 0.08150283 -0.010117049 -0.0913815 -0.010944736
0.18573393 0.046473898 0.05612168 0.06137285 -0.13288337 -0.114772595 0.16148847 -0.0708636
0.08253373 -0.11687392 -0.041435357 -0.079943694 -0.09378848 0.006077118 0.13522555 0.057301227
-0.13419922 -0.012012623 0.054436166 0.0039523644 0.049639944 0.023744198 0.018142246 0.017917305
-0.23983006 -0.026359217 -0.119120516 0.13896494 -0.039281767 0.2911111 -0.01156263 -0.006080016
0.101084284 -0.028336804 0.007909037 0.18500607 -0.016759027 0.1454662 0.044873003 0.011865614
-0.06711047 0.007111988 -0.16142161 -0.020680778 -0.10039255 -0.057559267 -0.0032586826 0.08776078
0.17389375 0.072677694 0.041044988 0.017260633 0.07700996 -0.05455905 -0.20506123 -0.009339469
0.15103675 0.23724066 -0.15958184 -0.11782943 0.004978568 0.07101425 0.104731426 -0.018723592
-0.041864615 -0.029586412 0.045670595 0.14387894 -0.14244111 0.13524444 -0.072062485 0.03245324
-0.23911116 0.023531739 0.054893736 -0.27071092 -0.004516854 0.038983498 0.076917626 -0.20755897
0.050561305 -0.20738824 -0.018848334 0.0042696246 -0.02606827 0.04230218 0.036508124 0.015500637
-0.120713264 -0.06492419 -0.024054835 0.053785436 0.005538394 -0.2147089 -0.06817966 0.009319727

fc2.bias f4 [10]
00000000: 68ca 8abc e397 81bc 92a7 123c 5fac 643c
00000010: 872b ee3c 36a0 d1b9 c8d6 61bc 2b4d 02bd
00000020: 0000 da3c 123b d13c
-0.016942218 -0.015819496 0.008951085 0.013957112 0.02907349 -0.00039982953 -0.013784118 -0.031811874
0.026611328 0.025540862
