personalExps/MnistFC/models/smallMnistModelL21e-2.pt (torch, 816320 bytes, 4 tensors)

fc1.weight f4 [256, 784]
0.0009936345 0.0009938277 0.000990627 0.0009940959 0.000990672 0.0009919376 0.0009898628 0.0009930985
0.0009939858 0.0009891165 0.0009939468 0.0009918946 0.00099445 0.000993508 0.0009925644 0.0009908946
0.0009936523 0.0009917759 0.0009899212 0.0009920972 0.0009899419 0.0009909741 0.000990108 0.0009933285
0.0009889498 0.0009899412 0.000990478 0.0009895172 0.0009916155 0.0009883534 0.0009940513 0.0009887666
0.0009936623 0.000991801 0.0009849428 0.0009808047 0.00097088784 0.0009835337 0.0009930467 0.0009476578
0.0009031518 0.00096433883 0.0010858044 0.0010278291 0.0007588403 0.0008946739 0.001011863 0.0010085113
0.0010031029 0.0009975097 0.0009870792 0.0009884719 0.0009890189 0.0009938002 0.0009921929 0.0009925765
0.00099228 0.0009912797 0.0009936861 0.0009792208 0.0009880541 0.000990865 0.0010050458 0.0009994014
0.0009777148 0.0009866982 0.0009870976 0.00094685226 0.0011851516 0.0016835678 0.0019765156 0.0022387768
0.001449885 0.0011093469 0.0012336515 0.0011331417 0.0012056226 0.00119743 0.0011106688 0.001016409
0.0010039211 0.000991546 0.0009929282 0.0009901137 0.000993155 0.0009906176 0.0009944643 0.00095808366
0.0009464996 0.00095579604 0.00095865136 0.000785419 0.00011753598 0.00018851084 -0.00084548315 -0.0019032407
-0.0019473011 -0.001396921 -0.0014637589 -0.0014080094 -0.00086269545 -0.0011568754 -0.0009769892 -8.395164e-05
-0.00042110917 0.0005125729 0.0011343783 0.0013659664 0.0011798213 0.0009183565 0.0009964562 0.0009918995
0.0009922547 0.0009885202 0.0009955819 0.0009233668 0.00084545166 0.0008980348 0.00039622776 -0.000526102
-0.00088851847 -0.001837523 -0.0037856991 -0.006257081 -0.0056901854 -0.0054074563 -0.005987327 -0.007413454
-0.0047085304 -0.0021843223 -0.0021455018 -0.00095669 0.0008397943 -0.00019695105 -0.00043268446 -0.00048985786
-0.00034369403 0.00054649427 0.0010046286 0.0010252984 0.0009925044 0.000988855 0.0009955295 0.0006451347
0.0005618921 0.0007762874 -0.00027765267 -0.001121516 -0.001123542 -0.003196636 -0.005632172 -0.005515234
-0.002771966 -0.003346733 -0.005625832 -0.008053897 -0.009875478 -0.007887514 -0.005125493 -0.002817899
-0.0027534936 -0.0027212724 -0.003483818 -0.0025572118 -0.001536573 -3.7842678e-05 0.00076499453 0.0009920865
0.0009920029 0.0009867662 0.000867038 0.000679644 -1.10725605e-05 -0.00088159594 -0.0011262082 -0.00083360507
-0.0018877522 -0.00317579 -0.00395583 -0.001565468 6.590102e-05 -0.0023304129 -0.001940215 -0.00030597651
-0.0017090741 -0.0006342205 -0.0033101607 -0.0020149744 -0.0030312983 -0.0031556396 -0.0056590983 -0.0050482694
-0.004491086 -0.001652229 5.6063895e-05 0.0009445659 0.0009914793 0.00090948027 0.0011099196 0.0009963623
-0.00033106073 -0.0018532474 -0.0009773881 0.00011728562 -0.0015760133 -0.0009594987 -0.0009249868 -0.001204008
0.00062203937 0.0028049338 0.0016148142 0.0064950753 0.0055242516 0.0023672006 0.0011517102 1.9550278e-05
-0.0017314593 -0.0038958928 -0.005559342 -0.0049695084 -0.0051224506 -0.0026214402 3.1354386e-05 0.0009235527
0.0009309333 0.0011114536 0.0013376657 0.0013185801 0.0009961255 0.0007700428 0.0023278398 0.0030584678
0.0027778072 0.00057543116 0.0007401474 7.545206e-05 0.0026801287 0.00420749 0.0067606005 0.0063856314
0.002639663 -0.0018619935 -0.0018931951 -0.0043886183 -0.007236651 -0.009746031 -0.008136745 -0.0060387445
-0.0058108703 -0.00306756 -0.00020054902 0.00088161894 0.0010036253 0.0011884952 0.0014219646 0.001785217
00000000: d73c 823a 5343 823a edd7 813a 534c 823a
00000010: 70d9 813a e703 823a 49be 813a db2a 823a
00000020: a148 823a 3ea5 813a 5247 823a 7602 823a
00000030: 3458 823a 9938 823a ef18 823a e8e0 813a
00000040: 703d 823a 7afe 813a 3ec0 813a 4209 823a
00000050: f0c0 813a 93e3 813a 83c6 813a 9332 823a
00000060: a69f 813a eac0 813a edd2 813a b0b2 813a
00000070: 18f9 813a a38b 813a d44a 823a 8099 813a
00000080: c63d 823a 52ff 813a 3219 813a 588e 803a
00000090: 2e83 7e3a eae9 803a 1e29 823a 3d6c 783a
000000a0: 7ec1 6c3a afcb 7c3a 8d51 8e3a 39b8 863a
000000b0: e9ec 463a 8d88 6a3a 7da0 843a 0630 843a
000000c0: 8c7a 833a dfbe 823a e260 813a 9d8f 813a
000000d0: f8a1 813a 6742 823a 780c 823a 5719 823a
000000e0: 640f 823a d4ed 813a 933e 823a 3359 803a
000000f0: 9881 813a eadf 813a bebb 833a 59fe 823a
00000100: aa26 803a 1954 813a 8061 813a 2e36 783a
00000110: 1757 9b3a 29ab dc3a 6e88 013b 71b8 123b
00000120: 110a be3a 8167 913a 7ab2 a13a ed85 943a
00000130: fb05 9e3a 15f3 9c3a dc93 913a 0739 853a
00000140: 0196 833a c3f6 813a 2425 823a b4c6 813a
00000150: c02c 823a 9cd7 813a af58 823a e827 7b3a
00000160: 831e 783a 638e 7a3a 014e 7b3a 94e4 4d3a
00000170: a67d f638 feaa 4539 6aa3 5dba 2976 f9ba
00000180: 953c ffba e418 b7ba 99db bfba f58c b8ba
00000190: 8326 62ba 4ca2 97ba 510e 80ba 320f b0b8
000001a0: 51c8 dcb9 2f5e 063a 6baf 943a 3a0a b33a
000001b0: 3ca4 9a3a ddbd 703a 869b 823a a002 823a
000001c0: 8b0e 823a 3c91 813a 2f7e 823a 190e 723a
000001d0: 4da1 5d3a 186a 6b3a cabc cf39 1cea 09ba
000001e0: 77eb 68ba 0ad9 f0ba 7e19 78bb 3308 cdbb
000001f0: bc74 babb 0831 b1bb 5731 c4bb 8fec f2bb
00000200: 044a 9abb d926 0fbb 8c9b 0cbb 61ca 7aba
00000210: a425 5c3a a584 4eb9 edd9 e2b9 ce69 00ba
00000220: d531 b4b9 9c42 0f3a bead 833a 4e63 863a
00000230: ec16 823a 789c 813a 6d7c 823a 421e 293a
00000240: f14b 133a c47f 4b3a e991 91b9 d5ff 92ba
00000250: d043 93ba a77e 51bb 158e b8bb 23b9 b4bb
00000260: dfa9 35bb dd54 5bbb e658 b8bb 7ef4 03bc
00000270: c2cc 21bc a23a 01bc c0f3 a7bb 80ac 38bb
00000280: f573 34bb 6057 32bb c450 64bb e596 27bb
00000290: d666 c9ba 44b9 1eb8 ea89 483a e608 823a
000002a0: 1806 823a 6156 813a ef49 633a 232a 323a
000002b0: 49c4 39b7 e71a 67ba 479d 93ba 4a86 5aba
000002c0: 746e f7ba ea20 50bb e89f 81bb 6430 cdba
000002d0: 5734 8a38 d7b9 18bb d04e feba 796b a0b9
000002e0: 0303 e0ba d141 26ba 48ef 58bb a90d 04bb
000002f0: bfa8 46bb d9ce 4ebb f56f b9bb f46b a5bb
00000300: f629 93bb 9b8f d8ba 2626 6b38 bf9c 773a
00000310: 86f4 813a 306a 6e3a b97a 913a 5f98 823a
00000320: 3892 adb9 aae8 f2ba b41b 80ba 3df7 f538
00000330: 3b92 ceba de86 7bba d07a 72ba cecf 9dba
00000340: 5b10 233a fbd2 373b 2ca8 d33a a4d4 d43b
00000350: c804 b53b 0923 1b3b fbf4 963a e7ff a337
00000360: 22f2 e2ba 3c52 7fbb 242b b6bb 42d7 a2bb
00000370: 3bda a7bb 78cc 2bbb 8482 0338 931a 723a
00000380: e009 743a 32ae 913a 9d54 af3a 35d4 ac3a
00000390: 6d90 823a b3dc 493a ac8e 183b 9370 483b
000003a0: df0b 363b 88d8 163a 7406 423a 043c 9e38
000003b0: 19a5 2f3b fcde 893b 0788 dd3b 8f3e d13b
000003c0: 32fe 2c3b 220e f4ba 1625 f8ba 66ce 8fbb
000003d0: 6e21 edbb d1ad 1fbc fb4f 05bc a9e0 c5bb
000003e0: 1d69 bebb 1e09 49bb 784a 52b9 721c 673a
000003f0: 148c 833a 48c7 9b3a 3761 ba3a f1fd e93a

fc1.bias f4 [256]
-0.0009895265 0.0005183649 0.0013986495 0.0008253438 0.00010951432 -0.0013907417 0.0013551238 0.00022053608
-0.0012226854 0.001826493 0.000100521494 0.000627283 0.00042690695 -0.00014110106 0.0016296831 0.00081357977
0.0008862297 -0.0002833778 0.0034040567 0.0039387946 0.00032462008 0.004352777 0.0013492757 0.0018609187
0.0003150659 -0.003549888 5.8650045e-07 0.0007709359 -4.273348e-07 0.0012650903 -0.00088986295 -1.0519406e-07
-1.9355193e-06 -0.00061469205 -8.018917e-05 0.0017340706 -0.0032084896 0.000411278 0.00039289246 0.00434722
0.002875694 0.0042498345 0.0006485604 0.00045763765 0.0010797272 -4.276129e-06 0.0014727484 0.0012969227
0.0017147935 -4.0524037e-06 0.00015480968 2.6344428e-06 2.1389244e-06 -0.0004548823 0.003671612 0.001678283
0.00019721828 0.0019728136 -0.00070465275 -1.7026159e-06 0.001430036 0.0025949748 -0.00037673136 0.0004098574
-0.0025614987 0.0008851314 -0.0018964235 0.0012026187 4.0549997e-07 -0.00010640264 0.0018637207 0.00047892582
-0.004102606 0.00041127432 -0.0012039363 0.0014498483 0.0011584829 0.0003690524 0.0004073727 -0.0014848087
-0.002172243 -1.208615e-06 0.0008655594 -0.0020015764 -0.0008597973 -0.00020870037 -1.8590404e-06 -2.898726e-06
0.00044311784 0.002947701 0.0010071681 0.0026723584 0.0021164091 0.00081766176 0.0019783578 0.0011622529
0.0023456528 0.00041498474 0.0014395467 0.0007516928 -0.0027439261 0.0013607423 6.193104e-05 -0.00020944748
8.3971034e-05 0.0033819228 -1.0472322e-06 0.0021199961 0.0012366255 -0.0051360917 5.3972042e-05 -0.00015050973
0.0008553933 0.00062137505 -0.00016486696 -0.0040357825 5.439761e-05 1.45950435e-05 -0.0010587387 0.00028736095
0.0014442983 -9.386899e-05 0.00024710989 0.0013664382 0.001450943 0.002412779 0.00055134087 0.00079663156
0.0024835623 0.001662217 5.351444e-07 0.00040832598 0.0021200336 -2.3537364e-06 2.852369e-06 0.00011447353
0.0029096275 0.0008563178 0.0015999513 -0.0016269825 0.00275135 0.0012424563 0.0025494697 -0.002417955
-0.0010536048 0.00088447554 -0.0019569504 4.9771825e-06 0.0016037156 0.00085591886 0.0017207204 0.00041436253
0.0020283884 -0.0001497082 -0.0011638844 0.00021807589 0.0009788511 0.0022571122 -0.0015931057 -0.000684226
0.0004995042 -0.00057586905 0.0020604467 0.0041834414 0.0001893941 0.0009425736 0.0013252901 -0.0024931314
0.00015401312 0.00054347346 0.0007823831 0.0008290605 0.0024162817 3.7888922e-06 0.0017085806 -1.6030459e-05
0.001866091 -1.7069885e-06 0.0019624291 -0.00029963916 -0.0013161568 1.6849592e-06 -2.7237937e-07 -0.00022152558
0.0025070538 -0.00075640355 0.001953421 0.0010553751 -0.0045439284 0.0015099314 1.0325335e-05 0.00014059166
0.0018599445 0.0027690013 -3.4706505e-07 0.003024258 0.0015437694 0.0013051606 0.0032363872 0.00097469107
-0.001408008 0.00014616684 0.00091623905 2.5504512e-06 -0.00017970915 0.0015074288 0.000328321 0.0022830842
0.00029509637 0.0032091348 -0.000372772 0.0017895101 0.0016780681 0.0021799156 0.001423173 -8.4021104e-07
0.0005147992 0.004912375 0.001149352 0.0004729258 -1.2017379e-06 0.0023368625 0.0017484014 2.8419502e-06
0.00084331067 -0.0040490297 0.0046100435 0.00093454064 0.0005766396 -1.0618343e-06 0.0003763961 0.00082168536
0.0009019919 0.0006767409 0.0018030596 0.0035820943 -0.00038850744 0.0012052987 -0.0023521225 0.00402997
-0.002033207 0.0026886372 -1.004202e-06 0.0026283206 9.163614e-05 0.003211776 0.0035121536 -3.905858e-07
-0.0017236702 2.3353527e-05 0.00017740985 0.00098921 0.002354343 0.000704578 9.702257e-05 -0.0019546815
00000000: 00b3 81ba e1e2 073a e452 b73a e35b 583a
00000010: 0eab e538 8c49 b6ba 699e b13a b43f 6739
00000020: 8442 a0ba ef66 ef3a 11cf d238 4070 243a
00000030: 7bd2 df39 87f4 13b9 179b d53a 6a46 553a
00000040: de51 683a 5392 94b9 9816 5f3b 0111 813b
00000050: c531 aa39 bda1 8e3b 2eda b03a 12ea f33a
00000060: 6e2f a539 3da5 68bb 0170 1d35 a218 4a3a
00000070: 736c e5b4 63d1 a53a b145 69ba 0ce7 e1b3
00000080: f8e3 01b6 4923 21ba 3c2b a8b8 c149 e33a
00000090: 8645 52bb cca0 d739 22fd cd39 2073 8e3b
000000a0: 2476 3c3b 3242 8b3b 2704 2a3a 16ef ef39
000000b0: a285 8d3a ab7b 8fb6 3c09 c13a 81fd a93a
000000c0: ecc2 e03a e2f9 87b6 6854 2239 62cb 3036
000000d0: 718a 0f36 457d eeb9 6d9f 703b d5f9 db3a
000000e0: 61cc 4e39 524a 013b 72b8 38ba 7085 e4b5
000000f0: 0c70 bb3a 7410 2a3b 0784 c5b9 21e2 d639
00000100: d1de 27bb 2a08 683a 6a91 f8ba 30a1 9d3a
00000110: 7eb3 d934 7b24 dfb8 1748 f43a 5618 fb39
00000120: 276f 86bb 4ea0 d739 66cd 9dba d608 be3a
00000130: 3cd8 973a 607d c139 a394 d539 ea9d c2ba
00000140: 315c 0ebb b237 a2b5 b5e6 623a e12c 03bb
00000150: 0564 61ba 94d6 5ab9 2484 f9b5 bc87 42b6
00000160: 4552 e839 372e 413b f402 843a bc22 2f3b
00000170: 74b3 0a3b 5a58 563a 56a7 013b bc56 983a
00000180: 86b9 193b 4f92 d939 2caf bc3a 400d 453a
00000190: 71d3 33bb ef5a b23a f9e0 8138 219f 5bb9
000001a0: 9b19 b038 40a3 5d3b a08e 8cb5 a2ef 0a3b
000001b0: 4416 a23a a94c a8bb 0a60 6238 26d2 1db9
000001c0: 793c 603a c6e3 223a 23e0 2cb9 993e 84bb
000001d0: fd28 6438 3cdd 7437 60c5 8aba efa8 9639
000001e0: 9c4e bd3a 88db c4b8 878e 8139 0f1a b33a
000001f0: 912d be3a b71f 1e3b dc87 103a 0ad5 503a
00000200: 43c3 223b bfde d93a d8a6 0f35 9614 d639
00000210: 43f0 0a3b e2f4 1db6 546b 3f36 8211 f038
00000220: 73af 3e3b 847a 603a 75b5 d13a 7940 d5ba
00000230: fe4f 343b ead9 a23a 0115 273b 8e76 1ebb
00000240: 1c19 8aba 26dc 673a 2e40 00bb ac01 a736
00000250: c433 d23a be5f 603a cc89 e13a cc3e d939
00000260: b6ee 043b fdfa 1cb9 7b8d 98ba 4dab 6439
00000270: cb4c 803a 0fec 133b c2cf d0ba a15d 33ba
00000280: 29f1 023a ebf5 16ba 8f08 073b 4015 893b
00000290: 1798 4639 0b17 773a 5bb5 ad3a ce63 23bb
000002a0: 957e 2139 e377 0e3a d718 4d3a 4f55 593a
000002b0: 7b5a 1e3b ac44 7e36 74f2 df3a 2679 86b7
000002c0: a097 f43a ae1b e5b5 199c 003b e318 9db9
000002d0: e582 acba c226 e235 893b 92b4 5249 68b9
000002e0: 624d 243b 6249 46ba f704 003b 8354 8a3a
000002f0: 3ce5 94bb e4e8 c53a fa3a 2d37 c96b 1339
00000300: 62c9 f33a 2278 353b 4254 bab4 a132 463b
00000310: 4e58 ca3a ec11 ab3a 9119 543b 6982 7f3a
00000320: e98c b8ba 5d44 1939 c32f 703a 6b28 2b36
00000330: 4f70 3cb9 eb94 c53a 8022 ac39 cc9f 153b
00000340: 2ab7 9a39 5950 523b 9c70 c3b9 ff8d ea3a
00000350: 9ff2 db3a eadc 0e3b c389 ba3a dd8a 61b5
00000360: 97f3 063a fdf7 a03b dba5 963a 07f3 f739
00000370: 664b a1b5 0c26 193b 9e2a e53a 55b8 3e36
00000380: 9f11 5d3a b9ad 84bb d90f 973b f6fb 743a
00000390: a129 173a 5984 8eb5 0857 c539 5f66 573a
000003a0: a773 6c3a 5067 313a a454 ec3a 92c1 6a3b
000003b0: 96b0 cbb9 1dfb 9d3a 1126 1abb d70d 843b
000003c0: 8e3f 05bb d933 303b 1ec8 86b5 e73f 2c3b
000003d0: c72c c038 a97c 523b 292c 663b b4b1 d1b4
000003e0: c6ec e1ba 51e7 c337 1807 3a39 61a8 813a
000003f0: 524b 1a3b 6eb3 383a 9878 cb38 1d1a 00bb

fc2.weight f4 [10, 256]
-0.03886044 -0.026210466 0.050905865 -0.08519306 0.017682968 0.04270905 0.09320172 -0.0055909916
-0.058313936 -0.084885664 0.012116287 -0.059314374 -0.088223435 -0.043348856 0.057969697 0.16105276
-0.13659102 -0.07196726 -0.047695674 0.08287161 0.13944952 0.119965784 -0.098350585 -0.015627613
0.01251853 0.067356825 2.7095748e-06 -0.026823675 -2.5697577e-06 0.056173168 0.04618221 4.384457e-06
9.881068e-07 -0.020235354 -0.020906422 0.07707584 -0.059090413 0.00307706 -0.025941135 -0.023052983
0.04364742 0.10428023 0.103925616 -0.03559956 0.09625948 0.0003188893 -0.01721071 -0.1316882
-0.06005722 -0.05266137 -0.020256182 3.2224576e-05 3.248044e-06 -0.03817636 0.04790475 0.09882286
0.04388104 0.048683852 -0.0009403356 -2.3054032e-05 -0.13334332 0.12993082 0.0029814309 -0.012955066
-0.05404563 -0.032574218 -0.017708834 -0.04822801 -5.114091e-06 -0.0073419134 0.015925655 0.11064259
-0.030314874 -0.043440413 -0.019505603 0.028381081 -0.0032624602 0.017923927 -0.07208126 0.04389497
-0.018268486 0.00023986786 -0.10449207 -0.022029852 -0.044784695 0.0026304426 -2.851943e-06 4.9302594e-06
0.039771453 0.102076694 -0.08232989 -0.0064846324 0.11480769 -0.01605165 0.12306642 0.05719436
0.05068752 0.017916372 -0.05494852 -0.0065423665 0.1304268 -0.11549803 0.001081487 -0.05202349
-0.0044214753 0.0272879 4.4533194e-06 0.04887063 0.112597734 0.025599683 -0.009364492 -0.027278008
0.09124298 0.026511649 0.015668556 -0.09364625 0.0053218547 0.00016578405 -0.046629146 -0.105409585
0.041538075 -0.052878745 -0.04322659 -0.21002184 -0.08714578 -0.01607596 -0.12906304 0.10736155
0.19344203 -0.064226165 0.00029893438 0.003447645 7.420298e-05 4.8000784e-06 1.2873255e-06 -0.056581743
-0.03473086 -0.056616236 -0.14483604 0.051377032 0.044600777 0.0073141665 0.067484766 0.026494471
0.010503548 -0.09447433 -0.04422005 -0.0464012 -0.010766758 0.023205675 -0.023538446 0.041693643
-0.10005236 -0.046566993 -0.014832526 -0.0071834447 -0.013459115 -0.0009743467 -0.11040149 0.01125337
0.14040177 0.019485425 0.09664401 0.06721176 -0.023513805 -0.082671024 0.06443037 -0.049477622
0.028345777 -0.06892571 -0.050542187 -0.06244514 -0.07935805 0.00022924464 0.05381847 0.0028281363
-0.06264699 -2.5889165e-06 0.023662731 -0.047707334 0.031046774 5.1151405e-06 -2.9988487e-05 -0.0011137909
-0.14110504 -0.020602664 -0.08566257 0.09304959 -0.0025946952 0.1783843 2.2132532e-05 0.010247752
0.053837407 -0.006821278 1.7222961e-06 0.24768431 -0.08817104 0.10480521 0.17768335 0.04532342
-0.12273313 0.008985308 -0.035653416 -4.645136e-06 -0.07123995 0.0022041576 -0.007462324 0.046771623
0.080102 0.071582735 -0.005957811 0.017208353 0.038732238 0.0012235013 -0.12788296 -2.0128036e-06
0.17533852 0.13235442 0.020411467 -0.035668455 1.0824779e-06 0.06261303 0.1516016 -0.00031329648
-0.007904963 -0.06831733 0.06449261 0.0857302 -0.057519548 0.008852881 -0.01955155 -0.0055422997
-0.09151032 -0.0038955791 0.16234349 -0.14029597 0.012534461 -0.03201582 0.047257047 -0.066385955
0.025242839 -0.08892515 3.605483e-05 0.013635059 0.0016114325 -0.07793304 0.01266708 3.3398376e-06
-0.08044709 -0.004090498 0.0025588656 0.0076358914 -0.03373588 -0.065045275 -0.053744763 0.04585844
00000000: 202c 1fbd 55b7 d6bc ab82 503d b379 aebd
00000010: dfdb 903c afef 2e3d 8be0 be3d a334 b7bb
00000020: 98da 6ebd 89d8 adbd 6483 463c a1f3 72bd
00000030: 7dae b4bd 928e 31bd a271 6d3d 04eb 243e
00000040: 84de 0bbe 9263 93bd 8a5c 43bd 97b8 a93d
00000050: dbcb 0e3e 9fb0 f53d 086c c9bd 7b05 80bc
00000060: 851a 4d3c 60f2 893d 24d6 3536 53bd dbbc
00000070: 1a74 2cb6 d615 663d 8f29 3d3d 331e 9336
00000080: 179f 8435 9dc4 a5bc f243 abbc f0d9 9d3d
00000090: ca08 72bd 80a8 493b 8182 d4bc 9cd9 bcbc
000000a0: a3c7 323d e090 d53d f4d6 d43d d8d0 11bd
000000b0: b123 c53d 9930 a739 7afd 8cbc 46d9 06be
000000c0: 8ffe 75bd 73b3 57bd 4bf0 a5bc e028 0738
000000d0: f9f8 5936 d15e 1cbd c537 443d a463 ca3d
000000e0: 9bbc 333d b868 473d db80 76ba 2864 c1b7
000000f0: 278b 08be 960c 053e 1c64 433b 7c41 54bc
00000100: f35e 5dbd 8b6c 05bd 1e12 91bc bc8a 45bd
00000110: b599 abb6 6f94 f0bb 8576 823c 9598 e23d
00000120: e656 f8bc 93ee 31bd 37ca 9fbc 717f e83c
00000130: 00cf 55bb 33d5 923c 579f 93bd 36cb 333d
00000140: cba7 95bc 0a85 7b39 f0ff d5bd f377 b4bc
00000150: 2870 37bd 8163 2c3b 0264 3fb6 9b6e a536
00000160: 64e7 223d 960d d13d 939c a8bd 0a7d d4bb
00000170: 4b20 eb3d c07e 83bc 3f0a fc3d a244 6a3d
00000180: b89d 4f3d 5bc5 923c b311 61bd 5961 d6bb
00000190: 9a8e 053e 3b8a ecbd afc0 8d3a 9516 55bd
000001a0: 06e2 90bb e08a df3c b96d 9536 922c 483d
000001b0: a499 e63d 6db6 d13c 876d 19bc 2176 dfbc
000001c0: 99dd ba3d f52e d93c 585b 803c 9bc9 bfbd
000001d0: f462 ae3b 51d6 2d39 34fe 3ebd fbe0 d7bd
000001e0: d423 2a3d 6297 58bd 5d0e 31bd f70f 57be
000001f0: 7d79 b2bd bbb1 83bc 1a29 04be 5fe0 db3d
00000200: ab15 463e 0289 83bd 4bba 9c39 e3f1 613b
00000210: 6c9d 9b38 5c10 a136 2bc8 ac35 42c2 67bd
00000220: f241 0ebd 6de6 67bd e64f 14be b970 523d
00000230: 4eaf 363d adab ef3b 7435 8a3d ef0a d93c
00000240: 1317 2c3c c27b c1bd 1520 35bd 2f0f 3ebd
00000250: 0e67 30bc d419 be3c b3d3 c0bc f4c6 2a3d
00000260: 40e8 ccbd 08bd 3ebd 2004 73bc 1a63 ebbb
00000270: 9f83 5cbc 4d6b 7fba 2d1a e2bd 0e60 383c
00000280: 7bc5 0f3e e69f 9f3c 4bed c53d 52a6 893d
00000290: 06a0 c0bc 6d4f a9bd 12f4 833d 0ca9 4abd
000002a0: 6735 e83c ec28 8dbd 5305 4fbd 7ac6 7fbd
000002b0: 7986 a2bd 6461 7039 c270 5c3d 4158 393b
000002c0: 114d 80bd 3fbd 2db6 58d8 c13c c468 43bd
000002d0: ce55 fe3c b9a2 ab36 c98f fbb7 9ffc 91ba
000002e0: d77d 10be ebc6 a8bc dc6f afbd c990 be3d
000002f0: c30b 2abb 60aa 363e 40a9 b937 30e6 273c
00000300: 9d84 5c3d 0785 dfbb a529 e735 f5a0 7d3e
00000310: 0593 b4bd 1da4 d63d a0f2 353e 0da5 393d
00000320: 825b fbbd 1d37 133c 5109 12bd 6add 9bb6
00000330: 40e6 91bd a173 103b 8386 f4bb 9a93 3f3d
00000340: 840c a43d f899 923d be39 c3bb 88f8 8c3c
00000350: b2a5 1e3d e45d a03a c0f3 02be b413 07b6
00000360: f18b 333e eb87 073e f335 a73c 1619 12bd
00000370: a849 9135 433b 803d 733d 1b3e f141 a4b9
00000380: d183 01bc f5e9 8bbd b414 843d 5193 af3d
00000390: 9e99 6bbd ad0b 113c 922a a0bc 2e9c b5bb
000003a0: c369 bbbd f94c 7fbb 5f3d 263e bfa9 0fbe
000003b0: 575d 4d3c 0523 03bd 9b90 413d 5cf5 87bd
000003c0: 12ca ce3c 641e b6bd 9439 1738 9565 5f3c
000003d0: b436 d33a 5c9b 9fbd 9689 4f3c f921 6036
000003e0: 72c1 a4bd 9609 86bb a4b2 273b 8036 fa3b
000003f0: a22e 0abd 7536 85bd 7823 5cbd 0fd6 3b3d

fc2.bias f4 [10]
-0.004377016 -0.0124840895 -0.0039397515 0.006541032 -0.009768683 0.0018833185 0.0013570482 -0.0074596824
0.028024554 0.00022841702
00000000: 126d 8fbb 118a 4cbc 0819 81bb 2756 d63b
00000010: d40c 20bc afd9 f63a fbde b13a 5a70 f4bb
00000020: c093 e53c 3a83 6f39
