personalExps/MnistFC/models/smallMnistModelL21e-4.pt (torch, 816320 bytes, 4 tensors)

fc1.weight f4 [256, 784]
000000 86 86 fc 3c e4 fb 06 3d 66 80 d8 ba ee c8 12 3d
       0.030825865 0.032955065 -0.0016517758 0.035836153
000010 38 db 97 ba 5d 40 4d 3c 86 a0 21 bc b4 4f cd 3c
       -0.0011585718 0.012527552 -0.009864932 0.02506242
000020 18 d9 0d 3d 81 8b 92 bc 97 33 0c 3d 0c 75 45 3c
       0.034630865 -0.017888786 0.034228887 0.012051832
000030 7a 29 f5 3c 3a a0 27 3c 15 4c b1 3c d1 31 b4 3a
       0.029927004 0.010231072 0.021642724 0.0013747757
000040 42 38 fe 3c ba 7d 30 3c 76 f6 16 bc a0 8b 69 3c
       0.031032685 0.010772163 -0.009214034 0.014254481
000050 e9 b5 13 bc 38 13 0d 3b 89 44 ed bb 6d 94 e1 3c
       -0.009015539 0.0021526348 -0.007240836 0.027536595
000060 f1 64 a1 bc 27 db 13 bc 2d c1 52 bb 30 96 5e bc
       -0.019701453 -0.009024418 -0.0032158599 -0.013585612
000070 2b 07 14 3c 8b 38 d6 bc 8a b8 10 3d 9e 67 b1 bc
       0.009034912 -0.026150009 0.03533224 -0.021655854
000080 ab 84 fe 3c 31 54 3a 3c 6c 9b a4 bb 1e b6 cd 3c
       0.03106912 0.011372612 -0.0050234105 0.025111254
000090 d0 be 23 3c 33 ed 01 3d 28 03 0f 3c 80 56 b7 bb
       0.009994224 0.03172035 0.00872878 -0.0055950284
0000a0 74 6e 4b 3c 32 36 90 bb e7 75 a1 3c 4a 17 0a 3d
       0.012416471 -0.004400992 0.01970954 0.033713616
0000b0 35 3b ac 3c a7 b2 26 bc 8a 84 c6 3c e3 a5 28 3c
       0.021024326 -0.01017443 0.024233121 0.010293457
0000c0 df 75 b0 3c a9 94 69 bc f3 7f da bc 7e b1 db bb
       0.02154058 -0.014256635 -0.026672339 -0.0067045083
0000d0 8d 71 9b bc b5 b8 05 3d a0 31 7b 3c 69 35 9f 3c
       -0.018975044 0.032646853 0.015331656 0.019434648
0000e0 79 1e 85 3c 2e f5 b0 3b 68 aa 00 3d f4 8e 8c bc
       0.016249882 0.0054003214 0.031412512 -0.01715801
0000f0 8e da 02 3c 25 0f 85 bc 48 79 7e 3c b1 c1 e2 bb
       0.007986678 -0.016242573 0.015531845 -0.0069200625
000100 3e b6 61 3c 36 34 19 bb 24 f4 f6 3c 42 cc 8b bc
       0.01377636 -0.0023377067 0.030145712 -0.017065171
000110 60 89 8f bc 3f 8f 8f bc e9 80 fc 3c 77 a9 70 3c
       -0.01752156 -0.01752436 0.030823188 0.014688841
000120 c2 92 07 3d e3 d5 cc bc 3d 62 f3 bc 18 d4 c5 bc
       0.033098944 -0.025004333 -0.02970993 -0.024148986
000130 6c 05 94 bc c7 bc 91 3c 53 13 87 3c 30 c1 04 3d
       -0.018068992 0.017790211 0.016488707 0.0324108
000140 f5 6d 33 bc 8f b8 84 bc ff 34 be 3c af 30 eb bb
       -0.010951509 -0.016201286 0.02321863 -0.0071774344
000150 20 8b d2 3c fb 69 e5 ba 89 e2 c9 3c e6 7f 9e bc
       0.025701106 -0.0017502898 0.024644153 -0.019348096
000160 43 3b 2c bc 9b d4 7e 3c 07 69 3b 3c 9d eb dc bb
       -0.010512176 0.015553619 0.011438615 -0.0067419545
000170 34 2c 61 3c 58 2d b2 3c c5 16 cc bc bf ce da bc
       0.013743449 0.021750137 -0.024913201 -0.026709912
000180 14 1e 63 3c 97 ea 05 bd fb d7 1d bd 54 8f 55 bd
       0.013862152 -0.032694425 -0.038536053 -0.05213864
000190 1b 30 e4 bc 73 a0 b1 bb 74 64 a2 bc 1b a5 05 bd
       -0.02785497 -0.0054207384 -0.01982329 -0.03262816
0001a0 f3 91 14 bc 34 81 d1 bc 66 73 c3 bc 03 3e 2b bc
       -0.009068 -0.025574304 -0.023858737 -0.010451796
0001b0 29 07 b8 bc ee dd 83 bc a8 b1 1b 3d bc 5e 46 3c
       -0.022464352 -0.016097035 0.038011223 0.012107547
0001c0 87 f5 82 3c c0 92 c7 bc e9 ac 77 bc 1f c9 a4 bb
       0.015986217 -0.024361968 -0.015116909 -0.0050288583
0001d0 54 5e 2e 3c 90 d7 ab bc ec bf 2d bc da 1f af bc
       0.010642607 -0.020976812 -0.01060484 -0.021377493
0001e0 79 13 08 bc 5c 34 87 bc f9 1e 48 bc ac ff 32 bd
       -0.008305424 -0.01650446 -0.012214416 -0.04370086
0001f0 9a 85 1b bd 9a 76 38 bd e5 5f 2b bd 78 b4 76 bd
       -0.03796921 -0.045034982 -0.0418395 -0.060230702
000200 2b 77 40 3c 96 c2 db bb ab f4 8f 3c 07 98 c0 3b
       0.011747162 -0.006706546 0.017572721 0.005877498
000210 9a a6 d5 bc 19 91 c7 3c 53 f5 a0 bb 04 df 65 bc
       -0.026080418 0.02436118 -0.0049120574 -0.014030222
000220 22 83 f9 bc f5 bd f0 bc 70 34 82 3c f7 bb 65 ba
       -0.030458037 -0.029387454 0.015894145 -0.00087636657
000230 62 94 98 3c 9f bb a9 bc 51 bb f6 3c 2c 6c 9c bc
       0.018625442 -0.020719348 0.030118616 -0.01909455
000240 66 35 05 bb 2d 5f 89 3c 21 a5 9a 3c bd 94 9c 3c
       -0.0020326017 0.016769016 0.018877568 0.019113893
000250 ba 27 11 3d 66 4c 05 bd 30 94 ad bc f0 89 2c bd
       0.035438277 -0.032543562 -0.021188825 -0.042123735
000260 60 7e 4e bc c1 77 62 bd 59 26 4f bb 4c d9 53 bd
       -0.012603372 -0.055289987 -0.003160855 -0.051720902
000270 98 ef ad bc 10 f5 6e bc b9 e5 03 3a e9 84 ad bc
       -0.021232411 -0.014584795 0.0005031485 -0.02118154
000280 f3 dd a4 3c 9a 57 38 3c e6 5e b0 3b 22 f1 ff bc
       0.020125365 0.011251355 0.0053824065 -0.03124291
000290 71 87 39 3c 4f cc 9c ba f2 93 1d bc 4d a5 0a 3d
       0.011323796 -0.0011962744 -0.009617792 0.03384905
0002a0 dc 85 58 3c 3f 8a 45 bc 09 2f 30 bc 8d 74 91 3b
       0.013215508 -0.012056886 -0.010753402 0.0044389428
0002b0 d9 26 c1 3c cb 7e 62 3b 69 59 45 bc bb fd 22 bc
       0.023578094 0.0034560438 -0.012045243 -0.009948189
0002c0 17 86 1c bc e4 1d 0c 3c 4e d7 6a bb fd 5c 3b bd
       -0.009553454 0.008552048 -0.0035833898 -0.045742977
0002d0 e8 b1 f1 3b 2f 5b 0e bc dc 32 36 3b 1c cc be 3a
       0.0073759444 -0.008688732 0.002780131 0.0014556679
0002e0 d2 b5 be 3c 9d c1 12 3d 4c 38 d2 3c f5 e2 52 3c
       0.023280058 0.035829175 0.02566161 0.012871494
0002f0 2f 98 64 3b 80 41 e3 3c f9 df f5 3b 7c 75 f6 3a
       0.0034880748 0.027741194 0.0075035063 0.0018803324
000300 a5 1a 8e 3c df 0b f6 3c ff d5 9b ba 42 8d e7 ba
       0.01734669 0.030034957 -0.0011889337 -0.0017666
000310 2b 0e d3 3b d1 b5 55 3b 12 cd 7d 3c 54 37 8b 3c
       0.006440898 0.0032609592 0.015490787 0.016994156
000320 c5 5f cb bc 44 d8 e8 bb 04 24 cb 3c 16 f0 6e 3c
       -0.02482594 -0.007105859 0.024797447 0.014583608
000330 10 b2 ad bb e1 c7 8f bc 58 1b fb bc c7 93 1b bd
       -0.0053007677 -0.017551364 -0.030652687 -0.03798273
000340 dd c1 0f bc cc ae aa 3c 90 47 3b 3c c0 ba 2b 3d
       -0.008774248 0.020835303 0.011430636 0.041926146
000350 02 66 2e bc a4 65 2f bc 3a 72 8f 3c e0 c3 92 3d
       -0.010644438 -0.010705385 0.017510522 0.071662664
000360 39 62 05 3d 18 b8 b4 3c 18 05 23 3d fd 94 50 3c
       0.032564376 0.022060439 0.03979978 0.012730834
000370 b3 83 61 bc 1a 81 de 3c f1 2e 5a bc 07 db 79 ba
       -0.01376431 0.02716117 -0.013316856 -0.0009531234
000380 90 cb e0 bc d6 72 e5 3c 66 db 08 3d 9e 45 b8 3c
       -0.027440816 0.02800886 0.03341236 0.022494134
000390 a1 4f 0d bc 13 ec 62 bc 26 cf 41 3b 34 19 43 3d
       -0.008624942 -0.01385023 0.0029572933 0.047631457
0003a0 e0 14 06 3d af a0 b7 3c 56 bb 8d 3b d9 de 35 3a
       0.03273475 0.022415487 0.0043253107 0.0006937809
0003b0 8a 41 1a 3c 63 8d 55 3c 80 1e 11 3c 8b a9 77 bc
       0.00941504 0.0130341975 0.008857369 -0.015116106
0003c0 37 8a 68 bc cd 65 50 bd 7b 7f ca 3a 91 37 12 bb
       -0.014193109 -0.050878335 0.0015449369 -0.0022310952
0003d0 92 41 11 3a 99 55 ac bc fe c5 57 bc 68 0d 0e 3d
       0.0005541082 -0.02103691 -0.013169764 0.034680754
0003e0 14 9a 13 bb 2a 46 b9 3c 62 63 e5 bb c3 54 92 bc
       -0.0022522258 0.022616465 -0.0070003727 -0.017862683
0003f0 48 57 88 39 1a e0 17 bc a4 bb 08 bb 50 48 9f bc
       0.0002600497 -0.009269739 -0.0020863796 -0.019443661

fc1.bias f4 [256]
000000 ca e5 5c 3c 69 44 d8 bb ec 17 a7 3c 96 62 cc 3b
       0.01348252 -0.006599952 0.020397149 0.0062373383
000010 ae 0d dd bc fb ea 8a bc a1 0c 6c bc 2a 4c 05 bd
       -0.026984062 -0.01695775 -0.014407308 -0.03254334
000020 e0 c3 e0 bb e3 34 e7 3c 09 47 e9 bc fb 3f af bb
       -0.0068592876 0.02822346 -0.028476255 -0.0053482032
000030 cc cc 49 3c be 47 6c 3c 84 86 01 3d 55 63 d4 bc
       0.012316894 0.014421402 0.031622425 -0.025926271
000040 32 bb 29 3b 4b 88 8b 3b 15 5f 2a 3d b6 0d 54 bc
       0.002589893 0.0042581907 0.041594584 -0.012942722
000050 3c 55 ae 3c 21 66 f3 3c 16 e6 15 3c 31 b4 9b 3c
       0.021280877 0.029711785 0.009149095 0.01900682
000060 a5 0d 7e bc f5 c9 c0 38 f8 b3 d4 3b 99 7d e9 3c
       -0.015506183 9.192891e-05 0.0064911805 0.028502272
000070 88 22 92 bb e1 4c 6b 3a 29 1e 84 3c 48 01 66 bb
       -0.004459683 0.00089759944 0.016127663 -0.0035095979
000080 c9 8e ac bc 6e 32 59 3c 6d 61 e6 bc 0e 19 f2 3c
       -0.021064179 0.013256652 -0.028122628 0.029552963
000090 a4 a7 de bc 99 c3 d0 3c 53 35 bd bc e8 27 ba 3c
       -0.027179547 0.025483893 -0.023096716 0.022724107
0000a0 eb 79 aa 3c 77 c3 03 3d 17 f2 67 3c ce 70 c6 3c
       0.020810088 0.03216883 0.01415684 0.024223711
0000b0 ae d1 64 3c 21 8a a6 bc f0 a7 04 3d 76 f2 f3 3c
       0.013966007 -0.020329537 0.03238672 0.0297787
0000c0 d0 2a d8 bc f4 13 25 3b 38 a1 70 b9 c0 6f e6 3c
       -0.026387602 0.0025188895 -0.00022948242 0.028129458
0000d0 d3 f3 bc 3c 06 df b5 3c 12 22 2c bb 08 e2 f5 3c
       0.023065483 0.022201072 -0.0026265425 0.030015007
0000e0 59 f4 fc b8 cb c9 fe 3c b7 33 18 3c ee 4a ee bc
       -0.0001206181 0.031102082 0.0092896735 -0.029088464
0000f0 a4 16 57 3c 72 b2 4b 3c 43 b3 1e bc b0 4b ca bc
       0.013127957 0.012432681 -0.009686294 -0.024694294
000100 6c e7 77 bc 04 a4 59 3b 86 b7 b4 bc 8e da 33 3b
       -0.015130859 0.0033209333 -0.022060167 0.0027443501
000110 13 6c 93 3b 2b 4a 4d bb 30 ad 1b 3c 83 8f bf bc
       0.0044989674 -0.0031324725 0.00950174 -0.023383861
000120 93 86 9c 3c b4 23 da 3c 20 cd d8 bc da 7a 8d 3b
       0.019107139 0.026628353 -0.026464999 0.0043176236
000130 17 11 e7 3b c0 85 21 bc 36 77 c0 bc 5c 4c cb bc
       0.007051598 -0.009858549 -0.023494344 -0.024816684
000140 45 b5 ee bc a6 a9 b8 3b 2a b5 cf 3b db f7 c2 3c
       -0.02913917 0.005635458 0.006338735 0.023799827
000150 e8 f8 e3 bc 79 5a 54 3c 26 29 a3 bc aa 48 00 bd
       -0.027828649 0.0129610235 -0.019917082 -0.031319298
000160 1f 4f 6b 3c bd 37 9d 3c 7e 70 c2 3c bb 72 8c bc
       0.014362126 0.019191617 0.023735281 -0.017144552
000170 6e 53 8f 3c 12 4b 87 bc 0b 41 84 3c 5a 8a b0 bc
       0.017495837 -0.016515289 0.016144296 -0.021550346
000180 19 f0 e3 bc d5 2d 09 3d 23 67 99 bc b3 3e 36 3c
       -0.027824448 0.033490974 -0.018725937 0.011123347
000190 47 99 b5 3c 33 9e a1 bc 46 5e b2 bc 4c 6a 07 3c
       0.022167815 -0.019728756 -0.021773469 0.008265089
0001a0 ad 7a 06 bc 42 a9 5f bc fe ec 3b bc c4 b9 d8 bc
       -0.008207959 -0.013651194 -0.011470078 -0.026455767
0001b0 09 a5 b4 bb 92 46 56 bc 75 4f de bc 5f 53 61 bc
       -0.005512838 -0.013078349 -0.027137497 -0.013752787
0001c0 ff 5c a6 3c d0 c6 b3 bc de 08 8b bc be f4 a3 3b
       0.020308016 -0.021945387 -0.016972002 0.005003541
0001d0 18 57 6e bc 02 41 fd bc fc ca bf bc b4 ff a8 bb
       -0.014547132 -0.030914787 -0.02341222 -0.0051574353
0001e0 cf 18 a5 3c 8d 93 27 3c 93 7a 08 3d b4 33 5d bc
       0.020153431 0.01022805 0.03332002 -0.0135010965
0001f0 3c c2 0d bc 09 5f e7 3c dc c8 5b bc 90 9e ab 3c
       -0.008652266 0.028243558 -0.013414588 0.020949632
000200 74 d9 d0 3c c1 0d f5 bc 8e ef 13 bb b3 a4 c3 3c
       0.025494315 -0.029913785 -0.0022573206 0.023882246
000210 9d 47 00 3d e6 be d0 bc 4b e7 fb 3c 5e d0 c0 3c
       0.031318296 -0.025481652 0.030749938 0.023536857
000220 64 dc f1 3c 7d c3 5d 3b 2e 3e 3a 3b c8 ce 83 bb
       0.029524036 0.0033838444 0.002841841 -0.004022453
000230 b5 55 89 bc d1 31 f7 3c 12 51 0c bc bd 9a 07 bd
       -0.016764501 0.030175122 -0.008564251 -0.033106554
000240 70 09 81 bc a0 f2 8c bc f9 5d a6 3c 9f 99 00 bd
       -0.01575157 -0.017205536 0.020308482 -0.031396504
000250 d6 1c 27 bc 50 90 36 bc da 78 f7 bb 4a 4e 3e bb
       -0.010199746 -0.011142805 -0.0075522484 -0.0029038363
000260 db bf 71 3c ea 16 db 3b ae a4 c7 bc 01 a5 bc 3b
       0.014755215 0.006686081 -0.024370518 0.0057569747
000270 d5 21 05 3c ef aa 90 3c 85 0e 48 bb 63 1a 85 ba
       0.008125742 0.017659632 -0.0030526232 -0.0010154959
000280 67 98 80 bc b2 87 3a bc 31 86 61 ba 7d 56 e3 bb
       -0.015697671 -0.011384891 -0.0008603065 -0.0069378004
000290 f5 3c bb 3c 0b ed f5 bc 57 f0 08 3a 35 e5 48 3c
       0.022856215 -0.030020257 0.00052238017 0.012261678
0002a0 ca e8 95 bc f2 24 2f ba c5 dc 45 bc 93 7d ba bc
       -0.018299479 -0.00066812255 -0.012076561 -0.022764957
0002b0 a0 11 e4 bc 56 8b 28 3c 0c 0d ce 3c ca db e3 3b
       -0.027840436 0.0102871265 0.025152706 0.006953691
0002c0 fd 32 d8 bc da f3 96 bc 5e 7d d9 3c 22 9d 8e bc
       -0.0263915 -0.018426824 0.026549038 -0.017408911
0002d0 e8 3c b0 bb 5f ac 95 3c 64 4f 10 bc ae 8e 1a 3c
       -0.0053783543 0.01827067 -0.008807991 0.009433432
0002e0 7b 69 15 bc a6 a4 f5 bc df ac 9a 3c 04 bc 74 bc
       -0.009119387 -0.029985737 0.01888126 -0.014937405
0002f0 ca 7f 77 3c c9 6a d7 3c ae 30 c5 3c ac 18 f5 bc
       0.015106151 0.026296036 0.024071064 -0.029918991
000300 9f ef 08 3d 17 2d fd 38 6b 42 78 bb b0 30 d4 bc
       0.033431645 0.00012072379 -0.0037881385 -0.025902122
000310 77 65 d0 bc cc ca 9d 3c 45 d8 f4 3c 1b e7 19 bc
       -0.025439007 0.01926174 0.029888282 -0.009393479
000320 62 0d 13 3c 38 6a cd bc 8c f6 cd bc 18 9a de 3c
       0.008975359 -0.025075063 -0.025141977 0.027173087
000330 f8 37 91 bc 8b 06 ec 3c 25 ae c4 3c 86 01 fb 3b
       -0.017726883 0.028811714 0.02400882 0.0076600937
000340 7e 4d 23 bc f7 8f 14 3d 94 43 fc bc f4 76 0e 3d
       -0.009967206 0.036270108 -0.030793943 0.03478141
000350 c1 c4 84 b8 a0 16 ec 3b 33 ba 27 ba 86 9c 14 bc
       -6.330899e-05 0.0072048455 -0.000639829 -0.009070521
000360 d7 36 27 3b 5c 70 67 3c 64 fd 41 bc 37 5f c2 3c
       0.0025514865 0.01412591 -0.011840198 0.023727043
000370 a3 5e 55 bc 55 7c 87 3b c1 e0 db 3c e3 71 68 bc
       -0.013023051 0.0041346946 0.02684057 -0.014187309
000380 cb ab e7 bc 8f 4b ae bc fd d2 08 3d 5c 3c f9 3c
       -0.02828016 -0.021276264 0.03340434 0.03042429
000390 ce 0d d7 bc 3c 77 40 3c 26 7d 5c bb c7 d0 c0 3c
       -0.0262517 0.011747178 -0.003364393 0.023537053
0003a0 e9 62 d5 3c 3a 67 ea b9 1f d1 f4 3c 7a ab 83 3c
       0.02604814 -0.00044708868 0.029884873 0.016072977
0003b0 3d ef 81 3b 83 df 90 bc ba 7e 2b bd 33 58 a1 bb
       0.003965287 -0.017684704 -0.041868903 -0.0049238442
0003c0 60 3a a2 bc 9d 73 94 3c c0 ce c8 bc 5c 64 cd 3c
       -0.019803226 0.018121535 -0.024512649 0.02507227
0003d0 14 3b 8f bc 5c b1 2d bc 42 37 99 bc 4e 5f 8a bb
       -0.017484225 -0.010601368 -0.018703107 -0.004222787
0003e0 c5 b0 dd bc dd 02 c5 3c ea 94 5a bc f6 8d a3 3c
       -0.02706183 0.024049217 -0.013341168 0.019965153
0003f0 90 cb d4 3c 85 ef 06 3d fb 2b 90 3c 98 a4 20 bc
       0.025975972 0.032943267 0.017599097 -0.009804867

fc2.weight f4 [10, 256]
000000 cf f3 11 be b6 45 cf bd 2d c4 04 bd 2f 17 0a be
       -0.14253162 -0.10120718 -0.03241365 -0.13485406
000010 f7 58 29 3e d6 bd 33 be a1 ec 3f bd 7d ea ff 3d
       0.16537844 -0.17552885 -0.046856526 0.12495897
000020 29 a6 af bd 9c 59 fd 3c b1 21 63 3c e6 04 ec bd
       -0.085766144 0.030926518 0.013863013 -0.11524372
000030 d7 21 38 be a8 83 a7 be 65 af 2a 3e 28 e2 ea 3d
       -0.17981659 -0.32717633 0.1666847 0.11468917
000040 f4 d8 23 be 94 31 a6 be c5 f6 d5 bd 51 08 fb 3d
       -0.1600073 -0.324597 -0.10447458 0.122574456
000050 00 27 8b 3e 4d b3 1f 3e 7e db 28 be c2 44 32 bd
       0.27178192 0.15595742 -0.1648998 -0.043522604
000060 10 2d d4 3d c4 e3 b5 3e 37 31 f0 3c 80 f6 83 bd
       0.103601575 0.35525334 0.029320342 -0.064435005
000070 aa f7 e3 bc 62 6b fd 3d 35 ea 57 bd 30 74 b9 ba
       -0.027828056 0.12373997 -0.05271359 -0.0014149006
000080 a0 a7 43 3c ea cd 20 3c 2e 20 88 be a5 70 bd 3d
       0.01194182 0.009814719 -0.2658705 0.09250001
000090 b1 6c ec 3c ac cb 37 3e 3f cd ea bc 20 8d d9 3c
       0.028860422 0.17948788 -0.028662322 0.026556551
0000a0 e2 bf 3b 3e 42 45 7e 3e 0b 8f 4f 3e 0b 9d 45 be
       0.18334916 0.24831107 0.2026941 -0.19298188
0000b0 9a b5 68 3d 0d 58 49 3d 1b a3 6b 3d 67 5d bb be
       0.056813814 0.049156237 0.057528596 -0.36594698
0000c0 fb 32 92 be bd 97 f9 bd af c4 19 be 5d 75 24 3d
       -0.2855452 -0.12187145 -0.15016435 0.04015099
0000d0 b5 5e 0a 3d e2 a3 2a be e6 0d 17 3e 79 af ec 3d
       0.033781726 -0.16664079 0.14751396 0.11556906
0000e0 1f 40 f4 3d 2b a0 19 bc c2 21 b7 3b 14 52 d9 3b
       0.11926293 -0.009376566 0.005588741 0.006632099
0000f0 fa db 88 be 68 fb 0d 3e df 1f 01 be 89 65 ce 3d
       -0.2673033 0.13865435 -0.12609814 0.1007796
000100 8f f8 62 bd a2 ea 85 bd cc d5 97 3d f2 9e 20 be
       -0.055412825 -0.06538893 0.074138254 -0.15685633
000110 04 4b 62 bd 90 89 71 bc 7b d5 fd 3c 49 47 90 3e
       -0.05524732 -0.01474227 0.030985584 0.28179386
000120 30 df f8 bd 6e 2b 3c be b9 64 94 bd 10 49 51 3e
       -0.12151945 -0.18375942 -0.07245774 0.20438027
000130 c0 fc ad 3d 01 c1 98 bd b0 fe bf bd 38 8b 03 3e
       0.08495474 -0.074586876 -0.0937475 0.12846076
000140 2e f3 7e bd 6b aa 34 3d 74 c1 3b be 31 04 e4 bc
       -0.062243633 0.044107836 -0.18335515 -0.02783403
000150 c2 2a 74 3d 04 80 8b bd d4 2a fb bc 81 01 5a 3d
       0.05961109 -0.068115264 -0.03066007 0.05322409
000160 38 ff 6e bc b0 65 b5 3e 98 03 87 be b6 34 d3 3c
       -0.014587216 0.35429144 -0.2636993 0.02578197
000170 6a c9 8d 3e bd 80 b9 3d 90 9a fe 3d f5 1f 6a 3e
       0.2769273 0.09057758 0.12431824 0.22863753
000180 23 d4 e3 3d 90 13 8e 3d fc 42 10 be 06 ed a8 bd
       0.11124446 0.06937325 -0.14088053 -0.08248334
000190 fa ac 7f 3e 42 df c0 be dc b9 8c bd 05 dc 6a bd
       0.24968329 -0.37670332 -0.06871387 -0.057338733
0001a0 36 46 53 3d 87 80 00 3e e2 8a 39 3d 6a 41 ce 3d
       0.05158063 0.1254903 0.045298465 0.100710705
0001b0 a3 73 64 3e 69 26 bb 3d 86 f1 54 bd b0 59 85 bd
       0.22309737 0.091381855 -0.051988147 -0.06511247
0001c0 31 13 4d 3e e0 8c 4d 3d 08 f1 f7 bc 6a 25 6c be
       0.20026852 0.050183177 -0.0302663 -0.23061147
0001d0 15 7e b4 bc 33 3d 28 bd 36 85 a6 3d 07 a9 b5 be
       -0.022032777 -0.04107399 0.08130877 -0.3548052
0001e0 29 96 e5 3c 11 89 c5 bd b0 d9 15 be d4 1d 86 be
       0.028025704 -0.09645284 -0.14633822 -0.26194632
0001f0 6f e5 a0 be c5 46 49 3d 29 5e fe bd 24 4a 44 3e
       -0.31425044 0.049139757 -0.124203034 0.19168907
000200 33 7f a9 3e 9a 81 3c be b8 eb 09 3d eb 0c 89 3c
       0.33104858 -0.18408814 0.033672065 0.016729793
000210 6c c7 00 bc 61 60 55 3d 78 b7 63 3c 42 ca 3d be
       -0.007860046 0.052093867 0.013898723 -0.18534186
000220 5d 17 96 bd 6d b8 95 be 26 89 a6 bd 79 aa 88 3e
       -0.07328675 -0.29242268 -0.08131628 0.2669256
000230 e4 f1 c4 3d 39 66 3f 3e 96 bc 4e 3e 0e 57 01 3d
       0.096164495 0.18691339 0.20189127 0.031577162
000240 fc db 0c 3c c8 77 1c be a2 99 5e bc f6 ef 42 be
       0.00859737 -0.15280068 -0.013586434 -0.1903685
000250 7f f1 b6 bd 79 33 22 3e 33 1b a2 bd f2 7b 50 3e
       -0.089327805 0.15839948 -0.07915344 0.20359781
000260 12 95 31 be a8 a1 8a 3e 1e 7b 2a be 0f 1e df bc
       -0.17342022 0.2707646 -0.16648528 -0.027236013
000270 ff d9 c4 3d 12 90 ca bc 06 bf ca bd 68 5a 19 bd
       0.09611892 -0.024726901 -0.09899716 -0.037439734
000280 4b 3c 55 3e 14 83 67 3d 1c 99 71 3d fa aa 9e 3d
       0.20823781 0.05652149 0.058983907 0.07747455
000290 45 a6 23 be bd c2 12 be 7b 2e 5f 3e 63 77 05 bd
       -0.15981396 -0.143321 0.21795075 -0.03258456
0002a0 e8 26 f8 3d e5 a5 0b be da 04 be bd 70 69 ca bd
       0.12116796 -0.13637502 -0.09278269 -0.09883392
0002b0 4b 88 fe bd 53 07 48 3c 1d 23 2f 3e 79 9b 9f 3d
       -0.124283396 0.0122087775 0.17103238 0.07793326
0002c0 05 ee 33 be ee 03 e5 bc 91 f2 99 3d 75 1b c2 bc
       -0.17571266 -0.027955975 0.07516969 -0.023694733
0002d0 b1 13 7f 3d ac 43 62 3d c2 f6 2c 3d 04 a9 06 3d
       0.06227464 0.05524032 0.042227514 0.03287603
0002e0 9b 47 98 be 78 52 f0 bc f8 7d 05 be d9 fe 22 3e
       -0.2974213 -0.0293362 -0.13036335 0.15917529
0002f0 e3 2f d3 bc db ac b9 3e 0e 98 d4 bc 59 3e 4e bc
       -0.02577967 0.3626469 -0.025951412 -0.012588107
000300 83 34 0f 3e 04 f2 c0 bd b2 a9 96 3c 6f 4f 50 3e
       0.13984875 -0.09421161 0.018391464 0.20342802
000310 3b b2 5a 3c 78 68 41 3e fa 82 bf 3b fd a6 9b bc
       0.0133481575 0.18887508 0.005844471 -0.019000525
000320 5a b4 25 bd 53 7a 08 bc b9 7e 34 be ff 3b 44 bd
       -0.0404552 -0.008329946 -0.17626466 -0.04790878
000330 88 a6 fc bd 31 5f c2 bd 0e 93 e3 bb f9 ad bc 3d
       -0.12336451 -0.094908126 -0.0069450205 0.0921287
000340 31 11 5a 3e 3e 05 a4 3d 19 4e bd 3d 50 28 75 3c
       0.2129562 0.08008812 0.092434116 0.0149632245
000350 46 22 b0 3d 5e 4a 90 bd 9f d5 79 be f2 ed b1 bc
       0.08600287 -0.070454344 -0.24397896 -0.021719906
000360 4c e1 2b 3e 1c 56 a3 3e 48 d4 66 be 72 97 18 be
       0.16785163 0.31901634 -0.22541916 -0.14901522
000370 8a a2 3d 3c 5c b6 b5 3d 2b cd 97 3d 24 17 32 bd
       0.011574397 0.08872673 0.074121796 -0.0434791
000380 51 30 70 bd 59 19 05 bd 7b 66 35 3d 44 83 41 3e
       -0.058639828 -0.032494877 0.044287186 0.1889773
000390 7d 6d 4b be 7e 49 0b 3e 86 d2 c2 bd 37 06 04 3d
       -0.19865985 0.13602254 -0.095128104 0.03223249
0003a0 b9 ef 9b be 9b 8b c1 3c 85 bf cb 3d 63 65 ca be
       -0.3045633 0.02362614 0.09948639 -0.39530477
0003b0 c0 51 e4 bb c2 1e 4c 3d fe e3 16 3e 78 cc 7b be
       -0.006967753 0.04983402 0.1473541 -0.24589717
0003c0 02 40 38 3d 9d 12 8d be a8 9c 33 bd b9 c7 b7 bc
       0.044982918 -0.27553263 -0.04385057 -0.022434102
0003d0 a0 19 21 bd d5 ec 73 3d 4e 47 10 3d ba b7 13 3d
       -0.03933108 0.059552033 0.03522425 0.036063887
0003e0 80 fe 02 be 6f 77 d4 bd 3e 9a 36 bd 28 47 9f 3d
       -0.12792397 -0.10374343 -0.04458069 0.07777244
0003f0 39 82 1f bc 2f 22 9c be 37 63 71 bd e7 04 d3 bc
       -0.009735637 -0.3049483 -0.05893251 -0.025759174

fc2.bias f4 [10]
000000 69 ba e6 bc 0a 15 95 bc a0 ae f1 3c 00 a1 13 3d
       -0.02816506 -0.018198509 0.029502213 0.036042213
000010 61 8d 79 3d f3 ae ac 3b b9 42 1f bd 90 19 41 bd
       0.060925845 0.005269879 -0.03888199 -0.04714352
000020 5c 9e 13 3c 0c 89 4f 3d
       0.009009924 0.050667807
