personalExps/MnistFC/models/smallMnistModelNB.pt (torch, 816288 bytes, 4 tensors)

fc1.weight f4 [256, 784]
00000000: 299d 8b3c 3a8b 943c 42b3 d739 53a1 a03c
00000010: f611 2e3a db67 fb3b 65a9 78bb b0de 663c
00000020: ee92 9b3c d77c 01bc bfe3 993c 3e6c f33b
00000030: 029a 873c 91b9 d23b 5c29 4a3c d887 003b
00000040: b67a 8c3c a1f3 dd3b 11d2 62bb 2a31 0c3c
00000050: 1929 5cbb 24a3 1a3b b89a 20bb a6a0 7b3c
00000060: cfb1 10bc 8c75 5cbb b83b ccb9 b7c2 babb
00000070: 33cd c03b 62cc 46bc ef83 9e3c 0717 21bc
00000080: b2a0 8c3c 85ef e73b 06a8 b7ba 5476 633c
00000090: aa25 c63b aa39 8d3c bb69 af3b fd70 10bb
000000a0: baaa dd3b 9fd5 c2ba 03a3 313c efde 963c
000000b0: 1358 533c 9040 6cbb 117d 5d3c 4ce1 de3b
000000c0: 8774 4b3c cb51 c9bb f748 4cbc b414 0fbb
000000d0: 1999 0abc 8e40 933c 363b 153c 48a7 373c
000000e0: b3ee 1c3c 39d0 833b 4c13 8e3c a499 f6bb
000000f0: 1202 af3b 879d e7bb ad57 143c 1d72 34bb
00000100: 3e42 f23b fbd3 c3ba f0ce 653c 5d23 2dbc
00000110: 1406 3fbc bd43 30bc 1eda 6d3c 2742 b53b
00000120: 771c 813c f996 5abc a298 7bbc cc7f 3ebc
00000130: 1192 0bbc 63c3 203c 9f49 183c 4f08 913c
00000140: 45e7 8ebb e68e e6bb 7f66 573c d178 1ebb
00000150: 6c3a 6c3c 9c43 bd39 98c5 623c 06f7 0dbc
00000160: e9a1 88bb f0d8 143c 6c17 dd3b e7e0 22bb
00000170: e92c 163c 1110 1f3c 0115 8ebc 0abc 98bc
00000180: b039 323b 9839 a3bc ba27 bcbc a08e 01bd
00000190: 2270 b2bc e5ed eabb 7926 37bc 39c5 99bc
000001a0: 227f 83bb b117 3bbc 3b98 3dbc 2c33 afbb
000001b0: 282a 30bc 85df d5bb 1a27 aa3c e85b f43b
000001c0: f4b8 1a3c e0cd 37bc 557d d8bb ea08 afba
000001d0: ba5f d63b 9958 38bc 7c6e c2bb 12b1 3bbc
000001e0: 5f34 2fbb fe35 21bc 0e9f 1fbc 1a1b c3bc
000001f0: b7e2 97bc 5e51 73bc 7a2c 4bbc dcb3 c1bc
00000200: 980d 4c3b 6501 4fbc 0777 6e3b a231 14ba
00000210: dc6f 56bc 857e 4d3c 173d 54bb d06e a7bb
00000220: 8f99 4bbc 6fbb 56bc e982 173c 502a 2f3a
00000230: 1ddd 303c 4e3b 19bc 2b83 883c 7b23 07bc
00000240: 5f7c 093a 09a6 df3b e491 0e3c 461c 363c
00000250: 0b35 423c 7407 97bc 9052 98bb 17e2 b0bb
00000260: aa14 fb3b 074d d3bb e62e a83c 64be 16bc
00000270: 7179 a53b a34f 063b 396a c1ba 79c1 45bc
00000280: d4da 513c f4bb 983b c47b 113b 862a 60bc
00000290: dd1f f53b 51c4 003a bde3 80bb f090 973c
000002a0: b279 033c a0b7 a0bb f2fe 8cbb 9f26 553b
000002b0: 0901 4e3c 175e dcba 272d 0cbc 0e1a 7fbb
000002c0: 2174 4dbc b77b 353b 241c 183c 7fa7 34bc
000002d0: db6b 2c3c 5c0e 8c3b f745 b3ba 0c68 5dbb
000002e0: 8165 2d3c 6eea 2b3c 1ed3 67bb 4e09 05bc
000002f0: 4bfc 22bc e323 013b 6e76 02bb 546d 21bb
00000300: 8ec7 043c 674f 743c 6dfd 2e3a af3b 9f39
00000310: f946 953b 3224 4e3b a4f3 0d3c 8134 1d3c
00000320: afff 41bc 12f3 61bb 0fcc 873c 308e 363c
00000330: 03a0 06b9 085c 49bc dbeb 33bc d56f 9abc
00000340: e659 3abc 1a3f c33a 3a40 08bb 87f4 ed3b
00000350: 3a60 2cbc cb26 1cbc 013f e4ba 4f93 5b3c
00000360: 4bfe 6bba 1e4c 97bb 6756 013c 3a92 81bb
00000370: aaea 67bc 390d 0e3c 90c8 afbb d719 3c3a
00000380: f331 4abc 6356 803c 8d67 903c 3634 423c
00000390: 54fb b0bb 7e89 f6bb 5eab 64bb db33 b03c
000003a0: a7bc 2c3c d95d 673c fe48 db3b c210 3a3a
000003b0: 53b8 6c3b 73aa 8ebb 5796 34bc 2f92 16bc
000003c0: 4b56 603c 69d9 b9bb 721a 513b 9ebb 24bc
000003d0: 9c15 34bc 88a7 b2bc 3964 94bc 7235 bc3a
000003e0: f993 51bc cbcb 9b3b 0505 50bb 77a4 00bc
000003f0: ef52 b63a 59c2 5fbb 0bc2 b6b9 7676 1dbc
0.017042713 0.018132795 0.00041141553 0.019608175 0.00066402496 0.0076722926 -0.0037942764 0.014091179
0.01899096 -0.007903299 0.018785356 0.007428675 0.016552929 0.0064308126 0.012338962 0.001961222
0.017148357 0.0067734276 -0.0034610073 0.0085566435 -0.0033593832 0.0023595775 -0.0024506282 0.015358126
-0.008831455 -0.00336394 -0.00038954406 -0.0056994813 0.0058838367 -0.01213369 0.01935002 -0.00983215
0.01716647 0.0070781135 -0.0014011867 0.013883192 0.0060469704 0.01723941 0.00535318 -0.0022040003
0.006764737 -0.001486469 0.010842088 0.01841685 0.0128994165 -0.0036049224 0.013518588 0.00680176
0.012417919 -0.0061437837 -0.012468568 -0.0021832408 -0.008459353 0.017975118 0.009108355 0.011209317
0.009578395 0.004022625 0.017343186 -0.0075256396 0.005340823 -0.0070683393 0.009054107 -0.0027533837
0.0073931506 -0.0014940494 0.0140263885 -0.010567513 -0.011659164 -0.010758338 0.014517335 0.0055315676
0.015760643 -0.013341659 -0.015356215 -0.011627149 -0.008518712 0.009812209 0.009294896 0.017704157
-0.0043610656 -0.007036078 0.013146996 -0.00241809 0.014418226 0.00036099262 0.013841055 -0.008664852
-0.004169692 0.009084925 0.006747177 -0.002485329 0.009165981 0.00970842 -0.017344 -0.018644352
0.002719503 -0.019924924 -0.022968162 -0.03163016 -0.021781985 -0.0071694725 -0.011178606 -0.0187708
-0.004012958 -0.011419223 -0.011571939 -0.0053466763 -0.010752238 -0.0065268897 0.020770598 0.007457245
0.00944351 -0.011218518 -0.0066067376 -0.0013354097 0.006542173 -0.011251592 -0.005933581 -0.011455791
-0.0026734096 -0.009839533 -0.009742511 -0.023816634 -0.018540723 -0.014850942 -0.012400741 -0.023645334
0.0031136032 -0.01263461 0.0036386864 -0.0005653148 -0.013088193 0.012542372 -0.0032385045 -0.0051096454
-0.012426748 -0.013106211 0.00924752 0.0006682025 0.010794905 -0.009352518 0.016664108 -0.008248205
0.0005244668 0.006825213 0.008701775 0.011115139 0.011853467 -0.018436171 -0.004648514 -0.0053980458
0.0076623755 -0.0064483914 0.020530175 -0.009200666 0.0050498773 0.0020494245 -0.0014756388 -0.012070053
0.01280852 0.0046610776 0.0022199014 -0.013682013 0.007480605 0.0004912066 -0.0039333985 0.018501729
0.00802462 -0.0049047023 -0.004302853 0.003252424 0.012573489 -0.0016812709 -0.008555687 -0.0038925442
-0.012539894 0.0027692148 0.009284053 -0.011026262 0.010523762 0.0042741727 -0.0013677467 -0.003378394
0.010583282 0.010492904 -0.0035373638 -0.008119894 -0.009947847 0.0019705228 -0.0019907015 -0.0024631815
0.008104218 0.014911509 0.00066753366 0.0003037131 0.0045555797 0.003145468 0.0086640455 0.009595037
-0.011840745 -0.0034477157 0.016576795 0.011142299 -0.00012838845 -0.012290008 -0.010981525 -0.018852154
-0.0113739725 0.0014896125 -0.0020790235 0.007261816 -0.010520989 -0.009530733 -0.0017413796 0.01340182
-0.0009002431 -0.004617228 0.007894135 -0.003954199 -0.014155069 0.008670145 -0.005364485 0.00071754813
-0.01234101 0.015666192 0.017627502 0.011853268 -0.0054010544 -0.0075237146 -0.0034892182 0.021509102
0.010543025 0.014121496 0.006692051 0.0007097834 0.0036120608 -0.004353815 -0.011022172 -0.009190126
0.013692449 -0.0056716693 0.0031906632 -0.010054497 -0.01099148 -0.0218084 -0.018114196 0.001435919
-0.012791627 0.0047545186 -0.0031741273 -0.0078517115 0.0013910214 -0.003414294 -0.00034858318 -0.009610763

fc1.bias f4 [256]
00000000: 7a7c 8b3c ed07 d0bb d1d2 c93c d886 f63b
00000010: d55b e4bc 420b 8ebc 1a72 c4bc d63f f7bc
00000020: f3fb 09bc 9a88 d63c 5f08 f9bc 3fa2 53bb
00000030: 5339 623c f402 753c 58a0 fe3c 6d60 c2bc
00000040: 38b2 9b3b c470 d53b 4674 1b3d 93cf 6fbc
00000050: 555a ea3c c3e1 0b3d ebf0 703c cd8a c83c
00000060: 97aa 76bc 8188 133c 94e3 f73b 478f 083d
00000070: 969e 9bbb 55d2 df3a d607 c03c 1a13 88bb
00000080: 33d3 bdbc ed08 963c 1935 00bd 2420 053d
00000090: be88 cabc 6e8b 0b3d 3c0d e6bc 68c4 d73c
000000a0: c952 a13c 31e3 073d 80e7 843c 12ef fc3c
000000b0: 0ef2 4e3c 3c3c b3bc 6f04 183d 9cd6 003d
000000c0: d1d2 f6bc ef13 793b 2348 083a 887f f73c
000000d0: 12eb cf3c e30b ce3c 4d7a bdbb 6cb2 133d
000000e0: cd7a a6ba 24e1 de3c bf3e 5e3c 615e 02bd
000000f0: 500b 693c 339f 373c 125c 32bc a42b eabc
00000100: ef67 e8bb 5c61 893b a41f b0bc 2fa9 f73a
00000110: cb7d a53b ca4f 9ebb 8685 203c 57a9 babc
00000120: e6e2 d13c a1aa f03c ce9d dbbc 0afe e23b
00000130: 0460 ee3b 1a66 39bc 45fd a3bc 9405 c4bc
00000140: deb7 f5bc 9a4d e13b f185 bc3b 0d87 de3c
00000150: 8364 eabc 5808 523c a2d1 adbc 64a2 0bbd
00000160: aaa2 6d3c 06f8 aa3c 2423 dc3c 7fa6 81bc
00000170: 47ca 763c f041 81bc 80af 913c 2840 bdbc
00000180: af4b fdbc 924d 123d 0c50 a0bc c526 8b3b
00000190: cc0a e13c b8f2 a7bc c20b c6bc 606e 823c
000001a0: 91a7 0cbc 57a1 7cbc 17f2 3ebc 33ee e3bc
000001b0: 8a1a a0bb 9bfd 15bc 34f5 f7bc c15c 50bc
000001c0: 7f63 b53c 272b b7bc a469 80bc db26 413c
000001d0: 5c16 8fbc 8ab6 0abd 915e a9bc e0f2 90bb
000001e0: fd24 bb3c b606 833c 58a5 0e3d 14c8 67bc
000001f0: 73bf e2bb 1b0b fc3c 2aee 91bc e891 c63c
00000200: d096 cd3c 998a 00bd 7c84 2abb 7432 e93c
00000210: 3f35 103d ae5c d5bc 1280 0a3d 694b ce3c
00000220: 0c6f f73c 85eb 0e3b 9351 ac3b b8c8 b2bb
00000230: 6904 85bc fac5 103d 21b0 0ebc 6463 07bd
00000240: 986d a4bc adeb 91bc 05a8 c83c 90e8 0bbd
00000250: b4e3 3cbc 9ec0 babb a95e 4ebc 8047 2c3b
00000260: 90c4 973c 90b7 5a3c 0034 ddbc 37f4 d23b
00000270: 1cb7 de3b d4ec 793c e16c 2e38 fd3e 52bb
00000280: 8b41 88bc 0c1f 5fbc 77c8 95ba d677 23bc
00000290: 38ee cd3c 62de 07bd bbf1 a3b8 dd8f 893c
000002a0: 881c a0bc 2742 23b8 d684 13bc d906 c4bc
000002b0: d8d4 f5bc ce99 393c a1d5 f93c 7696 073c
000002c0: fb0a f2bc 25c5 a5bc 7020 083d a4c5 96bc
000002d0: 654a 39bb 3b06 a63c 1a7f 0abc 845b 333c
000002e0: 0a28 3dbc 38a6 f5bc 31cd ae3c b326 88bc
000002f0: 68ab d23c a07b 003d 518c e23c 5315 03bd
00000300: a00f 0f3d 0407 123b a1b1 83bb 2f7f 07bd
00000310: 7c33 c7bc b907 a03c 1b3a 103d 1c25 5abc
00000320: f45f 593c a211 e5bc df0e b9bc 89db f23c
00000330: 2933 79bc 440c fe3c 87c6 c53c 7023 323c
00000340: 9a3f febb 8513 1f3d 3abe e9bc d824 163d
00000350: 18cf af3a cbe4 1a3c 0b03 603b caf8 22bc
00000360: 864f d53b e600 7a3c f80c 67bc 96e7 f13c
00000370: 86a1 6abc 6248 8d3b 0f65 e53c dd7c 76bc
00000380: 1ed8 eebc 30b4 85bc d1f1 ef3c c019 0d3d
00000390: c545 dcbc eaf9 4f3c 3e89 a9bb 7189 f63c
000003a0: 3191 e83c 87e1 0cbb f504 0b3d c589 943c
000003b0: 4e57 ca3b e533 92bc 234e 19bd 7fa7 20bc
000003c0: 2d5d 97bc 85cf 813c 21d4 d9bc 3ef9 be3c
000003d0: c67c 9ebc f32e 05bc db5d 6abc 94d9 97bb
000003e0: 2fd3 e4bc 7c18 d83c ff08 65bc 94d7 c93c
000003f0: e85e f63c 03e6 173d 3fae 963c 1bbf 42bb
0.017027128 -0.006348601 0.024636658 0.007523399 -0.02787582 -0.017339353 -0.02398019 -0.030181807
-0.008421886 0.026188184 -0.0303995 -0.003229275 0.0138076125 0.014954317 0.031082317 -0.02372762
0.00475147 0.006513687 0.037952684 -0.014636892 0.028607527 0.03415085 0.014705877 0.024480248
-0.01505532 0.009004713 0.007564971 0.033339765 -0.0047491295 0.0017076234 0.023441236 -0.0041526677
-0.023171997 0.018314803 -0.031300638 0.032501355 -0.024723407 0.034068517 -0.028082483 0.026338771
0.019692795 0.03317565 0.016223669 0.030875716 0.0126309525 -0.021879308 0.037113603 0.031454667
-0.030129822 0.0038006266 0.00051987375 0.030212179 0.025380645 0.025152152 -0.0057824017 0.03605883
-0.0012701392 0.027206965 0.0135647645 -0.031828288 0.0142238885 0.01120739 -0.010886209 -0.028585263
-0.007092468 0.0041925143 -0.021499462 0.0018895025 0.005050396 -0.004831289 0.0097974595 -0.022785826
0.025620889 0.029378237 -0.026808646 0.0069272565 0.0072746295 -0.011315847 -0.02001823 -0.023928441
-0.029994901 0.006875706 0.0057532717 0.027164007 -0.02861238 0.012819372 -0.021218125 -0.034090415
0.014504114 0.02087022 0.026872225 -0.015826462 0.015062875 -0.015778512 0.01778388 -0.023101881
-0.030919878 0.035718508 -0.01956942 0.004246565 0.027470969 -0.02050148 -0.024175528 0.015921772
-0.008584873 -0.015419326 -0.011654398 -0.027823543 -0.004885976 -0.009154703 -0.03026829 -0.012717427
0.02214217 -0.022359444 -0.015675373 0.011789049 -0.017466716 -0.03386549 -0.020674976 -0.004423484
0.022844786 0.015994411 0.034825653 -0.014146823 -0.006919795 0.030767014 -0.01781376 0.024239495
0.025096327 -0.031382177 -0.0026018908 0.02846644 0.03520703 -0.02604517 0.033813544 0.025182443
0.030204318 0.002180786 0.005258748 -0.0054560564 -0.016237454 0.035345055 -0.008708985 -0.03305377
-0.02007179 -0.017812574 0.02449418 -0.034157336 -0.011528898 -0.0056992313 -0.012595811 0.0026287735
0.018526345 0.013349429 -0.027002335 0.006437804 0.0067967307 0.015254218 4.1586234e-05 -0.0032081
-0.016632816 -0.013618242 -0.0011427541 -0.009977302 0.025138006 -0.033171065 -7.8174715e-05 0.016792232
-0.019544855 -3.8923838e-05 -0.0090038385 -0.023929046 -0.030008718 0.011328174 0.030497374 0.008275619
-0.029546252 -0.020235607 0.03323406 -0.01840479 -0.0028273102 0.020266643 -0.008453155 0.010947112
-0.011545191 -0.029986486 0.021338077 -0.016620016 0.025716498 0.031367898 0.027654799 -0.03200276
0.03492701 0.0022282014 -0.0040189778 -0.033080276 -0.024316542 0.019534932 0.035211664 -0.013314512
0.013267506 -0.02796251 -0.022590099 0.029645698 -0.015209951 0.031011708 0.024142517 0.010872707
-0.0077590467 0.038836975 -0.02853309 0.03665623 0.0013413159 0.009453963 0.0034181501 -0.009947011
0.006509724 0.015259003 -0.014102213 0.029529374 -0.014320737 0.004311607 0.02800229 -0.015044418
-0.029155787 -0.016321272 0.029290112 0.034448385 -0.026888737 0.0126938615 -0.0051738312 0.030094834
0.028389545 -0.002149673 0.033940274 0.0181321 0.0061749583 -0.01784701 -0.037428033 -0.009805559
-0.018477047 0.015846023 -0.026590409 0.023312207 -0.019346606 -0.008128869 -0.014304603 -0.0046340916
-0.027932731 0.026378863 -0.013979196 0.024638928 0.030074552 0.03708459 0.018393634 -0.0029715959

fc2.weight f4 [10, 256]
00000000: 2de1 86bd 44bc 00bd 8481 2cbd 7828 30bd
00000010: b10c ff3d 1396 e7bd a40f 9cbd f715 563d
00000020: 628a 95bd 34e3 023d 8b6b efbd 247a 72bd
00000030: 17da eabd 211b 33be eb9d e73d 4fb1 4bbd
00000040: 27b1 c1bd 5687 dbbd 5bc4 1bbd eec0 183e
00000050: e48e 6e3e b99a 323e 1401 bcbd 4e83 a2bd
00000060: 3279 103e c240 3a3c 9f1f a33d 30f5 97bd
00000070: a3f4 b7bd 3332 253e 3091 88bd 0a70 513b
00000080: b0a7 ef3c 2d75 d1bd fb2f cdbd bffc b13d
00000090: 2f31 613c 2ed6 d63d 741c 74bd a99c 2e3d
000000a0: f1e8 223e a5c6 563e 1fd8 483e d381 19be
000000b0: 5734 32bd ad9f e83d d0f3 a43d e45e 55be
000000c0: 8512 0ebe 2c30 b2bc c5ca 803c 801a 963d
000000d0: bfab a53d 53c4 b3bd 4cfa 303e a178 e43d
000000e0: 6eef 983d 17d3 adbb 99b4 c03c 0c1c 983c
000000f0: bc5d 62be 3f18 303e 5ee2 20bd 1105 f63d
00000100: cdea 1e3d 5b80 fbbd 616e 043e 0990 0abe
00000110: b59e 13be a81e 35bd 1992 fb3d 4f8a 5e3e
00000120: a576 15be f139 13be 600a 93bd 3f7e c13d
00000130: 337f 63bd d35d 84bd 9c2f cbbd 6dd4 8b3d
00000140: 343a 273c efe5 f43d 97f4 dbbd b1a3 e83d
00000150: ad0f 003e 43e3 8bbd 07e7 97bd e7e5 043e
00000160: 9b04 513b 71c4 063e 2d19 5dbe e6be fe3d
00000170: e976 6c3e 151f 1e3d 5e14 613e a96e 543e
00000180: fb88 123e 6fe2 a33d 09bc f8bd c40c b4bd
00000190: c48d fd3d 1743 33be 9322 ddbd 68ab d1bd
000001a0: 178b 083e c84e 883c c8d0 f63d 507f 093e
000001b0: 5aac 663e 93e7 6d3d 580c 72bd 8622 06be
000001c0: 1213 0f3e fea6 e93d ba5a 07be 979e 1fbe
000001d0: 11c7 22bd af1f d9bd e8ff cabd a008 f9bd
000001e0: f165 5c3d 3bb9 f0bd 68ca f8bd f1bc e2bd
000001f0: 39cb 53be cbbc 0b3d eed8 a7bd 9a5a b93d
00000200: 828a 143e 1551 a8bd b4a4 983d d2e3 bf3c
00000210: 8ebd bdbc 2937 123e 6547 1c3d 5931 babd
00000220: f027 1ebd 0e7b 5bbe c1cb 3dbe d17a 293e
00000230: 7151 213e e3a3 033e 178c 463e 0f7d 0a3d
00000240: a48f 383b 2121 aabd f91a c2bd 109f 16be
00000250: c9dd f13c 781d 243e 0471 87bd e7dd 77bd
00000260: 97d5 1cbe eec8 12bd 7d56 ebbd 17e0 5abd
00000270: d429 c53d d49a 29bd c0e2 d5bd 7823 5b3d
00000280: 090b 073e 51ef 0c3e 6fa7 893d db93 d53c
00000290: 837f 84bd 33cb 35be 871b 4f3e 600e 8dbc
000002a0: 04c2 0c3d 56fb 23be 75d0 ddbd 9441 80bd
000002b0: 0ed1 e9bd 1024 c13c 2302 1e3e 5ebd c43d
000002c0: 5054 28be e08c 84bd f7c9 c63c 4898 01be
000002d0: e651 343c 3b8a 073e 8f9c d63d 5b0d c63d
000002e0: 1f7c 89be 11e0 66bd ae6e 34bd 5f00 0e3e
000002f0: 0483 dbbd c4dc 793e be82 63bd 2b2c abbc
00000300: 3874 283e 3726 03be 948e 5c3d 5a81 4d3e
00000310: 8ab5 1e3d 9d20 5b3e c3cd 183c 285b 77bd
00000320: 7fa4 91bd ab35 51bd 4e62 bc3c d760 06be
00000330: 71d1 8dbd 87b9 74bd 0f85 0d3e 4a05 e73d
00000340: 4df2 2e3e 3652 f93d adbc 693d ac06 4a3d
00000350: e8a4 de3d 9f49 87bc b170 41be 6cf2 5abd
00000360: 92a7 7a3e 983d 5b3e ba51 0fbe 69c0 05be
00000370: efe1 ea3c 415f 043e a520 f83c 72d0 d0bd
00000380: d8ae 02bd 894e 01bd 1173 4c3d 56b4 4a3e
00000390: 16dc 20be b3b1 403d 59f0 f63c 3220 333d
000003a0: 8a07 4abe d077 aa3d 63c7 e73d 4ab1 6bbe
000003b0: 9092 47bd e3bd 6ebd fc41 b13d a072 0abe
000003c0: 602c de3d 605c 63be 86df c6bd 78c5 0d3d
000003d0: eb40 5dbd 934f 853d f298 c43c deed be3d
000003e0: 658e 67bc c109 c2bd 4f63 b7bd e447 f63c
000003f0: 1d89 91bd 63cc 59be 0521 b9bd e107 cbbd
-0.065859176 -0.031429544 -0.042115703 -0.043007344 0.124535926 -0.11307921 -0.07620171 0.05226704
-0.07301785 0.03195496 -0.11690434 -0.059198514 -0.114673786 -0.17490818 0.11309417 -0.04972964
-0.09457617 -0.10719173 -0.038029056 0.14917347 0.23296696 0.17441835 -0.09179893 -0.07935201
0.14108732 0.0113679785 0.079650156 -0.07419813 -0.089822076 0.1613243 -0.06668317 0.003195765
0.029254764 -0.10227428 -0.10018917 0.086907856 0.013744636 0.1049007 -0.059597448 0.04262987
0.15909173 0.20974214 0.19613694 -0.1499093 -0.043506946 0.11358581 0.08054316 -0.20836979
-0.13874252 -0.021751486 0.015721688 0.07329273 0.080893986 -0.0877768 0.1728298 0.11155821
0.074675426 -0.005304705 0.023523616 0.018568061 -0.2210607 0.17196749 -0.03927838 0.12012685
0.038798142 -0.12280341 0.12932731 -0.13531508 -0.1441601 -0.04421869 0.12283725 0.21732448
-0.1459604 -0.14377572 -0.07179713 0.09447908 -0.05554123 -0.06463208 -0.0992119 0.068276264
0.010206748 0.11957919 -0.10740011 0.11359347 0.1250598 -0.06830456 -0.07417112 0.12978326
0.0031893614 0.13160874 -0.21591635 0.12438755 0.23092236 0.03860386 0.21980426 0.20745338
0.14310066 0.08002173 -0.1214524 -0.08791497 0.12380555 -0.17506061 -0.1079761 -0.10237771
0.13334309 0.016639128 0.120515406 0.13427472 0.22526684 0.058082175 -0.059093803 -0.13099107
0.13972118 0.11408804 -0.13218203 -0.15587841 -0.039740626 -0.10601746 -0.099120915 -0.12159848
0.053808156 -0.1175408 -0.12147981 -0.11071194 -0.20682992 0.034115594 -0.08195673 0.09050484
0.14505962 -0.0821859 0.0745329 0.023424063 -0.023161676 0.14278854 0.038154025 -0.090914436
-0.038612306 -0.2143366 -0.18534757 0.16550757 0.15753724 0.12855487 0.19389378 0.03381067
0.0028161788 -0.083071 -0.09477801 -0.14709115 0.0295247 0.16026866 -0.06613353 -0.060514357
-0.15315853 -0.035836153 -0.11491106 -0.053436365 0.09627119 -0.04140742 -0.1044364 0.053500623
0.13187803 0.13763167 0.067213885 0.02607148 -0.064696334 -0.17753296 0.20225345 -0.017218769
0.034364715 -0.16013846 -0.10830776 -0.06262508 -0.11416827 0.023576766 0.15430503 0.096064314
-0.16438413 -0.06472182 0.024266226 -0.12655747 0.011005854 0.13236324 0.1047908 0.09670516
-0.2685251 -0.05636603 -0.044050865 0.13867329 -0.107183486 0.24400622 -0.055544607 -0.020895084
0.16450584 -0.12807547 0.05384691 0.20068875 0.038747348 0.2139916 0.009326401 -0.060389668
-0.07111453 -0.051076572 0.022996094 -0.13122879 -0.069247134 -0.059747245 0.13820289 0.11280306
0.17084618 0.121738836 0.0570647 0.04932277 0.10871297 -0.016514597 -0.18890645 -0.053453848
0.24477986 0.21410215 -0.1399602 -0.1306168 0.028672187 0.12926961 0.030289004 -0.10196008
-0.031905025 -0.031569038 0.049914423 0.19795355 -0.15708956 0.047044467 0.030143904 0.043731876
-0.19729438 0.08323634 0.11317327 -0.23016849 -0.048723757 -0.05828656 0.08655164 -0.13520288
0.108483076 -0.22203207 -0.097106025 0.03461215 -0.05401699 0.06509318 0.023998711 0.09322713
-0.014133071 -0.09474517 -0.089544885 0.030063577 -0.071062304 -0.21269374 -0.09039501 -0.09913612

fc2.bias f4 [10]
00000000: c523 86bc 3af6 30bc d8db 443d c7ab 323d
00000010: fe32 543d 1b1b 393c 441e 37bd 5aa5 d6bc
00000020: 33b7 18bd 2e10 3a3d
-0.016374478 -0.0108008925 0.04806122 0.04362085 0.051806442 0.011297966 -0.044706598 -0.026201893
-0.037284087 0.045425586
