exps/regularModelExperiments/pretrainedmodels/cleanAccModel3.pt (torch, 973781 bytes, 8 tensors)

fc.weight f4 [256, 784]
0.00065574795 0.021955848 -0.009718763 -0.025712201 -0.031186901 -0.019804467 -0.014812283 0.018858764
-0.024465382 -0.012169596 -0.03311887 0.019846741 -0.3397943 -1.3259362 -1.0793748 -0.09117239
-0.024777792 -0.030540617 -0.032639474 -0.023224138 0.014149871 -0.016859422 -0.0063912794 -0.02615922
0.005290281 0.016878456 0.0009855404 -0.02128097 0.016062532 -0.014714906 -0.025010336 0.012564242
-0.0021506846 -0.112747 -1.7998059 -1.6833825 -0.8729431 -2.4992182 -3.4533563 -2.3086414
-4.5627 -3.2944994 0.3185551 -5.857885 -5.085885 -4.8757815 -4.2241 -3.5692654
-5.8834333 -3.7958972 -2.7724183 -1.7042896 0.02847566 0.018384837 -0.02208294 -0.005038526
-0.014557039 -0.011623077 0.0640735 -3.5350034 -3.3396716 0.04580607 -1.4681394 -2.0000117
-1.4523813 -3.0732958 -4.493692 -5.3418093 -3.775857 -3.752593 -4.219048 -4.814517
-3.8915856 -3.3953972 -9.547043 -9.468819 -9.330694 -2.0473313 -0.116646245 -5.053751
-1.7294432 -0.47100446 -0.010772472 0.021779563 0.002307225 0.0010538325 0.10433503 -4.5172157
-2.748748 0.18741375 -4.3203254 -3.9821014 -1.9166813 -0.7944061 2.4493132 0.44656846
-0.691851 -2.0418935 -0.14399756 1.2959 -1.6061027 -2.6662166 -0.03463875 2.3191323
0.010210371 1.5194694 1.0594245 -5.5798044 -5.846228 -3.4286394 -0.50433326 0.005010478
0.013132066 -0.04607294 -0.7230992 -3.1663816 1.8796076 -0.37558228 -2.48472 0.60075384
-2.841975 -0.38306794 1.6159147 -1.245955 1.6368165 1.771683 0.73549724 0.10574098
-1.9141694 -1.3810841 0.36075473 -2.452338 -1.5400519 -1.4284891 -0.1264783 1.8544108
2.0224428 5.1704397 1.7674652 -2.3751442 0.030021403 -0.0029672012 -2.47453 -2.2163205
0.5746927 1.2435974 1.4942772 -3.096901 -2.8398452 0.36961022 -3.1470664 -1.3947695
-0.710488 0.30736896 1.4132454 0.34772897 0.010962277 -0.23725988 -1.0734596 -1.0316374
0.5407761 1.5227456 -0.04285775 1.220557 -2.5125737 -0.8170175 -2.4908018 -1.4887264
0.023349013 0.0025752299 0.073369704 -2.3949375 0.7916411 -0.49030715 -2.0138066 -1.1946751
-0.12879027 -0.29858616 -3.5233479 -0.69129074 0.08585755 -0.13817872 1.1733036 -0.017526105
-0.47500417 -0.40195835 -0.6030339 -0.24551964 0.57035726 -0.040551074 -1.4700203 0.6842077
1.042361 0.971965 1.3992817 -1.4022516 0.014056526 -0.037835192 -0.026166013 -2.50609
-2.3085625 -1.3680336 -0.29692996 3.2426107 -2.1208377 -1.7800878 -0.17600851 -0.34499586
-2.813018 0.8818526 1.3410887 0.8299112 0.66647637 -0.14166036 -0.15815997 -0.013244091
-0.5613657 -1.2013749 0.033760015 0.6838211 0.32732996 0.47608927 -3.4067273 1.5205334
-0.9461429 0.008491771 -0.42233822 -0.2823653 -3.4118757 -1.1916343 1.3580394 -1.8784796
-1.7121992 -0.397726 -1.5226595 -1.129574 0.08823857 -0.79871625 -0.81995213 2.3880866
0.22264846 -0.27275094 0.10770847 -0.0109961 0.47238377 0.8065577 0.9153151 0.26703036
1.2979602 2.84787 -0.6861395 -0.2688261 -0.029350776 -0.08612264 -0.13649002 -5.706858
00000000: 80e6 2b3a c0dc b33c 723b 1fbc 65a2 d2bc
00000010: ac7b ffbc fa3c a2bc 38af 72bc b27d 9a3c
00000020: a06b c8bc fc62 47bc a7a7 07bd a295 a23c
00000030: 85f9 adbe 47b8 a9bf f428 8abf 97b8 babd
00000040: ccfa cabc 5130 fabc f8b0 05bd 8c40 bebc
00000050: dcd4 673c c51c 8abc f06d d1bb dc4b d6bc
00000060: 185a ad3b b044 8a3c 402d 813a 6e55 aebc
00000070: 9295 833c ca16 71bc 7ae2 ccbc 40da 4d3c
00000080: 80f2 0cbb e6e7 e6bd 0a60 e6bf 1479 d7bf
00000090: 3379 5fbf 31f3 1fc0 ca03 5dc0 c8c0 13c0
000000a0: a301 92c0 14d9 52c0 a719 a33e cb73 bbc0
000000b0: 92bf a2c0 6706 9cc0 d42b 87c0 d86e 64c0
000000c0: 1645 bcc0 fbef 72c0 4d6f 31c0 2926 dabf
000000d0: ca45 e93c cc9b 963c 48e7 b4bc 381a a5bb
000000e0: a680 6ebc b86e 3ebc f838 833d 7f3d 62c0
000000f0: 2ebd 55c0 259f 3b3d feeb bbbf 3100 00c0
00000100: a1e7 b9bf e1b0 44c0 53cc 8fc0 1af0 aac0
00000110: a4a7 71c0 7c2a 70c0 7102 87c0 8610 9ac0
00000120: bd0f 79c0 304e 59c0 b0c0 18c1 4880 17c1
00000130: 864a 15c1 7a07 03c0 3ae4 eebd 54b8 a1c0
00000140: 655e ddbf 7f27 f1be 067f 30bc 0e6b b23c
00000150: d034 173b c020 8a3a 9bad d53d 088d 90c0
00000160: 7deb 2fc0 64e9 3f3e 1b40 8ac0 c0da 7ec0
00000170: d055 f5bf 335e 4bbf 8cc1 1c40 9fa4 e43e
00000180: 261d 31bf 62ae 02c0 1974 13be 0de0 a53f
00000190: c694 cdbf 4ba3 2ac0 5de1 0dbd aa6c 1440
000001a0: 6649 273c f97d c23f 399b 873f c28d b2c0
000001b0: 4d14 bbc0 d46e 5bc0 fc1b 01bf f02e a43b
000001c0: e027 573c fbb6 3cbd 071d 39bf ffa5 4ac0
000001d0: fb96 f03f 524c c0be a705 1fc0 01cb 193f
000001e0: ebe2 35c0 7b21 c4be 4bd6 ce3f 747b 9fbf
000001f0: 3483 d13f 82c6 e23f 8c49 3c3f ba8e d83d
00000200: 8103 f5bf 5dc7 b0bf d8b4 b83e 1bf3 1cc0
00000210: 6c20 c5bf bbd8 b6bf 8783 01be 555d ed3f
00000220: b46f 0140 3e74 a540 4d3c e23f 5d02 18c0
00000230: 72ef f53c 6075 42bb b35e 1ec0 32d8 0dc0
00000240: 101f 133f 332e 9f3f 7a44 bf3f a033 46c0
00000250: 06c0 35c0 8d3d bd3e 8969 49c0 cf87 b2bf
00000260: 8be2 35bf 775f 9d3e 3ae5 b43f 8809 b23e
00000270: 1f9b 333c 41f4 72be 2067 89bf b20c 84bf
00000280: 4d70 0a3f 54e9 c23f 9c8b 2fbd 363b 9c3f
00000290: 02ce 20c0 0f28 51bf 4c69 1fc0 968e bebf
000002a0: 6e46 bf3c 30c5 283b db42 963d a846 19c0
000002b0: fea8 4a3f 8a09 fbbe 35e2 00c0 1deb 98bf
000002c0: 99e1 03be 49e0 98be 887e 61c0 6ef8 30bf
000002d0: 15d6 af3d b97e 0dbe d02e 963f e892 8fbc
000002e0: bf33 f3be 7ccd cdbe 6e60 1abf 8069 7bbe
000002f0: ef02 123f e218 26bd a029 bcbf 3c28 2f3f
00000300: 166c 853f b3d2 783f aa1b b33f fb7c b3bf
00000310: 584d 663c 13f9 1abd 1b5a d6bc c763 20c0
00000320: 7dbf 13c0 ba1b afbf 3407 98be ef86 4f40
00000330: cebb 07c0 ebd9 e3bf 933b 34be 4ca3 b0be
00000340: 7d08 34c0 18c1 613f cba8 ab3f 0f75 543f
00000350: 329e 2a3f 6a0f 11be b0f4 21be befd 58bc
00000360: aab5 0fbf a7c6 99bf f147 0a3d e60e 2f3f
00000370: cb97 a73e f9c1 f33e d207 5ac0 d7a0 c23f
00000380: 6c36 72bf 1221 0b3c b73c d8be 2f92 90be
00000390: 2c5c 5ac0 7987 98bf 3cd4 ad3f 0572 f0bf
000003a0: 5829 dbbf bea2 cbbe 82e6 c2bf e195 90bf
000003b0: 6cb6 b43d ab78 4cbf 62e8 51bf 69d6 1840
000003c0: f5fd 633e 03a6 8bbe 4296 dc3d fc28 34bc
000003d0: 49dc f13e 917a 4e3f 1752 6a3f 34b8 883e
000003e0: 8f23 a63f 8143 3640 d7a6 2fbf 93a3 89be
000003f0: 0a71 f0bc 1161 b0bd 0ac4 0bbe 959e b6c0

fc.bias f4 [256]
1.0363655 -0.061330624 -0.06980029 -0.0640009 -0.033545256 -0.12035119 -0.030020509 -0.118400656
-0.061644074 -0.04131236 -0.07571614 -2.42691 -0.06525844 -0.048547305 -0.045262232 -0.03383566
-0.073071994 -0.03779532 -0.060965672 -0.04854612 -0.0712306 -0.058087185 -0.0700806 -0.023631932
-0.09028811 -0.03064095 -0.012761797 -0.08086161 -0.04005739 -0.057710122 -0.06790048 -0.027811123
-0.098373756 -0.071800925 -0.025984757 -0.05097881 -0.08596801 -5.074923 -0.032590136 -0.05900624
-0.009235091 -0.07192791 0.43696907 -0.080096364 -3.8167987 -0.048039082 -0.048832234 -0.072938725
-0.03690029 -0.062123775 -1.1327634 -0.07180273 -0.030706873 -0.0932861 -0.04815863 -0.049180992
-0.045274757 -0.04176293 -0.068976305 -0.035587866 -0.030569673 -0.07837505 -0.03580232 -0.0545433
-0.03267114 -0.009738103 -0.06317951 -0.07851201 -0.039225526 -0.049344335 -0.054583497 -0.09497199
-0.014680348 -0.06486199 -0.03330075 -0.066665635 -0.036427658 -0.08056812 -0.005468932 -0.064065605
-0.06578663 -0.09116617 -0.022736063 -0.4388765 -0.06844241 2.6865394 -0.065199226 -1.2563249
-0.03878848 -0.0656703 -0.05233868 -0.027522726 -1.3309137 -0.05769314 -0.028641647 -0.072564624
-0.04956648 -0.10805627 -0.030443886 -0.03843336 -0.08793182 -0.02222855 -0.041138623 -0.061760318
-0.0327512 -0.062246773 -0.08904556 -0.08509544 -0.04989932 -0.037170466 -0.03451964 -0.027429521
-0.02032743 -0.014999691 -0.018048732 0.6923499 1.1100668 -0.09316979 0.75111794 -0.05286085
-0.14183967 -0.028056411 -0.07347415 -0.047963683 -0.09211734 -2.7719367 -0.08731068 -0.027102595
-0.087553665 -0.03849412 -0.07740397 -0.028389418 -0.024556467 -0.037548117 -0.041174017 -0.02534083
-0.0301263 -0.021620069 -0.06582496 -2.5434895 -0.05678345 -0.028142171 -0.031349864 -0.09102255
-0.017628858 -0.043052368 -0.08218439 -0.078301065 0.13158728 -0.0624819 -0.08381348 -0.050437495
-0.046851944 -0.04895864 0.12586561 -0.031014126 -0.30443203 -0.07460944 -0.072369695 -0.05469921
-0.0794658 -0.05531296 -0.07464136 -0.046783894 -0.08890981 -0.036557034 -0.045525987 -0.038509462
-0.047253057 -0.009470392 -0.030107226 -0.08732125 -0.06006121 -0.02910843 -0.0708912 -0.032855928
-0.061346844 -0.07649346 -1.689565 -0.08372419 -0.088472344 -0.012696013 -0.07443003 -0.044163126
-0.0790417 -0.06531733 -0.05543703 -0.025902467 -0.047702383 -0.06086978 -0.038841512 -0.0778458
-0.074819766 -0.024669444 -0.04657098 -0.054257654 -0.08385805 -0.03830017 -0.10516957 -0.04833339
-0.09349785 -0.06689355 -0.023272824 -0.05500517 -0.04362911 -1.6238153 -0.030568521 -0.03704954
-0.024725923 -0.09274084 -0.08690561 -0.04665312 -0.09063777 -0.014897669 -0.04943554 -0.06658436
-0.027856054 -0.054908555 -0.061725244 -0.025706235 -0.051569317 -0.06277299 -0.022579288 -0.058679126
-0.033673022 -0.021513972 -0.04018434 -0.05954478 -0.044400048 -0.04816515 -0.06506136 -0.07185973
-0.009291714 -0.016002933 -0.010290753 -0.06097761 -0.032835945 -1.5266442 -0.027234284 -0.025853274
-0.017702304 -0.046888247 -0.08414077 -0.056397855 -0.03830213 -0.036775623 -0.018395154 -0.05071086
-0.09099924 -0.099928774 -0.06562144 -0.0749032 0.40703857 -0.08236368 -0.06066289 -0.028463949
00000000: a0a7 843f d235 7bbd 74f3 8ebd e712 83bd
00000010: c066 09bd af7a f6bd 92ed f5bc 0b7c f2bd
00000020: 7f7e 7cbd 2637 29bd 1011 9bbd 7e52 1bc0
00000030: 38a6 85bd 8ad9 46bd e464 39bd 4397 0abd
00000040: c5a6 95bd 44cf 1abd 24b7 79bd 4cd8 46bd
00000050: 59e1 91bd d4ec 6dbd 6b86 8fbd c197 c1bc
00000060: f9e8 b8bd bb02 fbbc db16 51bc c69a a5bd
00000070: 3813 24bd 7361 6cbd 680f 8bbd 27d4 e3bc
00000080: 2e78 c9bd 5d0c 93bd fcdd d4bc 28cf 50bd
00000090: ff0f b0bd c565 a2c0 3c7d 05bd 87b0 71bd
000000a0: c74e 17bc f14e 93bd 69ba df3e 9009 a4bd
000000b0: 6e46 74c0 a1c4 44bd 4f04 48bd e660 95bd
000000c0: c224 17bd 8075 7ebd 64fe 90bf 4f0d 93bd
000000d0: fb8c fbbc c80c bfbd fc41 45bd 0272 49bd
000000e0: 0672 39bd 9b0f 2bbd 7343 8dbd 95c4 11bd
000000f0: 406d fabc 1983 a0bd 74a5 12bd cc68 5fbd
00000100: 2cd2 05bd 908c 1fbc 4264 81bd e8ca a0bd
00000110: f2aa 20bd 491d 4abd f292 5fbd ad80 c2bd
00000120: d885 70bc 5dd6 84bd 5e66 08bd fe87 88bd
00000130: 2b35 15bd e600 a5bd ba34 b3bb d434 83bd
00000140: 24bb 86bd 54b5 babd fb40 babc 6cb4 e0be
00000150: 892b 8cbd 43f0 2b40 2c87 85bd 41cf a0bf
00000160: abe0 1ebd 267e 86bd 1561 56bd 5777 e1bc
00000170: 615b aabf a44f 6cbd e3a1 eabc c39c 94bd
00000180: 3906 4bbd 9b4c ddbd 7565 f9bc 4d6c 1dbd
00000190: 9915 b4bd a618 b6bc f980 28bd 63f8 7cbd
000001a0: 1f26 06bd 79f6 7ebd 855d b6bd 8546 aebd
000001b0: 3b63 4cbd 0f40 18bd 7764 0dbd e0b3 e0bc
000001c0: b685 a6bc 44c1 75bc efda 93bc d83d 313f
000001d0: ab16 8e3f cecf bebd 4449 403f 9e84 58bd
000001e0: 6b3e 11be 8fd6 e5bc 9d79 96bd 9175 44bd
000001f0: 04a8 bcbd 6967 31c0 f1cf b2bd 4306 debc
00000200: 564f b3bd 03ac 1dbd f985 9ebd ed90 e8bc
00000210: a52a c9bc 0ecc 19bd 16a6 28bd 9397 cfbc
00000220: 6ecb f6bc 921c b1bc 3dcf 86bd 88c8 22c0
00000230: c395 68bd 698a e6bc b768 00bd 086a babd
00000240: 656a 90bc ae57 30bd 4a50 a8bd 4f5c a0bd
00000250: d1be 063e 05ed 7fbd 67a6 abbd 8c97 4ebd
00000260: d3e7 3fbd db88 48bd eae2 003e 5611 febc
00000270: 84de 9bbe d6cc 98bd 9036 94bd 470c 60bd
00000280: f7be a2bd d88f 62bd 92dd 98bd 78a0 3fbd
00000290: 5916 b6bd d4bc 15bd 7579 3abd 19bc 1dbd
000002a0: 6c8c 41bd b429 1bbc 6ea3 f6bc 7cd5 b2bd
000002b0: be02 76bd cd74 eebc 682f 91bd f093 06bd
000002c0: d446 7bbd 9aa8 9cbd aa43 d8bf 9777 abbd
000002d0: fd30 b5bd f002 50bc c66e 98bd 65e4 34bd
000002e0: 9de0 a1bd 18c5 85bd f011 63bd 6931 d4bc
000002f0: 9363 43bd 9752 79bd 4718 1fbd 9e6d 9fbd
00000300: 1b3b 99bd 9317 cabc 36c1 3ebd 463d 5ebd
00000310: c5bd abbd a4e0 1cbd 2563 d7bd 3cf9 45bd
00000320: cd7b bfbd 7cff 88bd a6a6 bebc 1a4d 61bd
00000330: 70b4 32bd 2ed9 cfbf d66a fabc 42c1 17bd
00000340: 058e cabc e9ee bdbd 92fb b1bd 5817 3fbd
00000350: 4ca0 b9bd 5a15 74bc ec7c 4abd 625d 88bd
00000360: 6132 e4bc cbe7 60bd 9cd3 7cbd e295 d2bc
00000370: 593a 53bd 208f 80bd 33f8 b8bc 8659 70bd
00000380: b9ec 09bd 123e b0bc 5698 24bd 3ae5 73bd
00000390: d3dc 35bd d248 45bd e43e 85bd 322b 93bd
000003a0: 463c 18bc 9518 83bc 8c9a 28bc a9c3 79bd
000003b0: fc7e 06bd 1469 c3bf 6f1a dfbc 3fca d3bc
000003c0: 6c04 91bc e40d 40bd ff51 acbd 7001 67bd
000003d0: b2e2 1cbd 09a2 16bd 6fb1 96bc 31b6 4fbd
000003e0: cf5d babd 75a7 ccbd 8964 86bd d966 99bd
000003f0: 5c67 d03e 4aae a8bd a779 78bd 3a2d e9bc

fc1.weight f4 [128, 256]
-0.37743065 0.018045157 -0.052339155 -0.053908076 -0.08287927 -0.06231606 -0.039774127 -0.02418484
-0.07272424 -0.002421941 -0.042141784 -0.4373112 -0.062374886 -0.064443745 -0.055439692 -0.029793888
-0.09170815 -0.10041224 -0.054287836 -0.01172187 0.007631436 -0.057370376 -0.06433281 -0.009985355
-0.06903016 0.0019153055 -0.009242387 -0.053907752 -0.10000692 -0.045067362 -0.06602668 -0.040451977
-0.4961422 0.037839234 -0.035294324 -0.0058301073 -0.10929672 -0.041009426 -0.0075169927 -0.06289249
-0.030513909 -0.058669407 -0.53481066 -0.078085095 -0.03842728 -0.11539866 -0.070536636 0.0046700537
-0.050237983 -0.11436572 -0.47745705 -0.12089231 -0.046370223 -0.05231899 -0.097033285 -0.03768588
-0.09271826 -0.09681493 -0.008841342 0.0015236271 -0.08504916 -0.103047945 -0.08783387 0.044700712
-0.10273042 0.03867141 -0.042217787 -0.10428795 -0.07417511 -0.098635286 -0.057584517 -0.077494286
0.018273532 -0.08745825 -0.0070517138 -0.042738795 -0.10300789 0.013469923 -0.0993586 -0.07002528
-0.03732595 0.029665835 -0.0793457 -0.53422785 -0.11482774 -0.2913267 -0.05382967 -0.7283474
-0.050447233 -0.078253 -0.09483687 -0.06481534 -0.36830488 0.0025139535 -0.016487814 -0.024805548
-0.022555724 0.024476059 0.02828551 0.022821978 -0.11854533 -0.07113119 -0.0006281568 -0.061898675
0.002914883 -0.08960947 -0.018052451 -0.06810953 -0.0878432 -0.0858398 0.011479534 -0.013591195
-0.006515252 -0.06563166 -0.0049456847 -0.4603756 -0.045614835 -0.09493655 0.0091870725 -0.06651503
0.0005614959 -0.06649774 -0.040545754 -0.009293364 -0.09607746 -0.24378435 0.025467463 -0.006801986
0.050932422 -0.10504672 -0.093754075 -0.06084096 -0.080600046 -0.11184197 0.0048569185 -0.023372881
-0.03738493 -0.04592136 -0.0883397 -0.009882164 -0.056047056 -0.05212665 -0.08162568 -0.015505653
-0.09330106 -0.0879978 -0.011612741 -0.0525381 -0.53014994 -0.06508683 -0.13891153 -0.0107456185
0.03782203 -0.045504615 -0.47311506 -0.033943005 -0.698801 -0.036679547 -0.011585275 -0.06737987
-0.07234573 -0.012120799 -0.010144101 -0.108484946 -0.012394431 -0.10430454 -0.08025069 -0.022091668
-0.030758627 -0.059516992 -0.05880148 -0.11826846 -0.0021424966 -0.048393518 -0.051660813 -0.0023130684
-0.07041876 -0.038130686 -0.4725343 -0.084562644 0.011215799 -0.012074403 -0.021896824 -0.06554708
-0.0819154 -0.089050665 -0.019542176 -0.025465805 -0.0828147 0.007985845 -0.05651765 -0.046213277
-0.08509344 -0.032653585 -0.09827567 -0.06281942 -0.028772451 -0.0557732 -0.0140660675 -0.08489074
-0.111293346 -0.047194693 -0.08778924 -0.051612798 -0.06236396 -0.2539577 -0.04369843 -0.08003369
-0.013958045 -0.101355106 0.028458528 -0.04699281 -0.044104114 -0.10579079 -0.036837235 -0.031271428
-0.09030426 -0.11162151 -0.05705931 -0.015455419 -0.028767109 -0.056925673 -0.06475505 -0.10447387
-0.08996872 -0.029331863 -0.0821756 -0.017221523 -0.10796117 -0.09966828 -0.072820835 -0.11201088
-0.035422646 -0.05043854 -0.076055 -0.045027204 -0.059825033 -0.28821164 -0.019320562 -0.064893775
-0.00729158 -0.11287404 -0.09197797 -0.03954396 -0.03667666 0.004787867 -0.099973336 -0.002208864
-0.063813835 -0.056701854 -0.009958826 -0.0150902765 -0.34727764 -0.06658296 -0.08412003 0.0019450705
00000000: 973e c1be 70d3 933c 9561 56bd b7ce 5cbd
00000010: 9bbc a9bd 203f 7fbd 32ea 22bd 491f c6bc
00000020: 72f0 94bd 6db9 1ebb dd9c 2cbd 41e7 dfbe
00000030: cf7c 7fbd 15fb 83bd bb14 63bd 5012 f4bc
00000040: 7cd1 bbbd efa4 cdbd ec5c 5ebd 160d 40bc
00000050: 2011 fa3b 33fd 6abd ecc0 83bd 9d99 23bc
00000060: af5f 8dbd fd0a fb3a 616d 17bc 60ce 5cbd
00000070: 6ed0 ccbd 8e98 38bd ff38 87bd f9b0 25bd
00000080: 5a06 febe 50fd 1a3d c890 10bd 7c0a bfbb
00000090: f5d6 dfbd 80f9 27bd 1b51 f6bb c7cd 80bd
000000a0: 4ef8 f9bc 554f 70bd 5ae9 08bf 14eb 9fbd
000000b0: ec65 1dbd 2256 ecbd 8375 90bd 4007 993b
000000c0: 58c6 4dbd 9338 eabd 4075 f4be 6396 f7bd
000000d0: b4ee 3dbd 704c 56bd 63b9 c6bd 825c 1abd
000000e0: 12e3 bdbd e846 c6bd 47db 10bc 71b4 c73a
000000f0: 412e aebd cd0a d3bd 3ee2 b3bd 1818 373d
00000100: 5464 d2bd ea65 1e3d 8fec 2cbd ec94 d5bd
00000110: 1fe9 97bd 4c01 cabd bedd 6bbd 53b5 9ebd
00000120: 60b2 953c 501d b3bd 1012 e7bb e00e 2fbd
00000130: cdf5 d2bd f4b0 5c3c 867c cbbd 6a69 8fbd
00000140: 18e3 18bd c405 f33c 0080 a2bd 28c3 08bf
00000150: ce2a ebbd c628 95be 807c 5cbd fa74 3abf
00000160: c2a1 4ebd 1c43 a0bd d539 c2bd e8bd 84bd
00000170: 7592 bcbe 24c1 243b 7411 87bc 0135 cbbc
00000180: c8c6 b8bc 0482 c83c 04b7 e73c 28f5 ba3c
00000190: e5c7 f2bd 3bad 91bd e4aa 24ba 7789 7dbd
000001a0: 9f07 3f3b 2b85 b7bd bce2 93bc 027d 8bbd
000001b0: 23e7 b3bd c7cc afbd a814 3c3c 9bad 5ebc
000001c0: e57d d5bb e469 86bd 690f a2bb 5ab6 ebbe
000001d0: 9fd6 3abd 186e c2bd 6085 163c 0839 88bd
000001e0: 5a31 133a f82f 88bd 4e13 26bd 3243 18bc
000001f0: 42c4 c4bd 9ba2 79be 24a1 d03c 32e3 debb
00000200: 849e 503d bc22 d7bd 2302 c0bd 5f34 79bd
00000210: a311 a5bd 670d e5bd c926 9f3b 7c78 bfbc
00000220: f120 19bd 0918 3cbd 72eb b4bd cde8 21bc
00000230: 9991 65bd c182 55bd 5d2b a7bd 6c0b 7ebc
00000240: a014 bfbd 3138 b4bd 5e43 3ebc 3132 57bd
00000250: e8b7 07bf 3e4c 85bd d33e 0ebe 640e 30bc
00000260: 46eb 1a3d 0c63 3abd 233c f2be d207 0bbd
00000270: 9fe4 32bf 4b3d 16bd 2ad0 3dbc 75fe 89bd
00000280: 002a 94bd 5196 46bc 7233 26bc 5b2d debd
00000290: 0312 4bbc 9e9d d5bd 795a a4bd 96f9 b4bc
000002a0: 84f9 fbbc 17c8 73bd d2d9 70bd bc36 f2bd
000002b0: 2169 0cbb 4838 46bd 4a9a 53bd d996 17bb
000002c0: b637 90bd ec2e 1cbd 04f0 f1be 2e2f adbd
000002d0: 78c2 373c b8d3 45bc f860 b3bc 8c3d 86bd
000002e0: 43c3 a7bd 3260 b6bd ea16 a0bc aa9d d0bc
000002f0: c19a a9bd 10d7 023c 0d7f 67bd 224a 3dbd
00000300: 7845 aebd c4bf 05bd c144 c9bd 78a7 80bd
00000310: 34b4 ebbc 7072 64bd 5d75 66bc 32db adbd
00000320: c4ed e3bd 394f 41bd d8ca b3bd f167 53bd
00000330: 5a71 7fbd be06 82be 20fd 32bd b4e8 a3bd
00000340: 49b0 64bc 4493 cfbd dc21 e93c 887b 40bd
00000350: 84a6 34bd d7a8 d8bd a4e2 16bd 7816 00bd
00000360: 71f1 b8bd d199 e4bd 06b7 69bd ba38 7dbc
00000370: 00a9 ebbc e52a 69bd 4c9e 84bd 65f6 d5bd
00000380: 8541 b8bd 6049 f0bc ae4b a8bd 2714 8dbc
00000390: bf1a ddbd e21e ccbd 1723 95bd f665 e5bd
000003a0: 5617 11bd a498 4ebd b9c2 9bbd 726e 38bd
000003b0: 180b 75bd 7a90 93be 2846 9ebc 07e7 84bd
000003c0: 35ee eebb 812a e7bd f25e bcbd d9f8 21bd
000003d0: 443a 16bd 8ae3 9c3b d2be ccbd 97c2 10bb
000003e0: d4b0 82bd 3440 68bd 582a 23bc 353d 77bc
000003f0: 60ce b1be a65c 88bd 1f47 acbd bcf1 fe3a

fc1.bias f4 [128]
-0.53768647 -7.438245 -0.89866084 -0.011937323 -0.15333812 -4.2132435 3.663088 0.7435123
-4.1025376 3.3598192 -0.059990723 -0.32600483 -0.04235094 -0.20153512 -0.036613762 4.6105766
-0.08810007 0.8285231 -0.10299392 -0.27733728 -1.0853661 -0.7862409 -0.40653563 -0.093599886
-0.06808451 -0.15326613 -0.11948634 -0.019134836 -0.038645703 -0.039966483 3.6065829 3.4193535
-0.42893782 -0.50314075 -0.06586292 -0.034486003 -0.08768275 -0.0016240184 -0.36748692 -2.6046507
-0.0087890215 2.3910854 -0.060589164 -0.06679657 1.2547224 -0.13881926 -0.2924719 -6.0839734
-1.0296087 -0.86846256 0.39369828 -0.014748255 -0.014497208 -0.065702975 -0.52188116 -2.0591648
-1.8655026 0.5007157 -0.13244571 6.391094 -0.015773324 -0.31361496 -0.4643165 -0.12854423
-0.063892744 -0.24070553 -0.094687045 -7.245485 3.513515 1.3244084 -0.68413556 0.60514265
-0.13017106 1.7306898 -4.906103 -0.20289706 -0.035376497 -0.13379629 -0.036820725 0.26418748
-0.035461783 -0.36148378 -0.4083858 -0.6571537 -0.018150467 5.3816037 2.4120708 -0.0011522546
-0.68835914 -0.07736066 -1.0497214 1.7357844 -0.07747197 -0.050310075 2.6156845 -0.025586743
-0.02804576 -0.108551696 -0.10347632 -4.285476 1.6728028 -8.6415734e-05 -0.06782265 -0.06605986
-0.03604326 -0.07615428 1.474081 -0.21086708 2.0021803 -0.03921309 -0.0055456073 -0.0052493997
-0.4116027 -0.19411248 0.49937835 -0.5721068 -0.04503549 -0.3776563 5.8616467 -0.41732475
0.35764527 -0.021175489 1.902279 -1.0277358 -0.0529811 -0.069795795 -4.6854753 2.4357116
00000000: d2a5 09bf 1a06 eec0 a30e 66bf c394 43bc
00000010: ab04 1dbe e4d2 86c0 0970 6a40 d256 3e3f
00000020: fd47 83c0 4707 5740 d5b8 75bd 1bea a6be
00000030: 2e78 2dbd 395f 4ebe 50f8 15bd d889 9340
00000040: cf6d b4bd 171a 543f 7aee d2bd 27ff 8dbe
00000050: 47ed 8abf 1547 49bf 7025 d0be 4cb1 bfbd
00000060: e46f 8bbd ccf1 1cbe 41b5 f4bd a9c0 9cbc
00000070: f54a 1ebd e5b3 23bd 41d2 6640 b0d6 5a40
00000080: bd9d dbbe d5cd 00bf 23e3 86bd 3241 0dbd
00000090: 0393 b3bd 04dd d4ba 3f27 bcbe 99b2 26c0
000000a0: d4ff 0fbc 8b07 1940 582c 78bd a4cc 88bd
000000b0: be9a a03f a326 0ebe e0be 95be e9af c2c0
000000c0: 38ca 83bf 9053 5ebf d292 c93e aaa2 71bc
000000d0: b385 6dbc 488f 86bd 019a 05bf 5bc9 03c0
000000e0: cac8 eebf e72e 003f d99f 07be d883 cc40
000000f0: 0f37 81bc 2492 a0be e4ba edbe 19a1 03be
00000100: 33da 82bd 837b 76be 48eb c1bd 03db e7c0
00000110: 6edd 6040 3786 a93f 8223 2fbf a1ea 1a3f
00000120: 904b 05be 3e87 dd3f ccfe 9cc0 3fc4 4fbe
00000130: f2e6 10bd e501 09be 54d1 16bd 9543 873e
00000140: 6040 11bd 6714 b9be f217 d1be 3a3b 28bf
00000150: 4ab0 94bc 1936 ac40 5e5f 1a40 4007 97ba
00000160: 4e38 30bf 446f 9ebd 455d 86bf 2f2e de3f
00000170: a0a9 9ebd f011 4ebd 6067 2740 4a9b d1bc
00000180: 39c0 e5bc 5a50 debd 65eb d3bd 9f22 89c0
00000190: 671e d63f 183a b5b8 9ae6 8abd 644a 87bd
000001a0: 19a2 13bd c6f6 9bbd b0ae bc3f 8aed 57be
000001b0: b923 0040 e89d 20bd edb7 b5bb 2803 acbb
000001c0: 97bd d2be 6cc5 46be 85ae ff3e 9775 12bf
000001d0: 2277 38bd 2b5c c1be 9c92 bb40 97ab d5be
000001e0: 481d b73e 3878 adbc e17d f33f d98c 83bf
000001f0: b602 59bd 19f1 8ebd 6aef 95c0 b3e2 1b40

fc2.weight f4 [64, 128]
0.08110428 -0.7435913 -0.10785752 0.07554537 -0.012802683 -1.6018921 -0.3659031 0.010182794
-1.6799122 -1.0317297 -0.075093344 0.0823866 0.12740657 -0.090089664 -0.035296977 -0.26266575
-0.042568367 -0.0044614994 0.028015245 -0.045358613 -0.17962918 -0.18532354 0.1216545 -0.13346924
-0.0008765463 0.08743212 0.09528684 0.060620278 0.12104424 -0.086639546 -0.7414283 -0.07368702
-0.16626455 0.03256136 0.029241517 0.0056677754 -0.05049692 -0.0030284738 -0.102182224 -0.4939041
0.19666296 0.004558407 0.0010936549 0.1255413 -0.7447569 -0.11537246 -0.30218357 -0.80247355
0.4241621 0.21474935 -0.00206802 -0.094876185 -0.09698046 0.02157818 0.45960128 -0.13586807
-0.06599596 0.10523289 -0.014910732 -0.35530064 0.098870486 -0.0072235065 0.21355538 0.029342385
0.0011097591 -0.0036174823 0.0477124 -3.4546213 0.00448946 -0.05860062 -0.5738976 -0.1853712
-0.0019265345 0.048454016 -1.7619634 0.14407074 -0.000423061 -0.029938867 -0.054987025 0.066007994
-0.04634832 -0.13269603 0.09310091 -0.08935852 -0.022116782 0.003252125 -0.82128835 -0.059636705
-0.22268479 0.045612432 -0.56353295 -0.087576345 0.014288292 0.04779181 0.0646564 0.09365137
0.11842425 0.06826194 0.09568241 -0.3909198 -1.6489676 0.008494164 0.12865648 0.0024109671
-0.01913632 0.032284055 0.3231054 0.048922677 -0.38440987 -0.06424002 -0.047171663 0.03827894
-0.022945698 0.005728315 -0.11712436 -0.0064043663 0.086289965 -0.057303414 -0.0081990175 -0.08769029
-0.5542148 0.021321865 -0.013209022 -0.024243964 -0.008491946 -0.024628567 -0.63217854 -0.8707975
-0.28661275 0.061158374 0.1365501 -0.121664874 -0.20668241 -0.16093862 -0.23049407 0.10202235
0.13661942 0.13539205 0.022714747 0.29767388 -0.014562581 -0.020793108 0.035055265 -0.2951229
0.027717102 -0.41647756 0.07336683 0.08019537 -0.08323999 -0.15740272 0.00359131 0.003132769
0.02351667 -0.026228089 -0.035342462 0.08664898 -0.048649523 0.11955134 -0.20388415 -0.20601708
0.083923444 -0.032242224 -0.020156879 0.010123254 0.0971721 0.14900467 0.14815992 -0.17226352
-0.11812875 -0.5214904 0.13966377 -0.06845706 -0.33989927 0.07241713 -0.03722827 -0.0696636
-0.92455816 -0.103915334 -0.2773218 -0.045168098 -0.0070826253 0.11564755 -1.1163923 -0.646907
-0.3276107 -0.15674855 -0.018562267 -1.1757646 0.102905706 0.18901122 -0.085311726 -0.040254585
-0.038900264 -0.022046752 0.13646272 -0.8194222 -0.33566436 -0.17192811 -0.012980302 -0.032022394
-0.00016691594 -0.25911748 -0.014001044 0.08110232 0.039244868 0.11263947 0.15169688 -0.04247664
0.045440752 0.12851533 0.08913906 -0.08127256 0.0037482707 -0.072377846 -0.026372595 -0.9247372
-0.032910727 0.089610465 -0.30039907 -0.21452187 0.08594211 0.021796882 -0.110780135 -0.13784255
-0.025925692 0.014872446 -0.008420246 -0.05273856 -0.479334 0.13563594 0.124175504 -0.0047398247
0.12424998 0.04610207 -0.10964483 -0.15276574 -0.07339861 0.07479277 0.094207674 0.0104417335
-0.01398797 -0.037564598 0.12246633 -0.35795832 -0.025701202 -0.072323635 -0.5161692 -0.0137230735
-1.1279732 0.08468249 -0.4436774 -0.0424538 0.12843046 -0.010517415 0.046207152 -0.1518228
00000000: 001a a63d 005c 3ebf 67e4 dcbd 88b7 9a3d
00000010: 58c2 51bc cd0a cdbf a757 bbbe bcd5 263c
00000020: 5d07 d7bf b80f 84bf 8aca 99bd 4eba a83d
00000030: de76 023e ee80 b8bd 9093 10bd 207c 86be
00000040: 2b5c 2ebd c531 92bb 3a80 e53c f4c9 39bd
00000050: b6f0 37be 74c5 3dbe ff25 f93d 29ac 08be
00000060: 07c8 65ba 9d0f b33d bf25 c33d f84c 783d
00000070: 0be6 f73d 1370 b1bd 3fce 3dbf 38e9 96bd
00000080: 4141 2abe 105f 053d e88b ef3c bfb8 b93b
00000090: dcd5 4ebd 5c79 46bb ea44 d1bd 00e1 fcbe
000000a0: 0462 493e b05e 953b f858 8f3a e68d 003e
000000b0: 63a8 3ebf 6548 ecbd ceb7 9abe e86e 4dbf
000000c0: c62b d93e 41e7 5b3e 9e87 07bb 724e c2bd
000000d0: b19d c6bd b9c4 b03c dc50 eb3e 0021 0bbe
000000e0: e428 87bd 5784 d73d 254c 74bc f7e9 b5be
000000f0: 9c7c ca3d 2ab3 ecbb 43ae 5a3e 715f f03c
00000100: 5675 913a 4813 6dbb 146e 433d 8418 5dc0
00000110: 521c 933b 3407 70bd f4ea 12bf f3d1 3dbe
00000120: c583 fcba b877 463d 0488 e1bf 4887 133e
00000130: 49ce ddb9 5b42 f5bc 133a 61bd 332f 873d
00000140: bcd7 3dbd 78e1 07be b1ab be3d 9a01 b7bd
00000150: 412e b5bc 9b21 553b f43f 52bf 9e45 74bd
00000160: 7b07 64be 1ad4 3a3d b243 10bf 3a5b b3bd
00000170: 7119 6a3c 58c1 433d 936a 843d 4acc bf3d
00000180: 6a88 f23d eacc 8b3d 24f5 c33d a426 c8be
00000190: 5f11 d3bf 1b2b 0b3c 86be 033e 5101 1e3b
000001a0: c6c3 9cbc 493c 043d 126e a53e 2563 483d
000001b0: 5fd1 c4be 4690 83bd 1337 41bd 61ca 1c3d
000001c0: 9ef8 bbbc 97b4 bb3b e5de efbd b8db d1bb
000001d0: cbb8 b03d fcb6 6abd 2c55 06bc f796 b3bd
000001e0: 05e1 0dbf 31ab ae3c a76a 58bc 479b c6bc
000001f0: ce21 0bbc d9c1 c9bc 74d6 21bf 96ec 5ebf
00000200: e8be 92be 3481 7a3d cad3 0b3e 6f2b f9bd
00000210: 8ea4 53be 18cd 24be a306 6cbe 18f1 d03d
00000220: f6e5 0b3e 37a4 0a3e 4714 ba3c b668 983e
00000230: e497 6ebc 4f56 aabc 1c96 0f3d 591a 97be
00000240: fa0e e33c 8c3c d5be 5941 963d 783d a43d
00000250: ba79 aabd 2e2e 21be 2f5c 6b3b 244f 4d3b
00000260: 08a6 c03c 4adc d6bc 42c3 10bd 0575 b13d
00000270: b944 47bd 55d7 f43d 02c7 50be 24f6 52be
00000280: 0ee0 ab3d 6c10 04bd 0a20 a5bc 01dc 253c
00000290: 2a02 c73d ae94 183e 3cb7 173e d965 30be
000002a0: 7ced f1bd 6580 05bf 0504 0f3e 3733 8cbd
000002b0: 4707 aebe 6f4f 943d ac7c 18bd caab 8ebd
000002c0: d8af 6cbf 90d1 d4bd 1ffd 8dbe 2f02 39bd
000002d0: 5e15 e8bb 9fd8 ec3d f1e5 8ebf b29b 25bf
000002e0: 97bc a7be b182 20be e50f 98bc 747f 96bf
000002f0: 3ac0 d23d 288c 413e eab7 aebd fee1 24bd
00000300: e255 1fbd 649b b4bc e2bc 0b3e a7c5 51bf
00000310: 33dc abbe ec0d 30be 55ab 54bc ea29 03bd
00000320: 2806 2fb9 0cab 84be a364 65bc f918 a63d
00000330: 3abf 203d 86af e63d 6d56 1b3e fcfb 2dbd
00000340: 1520 3a3d 8699 033e 8a8e b63d 3a72 a6bd
00000350: 8ca5 753b d63a 94bd 570b d8bc 94bb 6cbf
00000360: 66cd 06bd b185 b73d e8cd 99be 9fab 5bbe
00000370: 6b02 b03d 608f b23c b2e0 e2bd 9926 0dbe
00000380: 1e62 d4bc 8fab 733c 12f5 09bc 6304 58bd
00000390: 446b f5be 26e4 0a3e ba4f fe3d 8850 9bbb
000003a0: c676 fe3d 86d5 3c3d 788d e0bd 9f6e 1cbe
000003b0: 0352 96bd f42c 993d f4ef c03d ce13 2b3c
000003c0: cc2d 65bc 56dd 19bd a1cf fa3d 5046 b7be
000003d0: 548b d2bc 6a1e 94bd aa23 04bf bed6 60bc
000003e0: 6d61 90bf 036e ad3d af29 e3be 09e4 2dbd
000003f0: 4683 033e 3c51 2cbc b643 3d3d 7077 1bbe

fc2.bias f4 [64]
0.30118182 -0.01597545 1.3120389 -0.37156844 -0.21041016 -1.1102773 -0.25888047 -0.19085734
-0.69113666 -0.92079794 -0.15886225 -0.5040732 -0.8213793 -0.96292067 -0.11989329 -0.53252685
-0.42142028 -0.08517909 -0.4555378 -0.6815291 2.7994106 -0.06877751 0.29441786 -0.29949272
-0.33134854 -0.7800107 0.67577213 -0.2822856 1.6642301 -0.4766082 -0.047617793 -0.0073537617
-0.57380885 -0.4193472 2.226623 -0.25134394 -0.112670176 -0.415873 -0.29671952 -0.42005113
-0.2728962 -0.15770319 -3.0051877 -0.65912485 -0.5807465 -0.33066756 -0.35903567 -0.021721939
-0.16308695 -0.42016074 -0.4195683 -0.45464686 -1.1737388 -0.78586936 -0.2527206 -0.43937463
-0.8381858 -0.526774 -0.55100524 -0.25368696 0.37770027 -0.4345596 2.0279937 0.6448399
00000000: 8134 9a3e f2de 82bc e4f0 a73f 383e bebe
00000010: c375 57be 911d 8ebf fb8b 84be 1b70 43be
00000020: 55ee 30bf 6ab9 6bbf c9ac 22be f10a 01bf
00000030: ea45 52bf f881 76bf 9d8a f5bd ae53 08bf
00000040: 66c4 d7be 6072 aebd 403c e9be b178 2ebf
00000050: 8b29 3340 39db 8cbd f0bd 963e 1c57 99be
00000060: 84a6 a9be c8ae 47bf 67ff 2c3f bd87 90be
00000070: 7e05 d53f fd05 f4be e00a 43bd d3f7 f0bb
00000080: 23e5 12bf adb4 d6be fe80 0e40 27b0 80be
00000090: 9fbf e6bd 4eed d4be 9feb 97be f110 d7be
000000a0: 0db9 8bbe f27c 21be ff54 40c0 68bc 28bf
000000b0: cdab 14bf 424d a9be 86d3 b7be 35f2 b1bc
000000c0: 4400 27be 4f1f d7be a8d1 d6be 79c7 e8be
000000d0: 133d 96bf bc2e 49bf 9864 81be b6f5 e0be
000000e0: 5893 56bf a9da 06bf ae0e 0dbf 42e3 81be
000000f0: ee61 c13e 997e debe a6ca 0140 3a14 253f

out.weight f4 [10, 64]
-0.02183732 -0.0825894 0.036339927 -0.28354785 0.009557198 0.052879054 0.06943384 0.16555071
-0.11936619 -0.026337974 -0.077867515 -0.2576428 0.034665138 -0.057465687 0.0057861083 -0.0806544
-0.0457725 -0.12719785 0.088253655 0.22862197 -0.025810964 0.060466576 -0.017806657 -0.1590503
-0.1321675 0.07311871 -0.0139177805 0.09360576 -0.019095745 0.03794585 -0.03571127 0.050214842
-0.16017416 -0.0015840833 -0.022303723 -0.49295178 0.04028781 0.16156788 0.0625703 0.021353764
-0.0103585785 -0.015199113 0.018283581 0.05442048 0.09742247 0.16003607 0.12540758 -0.08327085
-0.1073832 0.16665173 -0.29616317 -0.46109217 -0.385273 -0.074654795 -0.037305966 0.12168692
-0.05351712 -0.09589517 -0.102519356 -0.017599445 0.12126705 -0.21291019 -0.0003818113 -0.01569665
0.18750666 0.019054715 0.03577227 -0.30375353 0.2814809 -0.051222123 0.07650326 -0.0080452785
0.051781066 0.14643626 0.050344225 0.02629533 -0.037786655 0.23820762 -0.15658747 0.15465645
-0.3010667 0.030432252 0.020546904 0.048148774 -0.026777372 -0.011351644 -0.010601308 -0.0724484
-0.11900458 0.33764797 -0.008820613 -0.07440278 -0.013128834 -0.101231106 -0.045961432 -0.016232612
-0.11054242 -0.22870642 -0.014840089 0.13909143 0.0057318406 0.22169168 0.2444795 -0.12852408
-0.03288067 -0.008903117 0.014209673 -0.28524783 -0.10608354 0.16957785 0.05348528 -0.016243603
-0.0590397 -0.1600837 -0.16537562 -0.17916362 -0.07856433 -0.104079105 0.018104738 -0.13136138
-0.19168396 -0.14750296 -0.12698533 0.02885918 -0.006846989 -0.15652144 -0.0050240364 -0.009589162
-0.027315378 0.07208626 0.053902887 -0.23258199 -0.24978858 0.040922858 -0.04035209 -0.15745103
-0.18175985 0.031997897 -0.21301498 -0.07459706 0.026148152 -0.18998191 0.054484054 -0.05542018
-0.19076675 -0.08188204 0.014428186 0.22653115 -0.03524305 0.06416437 0.12393635 0.047179144
0.21373042 0.48628512 -0.018529797 0.024278067 -0.02295912 0.045544483 0.021946263 0.10082776
-0.072761886 0.072187625 -0.028881416 -0.28702036 -0.11433775 -0.3048154 -0.047111265 0.027703775
-0.015997602 -0.01740982 0.026037803 -0.30439365 -0.24173169 0.514575 0.040023394 -0.12842652
-0.019973041 -0.3108208 0.040736057 -0.17346053 -0.3495353 -0.036766052 0.09745147 -0.0056120856
-0.08890384 0.024817336 0.0077315983 0.066125 -0.018174931 -0.20914279 -0.002148021 -0.020375656
-0.027179904 0.05180554 -0.12503517 0.2691173 -0.12781529 -0.027284307 -0.009097812 0.06595128
0.3017877 0.093819015 -0.20251963 0.02601847 -0.03292236 0.2495061 0.076295495 0.19940346
0.25126484 0.052492473 0.08005475 0.16357051 -0.031932063 -0.079441816 -0.019091036 0.112847425
0.107136235 0.09470278 -0.01785993 -0.01718147 0.15419307 -0.01508232 -0.042775232 0.04937867
0.10574435 -0.1372338 -0.027919462 0.12335179 -0.13098508 -0.04127468 0.16442855 -0.019454164
0.22495624 -0.017469034 0.026342917 -0.24291694 0.18640773 -0.046908747 0.064567596 0.009013598
-0.054036755 0.36970678 0.22707099 -0.014389342 -0.2739569 0.123622045 0.003803814 0.014528181
-0.17084028 -0.044181097 0.060672753 -0.025204102 -0.017079167 -0.2340095 0.0025514495 -0.020717937
00000000: 2ee4 b2bc a224 a9bd 2dd9 143d 2f2d 91be
00000010: cb95 1c3c b597 583d 5433 8e3d 2086 293e
00000020: 4376 f4bd bcc2 d7bc 0179 9fbd c2e9 83be
00000030: 08fd 0d3d 2461 6bbd 6599 bd3b 222e a5bd
00000040: f27b 3bbd 2740 02be 55be b43d e11b 6a3e
00000050: 8471 d3bc cdab 773d 44df 91bc 15de 22be
00000060: eb56 07be 43bf 953d 6707 64bc 60b4 bf3d
00000070: ae6e 9cbc 1c6d 1b3d fb45 12bd 14ae 4d3d
00000080: b204 24be 04a1 cfba 4cb6 b6bc 2d64 fcbe
00000090: d504 253d 0d72 253e dc24 803d 17ee ae3c
000000a0: 07b7 29bc b305 79bc 73c7 953c 02e8 5e3d
000000b0: 6f85 c73d 7fe0 233e d86a 003e e889 aabd
000000c0: b9eb dbbd c0a6 2a3e b3a2 97be 4614 ecbe
000000d0: 8142 c5be 9de4 98bd 24ce 18bd fe36 f93d
000000e0: c534 5bbd b064 c4bd abf5 d1bd b62c 90bc
000000f0: dc5a f83d 2105 5abe d82d c8b9 4396 80bc
00000100: bf01 403e a218 9c3c f285 123d 9585 9bbe
00000110: 441e 903e 4ace 51bd bead 9c3d 58d0 03bc
00000120: 6218 543d 63f3 153e bf35 4e3d 4e69 d73c
00000130: 2ec6 1abd b3ec 733e 7758 20be 435e 1e3e
00000140: 6a25 9abe 0f4d f93c fb51 a83c a637 453d
00000150: 385c dbbc 3ffc 39bc 1cb1 2dbc d45f 94bd
00000160: acb8 f3bd 32e0 ac3e 5584 10bc 7c60 98bd
00000170: 521a 57bc 4152 cfbd 0e42 3cbd 41fa 84bc
00000180: 1064 e2bd 0432 6abe d823 73bc fc6d 0e3e
00000190: 2ad2 bb3b 2503 633e d658 7a3e d19b 03be
000001a0: e2ad 06bd 61de 11bc b0cf 683c 010c 92be
000001b0: 5442 d9bd d1a5 2d3e 6213 5b3d 4e11 85bc
000001c0: 9dd3 71bd fbec 23be 3a58 29be ab76 37be
000001d0: 56e6 a0bd 6d27 d5bd 6350 943c 9983 06be
000001e0: cd48 44be 040b 17be 7108 02be 166a ec3c
000001f0: b55c e0bb 2847 20be aca0 a4bb dc1b 1dbc
00000200: 80c4 dfbc f6a1 933d 46c9 5c3d f929 6ebe
00000210: 94c8 7fbe ba9e 273d 3c48 25bd d83a 21be
00000220: 411f 3abe 3a10 033d 9920 5abe 58c6 98bd
00000230: a634 d63c 9e8a 42be ac2a 5f3d 4500 63bd
00000240: 5c58 43be c5b1 a7bd 3364 6c3c c8f7 673e
00000250: 045b 10bd 9c68 833d 57d2 fd3d eb3e 413d
00000260: 26dc 5a3e 5dfa f83e cdcb 97bc cce2 c63c
00000270: c414 bcbc da8c 3a3d a6c8 b33c c97e ce3d
00000280: 2f04 95bd 1bd7 933d b898 ecbc 55f4 92be
00000290: e929 eabd c410 9cbe bef7 40bd 07f3 e23c
000002a0: 670d 83bc 0a9f 8ebc 3b4d d53c 7cd9 9bbe
000002b0: 8388 77be 30bb 033f 92ef 233d 3e82 03be
000002c0: 819e a3bc e723 9fbe dada 263d a39f 31be
000002d0: 4af6 b2be 0098 16bd a394 c73d 96e5 b7bb
000002e0: 3713 b6bd ba4d cb3c 5959 fd3b 8b6c 873d
000002f0: 98e3 94bc 8729 56be d0c5 0cbb d9ea a6bc
00000300: 64a8 debc 0c32 543d 3809 00be bec9 893e
00000310: 03e2 02be 5783 dfbc fd0e 15bc 7711 873d
00000320: eb83 9a3e 2f24 c03d 4e61 4fbe b024 d53c
00000330: 99d9 06bd 877e 7f3e d040 9c3d 6c30 4c3e
00000340: c9a5 803e 5902 573d bff3 a33d 077f 273e
00000350: 32cb 02bd 64b2 a2bd ce64 9cbc 8d1c e73d
00000360: 3e6a db3d 88f3 c13d fd4e 92bc 27c0 8cbc
00000370: cae4 1d3e d61b 77bc 1535 2fbd 4a41 4a3d
00000380: 7e90 d83d 0487 0cbe 5bb7 e4bc dd9f fc3d
00000390: f420 06be a40f 29bd f55f 283e 575e 9fbc
000003a0: ee5a 663e 381b 8fbc 1acd d73c 38bf 78be
000003b0: abe1 3e3e 6323 40bd 043c 843d c5ad 133c
000003c0: a555 5dbd 354a bd3e 4c85 683e 46c1 6bbc
000003d0: 1444 8cbe 8e2d fd3d 6949 793b 9c07 6e3c
000003e0: c1f0 2ebe 3df7 34bd fe83 783d d578 cebc
000003f0: 9ce9 8bbc 30a0 6fbe 3836 273b aab8 a9bc

out.bias f4 [10]
0.1090666 0.06778941 0.13827978 0.13507482 0.115597524 0.07160008 0.08780028 0.01864662
0.14045049 0.05972824
00000000: 4f5e df3d 2dd5 8a3d 3799 0d3e 0e51 0a3e
00000010: 65be ec3d 10a3 923d a2d0 b33d ccc0 983c
00000020: 41d2 0f3e 99a5 743d
