exps/regularModelExperiments/pretrainedmodels/cleanAccModel0.pt (torch, 973781 bytes, 8 tensors)

fc.weight f4 [256, 784]
0.0007227771 0.024196401 -0.026960574 0.029047046 0.008683655 0.02623098 -0.029716527 0.006901622
-0.020530855 -0.011341488 0.03569198 0.0053423867 0.016286068 0.032393534 0.004085403 0.012154959
0.013417024 -0.0063299034 0.017598275 -0.011205312 0.026431017 -0.02885973 -0.0077145062 -0.0067274664
0.0346301 0.0076556057 -0.0037783645 0.022430394 -0.020081963 -0.00900797 -0.013994144 0.028190102
-0.017982041 -0.012471056 -0.0026121773 0.032812405 0.005011916 0.017098248 0.035115045 -0.025624152
0.0038946643 -0.07320727 -0.028256549 -0.0900448 -0.03037604 0.017869327 -0.03173469 -0.0077985357
0.003991049 0.018757313 0.03007507 -0.021339323 0.010822292 0.016227908 0.013931952 -0.035673607
-0.027448706 0.019478198 -0.023815826 0.026525617 -0.028016722 0.009337213 0.031599235 0.006680794
-0.029351631 -0.04907598 -0.026211347 -0.06898861 -0.022549987 -0.009652099 -0.05760884 -0.07870893
-0.039742086 -0.037902433 -0.023231588 0.006183441 -0.06772841 -0.08605468 -0.046955474 0.006405968
-0.028870039 0.0075725093 -0.03499864 -0.014689455 0.012684461 -0.014851676 -0.04676037 -0.036772776
-0.029155567 0.034706872 0.034697924 0.07523364 -0.04532829 -0.020619553 -0.08975157 -0.06833569
-0.061757613 -0.042285714 -0.047093082 -0.0650124 -0.0545785 -0.04802838 -0.062059794 -0.0362648
-0.037734505 -0.061766084 -0.046606753 -0.053533394 0.030279528 -0.0068598352 0.01702508 -0.01051355
0.028247658 0.0068317093 -0.05730256 -0.06871917 0.03032447 -0.0086807925 0.021877361 -0.03733691
-0.013214213 -0.036935583 -0.018890508 -0.03469718 -0.010840812 -0.049482986 -0.041778676 -0.047101803
-0.04293253 -0.025019241 -0.061785255 -0.06883328 -0.06863584 -0.021763079 -0.0674765 -0.05682989
-0.0038655691 -0.026775496 -0.012944575 0.011109475 0.034492616 0.0040545873 -0.075637475 -0.025249748
-0.061416056 -0.009133326 -0.019819995 -0.025632426 -0.030388273 -0.07338121 -0.023306845 -0.023227314
-0.037369817 -0.01630718 -0.026360497 -0.017015604 -0.051785924 -0.053360026 -0.056986317 -0.030742025
-0.010208077 -0.015576174 -0.07490012 -0.01020654 -0.06951635 -0.057057578 -0.03118451 -0.079062186
-0.03160578 0.0052754655 0.006146416 0.025572661 -0.044581156 -0.06703372 -0.019819902 -0.049084216
-0.072790705 -0.05103802 -0.016591009 -0.058493305 -0.06700158 -0.06707412 -0.07767398 -0.025831753
-0.022119684 -0.072331294 -0.05189877 -0.046116486 -0.07910048 -0.019450892 -0.027199857 -0.07289936
-0.09205799 -0.07214382 -0.07361348 0.025363088 0.034680095 0.011786878 -0.03248821 -0.014969893
-0.022295034 -0.03582962 -0.022063956 -0.043201093 -0.047065776 -0.029038943 -0.06235491 -0.028001158
-0.07036086 -0.053656116 -0.064209074 -0.07908801 -0.062211856 -0.07727936 -0.017017977 -0.033824403
-0.0704582 -0.020009851 -0.064049274 -0.03515889 -0.05217325 -0.06524805 -0.09606368 -0.0011649057
-0.006265411 0.014463186 0.05082266 -0.071142904 -0.045279868 -0.025032768 -0.036332615 -0.029703228
-0.027658954 -0.055067953 -0.054801494 -0.03065144 -0.06680904 -0.07723434 -0.06014969 -0.042939287
-0.0072631026 -0.03317223 -0.042624064 -0.052824546 -0.03176232 -0.010538492 -0.028925402 -0.05073071
-0.049523365 -0.033232357 -0.04009281 -0.0079802405 -0.02769157 -0.021399967 0.048991438 -0.0414965
00000000: c078 3d3a 8837 c63c 6cdc dcbc 12f4 ed3c
00000010: e445 0e3c 5ae2 d63c 1370 f3bc 0027 e23b
00000020: 5330 a8bc a6d1 39bc c131 123d 300f af3b
00000030: 5c6a 853c 15af 043d d8de 853b 9825 473c
00000040: 14d3 5b3c 146b cfbb 422a 903c 7c96 37bc
00000050: dc85 d83c 3e6b ecbc f8c9 fcbb 1472 dcbb
00000060: 4bd8 0d3d e0db fa3b 709e 77bb f2bf b73c
00000070: ee82 a4bc 2a96 13bc b247 65bc eeee e63c
00000080: 134f 93bc 6653 4cbc 1031 2bbb 4d66 063d
00000090: 003b a43b a011 8c3c cbd4 0f3d bee9 d1bc
000000a0: a03d 7f3b b1ed 95bd 477a e7bc 6869 b8bd
000000b0: 2cd7 f8bc b262 923c 3cfc 01bd dc8a ffbb
000000c0: 58c7 823b f0a8 993c fe5f f63c cecf aebc
000000d0: fc4f 313c 64f0 843c d842 643c 7d1e 12bd
000000e0: 1cdc e0bc be90 9f3c 6819 c3bc 404c d93c
000000f0: 5383 e5bc 1cfb 183c 336e 013d 90ea da3b
00000100: d572 f0bc e503 49bd 2eb9 d6bc e649 8dbd
00000110: c0ba b8bc d623 1ebc 3ff7 6bbd 2632 a1bd
00000120: 99c8 22bd 953f 1bbd 2c50 bebc 769e ca3b
00000130: 31b5 8abd 703d b0bd 6254 40bd 28e9 d13b
00000140: dc80 ecbc d022 f83b bc5a 0fbd 0aac 70bc
00000150: 7cd2 4f3c 7254 73bc cd87 3fbd 0d9f 16bd
00000160: a8d7 eebc cb28 0e3d 691f 0e3d 1814 9a3d
00000170: 28aa 39bd 56ea a8bc accf b7bd 95f3 8bbd
00000180: 8df5 7cbd c933 2dbd ade4 40bd 3925 85bd
00000190: b58d 5fbd 68b9 44bd 6932 7ebd 668a 14bd
000001a0: 7f8f 1abd 6ffe 7cbd b9e6 3ebd d545 5bbd
000001b0: c60c f83c 78c8 e0bb 2e78 8b3c 0641 2cbc
000001c0: a267 e73c 88dc df3b 17b6 6abd a3bc 8cbd
000001d0: 066b f83c e239 0ebc 2738 b33c 96ee 18bd
000001e0: 6d80 58bc c449 17bd 44c0 9abc a11e 0ebd
000001f0: a99d 31bc acae 4abd 1e20 2bbd d2ed 40bd
00000200: 05da 2fbd 27f5 ccbc 8912 7dbd 76f8 8cbd
00000210: f390 8cbd 7c48 b2bc 1f31 8abd 75c6 68bd
00000220: 7d55 7dbb 4958 dbbc 7c15 54bc 8404 363c
00000230: 2148 0d3d 58dc 843b d2e7 9abd 8fd8 cebc
00000240: 678f 7bbd f2a3 15bc 8b5d a2bc 18fb d1bc
00000250: d4f0 f8bc e348 96bd ffed bebc 3547 bebc
00000260: 1811 19bd a396 85bc f8f1 d7bc 4f64 8bbc
00000270: 7a1d 54bd 0b90 5abd 7c6a 69bd b3d6 fbbc
00000280: c73f 27bc 3533 7fbc 3c65 99bd 5539 27bc
00000290: 975e 8ebd 35b5 69bd a876 ffbc 5beb a1bd
000002a0: 1075 01bd d0dd ac3b e067 c93b c27d d13c
000002b0: bb9a 36bd fa48 89bd 595d a2bc 880c 49bd
000002c0: 4b13 95bd 3e0d 51bd dee9 87bc ad96 6fbd
000002d0: 2038 89bd 285e 89bd 8913 9fbd 1d9d d3bc
000002e0: 5734 b5bc 6e22 94bd ce93 54bd a4e4 3cbd
000002f0: 6fff a1bd 7a57 9fbc 3cd2 debc 424c 95bd
00000300: e688 bcbd 24c0 93bd aac2 96bd 40c6 cf3c
00000310: b70c 0e3d c01d 413c 5b12 05bd 4844 75bc
00000320: 13a4 b6bc 14c2 12bd 78bf b4bc a1f3 30bd
00000330: 0bc8 40bd 14e3 edbc dd67 7fbd af62 e5bc
00000340: 5b19 90bd 84c6 5bbd 0c80 83bd e5f8 a1bd
00000350: dcd1 7ebd a444 9ebd 4969 8bbc 758b 0abd
00000360: 644c 90bd b3eb a3bc 442c 83bd c502 10bd
00000370: 9eb3 55bd c5a0 85bd 09bd c4bd c0af 98ba
00000380: 144e cdbb 00f7 6c3c 6c2b 503d 5fb3 91bd
00000390: 6277 39bd 8511 cdbc 82d1 14bd 2f54 f3bc
000003a0: 0895 e2bc ef8e 61bd 8877 60bd bb18 fbbc
000003b0: 2ed3 88bd 0a2d 9ebd 855f 76bd 1be1 2fbd
000003c0: 52ff edbb 9bdf 07bd 9296 2ebd 8d5e 58bd
000003d0: 3519 02bd a4a9 2cbc f7f4 ecbc 01cb 4fbd
000003e0: 03d9 4abd a71e 08bd 5c38 24bd 8ebf 02bc
000003f0: 6ed9 e2bc fc4e afbc 3fab 483d 3cf8 29bd

fc.bias f4 [256]
-0.056928236 -0.022177592 -0.057599124 -2.580057 -0.08276684 -0.045463502 -0.006093068 -0.03849926
-0.05731735 -0.09017965 -0.044448808 -0.07451618 0.1356786 -0.07210494 0.70349514 -0.57226515
-2.6986523 -0.030131228 -0.07338175 -0.043714523 -0.028614016 -0.07596282 -0.06390499 -0.02494839
-0.0001525083 -0.07782298 -0.0760166 -0.065374784 -0.004821129 -0.043608125 -0.055521272 -0.0667196
-0.005641073 -0.013106327 -0.052206144 -0.07275524 -0.05027287 0.68714595 -0.07364308 -0.04540899
-0.07266663 -0.05290576 -1.2930564 -0.07184244 -0.071293905 -0.036072925 -0.056834828 -1.5739714
-0.095089786 -0.032712962 -0.056241762 -0.025031881 -0.08842062 -0.0060250703 -0.062683016 -0.047008075
-0.05109445 -0.09181599 -0.030397898 -0.045691624 -0.059717584 -0.051940802 -0.04075622 -0.028426249
-0.055510756 -0.009166911 -0.031066593 -0.051067032 -0.08758682 -0.069945574 0.018526373 -0.051500596
-0.076459795 -0.031793404 -0.03063998 -0.038497593 -0.078478366 -0.5697932 -0.043872345 -0.07288321
0.8410816 -0.0482962 0.033142418 -0.083896 -0.099581 -0.06266513 -0.08745595 -0.07966073
-0.07584929 -0.021184014 -0.090387955 -0.07040631 -0.05151355 -0.063829154 -0.050576966 -0.033101294
-0.056748554 -0.07080896 -0.010680673 -0.103292175 -0.044644993 -0.05733831 -0.044706818 -0.02637333
-0.0447777 -0.046828505 -0.02668039 -0.041392908 -0.038996797 -0.030915394 -0.0211326 0.9663502
-1.5072876 1.4552671 -0.06399927 -0.04029636 -0.04442335 -0.020379286 -0.029015789 -0.04566707
-0.035238948 -0.01678993 -0.01341412 -0.052157465 -0.050848287 -0.07868364 -0.07603242 -0.023847783
-0.036489274 -0.0676371 0.79168564 -0.014089336 -0.02330354 -0.030405287 -0.09295957 -1.8527272
-0.055197835 1.6262965 -0.049761895 -0.05994318 -0.039298274 -1.9258568 -0.05266254 -0.10298011
-0.060267087 -0.05243837 -0.08674998 -0.063868776 -0.034790076 -0.03434973 -0.09471271 -0.05649609
-0.06393961 -0.049610704 -0.076121196 -0.092271514 -0.07685812 -0.038191713 -0.045203518 -0.052513365
-0.094523296 -0.062922254 -0.0069897743 -0.052986424 -0.08930899 -0.041486617 -0.075493805 -0.03721908
-0.043908272 -0.027229676 -0.027896505 -0.07951731 -2.1342468 -0.07533435 -0.088759825 -0.061198074
-0.065243006 -0.016191734 -0.033651978 -0.046450567 -0.019488145 -2.4437144 -0.011158944 -0.024179982
-0.08214335 -0.08798352 -0.0500247 -0.09321731 -0.046615344 -0.005128525 -0.066100836 -0.0393443
-0.06343159 -2.4247527 -0.005966221 -1.7727237 -0.08224354 -0.033536766 -0.09592564 -0.036843266
-0.011320118 -0.051673774 -0.05043059 -0.041104034 -0.069183126 -0.072678454 -0.010737116 -3.4959874
-0.014720461 -0.08077747 -0.029159531 -0.07773414 -0.07285036 -0.003653048 -0.08366387 -0.06819789
-0.057238653 0.45842373 -0.039403714 -0.061337646 -0.035839934 0.8722792 -0.02250045 -0.06913501
-0.11147721 -0.8650081 -0.07307994 -0.09140569 -0.047933 -0.06840834 -0.05392544 -0.052542906
-0.031660054 -0.051088933 -0.05697753 -0.031202575 -0.07703699 2.2060878 -0.030144364 -0.042253047
-0.0020230303 -0.07894543 -0.054925825 -0.03495835 -0.07845452 2.3417444 -0.053132236 -0.059470195
-0.078571185 -1.8372627 -0.005779634 -0.03523605 -0.06603157 -0.05899302 -0.023453103 -0.06352141
00000000: 952d 69bd c8ad b5bc 0fed 6bbd a71f 25c0
00000010: a981 a9bd f037 3abd 5ca8 c7bb 66b1 1dbd
00000020: 99c5 6abd 1cb0 b8bd f40f 36bd f09b 98bd
00000030: 55ef 0a3e c1ab 93bd 4218 343f f87f 12bf
00000040: b8b6 2cc0 c4d5 f6bc 2c49 96bd 000e 33bd
00000050: f167 eabc 6592 9bbd 9fe0 82bd 9160 ccbc
00000060: a3ea 1fb9 a861 9fbd 97ae 9bbd 37e3 85bd
00000070: 90fa 9dbb 6f9e 32bd 466a 63bd 49a4 88bd
00000080: c0d8 b8bb ebbb 56bc 1cd6 55bd b300 95bd
00000090: edea 4dbd cce8 2f3f 2fd2 96bd c7fe 39bd
000000a0: 3ed2 94bd b6b3 58bd df82 a5bf 2122 93bd
000000b0: 8a02 92bd 34c1 13bd a3cb 68bd e577 c9bf
000000c0: 6fbe c2bd 07fe 05bd c35d 66bd a90f cdbc
000000d0: df15 b5bd f46d c5bb f45f 80bd 8a8b 40bd
000000e0: 6a48 51bd 060a bcbd 0305 f9bc 2427 3bbd
000000f0: 6d9a 74bd e1bf 54bd ffef 26bd 2ade e8bc
00000100: 3f5f 63bd d030 16bc 5e7f febc aa2b 51bd
00000110: b860 b3bd a03f 8fbd 9fc4 973c 4af2 52bd
00000120: f496 9cbd cd39 02bd b200 fbbc a7af 1dbd
00000130: 44b9 a0bd f8dd 11bf 7db3 33bd cb43 95bd
00000140: 2051 573f 3cd2 45bd 58c0 073d abd1 abbd
00000150: 20f1 cbbd 9356 80bd 1b1c b3bd 2a25 a3bd
00000160: df56 9bbd 198a adbc 521d b9bd 2f31 90bd
00000170: dfff 52bd dcb8 82bd cb29 4fbd 3995 07bd
00000180: 2c71 68bd 4a04 91bd fdfd 2ebc d98a d3bd
00000190: abdd 36bd 93db 6abd 7f1e 37bd e20c d8bc
000001a0: d268 37bd 3fcf 3fbd d590 dabc 9c8b 29bd
000001b0: 1bbb 1fbd 4842 fdbc 461e adbc ba62 773f
000001c0: cdee c0bf 3146 ba3f 0d12 83bd cc0d 25bd
000001d0: 42f5 35bd 76f2 a6bc 85b2 edbc 650d 3bbd
000001e0: b756 10bd 098b 89bc e6c6 5bbc 11a3 55bd
000001f0: 4b46 50bd e324 a1bd e3b6 9bbd 6d5c c3bc
00000200: c775 15bd 5285 8abd e9ab 4a3f f5d6 66bc
00000210: 11e7 bebc 8214 f9bc 9661 bebd 2a26 edbf
00000220: 2017 62bd 7c2a d03f 21d3 4bbd fb86 75bd
00000230: 3af7 20bd 7a82 f6bf adb4 57bd 3ce7 d2bd
00000240: 9fda 76bd 9ec9 56bd f9a9 b1bd a2cd 82bd
00000250: 0a80 0ebd 4db2 0cbd bdf8 c1bd 7268 67bd
00000260: c5f2 82bd 9834 4bbd 6ee5 9bbd d9f8 bcbd
00000270: ca67 9dbd ea6e 1cbd 5327 39bd 4118 57bd
00000280: 6e95 c1bd 62dd 80bd 7a0a e5bb 4b08 59bd
00000290: a2e7 b6bd dfed 29bd 7f9c 9abd 0973 18bd
000002a0: 29d9 33bd c510 dfbc 3687 e4bc f9d9 a2bd
000002b0: 8097 08c0 e548 9abd b6c7 b5bd d5aa 7abd
000002c0: 209e 85bd 87a4 84bc a8d6 09bd f342 3ebd
000002d0: 9aa5 9fbc d165 1cc0 01d4 36bc 1915 c6bc
000002e0: c63a a8bd b430 b4bd b3e6 4cbd b8e8 bebd
000002f0: bbef 3ebd 300d a8bb e05f 87bd 7d27 21bd
00000300: 6ce8 81bd 262f 1bc0 4a80 c3bb 9ce8 e2bf
00000310: 4d6f a8bd d95d 09bd a974 c4bd f7e8 16bd
00000320: 0478 39bc e1a7 53bd 4e90 4ebd b45c 28bd
00000330: e2af 8dbd 71d8 94bd bbea 2fbc 42be 5fc0
00000340: 172e 71bc a86e a5bd f8df eebc 1433 9fbd
00000350: 9232 95bd fa67 6fbb f757 abbd 56ab 8bbd
00000360: 1473 6abd 84b6 ea3e ca65 21bd 2f3d 7bbd
00000370: e5cc 12bd b14d 5f3f dd52 b8bc a896 8dbd
00000380: 2a4e e4bd 2c71 5dbf f0aa 95bd e832 bbbd
00000390: 6555 44bd ac19 8cbd ece0 5cbd 3b37 57bd
000003a0: f9ad 01bd a142 51bd 4561 69bd 8b9c ffbc
000003b0: 92c5 9dbd 8b30 0d40 50f1 f6bc 8811 2dbd
000003c0: d194 04bb 24ae a1bd e7f9 60bd 7d30 0fbd
000003d0: c3ac a0bd 24df 1540 30a1 59bd 0597 73bd
000003e0: eee9 a0bd 6d2b ebbf 1663 bdbb ad53 10bd
000003f0: 8f3b 87bd aaa2 71bd b920 c0bc 8317 82bd

fc1.weight f4 [128, 256]
-0.061238483 -0.011021279 0.1106352 -1.3287922 -0.10643453 -0.06489921 -0.010233362 -0.07143543
-0.021119935 -0.009484671 -0.02730357 -0.078608364 -0.06710067 -0.02792238 0.68411684 -0.7365286
-1.5036407 -0.086274 -0.06563416 -0.086693086 -0.07700488 0.10534555 -0.11240712 -0.109220855
-0.027811179 -0.10710878 -0.11700256 -0.089852326 -0.09809072 -0.08644841 -0.10004023 -0.9025919
-0.0039809514 0.08039725 -0.072054416 0.09441262 -0.11062546 -0.29238296 -0.073813014 0.109727174
0.051406167 0.05680387 -0.13372494 -0.06318489 0.00019058824 0.06392461 -0.045974754 -0.47955897
-0.055879015 -2.6512198e-05 0.09774941 -0.04894911 0.00046182668 -0.03555427 -0.10531893 -0.0025304656
0.010342628 0.053828165 -0.08240076 -0.0006102191 -0.033261172 0.017143378 0.0046856487 -0.04932149
0.07618035 -0.07860295 -0.023787534 -0.069219746 -0.10820925 -0.09689656 -0.30764917 -0.10868901
0.043588974 0.0021486164 0.014121658 -0.06764002 0.114934124 -2.1034467 -0.04948041 -0.053487293
-2.843589 -0.1125673 -2.1855538 -0.08593938 -0.036800582 0.0018710358 -0.11419441 -0.010828573
-0.09179131 -0.018135859 -0.10575359 -0.032967083 -0.026354872 0.004143595 0.089074165 0.08735644
0.06215682 -0.105115876 -0.01058038 -0.06317171 0.0741666 -0.006679436 0.083229974 -0.1172558
-0.028023394 -0.08397898 0.0050397688 -0.1138873 -0.05017004 0.079263344 -0.04756452 -0.6305517
0.10411863 -1.2288327 -0.037608713 -0.06185289 -0.058087043 -0.10236511 0.10911148 -0.1132436
-0.07632969 -0.00527356 -0.02542091 -0.056869462 0.044252425 -0.116447896 -0.092902236 -0.1056446
-0.08974972 -0.004760519 -0.020130005 0.015076957 -0.10983699 0.034969736 0.11507706 0.3401317
0.040587794 1.4015156 -0.053707022 0.013745664 -0.10351079 -0.15212026 -0.06154994 -0.05007315
-0.017342389 -0.049425155 -0.037347876 -0.018580463 -0.029390194 0.101096034 -0.109954774 -0.05077271
-0.11402139 -0.019230817 -0.018281179 -0.10992403 -0.08077601 -0.03047824 0.00074763596 -0.090457626
0.076149724 0.10100856 -0.059608523 0.061678715 -0.018344501 -0.06379551 -0.11516841 0.059212033
-0.100020744 0.02388176 -0.06622641 -0.0894798 -0.7615695 -0.08682493 -0.044844393 0.00029050437
0.011217167 -0.1083716 0.0048966873 -0.10669375 -0.11710814 0.2824453 -0.07702198 -0.09685315
-0.009975755 -0.05650129 0.02622258 0.046338957 0.11951185 -0.055738647 -0.01644418 -0.114978544
-0.040173538 0.7734557 -0.04368377 -0.8017639 -0.004985095 0.034784947 -0.097953655 0.009187199
-0.106464185 -0.099561065 -0.095781535 -0.09740695 -0.040380448 -0.10920748 -0.0050907154 -1.5496397
-0.1210404 -0.018463675 -0.053415507 0.004887352 -0.00061624957 -0.0670122 -0.107441865 -0.098421924
-0.020801455 -0.7399855 -0.03457686 0.100015454 -0.11259754 2.1561406 -0.0028988249 -0.1052496
-0.07240782 0.08165404 -0.031236855 -0.04644179 0.038779367 -0.10401281 -0.0014756703 -0.07889927
-0.04798943 -0.11495481 0.11835979 -0.08598272 -0.027495947 1.7934033 -0.011549417 -0.08709299
-0.027293205 -0.039181035 -0.044386484 -0.06387291 -0.013174042 -0.5460961 -0.052377023 0.008214432
-0.01689731 -0.0463635 -0.119854845 -0.021287581 -0.014752298 -0.038257107 0.0105498675 -0.047506627
00000000: 34d5 7abd 9892 34bc b594 e23d dd15 aabf
00000010: 59fa d9bd e1e9 84bd d5a9 27bc bd4c 92bd
00000020: b703 adbc 9865 1bbc bdab dfbc 6cfd a0bd
00000030: 136c 89bd 7abd e4bc 4822 2f3f 238d 3cbf
00000040: 4c77 c0bf 6cb0 b0bd 346b 86bd 258c b1bd
00000050: bcb4 9dbd 68bf d73d b435 e6bd 2faf dfbd
00000060: 45d4 e3bc d95b dbbd 0a9f efbd 7f04 b8bd
00000070: cae3 c8bd dd0b b1bd e4e1 ccbd 4310 67bf
00000080: a472 82bb 50a7 a43d 4491 93bd 675b c13d
00000090: 9a8f e2bd 38b3 95be 472b 97bd a4b8 e03d
000000a0: 468f 523d 2dab 683d 31ef 08be 1467 81bd
000000b0: a4d8 4739 e8ea 823d 0650 3cbd c188 f5be
000000c0: 65e1 64bd 8366 deb7 d830 c83d dd7e 48bd
000000d0: 5421 f239 5ba1 11bd 73b1 d7bd 2bd6 25bb
000000e0: 2074 293c ec7a 5c3d bbc1 a8bd 1cf7 1fba
000000f0: de3c 08bd 4570 8c3c 128a 993b 5505 4abd
00000100: 7104 9c3d 95fa a0bd 13de c2bc 15c3 8dbd
00000110: d09c ddbd b471 c6bd 3184 9dbe 5898 debd
00000120: 5a8a 323d cdcf 0c3b 875e 673c da86 8abd
00000130: 9562 eb3d df9e 06c0 f8ab 4abd 7e15 5bbd
00000140: 5dfd 35c0 af89 e6bd 1de0 0bc0 fc00 b0bd
00000150: 35bc 16bd 8b3d f53a c2de e9bd 546a 31bc
00000160: 15fd bbbd a791 94bc 5795 d8bd 7e08 07bd
00000170: 2ce6 d7bc ffc6 873b 846c b63d efe7 b23d
00000180: 2698 7e3d fe46 d7bd 5559 2dbc 2b60 81bd
00000190: a9e4 973d 2cdf dabb 7a74 aa3d cf23 f0bd
000001a0: 5191 e5bc 2cfd abbd a524 a53b bf3d e9bd
000001b0: 1a7f 4dbd d254 a23d 04d3 42bd d66b 21bf
000001c0: 263c d53d 644a 9dbf 980b 1abd 7559 7dbd
000001d0: aeec 6dbd cca4 d1bd d775 df3d 43ec e7bd
000001e0: be52 9cbd d4cd acbb 833f d0bc f4ef 68bd
000001f0: 0842 353d 3c7c eebd 8743 bebd 325c d8bd
00000200: b4ce b7bd 21fe 9bbb aee7 a4bc 5705 773c
00000210: 37f2 e0bd 6d3c 0f3d 86ad eb3d be25 ae3e
00000220: 633f 263d dd64 b33f e5fb 5bbd 7e35 613c
00000230: 77fd d3bd 6ac5 1bbe ca1b 7cbd 8119 4dbd
00000240: a011 8ebc 0872 4abd 16fa 18bd 0e36 98bc
00000250: b4c3 f0bc 700b cf3d f82f e1bd 0cf7 4fbd
00000260: 0c84 e9bd f289 9dbc 69c2 95bc da1f e1bd
00000270: e56d a5bd 81ad f9bc 00fd 433a d941 b9bd
00000280: 63f4 9b3d 93dd ce3d 1128 74bd d2a2 7c3d
00000290: 3547 96bc 38a7 82bd 6add ebbd 5188 723d
000002a0: add7 ccbd aea3 c33c b6a1 87bd 2f41 b7bd
000002b0: 38f6 42bf 45d1 b1bd c1ae 37bd d64e 9839
000002c0: 35c8 373c eef1 ddbd 6474 a03b 4182 dabd
000002d0: 64d6 efbd ac9c 903e b3bd 9dbd f25a c6bd
000002e0: 5971 23bc e66d 67bd bcd0 d63c ebcd 3d3d
000002f0: a1c2 f43d 354e 64bd f2b5 86bc df79 ebbd
00000300: 028d 24bd 3101 463f c1ed 32bd 6640 4dbf
00000310: 025a a3bb a97a 0e3d ed9b c8bd e885 163c
00000320: e509 dabd ace6 cbbd 1c29 c4bd 4c7d c7bd
00000330: f865 25bd 2ca8 dfbd 04d0 a6bb 985a c6bf
00000340: 07e4 f7bd 2241 97bc 38ca 5abd 1526 a03b
00000350: cf8b 21ba b13d 89bd 7b0a dcbd 6f91 c9bd
00000360: d067 aabc b16f 3dbf 77a0 0dbd e7d4 cc3d
00000370: 8a99 e6bd 35fe 0940 36fa 3dbb 1a8d d7bd
00000380: 8d4a 94bd 3c3a a73d 6fe4 ffbc bf39 3ebd
00000390: 1dd7 1e3d ab04 d5bd 476b c1ba f195 a1bd
000003a0: 9190 44bd 6d6d ebbd 9e66 f23d b517 b0bd
000003b0: 2e3f e1bc 3d8e e53f c439 3dbc cf5d b2bd
000003c0: 0096 dfbc 4b7c 20bd 9ace 35bd cdcf 82bd
000003d0: f0d7 57bc f4cc 0bbf 4a89 56bd d395 063c
000003e0: 3a6c 8abc a7e7 3dbd 7576 f5bd 4b63 aebc
000003f0: 9fb3 71bc 7cb3 1cbd 5ad9 2c3c 4f96 42bd

fc1.bias f4 [128]
-0.8325259 -0.07472459 -1.2418224 -2.842184 -0.06717075 -0.0065121534 -0.3528964 1.6844368
-2.4528406 -0.18486367 -2.947319 -0.40101457 2.8430343 -1.9512025 -0.016097942 -0.014439699
-0.21096797 -0.07359371 -0.22026423 -0.08102877 1.854289 5.551228 -0.4118047 -0.00936659
-4.2172227 5.468383 0.41832417 -0.37721786 4.5225015 -0.34845898 0.70766133 1.1238744
-0.156348 -0.08633762 -0.2046516 -2.773025 -0.056653924 -0.10084874 -0.008102678 -0.12752552
1.6944158 -0.04822857 0.28007358 -1.6794438 -0.06308272 -0.1083497 6.530385 2.9633057
-5.0880146 -1.0362942 -0.118094474 -0.33099577 -0.7996324 -0.26731625 -0.02752546 -0.15792154
-0.7139159 -0.10462447 -0.17788118 0.571009 -1.3092711 3.3116832 -1.0682391 -0.07002961
-0.008240585 -1.0305972 0.67642075 -1.745273 -0.113603674 -1.074082 -0.040412255 -0.08036208
-0.83156854 0.30559933 -0.21003835 -2.2174804 -0.13753103 -0.052913405 -0.8776432 -0.4155739
-0.008150612 1.0165601 -0.050266173 4.354081 -0.7216186 1.395825 2.9938884 0.19496335
-0.05954413 -0.0949347 -0.4902741 -0.040632408 -0.09390245 -0.069613196 -0.056099042 -0.05114745
-0.5765742 -1.2001456 -0.10065953 1.2177626 -0.12614436 -0.15805136 -1.1782066 -0.06943214
-4.595328 -0.0302194 -4.8061347 -0.36158255 -0.4128936 -5.170042 1.1385745 -0.2510157
1.1364889 -0.100252375 -0.2826819 -0.14596143 -0.118633404 -0.12547466 -1.5957861 1.0045917
-0.036412362 -0.7412498 -3.6984477 -2.9147775 -0.041884437 -0.04119098 -0.04597701 0.24816477
00000000: 6b20 55bf 3509 99bd 09f4 9ebf 58e6 35c0
00000010: d190 89bd e763 d5bb d6ae b4be a09b d73f
00000020: 57fb 1cc0 e74c 3dbe e0a0 3cc0 c851 cdbe
00000030: 46f4 3540 01c1 f9bf d5df 83bc 7d94 6cbc
00000040: fd07 58be 4db8 96bd f28c 61be 69f2 a5bd
00000050: 5859 ed3f a9a3 b140 11d8 d2be 5376 19bc
00000060: 7df3 86c0 fefc ae40 962e d63e b322 c1be
00000070: 55b8 9040 3769 b2be 4b29 353f 1edb 8f3f
00000080: b119 20be c7d1 b0bd 3090 51be 3e79 31c0
00000090: f20d 68bd c989 cebd 18c1 04bc 0d96 02be
000000a0: 9ee2 d83f 528b 45bd ce65 8f3e 04f8 d6bf
000000b0: 8331 81bd 73e6 ddbd eaf8 d040 cda6 3d40
000000c0: 04d1 a2c0 4aa5 84bf 84db f1bd 4778 a9be
000000d0: b5b4 4cbf addd 88be 137d e1bc 2fb6 21be
000000e0: 31c3 36bf 5b45 d6bd 7c26 36be a52d 123f
000000f0: 3296 a7bf 9ef2 5340 0fbc 88bf af6b 8fbd
00000100: 8503 07bc 9cea 83bf e929 2d3f 1b65 dfbf
00000110: 0ba9 e8bd 857b 89bf 5287 25bd e094 a4bd
00000120: ade1 54bf 8477 9c3e 4b14 57be 33eb 0dc0
00000130: efd4 0cbe babb 58bd 3aad 60bf 1ac6 d4be
00000140: 258a 05bc a41e 823f e7e3 4dbd a254 8b40
00000150: ffbb 38bf 65aa b23f de9b 3f40 79a4 473e
00000160: 8ce4 73bd 206d c2bd 3505 fbbe 2b6e 26bd
00000170: ed4f c0bd 5d91 8ebd 1cc8 65bd fd7f 51bd
00000180: 5e9a 13bf 5f9e 99bf 9526 cebd a5df 9b3f
00000190: fd2b 01be 37d8 21be 79cf 96bf 7032 8ebd
000001a0: ed0c 93c0 ad8e f7bc dbcb 99c0 5921 b9be
000001b0: ca66 d3be fc70 a5c0 cfbc 913f 2185 80be
000001c0: 7878 913f 1e51 cdbd afbb 90be ea76 15be
000001d0: 12f6 f2bd 6e7c 00be b842 ccbf 7696 803f
000001e0: 2125 15bd 8cc2 3dbf 5eb3 6cc0 b78b 3ac0
000001f0: 048f 2bbd dfb7 28bd 6452 3cbd e81e 7e3e

fc2.weight f4 [64, 128]
-0.086148605 0.002854502 -0.06504863 -0.0063005043 0.012932644 -0.044229917 -0.0094184205 -0.07491106
-0.05363403 -0.048281863 0.0019353061 -0.062962994 0.010583009 -0.12986995 -0.04646191 -0.13813518
0.09173967 0.015892832 -0.066954754 -0.041845456 -0.030263297 -0.028776744 -0.08024602 -0.09829348
-0.36185306 -0.24904282 -0.13230398 -0.061509877 -0.02747141 0.027138101 0.0014193505 -0.3312068
-0.012789607 -0.13824254 -0.10668377 -0.13362809 -0.044293568 -0.09578123 -0.015855404 -0.07479377
-0.027588328 -0.047193196 -0.10338243 -0.08603236 -0.07290962 0.005760126 -0.016666425 -0.2382998
-0.34774828 0.0074622273 -0.085782565 -0.08965315 -0.13369627 -0.008143385 -0.121682756 -0.05916687
0.026074652 -0.12584962 -0.11544802 -0.17272224 -0.1507246 -0.2767327 -0.31008497 0.000122957
0.014064569 -0.010218498 -0.007419156 -0.08245934 -0.019342303 -0.13372496 -0.098280534 -0.046543244
-0.03702637 -0.066437185 -0.09762156 -0.012321366 0.0049172356 -0.12314409 -0.032029614 -0.058894675
-0.015912514 -0.1332411 -0.03840316 -0.01095763 -0.041947525 -0.06185077 -0.06643305 0.019342713
-0.095344186 -0.034195565 -0.09413898 -0.09311982 -0.09011509 -0.032183703 -0.0420456 -0.079123154
-0.30146763 -0.13897966 -0.12311935 -0.06971784 -0.12467324 -0.0040011425 -0.09431958 -0.07864003
-0.09647263 -0.028534546 -0.023591382 -0.05144921 -0.07405887 -0.15070473 -0.08288819 -0.1386038
0.0035624646 -0.032664787 -0.03173365 0.0011991574 -0.024950383 -0.032259 -0.12751807 -0.14021152
-0.078094415 -0.26649022 -0.058798604 -0.24815267 -0.06067937 -0.074567676 -0.14585538 -0.23959646
-0.05116295 -0.14547323 -0.08430532 -0.10734618 -0.04382202 0.020423077 -0.14694539 -0.120925255
-0.022130521 -0.01244498 0.018691828 0.0055973767 -0.0039064805 -0.031483438 -0.041451927 -0.010056959
-0.03407418 -0.12583175 -0.030621665 0.006928276 -0.062417626 -0.06554704 -0.133958 -0.008479458
-0.023494791 -0.30307811 -0.09224121 -0.090346955 -0.12800835 -0.12525746 -0.029988956 -0.05887553
-0.11644702 -0.08823491 -0.09556233 -0.0775801 -0.063279465 -0.016852517 0.0016645808 -0.037948124
-0.13163689 0.023360766 -0.06661123 -0.14420706 0.018786713 0.008140617 -0.004631058 -0.0333378
-0.12510747 -0.020656606 -0.1080464 0.017375084 -0.13546176 -0.1143936 -0.028619109 -0.1350023
-0.0028952756 -0.12107367 0.003375758 -0.035066806 -0.020959508 -0.011844688 -0.12310417 0.014030982
0.021248776 -0.08843301 -0.11157127 -0.1727843 -0.0062685804 -0.12931482 -0.14309426 0.00886605
-0.14631422 -0.1291782 -0.075845495 0.0013706473 -0.01774864 -0.10135979 -0.1334507 -0.12665258
-0.14654952 -0.09402751 0.018209103 -0.08475758 -0.29082465 -0.08388196 0.009337182 -0.049655955
-0.08241911 -0.027817782 -0.11143512 -0.09269053 -0.0031866664 0.014163546 -0.032393314 -0.14497519
-0.024632804 -0.042936925 0.017511824 -0.096730225 -0.040880464 -0.12794213 -0.12962638 -0.039793853
0.0018822533 -0.023777058 0.024115376 -0.032509927 -0.095433414 -0.047853097 -0.11416266 0.00441227
-0.07198757 -0.12334706 0.008087164 -0.08755462 -0.06646624 0.00724713 -0.11516899 -0.07673266
-0.14714234 -0.07504265 -0.053299047 -0.11693108 -0.06699141 -0.009870444 -0.009986476 -0.09696847
00000000: ae6e b0bd 9912 3b3b 3738 85bd 7674 cebb
00000010: 71e3 533c 6e2a 35bd b84f 1abc f86a 99bd
00000020: 5baf 5bbd 34c3 45bd 19aa fd3a bef2 80bd
00000030: 5b64 2d3c a1fc 04be d84e 3ebd 4f73 0dbe
00000040: 02e2 bb3d af31 823c 931f 89bd 2466 2bbd
00000050: bcea f7bc 35bd ebbc 0658 a4bd 184e c9bd
00000060: ce44 b9be 1505 7fbe b27a 07be c8f1 7bbd
00000070: b90b e1bc b950 de3c 8009 ba3a f093 a9be
00000080: 808b 51bc 748f 0dbe 057d dabd cdd5 08be
00000090: 2c6d 35bd f328 c4bd 31e3 81bc 7a2d 99bd
000000a0: eb00 e2bc a74d 41bd 2bba d3bd bc31 b0bd
000000b0: a451 95bd 70bf bc3b 0788 88bc dd04 74be
000000c0: 100c b2be b385 f43b c5ae afbd 129c b7bd
000000d0: ade7 08be d56b 05bc cf34 f9bd f658 72bd
000000e0: 829a d53c b9de 00be 0370 ecbd 19de 30be
000000f0: 8d57 1abe e9af 8dbe 75c3 9ebe 05ee 0039
00000100: 146f 663c 7d6b 27bc 641c f3bb 71e0 a8bd
00000110: c073 9ebc 32ef 08be 4e47 c9bd 21a4 3ebd
00000120: f7a8 17bd 3810 88bd d0ed c7bd 8edf 49bc
00000130: c320 a13b f832 fcbd 7c31 03bd 8b3b 71bd
00000140: f65a 82bc 5b70 08be a24c 1dbd a287 33bc
00000150: 2bd1 2bbd 3c57 7dbd 0d0e 88bd 9c74 9e3c
00000160: d043 c3bd a610 0cbd f0cb c0bd 9bb5 bebd
00000170: 438e b8bd 0fd3 03bd 0238 2cbd 520b a2bd
00000180: f759 9abe af50 0ebe ff25 fcbd 3ac8 8ebd
00000190: af54 ffbd 041c 83bb a02a c1bd 060e a1bd
000001a0: 7193 c5bd 48c1 e9bc b742 c1bc 68bc 52bd
000001b0: 2dac 97bd 5752 1abe 49c1 a9bd 28ee 0dbe
000001c0: 3d78 693b 83cb 05bd 25fb 01bd 0c2d 9d3a
000001d0: bf64 ccbc 0322 04bd 1994 02be 9c93 0fbe
000001e0: f7ef 9fbd 6871 88be ced6 70bd bc1b 7ebe
000001f0: ee8a 78bd f0b6 98bd 1d5b 15be c658 75be
00000200: 3e90 51bd eff6 14be 45a8 acbd 50d8 dbbd
00000210: b87e 33bd 4c4e a73c da78 16be a9a7 f7bd
00000220: 114b b5bc 08e6 4bbc 9b1f 993c 336a b73b
00000230: ef01 80bb c7f4 00bd 7fc9 29bd f2c5 24bc
00000240: 5e91 0bbd 0ada 00be 49da fabc 9706 e33b
00000250: a0a9 7fbd 873d 86bd 492c 09be 6ded 0abc
00000260: 2678 c0bc 0e2d 9bbe f6e8 bcbd d307 b9bd
00000270: 9f14 03be 7e43 00be 66ab f5bc 7827 71bd
00000280: c67b eebd 81b4 b4bd 2fb6 c3bd 51e2 9ebd
00000290: aa98 81bd 4a0e 8abc 102e da3a 7e6f 1bbd
000002a0: d2cb 06be 145f bf3c 786b 88bd 04ab 13be
000002b0: 98e6 993c 3960 053c 21c0 97bb 388d 08bd
000002c0: 2c1c 00be 0b38 a9bc 6e47 ddbd 3156 8e3c
000002d0: 7db6 0abe 3147 eabd 9f72 eabc 0b3e 0abe
000002e0: aabe 3dbb 79f5 f7bd d23b 5d3b 36a2 0fbd
000002f0: 46b3 abbc 3910 42bc 0a1e fcbd 34e2 653c
00000300: ea11 ae3c 5e1c b5bd 7a7f e4bd 5eee 30be
00000310: aa68 cdbb 1b6b 04be 4d87 12be e942 113c
00000320: 65d3 15be 4a47 04be e254 9bbd 4ba7 b33a
00000330: 9965 91bc b995 cfbd 4da7 08be 37b1 01be
00000340: 1411 16be 7f91 c0bd 422b 953c 6295 adbd
00000350: f8e6 94be 4eca abbd fbfa 183c 0b64 4bbd
00000360: 5acb a8bd 1ee2 e3bc 1938 e4bd 88d4 bdbd
00000370: 64d7 50bb 380e 683c daae 04bd 6074 14be
00000380: bcca c9bc a1de 2fbd f574 8f3c 7f1a c6bd
00000390: 4672 27bd 4303 03be c7bc 04be e1fe 22bd
000003a0: f1b5 f63a 1bc8 c2bc 9c8d c53c 2129 05bd
000003b0: 9872 c3bd 9c01 44bd 1dce e9bd ce94 903b
000003c0: 386e 93bd 629d fcbd 0680 043c d64f b3bd
000003d0: 741f 88bd 5579 ed3b b8dd ebbd 0326 9dbd
000003e0: 7bac 16be f6af 99bd 1a50 5abd 9079 efbd
000003f0: cb32 89bd a5b7 21bc 519e 23bc 6897 c6bd

fc2.bias f4 [64]
-0.40210474 -0.1167781 -0.8494859 0.48429745 2.7445369 -0.46713883 2.365273 0.6419336
-0.6373239 -0.30779234 2.3696532 -0.003672586 -0.13332413 -0.02344115 -0.45240363 -0.535771
3.1332607 -0.22130011 2.3236885 -0.38831395 0.05347914 -0.7210912 -0.20759666 -0.5261503
-0.6704282 -0.51187325 -0.42610562 -0.5155097 -0.35801923 -0.9011668 -0.552688 -0.70112735
-0.55974495 -0.4550776 -0.87038684 3.1728196 -1.2279388 -0.6299188 -0.12563209 2.838159
1.7250987 -0.36533836 -1.0118805 -0.32418853 -0.73032904 -0.0011226338 1.7341101 -0.3778874
-0.35300836 2.1395447 -0.74199104 -0.74496835 -0.46563888 -0.41422433 0.8947754 -0.59338063
-0.32375944 -0.5142361 -0.32093048 0.8712176 -0.5998637 -0.4480856 -0.66449493 0.2117225
00000000: ace0 cdbe 5b29 efbd e877 59bf d6f5 f73e
00000010: 7ea6 2f40 d22c efbe a260 1740 c355 243f
00000020: a927 23bf f596 9dbe 66a8 1740 c5af 70bb
00000030: 1f86 08be a807 c0bc 73a1 e7be 4a28 09bf
00000040: 5887 4840 7f9c 62be 50b7 1440 16d1 c6be
00000050: f10c 5b3d 6f99 38bf 3894 54be c9b1 06bf
00000060: 2fa1 2bbf 200a 03bf 842a dabe 72f8 03bf
00000070: 4c4e b7be deb2 66bf f67c 0dbf 157d 33bf
00000080: 724b 0fbf eeff e8be acd1 5ebf 7a0f 4b40
00000090: 192d 9dbf 5c42 21bf b3a5 00be 66a4 3540
000000a0: 09d0 dc3f a10d bbbe 4d85 81bf 0afc a5be
000000b0: d8f6 3abf 5725 93ba 52f7 dd3f 757a c1be
000000c0: 83bd b4be 4dee 0840 20f3 3dbf 3fb6 3ebf
000000d0: 3868 eebe 3615 d4be 0010 653f cbe7 17bf
000000e0: ccc3 a5be faa4 03bf 0051 a4be 1e08 5f3f
000000f0: ab90 19bf 7a6b e5be 571c 2abf c8cd 583e

out.weight f4 [10, 64]
0.2768147 0.14305843 -0.29897633 -0.010050399 -0.0184273 0.30082366 -0.020641096 0.14498727
-0.5470203 -0.26800895 0.015619927 0.11276797 0.03021532 -0.008321376 -0.8325756 0.030994054
-0.0074130706 0.078280404 -0.011252977 -0.16137487 0.017144095 0.21832606 -0.06943573 -0.21067667
-0.22528836 -0.015564243 0.057084035 -0.06934754 -0.08045373 0.045986127 0.20692214 -0.020196756
0.1598292 -0.066289864 0.068087846 0.0029377982 -0.24519455 0.07610527 0.015780987 -0.0026864393
0.03022338 -0.35544086 0.099101715 -0.040331617 -0.06037929 -0.37510547 -0.01782706 -0.24212977
-0.42229554 -0.018752508 0.12341718 0.07868802 0.12433477 -0.04454166 0.043726012 0.06306667
-0.24033605 -0.0056111035 -0.18780145 0.041621387 0.044888426 0.2584771 -0.038691748 -0.012047939
0.24758592 -0.07373027 -0.14964357 -0.0106500955 0.11841454 0.06539128 -0.07507067 -0.012152667
0.27266726 -0.26453072 0.119943954 0.030464692 -0.09653218 -0.009824026 0.39927372 -0.021180203
-0.06501094 0.013217553 0.0644973 -0.16807975 0.2211311 -0.18872805 0.028411806 -0.16523208
0.25098765 0.17947565 -0.25834122 -0.063351326 0.24207194 0.30437577 -0.08902188 -0.34132302
-0.24994256 0.16394141 -0.0047237836 -0.016116608 0.013290118 0.24883524 0.01743785 -0.046240937
-0.098404735 0.26644287 0.035843324 0.15218861 -0.20513664 0.14870754 -0.019582702 -0.16202414
-0.33253434 0.067157276 0.00990507 -0.2887141 0.3279688 0.1679388 -0.0988584 0.16646838
-0.098423965 -0.02880595 -0.11758881 0.122335106 -0.14467382 0.30406696 -0.21564694 -0.012525304
-0.15256312 0.29604366 0.16238959 0.09743543 -0.048942998 -0.02503025 -0.043644775 -0.025346741
0.751521 -0.2376693 0.022953765 -0.059525747 0.22072469 -0.021645108 0.15375559 0.17418823
-0.013484983 0.12383146 -0.034615207 0.27516574 0.069801025 0.16429146 0.055345118 -0.15339002
-0.23627965 -0.022055872 0.22414447 0.057256915 0.11925554 0.03206834 0.1693682 -0.24365515
-0.3268379 0.008715008 0.013216779 -0.00011740811 0.0324908 0.18350226 0.0831002 -0.008310109
0.06452596 -0.04826306 0.1930313 0.32532665 0.1318649 0.11984688 -0.027228693 -0.07194967
0.21978183 -0.02596888 0.4547811 0.16900483 -0.26202813 -0.17963739 0.075134695 -0.04492181
0.25016293 -0.3418823 0.19978935 0.102760576 -0.14975573 0.032892723 -0.3495811 -0.027258877
0.42107835 0.1501517 -0.34391135 -0.020189047 -0.03528789 0.11007549 -0.029595593 -0.025297768
0.2835619 0.2538058 -0.0307603 -0.041567184 -0.12883599 -0.019907136 0.22373602 0.069874056
-0.11837123 0.058322113 0.027387118 -0.049044102 -0.10470123 0.18473066 0.031491548 0.03915793
0.16131844 -0.17272523 -0.15738527 -0.119544886 -0.0069291955 0.329542 0.4376971 -0.07437756
-0.1791537 0.24475922 -0.06057196 -0.013644293 -0.0277129 -0.23533557 0.120314315 0.13968919
-0.06326222 0.030557254 -0.00041236443 -0.1751851 -0.06455244 0.15697362 0.08223346 0.157378
-0.35485095 -0.015830562 0.5197933 0.28452507 0.2010998 -0.022017745 0.026621774 0.08834898
0.08652371 0.20225812 -0.28300032 0.08258682 0.27026162 0.162452 0.015830316 -0.028780814
00000000: a8ba 8d3e e97d 123e 6d13 99be 6eaa 24bc
00000010: d9f4 96bc 8f05 9a3e 8417 a9bc 8b77 143e
00000020: 8609 0cbf 7838 89be b9ea 7f3c e5f2 e63d
00000030: 1e86 f73c 6156 08bc ad23 55bf 3ee7 fd3c
00000040: 58e9 f2bb 7a51 a03d 685e 38bc 743f 25be
00000050: c671 8c3c de90 5f3e 5234 8ebd a0bb 57be
00000060: feb1 66be 2b01 7fbc f3d0 693d 1506 8ebd
00000070: edc4 a4bd f35b 3c3d 66e3 533e ab73 a5bc
00000080: 44aa 233e fbc2 87bd a471 8b3d 1388 403b
00000090: 4814 7bbe 14dd 9b3d 2147 813c f90e 30bb
000000a0: 0697 f73c 58fc b5be d7f5 ca3d c432 25bd
000000b0: 4650 77bd d30d c0be 0e0a 92bc def0 77be
000000c0: 1f37 d8be dc9e 99bc 25c2 fc3d 2f27 a13d
000000d0: 3aa3 fe3d 5171 36bd 0c1a 333d 1929 813d
000000e0: a71a 76be 59dd b7bb 064f 40be 307b 2a3d
000000f0: eddc 373d 1c57 843e 3d7b 1ebd b864 45bc
00000100: 2a87 7d3e e5ff 96bd 2a3c 19be bd7d 2ebc
00000110: 5383 f23d ddeb 853d a7be 99bd fb1b 47bc
00000120: 0b9b 8b3e 9270 87be 2da5 f53d 1791 f93c
00000130: aab2 c5bd f4f4 20bc 9b6d cc3e 1b82 adbc
00000140: 7524 85bd 6f8e 583c 2917 843d 191d 2cbe
00000150: 3170 623e ed41 41be e0bf e83c 9932 29be
00000160: 7481 803e 77c8 373e 4d45 84be 57be 81bd
00000170: b5e1 773e 24d7 9b3e 1a51 b6bd e4c1 aebe
00000180: f1f0 7fbe 42e0 273e f8c9 9abb fa06 84bc
00000190: ccbe 593c aace 7e3e d2d9 8e3c 2367 3dbd
000001a0: 6c88 c9bd 336b 883e 73d0 123d 55d7 1b3e
000001b0: 570f 52be ca46 183e e76b a0bc a8e9 25be
000001c0: f141 aabe c189 893d e048 223c 56d2 93be
000001d0: 87eb a73e 26f8 2b3e 4676 cabd b076 2a3e
000001e0: 8192 c9bd 75fa ebbc 67d2 f0bd d48a fa3d
000001f0: 6025 14be aaae 9b3e 8dd2 5cbe ef36 4dbc
00000200: 8239 1cbe 0993 973e 7549 263e 3a8c c73d
00000210: 7478 48bd 3d0c cdbc ddc4 32bd f8a3 cfbc
00000220: ae63 403f 955f 73be 8909 bc3c 45d1 73bd
00000230: a705 623e 1551 b1bc 1b72 1d3e 665e 323e
00000240: 1ef0 5cbc 599b fd3d adc8 0dbd 86e2 8c3e
00000250: d7f3 8e3d 053c 283e 90b1 623d 4612 1dbe
00000260: 4bf3 71be 84ae b4bc 2186 653e 3a86 6a3d
00000270: 403c f43d 175a 033d db6e 2d3e bc80 79be
00000280: 4c57 a7be 65c9 0e3c 308b 583c 0039 f6b8
00000290: 1315 053d 04e8 3b3e 7030 aa3d 2027 08bc
000002a0: 3026 843d 7daf 45bd ffa9 453e 3791 a63e
000002b0: 9807 073e 4872 f53d b50e dfbc 595a 93bd
000002c0: 7d0e 613e b0bc d4bc 11d9 e83e 9a0f 2d3e
000002d0: 8d28 86be ddf2 37be 38e0 993d efff 37bd
000002e0: 5b15 803e 320b afbe 9495 4c3e 2374 d23d
000002f0: 9159 19be 85ba 063d 4bfc b2be 024e dfbc
00000300: 9597 d73e 5ec1 193e 2615 b0be 8063 a5bc
00000310: 098a 10bd 426f e13d 7572 f2bc 443d cfbc
00000320: 062f 913e d5f2 813e 06fd fbbc 5a42 2abd
00000330: 95ed 03be 4a14 a3bc 0e1b 653e 211a 8f3d
00000340: 9e6c f2bd 2be3 6e3d f35a e03c 78e2 48bd
00000350: 996d d6bd 092a 3d3e 48fd 003d 1164 203d
00000360: a930 253e e2de 30be 9b29 21be f3d3 f4bd
00000370: 4e0e e3bb bbb9 a83e d619 e03e 4353 98bd
00000380: 1174 37be 29a2 7a3e 4e1a 78bd 508c 5fbc
00000390: 2a06 e3bc cffb 70be 5a67 f63d af0a 0f3e
000003a0: 9f8f 81bd 3553 fa3c 9e32 d8b9 b963 33be
000003b0: 1234 84bd b1bd 203e 046a a83d b327 213e
000003c0: 06af b5be 18af 81bc 2c11 053f 45ad 913e
000003d0: 1bed 4d3e 8f5e b4bc e815 da3c 4ff0 b43d
000003e0: 5833 b13d c11c 4f3e 6be5 90be 4723 a93d
000003f0: bb5f 8a3e d159 263e 94ae 813c bec5 ebbc

out.bias f4 [10]
0.08078231 0.081639774 0.17418356 0.16661052 0.057290066 0.12700026 0.059376225 0.10940409
0.08585303 0.0059860167
00000000: 3271 a53d c132 a73d 2d5d 323e f39b 2a3e
00000010: fda8 6a3d 5b0c 023e 7c34 733d 400f e03d
00000020: b7d3 af3d 5926 c43b
