exps/regularModelExperiments/pretrainedmodels/cleanAccModel1.pt (torch, 973781 bytes, 8 tensors)

fc.weight f4 [256, 784]
0.030268487 -0.02438573 0.029757794 -0.020644853 -0.015448447 0.009487499 0.0008854866 0.035308387
-0.03264286 0.011311434 -0.015363421 -0.026314095 -0.01970098 0.020572864 -0.015464604 -0.03117108
0.008819349 -0.023093637 -0.0007163696 0.034816984 -0.01259768 0.014071044 0.024100516 0.030623589
0.033448678 -0.012304869 -0.02411435 -0.03514796 0.019962166 0.010546893 0.023449652 0.023338687
0.012428429 0.030468252 0.016715113 -0.007038908 0.023670461 -0.0003714189 0.008600768 0.021395992
0.023513936 -0.013969474 0.024090849 -0.0052973665 0.028349739 0.035626713 -0.013775004 -0.00020230561
-0.007004248 -0.032706484 -0.019573748 -0.013074623 -0.028296106 -0.014186289 -0.022042952 0.014423497
-0.0061615445 0.0062507354 0.024109785 -0.023048803 -0.008559916 0.013670165 -0.0067711305 0.0183735
-0.0021631792 -0.049337998 -0.059288952 -0.06480048 -0.08090825 -0.063611306 -0.05818254 -0.08880444
-0.11485569 -0.08590257 -0.067499846 -0.0593978 -0.04210426 -0.076018296 -0.08580353 -0.058748923
-0.03247468 0.00014742091 -0.031168982 -0.001795195 -0.022591341 -0.019765817 0.035145726 -0.02230224
0.009919606 -0.06578666 -0.08156123 -0.024491495 -0.09025565 -0.08462498 -0.10517377 -0.0940198
-0.05207791 -0.067177884 -0.08309263 -0.08098431 -0.08718104 -0.080613345 -0.07618692 -0.0650512
-0.097377196 -0.024774157 -0.098564275 -0.087528825 -0.049519308 0.019966915 0.029037748 0.0024975762
-0.033501636 -0.0076213945 0.011549808 -0.016274143 0.05260304 -0.048173953 -0.0930303 -0.08737035
-0.04214423 -0.081722856 -0.047847692 -0.08250763 -0.10881202 -0.10702155 0.0041095233 -0.08926371
-0.065791264 -0.08306078 -0.07106078 -0.039044395 -0.0002020211 -0.004294299 -0.041420575 -0.03550412
-0.08006426 -0.015494518 -0.033742238 -0.025149414 0.020815179 -0.004753586 0.006322682 -0.024263825
-0.062464662 -0.062145464 -0.093777835 -0.08911904 -0.048834782 -0.057389885 -0.079955555 -0.06809067
-0.08188112 -0.045888115 -0.0027110542 -0.05117846 -0.08551561 -0.059818324 -0.07153528 -0.05790367
-0.0065005976 -0.06583111 -0.099149235 -0.05503735 -0.06550041 -0.03794095 0.022971954 -0.021090487
-0.007649008 0.009360269 -0.029642303 0.006207738 -0.020571453 0.061772194 0.07333473 0.07955511
0.06288713 -0.055896938 -0.027692003 -0.09617301 -0.11196771 -0.0697267 -0.06869105 -0.10275076
-0.043883983 -0.06577645 -0.045322217 -0.06252017 -0.10519904 -0.06788696 -0.057762876 -0.065944985
-0.09251994 -0.052666556 -0.029426616 -0.006462319 -0.013225568 -0.021213226 -0.011813134 -0.03048033
0.07919432 0.07175681 0.05359898 0.04582549 -0.05350353 -0.06229109 -0.058711115 -0.07104876
-0.08671554 -0.06535172 -0.0665267 -0.07531042 -0.09164503 -0.06250586 -0.09229998 -0.0745941
-0.07665501 -0.10887157 -0.057616975 -0.10775267 -0.047245048 -0.03707044 -0.0683794 -0.02669957
0.026971374 0.00065929815 -0.052916136 -0.0857444 -0.03139043 -0.09404205 -0.11313032 -0.083642796
-0.077314556 -0.0890492 -0.047833096 -0.103614844 -0.09425263 -0.08257896 -0.040594492 -0.07533015
-0.04611573 -0.108622015 -0.048859313 -0.08636141 -0.0468323 -0.05770975 -0.090616375 -0.08151695
-0.029352285 -0.070102245 -0.0649332 0.016501926 -0.021604339 0.027444478 -0.09298511 -0.10592775
00000000: 9ef5 f73c 95c4 c7bc 9ec6 f33c 651f a9bc
00000010: 7c1b 7dbc 7471 1b3c 0020 683a 879f 103d
00000020: 85b4 05bd 9853 393c dcb6 7bbc a890 d7bc
00000030: f363 a1bc 6c88 a83c 405f 7dbc 7e5a ffbc
00000040: 087f 103c de2e bdbc c0ca 3bba 419c 0e3d
00000050: 8066 4ebc 3c8a 663c 726e c53c 52de fa3c
00000060: 7b01 093d 5c9a 49bc 758b c5bc 4ff7 0fbd
00000070: b287 a33c e0cc 2c3c 7c19 c03c c630 bf3c
00000080: 9ca0 4b3c 8e98 f93c 22ee 883c a4a6 e6bb
00000090: 8ee8 c13c 00bb c2b9 3cea 0c3c a646 af3c
000000a0: 4ca0 c03c 38e0 64bc 2c5a c53c 8895 adbb
000000b0: b63d e83c 51ed 113d 8eb0 61bc 0022 54b9
000000c0: e483 e5bb 3cf7 05bd 2059 a0bc f236 56bc
000000d0: 3ccd e7bc 9c6d 68bc 6c93 b4bc 8850 6c3c
000000e0: c8e6 c9bb f8d2 cc3b e281 c53c d8d0 bcbc
000000f0: e43e 0cbc d4f8 5f3c 5ce0 ddbb 0684 963c
00000100: 20c4 0dbb a416 4abd f9d8 72bd 1db6 84bd
00000110: 39b3 a5bd a546 82bd d150 6ebd 1adf b5bd
00000120: 7639 ebbd b0ed afbd 5c3d 8abd 1c4b 73bd
00000130: 8475 2cbd 7baf 9bbd c3b9 afbd b6a2 70bd
00000140: 2c04 05bd 0095 1a39 1856 ffbc c04c ebba
00000150: 7a11 b9bc eceb a1bc f7f4 0f3d 30b3 b6bc
00000160: d885 223c 28bb 86bd 9309 a7bd 63a2 c8bc
00000170: f4d7 b8bd dd4f adbd 5865 d7bd 748d c0bd
00000180: a64f 55bd 8f94 89bd 782c aabd 1adb a5bd
00000190: f98b b2bd 9c18 a5bd e307 9cbd 9039 85bd
000001a0: b26d c7bd 2cf3 cabc 11dc c9bd 5042 b3bd
000001b0: c2d4 4abd a891 a33c 92e0 ed3c 60ae 233b
000001c0: 0339 09bd e4bc f9bb 683b 3d3c 5a51 85bc
000001d0: 4976 573d 0d52 45bd ac86 bebd 3aef b2bd
000001e0: 6e9f 2cbd 505e a7bd f1fb 43bd c3f9 a8bd
000001f0: d6d8 debd 1d2e dbbd 2ea9 863b e4cf b6bd
00000200: 92bd 86bd c51b aabd 5088 91bd 04ed 1fbd
00000210: a0d5 53b9 31b7 8cbb 9fa8 29bd c56c 11bd
00000220: bbf8 a3bd b8dc 7dbc 4d35 0abd 2506 cebc
00000230: 9884 aa3c f8c3 9bbb 802e cf3b eec4 c6bc
00000240: f2da 7fbd 3e8c 7ebd 980e c0bd 0b84 b6bd
00000250: fb06 48bd a811 6bbd bdbf a3bd 1f73 8bbd
00000260: 4ab1 a7bd 2df5 3bbd f1ab 31bb 81a0 51bd
00000270: cf22 afbd 0f04 75bd 1781 92bd 662c 6dbd
00000280: f702 d5bb 76d2 86bd c10e cbbd d86e 61bd
00000290: 1425 86bd f867 1bbd ae2f bc3c f5c5 acbc
000002a0: 88a4 fabb d05b 193c 6ad4 f2bc 486a cb3b
000002b0: 7785 a8bc d704 7d3d 8530 963d caed a23d
000002c0: f8ca 803d 30f4 64bd 57da e2bc 5bf6 c4bd
000002d0: 544f e5bd dfcc 8ebd e5ad 8cbd fe6e d2bd
000002e0: b1bf 33bd ceb5 86bd caa3 39bd 930a 80bd
000002f0: 9872 d7bd 5208 8bbd c498 6cbd 2a0e 87bd
00000300: 187b bdbd e3b8 57bd 1610 f1bc dcc1 d3bb
00000310: 0eb0 58bc 5cc7 adbc e08b 41bc e3b1 f9bc
00000320: a230 a23d 3cf5 923d 9b8a 5b3d 82b3 3b3d
00000330: 8426 5bbd f124 7fbd 117b 70bd 0382 91bd
00000340: eb97 b1bd 1fd7 85bd 273f 88bd 593c 9abd
00000350: 64b0 bbbd 1303 80bd c607 bdbd cbc4 98bd
00000360: 4dfd 9cbd 0ff8 debd c7ff 6bbd 6fad dcbd
00000370: 0684 41bd 2cd7 17bd 800a 8cbd 0eb9 dabc
00000380: 12f3 dc3c c0d4 2c3a 97be 58bd c39a afbd
00000390: 4093 00bd 1e99 c0bd dfb0 e7bd ea4c abbd
000003a0: 1857 9ebd 6d5f b6bd a3ec 43bd 0534 d4bd
000003b0: 8607 c1bd 281f a9bd 6946 26bd b246 9abd
000003c0: d9e3 3cbd 3875 debd b420 48bd 40de b0bd
000003d0: 3ad3 3fbd 0f61 6cbd 1495 b9bd 5cf2 a6bd
000003e0: 3474 f0bc c491 8fbd b3fb 84bd 0c2f 873c
000003f0: 95fb b0bc 3ed3 e03c fa6e bebd a6f0 d8bd

fc.bias f4 [256]
-0.05839563 -0.04233341 -0.035767645 -0.09505168 -0.01628278 -0.09947498 -0.07638492 -0.015416348
-0.08246601 -0.050547432 -0.025287433 -0.09048178 -0.04245376 -0.074910074 -0.08134074 -0.013604274
-0.034149453 -0.04133998 -2.3248978 -0.06401693 -0.028875545 -0.041211613 -0.06311182 -0.03715001
-0.069156475 -0.029461117 -0.06419581 -0.5001411 -0.030081512 1.9195262 -0.017183727 -0.022980874
-0.05536782 -0.0719298 -0.05556204 -2.1349914 -2.9518468 -0.066536255 -0.030343024 -0.10144755
-0.026401915 -0.06741919 -0.01785064 -0.035038896 -0.04663103 -0.07292491 -0.048355132 -0.034544498
-0.05345154 -0.09153775 -0.041210532 -1.9633818 -0.02768777 -0.05485299 -0.0588724 -0.035882376
-0.02823248 -0.0540054 -0.10708864 -0.027022494 -0.028924566 -0.07486094 -0.06152097 -0.06600552
-0.05431444 -0.05869485 -0.39524275 -0.061386008 -0.047587443 -0.044678554 -0.033008073 -0.07128728
0.7949109 -0.07584512 -0.027490491 -0.025138376 -0.0783736 -0.008520322 -0.034993563 -0.036013074
-0.073359564 -0.041040678 -0.07993129 -0.07940554 -0.052745998 -0.024808438 -0.09342998 -0.03298893
-0.08841854 1.2113845 -0.035849847 -0.079857 -0.059638355 -0.03979885 -0.018097756 -0.08757226
-0.045153152 -0.04687917 -0.06555049 -0.059507944 -0.05441701 -0.063433796 -0.035676576 -0.08512318
-0.051202845 -0.048519872 -0.025274768 -0.03168145 -0.046874788 -0.5830666 -0.08517527 -0.062677786
3.243954 -0.038685545 -0.066491626 -0.073795386 -0.100298144 -0.04769429 -0.07053624 -0.07442043
-0.04303592 -0.09055273 -0.06244415 -0.055843946 -0.06541025 -0.0731718 -0.031650748 -0.02680428
-0.04281175 -0.054194666 -0.033291038 -0.08683978 -0.014302303 -0.06260872 -0.03948554 -0.052635718
-0.041872002 -0.06368876 -0.068868935 -0.026600707 -0.07199341 -0.08353684 -0.06377721 -0.054862212
-0.08384373 -0.013700776 -0.07783019 -0.093418896 -0.07974549 -0.060063288 -0.047741346 0.17403752
-0.014131776 -0.055438742 -0.041927364 -0.054079853 -0.02164922 -0.039879225 -0.043126673 -0.0838493
0.77017283 -0.03520596 -0.08766434 -0.028308019 -0.050241195 -0.062416494 -0.055674154 -0.048100192
-0.020445047 -0.014622742 -0.051073715 -0.019167462 -0.027525092 -0.07045609 -0.03913066 -0.020553026
-0.07259701 -0.08677244 -1.5262061 0.92535466 -1.6836132 -0.05001487 -0.065493606 -0.03919763
-0.074537314 -0.03195663 -0.07156809 -0.01337714 -0.055733424 -0.035064906 -0.065764174 -0.02272271
-0.010165557 0.20512798 -0.015420496 -0.009454856 -0.054458212 1.0056772 -0.053775255 -0.07801705
-0.08304035 -0.06329855 -1.5634335 -0.063897036 -0.09139707 -0.07295139 -0.0059878007 -0.078991205
-0.06863313 -0.0107444255 -0.053998966 -0.024610607 -0.07515345 -0.046440218 -0.07861998 -2.5322726
-0.060027156 -0.060812052 -0.06533745 -0.02175613 -0.0517959 -0.08561227 -0.075924166 -0.0701668
-0.052605208 -0.073013276 -0.04815538 -0.021585938 -0.07457955 -0.024237262 -2.2354698 -0.08896817
-0.06805458 -0.03226557 -0.04430824 -0.054366447 -0.0745189 -0.09097215 -0.060355667 -0.03853027
-0.03009308 -0.052888654 -0.074828066 -0.055662677 -0.062243212 -0.077950925 -0.03867699 -0.087638445
-0.049762774 -0.066017404 -0.026178021 -0.023053268 -0.06494603 -0.09359143 0.383431 -0.052780617
00000000: 4230 6fbd cc65 2dbd 1881 12bd 75aa c2bd
00000010: 7763 85bc 8ab9 cbbd b26f 9cbd da94 7cbc
00000020: f0e3 a8bd d30a 4fbd 9727 cfbc 834e b9bd
00000030: fee3 2dbd 746a 99bd f995 a6bd 76e4 5ebc
00000040: 4ce0 0bbd 1c54 29bd 20cb 14c0 4f1b 83bd
00000050: 688c ecbc 82cd 28bd c540 81bd 9c2a 18bd
00000060: e9a1 8dbd 7158 f1bc 1879 83bd 3f09 00bf
00000070: 816d f6bc 09b3 f53f e3c4 8cbc 6342 bcbc
00000080: 5ec9 62bd ee4f 93bd 0695 63bd b3a3 08c0
00000090: 0feb 3cc0 2944 88bd ef91 f8bc bcc3 cfbd
000000a0: d448 d8bc 1313 8abd 813b 92bc f284 0fbd
000000b0: 2e00 3fbd a859 95bd 0810 46bd 887e 0dbd
000000c0: 01f0 5abd 2578 bbbd 60cc 28bd 1850 fbbf
000000d0: 76d1 e2bc 87ad 60bd 3024 71bd 66f9 12bd
000000e0: cd47 e7bc c434 5dbd 4a51 dbbd 475e ddbc
000000f0: 36f3 ecbc b150 99bd 6afd 7bbd e72d 87bd
00000100: d178 5ebd 036a 70bd 425d cabe e56f 7bbd
00000110: 0deb 42bd dc00 37bd 7933 07bd 11ff 91bd
00000120: 487f 4b3f b054 9bbd bd33 e1bc ffee cdbc
00000130: 5782 a0bd d298 0bbc 6955 0fbd 7282 13bd
00000140: 8a3d 96bd 451a 28bd 04b3 a3bd 5f9f a2bd
00000150: 300c 58bd 113b cbbc 3858 bfbd 661f 07bd
00000160: c814 b5bd a60e 9b3f 4ad7 12bd 118c a3bd
00000170: 5947 74bd 1e04 23bd bf41 94bc 1659 b3bd
00000180: 83f2 38bd 5f04 40bd 563f 86bd 9abe 73bd
00000190: 5fe4 5ebd 94e9 81bd 9a21 12bd 1055 aebd
000001a0: 13ba 51bd c6bc 46bd 080d cfbc 68c4 01bd
000001b0: c7ff 3fbd da43 15bf 5f70 aebd 365d 80bd
000001c0: f19c 4f40 bc74 1ebd c32c 88bd 0922 97bd
000001d0: 1d69 cdbd 165b 43bd 4e75 90bd bd69 98bd
000001e0: 6f46 30bd b673 b9bd 70c5 7fbd 9fbc 64bd
000001f0: cff5 85bd 19db 95bd 37a4 01bd a694 dbbc
00000200: 605b 2fbd 3afb 5dbd 2f5c 08bd 0ed9 b1bd
00000210: 3554 6abc 0039 80bd 97bb 21bd 8d98 57bd
00000220: fa81 2bbd 416f 82bd 280b 8dbd bae9 d9bc
00000230: 4871 93bd 5d15 abbd a09d 82bd 33b7 60bd
00000240: 43b6 abbd 3879 60bc 6f65 9fbd 6852 bfbd
00000250: 9a51 a3bd ec04 76bd 6e8c 43bd e436 323e
00000260: f788 67bc bc13 63bd 07bc 2bbd d682 5dbd
00000270: b459 b1bc 6658 23bd 98a5 30bd 2fb9 abbd
00000280: 0c2a 453f 2034 10bd 5d89 b3bd 38e6 e7bc
00000290: b6c9 4dbd 70a8 7fbd 950a 64bd b504 45bd
000002a0: 5f7c a7bc 3a94 6fbc ac32 51bd 1505 9dbc
000002b0: 4d7c e1bc 484b 90bd 7947 20bd d25e a8bc
000002c0: bead 94bd c0b5 b1bd b95a c3bf 0be4 6c3f
000002d0: a380 d7bf 64dc 4cbd 8321 86bd b28d 20bd
000002e0: 05a7 98bd f5e4 02bd 4a92 92bd cb2b 5bbc
000002f0: bb48 64bd 38a0 0fbd 5eaf 86bd fa24 babc
00000300: 708d 26bc 120d 523e 40a6 7cbc 8ae8 1abc
00000310: 930f 5fbd 08ba 803f 7143 5cbd 67c7 9fbd
00000320: 0f11 aabd aca2 81bd 971e c8bf 73dc 82bd
00000330: 632e bbbd 8a67 95bd 5035 c4bb 24c6 a1bd
00000340: 878f 8cbd 6309 30bc 052e 5dbd 2f9c c9bc
00000350: 0dea 99bd 1938 3ebd 8303 a1bd c110 22c0
00000360: 09df 75bd 0f16 79bd a4cf 85bd e939 b2bc
00000370: f027 54bd 7c55 afbd 217e 9bbd 9cb3 8fbd
00000380: 8f78 57bd fc87 95bd 933e 45bd fed4 b0bc
00000390: 2abd 98bd 398d c6bc f011 0fc0 f234 b6bd
000003a0: 3360 8bbd e728 04bd 8f7c 35bd 5aaf 5ebd
000003b0: 5d9d 98bd 9b4f babd 8137 77bd ebd1 1dbd
000003c0: c385 f6bc c6a1 58bd 753f 99bd 8cfe 63bd
000003d0: bdf2 7ebd bca4 9fbd c36b 1ebd c97b b3bd
000003e0: 0dd4 4bbd 2234 87bd 4a73 d6bc 35da bcbc
000003f0: 6d02 85bd ddac bfbd 1151 c43e 7d30 58bd

fc1.weight f4 [128, 256]
-0.040950164 -0.03004774 0.10386894 -0.03252505 0.064270966 -0.06119165 0.11682512 0.029645167
0.068592906 0.088381626 0.073581666 -0.04456196 0.055236556 0.058597364 0.029131876 0.0070511545
0.096413225 -0.09932697 -0.24964072 0.057031304 -0.11604484 0.011876001 0.037133925 -0.0862672
0.07355638 -0.05335114 -0.057615083 -0.4898135 0.09595141 -1.580921 -0.026054565 -0.0072042374
0.019537091 -0.09387183 0.029892497 -1.3599539 0.008729703 0.0635691 0.060015537 0.052300785
0.09154224 0.05475967 0.029304447 0.07671882 -0.040368088 0.045036092 -0.047824904 -0.08240348
0.06290492 0.09509236 0.020040771 -0.10413791 -0.02724477 -0.017171254 -0.019452218 -0.012955003
0.015778705 0.016944826 -0.094689965 -0.045542795 0.016680034 -0.00034670666 0.102223784 0.06865871
0.06308496 0.08018422 0.037464537 -0.09331183 0.07823518 0.06270097 0.016054692 -0.014735094
-1.3024484 0.028203825 0.050977036 0.031590868 -0.013914826 0.02399491 0.05557332 0.038907327
-0.10497131 -0.042316698 0.072724625 -0.07393352 -0.035740763 0.036609486 0.0901692 -0.01263245
0.11757798 -0.51611197 0.09621396 -0.006528748 0.029641915 0.047373373 -0.011146983 -0.08604069
0.11659782 -0.03608084 0.059026662 0.08290715 -0.017467903 -0.027931893 0.10004491 0.07238679
0.053404354 -0.022889743 -0.008116133 -0.07159625 -0.09097611 -1.5416284 -0.039430942 -0.08502873
-0.80864984 -0.04115189 -0.0928287 0.051875856 -0.06843902 0.043123316 0.092475966 -0.024156183
-0.047257558 -0.12031159 -0.049783967 0.12868896 0.074589334 0.08251792 0.08323787 0.111474946
-0.06438345 -0.025075294 -0.031452037 0.013589778 0.03158939 0.008877953 0.040790524 0.07562989
-0.117486626 -0.096997716 0.08645868 -0.015087473 -0.049390774 -0.06908285 0.091092356 0.09440468
-0.00077126914 0.06145931 0.12016087 0.060125344 0.111505724 0.15460828 -0.01925549 -1.1127931
0.010316492 -0.036726642 0.075481616 0.054078262 0.034733325 0.03828235 -0.060900774 -0.012889903
-1.3061286 -0.0889157 0.073520094 -0.009106321 0.08184586 0.059507523 0.058443554 0.03012224
-0.10769514 0.07757788 0.10389025 0.06245628 0.09264327 0.021975761 -0.029470148 0.04601189
0.065500244 -0.10043171 -0.7319592 -1.2250752 -0.42315188 0.034768198 -0.0062487577 0.08578639
-0.037651982 0.14010036 -0.067219734 0.12930407 0.10256323 0.027008463 0.0545498 0.050720625
0.13085987 -1.590753 0.027192354 0.009280352 0.021565335 -0.314484 0.048882183 0.03668152
0.10795023 -0.031073848 -0.36388117 0.026540652 -0.024508873 0.10396623 0.050250806 -0.11212254
0.11758096 0.11476473 -0.117749184 0.020142458 -0.11390613 -0.06736483 0.1128484 0.20603018
-0.007957196 -0.04324478 0.07096856 -0.029841967 -0.04056044 0.07087146 -0.09008138 -0.014214466
0.097135484 0.05926823 0.054332647 0.0055314363 -0.040407352 0.014520838 -0.27986377 -0.12113247
0.058597203 -0.049475048 -0.10071922 0.11508126 -0.100280516 -0.010058163 0.025018154 -0.064845644
0.049069252 -0.05222756 0.008665097 0.07581205 0.092617095 -0.02197196 -0.11514802 -0.04079548
-0.013244687 -0.04903686 0.0024426356 -0.04293035 0.035185613 0.029807005 -0.624561 0.110828795
00000000: 5cbb 27bd ae26 f6bc 3db9 d43d fd38 05bd
00000010: 7fa0 833d 18a4 7abd 0242 ef3d 6cda f23c
00000020: 707a 8c3d 6d01 b53d fcb1 963d 9a86 36bd
00000030: ba3f 623d ca03 703d f9a5 ee3c 5f0d e73b
00000040: 4c74 c53d f06b cbbd d1a1 7fbe a899 693d
00000050: eba8 edbd 8f93 423c be19 183d dcac b0bd
00000060: baa4 963d ba86 5abd cbfd 6bbd d6c8 fabe
00000070: 2c82 c43d 9f5b cabf 6270 d5bc 8611 ecbb
00000080: 400c a03c e03f c0bd 1ce1 f43c f812 aebf
00000090: 0707 0f3c 8430 823d dad2 753d 5939 563d
000000a0: 7f7a bb3d ad4b 603d e10f f03c c21e 9d3d
000000b0: 0259 25bd c477 383d 0ce4 43bd 28c3 a8bd
000000c0: 4bd4 803d c9bf c23d 8b2c a43c 4246 d5bd
000000d0: 6d30 dfbc bbaa 8cbc 425a 9fbc 3941 54bc
000000e0: 5842 813c e0cf 8a3c d0ec c1bd 158b 3abd
000000f0: 91a4 883c 2ec6 b5b9 b45a d13d f09c 8c3d
00000100: b032 813d a037 a43d 6a74 193d 461a bfbd
00000110: c439 a03d 5e69 803d 2185 833c 776b 71bc
00000120: a1b6 a6bf b50b e73c 4ccd 503d 6d65 013d
00000130: 03fb 63bc f990 c43c d9a0 633d 4a5d 1f3d
00000140: 33fb d6bd 4654 2dbd a6f0 943d 756a 97bd
00000150: e864 12bd d4f3 153d a1aa b83d 56f8 4ebc
00000160: b9cc f03d ea1f 04bf d30b c53d 1cef d5bb
00000170: 9ad3 f23c 950a 423d d6a1 36bc 1a36 b0bd
00000180: d6ca ee3d 81c9 13bd f1c5 713d 39cb a93d
00000190: d918 8fbc 6dd1 e4bc 59e4 cc3d 863f 943d
000001a0: 86be 5a3d 4583 bbbc 87f9 04bc 0ea1 92bd
000001b0: af51 babd 1454 c5bf 5782 21bd 8b23 aebd
000001c0: ad03 4fbf e28e 28bd f91c bebd c77b 543d
000001d0: c229 8cbd 13a2 303d 0a64 bd3d 30e3 c5bc
000001e0: 2491 41bd ec65 f6bd 46ea 4bbd 0ac7 033e
000001f0: 4bc2 983d 28ff a83d 9e78 aa3d fa4c e43d
00000200: 78db 83bd b46a cdbc dad3 00bd a9a7 5e3c
00000210: e063 013d d574 113c f713 273d d8e3 9a3d
00000220: d49c f0bd bda6 c6bd 4011 b13d 7331 77bc
00000230: fb4d 4abd 4f7b 8dbd a18e ba3d 3e57 c13d
00000240: ff2e 4aba c2bc 7b3d e716 f63d fe45 763d
00000250: 1d5d e43d a251 1e3e b0bd 9dbc 0170 8ebf
00000260: 8106 293c ad6e 16bd 1b96 9a3d 2b81 5d3d
00000270: 8844 0e3d f4cd 1c3d 1773 79bd 2c30 53bc
00000280: 392f a7bf 6f19 b6bd b491 963d ae32 15bc
00000290: cd9e a73d 29be 733d 8262 6f3d eac2 f63c
000002a0: 458f dcbd 27e1 9e3d 69c4 d43d 28d2 7f3d
000002b0: c1bb bd3d 8306 b43c 616b f1bc f776 3c3d
000002c0: fe24 863d 24af cdbd ae61 3bbf 44cf 9cbf
000002d0: 5da7 d8be 1969 0e3d 61c2 ccbb c6b0 af3d
000002e0: f738 1abd 7876 0f3e 80aa 89bd 4968 043e
000002f0: ac0c d23d da40 dd3c 9c6f 5f3d 6ec0 4f3d
00000300: 2100 063e cb9d cbbf 80c2 de3c 9e0c 183c
00000310: c9a9 b03c 0c04 a1be af38 483d 5d3f 163d
00000320: 0315 dd3d 958e febc a24e babe c86b d93c
00000330: d5c6 c8bc 3fec d43d cad3 4d3d 81a0 e5bd
00000340: 49ce f03d c509 eb3d 7c26 f1bd cc01 a53c
00000350: 9e47 e9bd 92f6 89bd 101d e73d 93f9 523e
00000360: e65e 02bc 7021 31bd f757 913d 2477 f4bc
00000370: b422 26bd 0e25 913d 967c b8bd cbe3 68bc
00000380: f8ee c63d 3ec3 723d e98b 5e3d 0d41 b53b
00000390: 2e82 25bd cfe8 6d3c 4e4a 8fbe 4d14 f8bd
000003a0: 9f03 703d 59a6 4abd e145 cebd b9af eb3d
000003b0: df5f cdbd feca 24bc dff2 cc3c cbcd 84bd
000003c0: d7fc 483d 91ec 55bd 0df8 0d3c 5943 9b3d
000003d0: 08ae bd3d 8afe b3bc bad2 ebbd 2919 27bd
000003e0: 3e00 59bc e0da 48bd a014 203b bcd7 2fbd
000003f0: ca1e 103d d22d f43c 3be3 1fbf 35fa e23d

fc1.bias f4 [128]
4.17112 -0.10338096 1.4573866 -0.6888486 -0.11061897 -0.012266603 0.6058767 -0.61284834
-0.17710407 -0.025936604 -0.2059343 2.4419053 4.3919325 0.3256044 -0.11452672 -2.4791436
-0.020703068 -4.7716374 -0.015233683 -0.07705792 4.9961815 -0.11614631 -0.07176731 3.6349428
-0.21069992 -1.7062246 -0.06665452 -0.056744646 -4.7510037 0.96303153 -0.09224752 -4.304851
-0.012740106 -0.12320297 -1.330999 -0.0856862 5.8988647 0.07598777 -0.37963748 2.7607074
0.63145816 -0.24394786 -0.031550616 -0.11290931 -0.05856161 -0.01760836 0.16699964 3.213712
0.38869473 -0.14525339 -0.007831929 -1.1533239 -0.21622679 -0.11827463 0.19258769 -4.5197005
-0.08530139 -0.018238623 -1.4193649 -0.4265105 -0.6005599 -0.07159107 -0.03610837 -5.0779266
-0.26495788 -0.01282713 -0.060873028 -0.06274163 1.5477068 -0.2975519 0.5950731 -0.79316545
-0.05279054 0.12986667 -0.083947614 -0.64131814 3.673687 -0.033732362 -0.05211068 -0.11494116
-0.24360149 -5.377247 -7.1025147 -0.17050166 2.281557 -0.041672423 -1.8585107 -0.07800805
-0.69764954 -0.6994139 0.34765628 -0.06556107 -0.18540204 4.8607483 1.598069 -0.0761543
-0.09625756 -0.108867414 -0.47771457 -0.06744772 -0.13702045 -0.1398796 -0.33046106 -0.17614685
-3.8285053 -0.27974617 1.859479 0.99606705 -0.021729799 0.71379673 3.3867464 -0.47841176
-2.8258476 -0.33508727 -0.7092124 -0.11491873 -0.076665714 -0.055604443 -0.13463348 1.8906641
3.3425808 -0.026400404 -0.053800423 -0.11697415 -0.28992143 -0.01899546 -0.04787903 -0.005540314
00000000: d179 8540 66b9 d3bd a58b ba3f 6258 30bf
00000010: 338c e2bd ddf9 48bc bc1a 1b3f a1e3 1cbf
00000020: c55a 35be 0079 d4bc 71e0 52be 2d48 1c40
00000030: b68a 8c40 9fb5 a63e fc8c eabd 4aaa 1ec0
00000040: 7b99 a9bc 41b1 98c0 b396 79bc 8bd0 9dbd
00000050: b8e0 9f40 1ede edbd bdfa 92bd e7a2 6840
00000060: b8c1 57be 9165 dabf 2a82 88bd 136d 68bd
00000070: 3908 98c0 3c89 763f 45ec bcbd 57c1 89c0
00000080: e1bb 50bc d751 fcbd 2d5e aabf 3f7c afbd
00000090: 80c3 bc40 7a9f 9b3d d85f c2be 6eaf 3040
000000a0: 3ea7 213f 78cd 79be 383b 01bd ff3c e7bd
000000b0: 4cde 6fbd 683f 90bc f401 2b3e 75ad 4d40
000000c0: ff02 c73e 4ebd 14be 7e51 00bc 1ea0 93bf
000000d0: 8e6a 5dbe f839 f2bd b535 453e 63a1 90c0
000000e0: 7fb2 aebd 2a69 95bc c0ad b5bf 965f dabe
000000f0: 4bbe 19bf 579e 92bd 5fe6 13bd 607e a2c0
00000100: 8fa8 87be e228 52bc ff55 79bd af7e 80bd
00000110: 421b c63f b958 98be b656 183f e40c 4bbf
00000120: e53a 58bd c5fb 043e baec abbd 6d2d 24bf
00000130: b01d 6b40 f22a 0abd 0272 55bd 4566 ebbd
00000140: ab72 79be 6812 acc0 cd47 e3c0 fd97 2ebe
00000150: 0805 1240 b4b0 2abd aee3 edbf afc2 9fbd
00000160: 2999 32bf ca0c 33bf 0100 b23e e244 86bd
00000170: 08da 3dbe 408b 9b40 868d cc3f c9f6 9bbd
00000180: af22 c5bd e1f5 debd 0197 f4be 0822 8abd
00000190: 174f 0cbe 993c 0fbe 3132 a9be d75f 34be
000001a0: 3b06 75c0 e43a 8fbe 6803 ee3f 40fe 7e3f
000001b0: b102 b2bc 62bb 363f 74c0 5840 63f2 f4be
000001c0: b0da 34c0 8f90 abbe f28e 35bf 835a ebbd
000001d0: ea02 9dbd 7cc1 63bd 5cdd 09be 4801 f23f
000001e0: d8ec 5540 a945 d8bc d55d 5cbd 2590 efbd
000001f0: 9570 94be 5e9c 9bbc cd1c 44bd 868b b5bb

fc2.weight f4 [64, 128]
-0.4319611 -0.11512325 -0.10106906 -0.09013956 0.00011499111 -0.076466285 -0.27357128 -0.13185707
0.018035982 -0.14604272 -0.09545578 -0.40596366 -0.38812906 -0.14642918 0.015544662 -0.43447956
0.0044992436 -0.13169043 -0.34049645 -0.03703691 -0.046851505 -0.0010122287 0.02102994 -0.09958236
0.015448054 -0.13244124 -0.056491297 0.02059193 0.014315431 -0.11805657 0.022428127 -0.12186856
-0.022445139 -0.045756057 -0.3579941 -0.028508352 -0.6255244 -0.03873937 -0.025925655 0.010315008
-0.29377452 0.0102603985 -0.0029683234 0.011998314 -0.053742524 -0.08042477 -0.08755517 -0.38973913
-0.34153652 -0.1434756 -0.006387831 -0.050900266 -0.107986294 -0.046401314 -0.3488852 -0.37189138
-0.044763897 -0.044063956 -0.117654644 -0.00066212 -0.004256428 -0.0006038093 -0.020285342 -0.2967503
-0.12707664 -0.009226612 0.02191182 -0.06987 -0.38427556 -0.09656744 -0.09521703 -0.39467117
0.0176476 -0.28523275 -0.060696155 -0.029537622 -0.38915977 -0.04401292 -0.083226986 -0.09933251
-0.030388573 -0.13135342 -0.1316159 -0.057982992 -0.10920932 -0.4846687 -0.34761718 -0.08266776
0.018196452 -0.13482647 0.01399696 -0.0035854182 -0.07022834 -0.11766718 -0.0050948462 0.005472891
-0.091682486 -0.010368508 -0.02160066 -0.02358754 0.02336634 -0.18609254 -0.14094512 -0.13365307
-0.063275695 0.04461791 -0.36692464 -0.12954408 -0.06441607 -0.14138317 -0.09676445 -0.02264888
-0.3143171 0.015864817 -0.12996954 0.019161016 -0.083777644 -0.14176399 -0.12309469 -0.11699046
-0.0013235034 -0.0038872263 0.007599045 -0.049619894 0.026644804 -0.059946295 -0.012983343 0.024157794
-0.028469559 0.11321056 -0.72107464 -0.47332886 -0.0060354252 -0.063767456 -1.2036816 -0.11900776
0.01729934 0.041290075 0.08937062 -0.6545296 0.28627595 -0.15693632 0.07848656 -0.63011056
-0.06961041 -0.008319322 0.023860801 0.097781666 0.07058796 -0.0037205839 -0.01471851 -1.2391514
0.11000333 -0.2911919 -0.09172706 0.08644172 -0.03180345 -0.55741274 -0.07145358 -0.38810107
-0.05748508 -0.06260099 -0.2674685 -0.025124699 -0.029754322 -0.070472784 0.37140426 -0.28730237
-0.0765632 0.16905694 0.012289344 0.07050905 0.02187201 -0.02980869 -0.36481977 -1.1728827
-0.34436122 -0.0450282 0.100617 -0.3686863 -0.30850402 -0.11570983 -0.12298726 -0.5423841
-0.057496782 0.03919121 -0.12879683 0.04821414 -0.010796163 0.058835536 0.15129305 -0.19705756
0.023139017 -0.012276814 -0.017924687 -0.007453766 -0.09014687 -0.030114152 -0.65231097 -0.31436288
0.021942744 -0.46602207 0.11144013 -0.23034771 -0.15708353 0.12492727 0.10517308 -0.0063730977
-0.048774954 -0.6627384 -0.29987723 0.007575223 -0.030806 -0.6653089 -0.28607178 0.024095051
-0.078904785 -0.7279736 -0.017055562 0.02471901 -0.13184385 -0.6257045 -0.34293813 0.023012327
0.12083989 -0.002847254 0.013696997 -0.021304525 -0.019695025 -1.2022518 0.020914944 -0.02985933
-0.0898441 0.27136678 -0.51346725 0.42454615 -0.08527935 -0.109185204 -0.14194521 0.03640448
-0.80387956 -0.014558852 -0.15182607 -0.034744978 -0.10654667 -0.015637983 0.0790869 -0.16028035
-0.25430077 -0.13190381 -0.023135902 -0.007399622 0.028636673 0.11138756 0.12973139 -0.0074015907
00000000: 012a ddbe bdc5 ebbd 4cfd cebd 179b b8bd
00000010: 6227 f138 5b9a 9cbd 8911 8cbe 8a05 07be
00000020: 32c0 933c 398c 15be 527e c3bd 78da cfbe
00000030: dab8 c6be 88f1 15be 0aaf 7e3c 1b74 debe
00000040: 646e 933b dbd9 06be 8d55 aebe 04b4 17bd
00000050: 5de7 3fbd c2ac 84ba fb46 ac3c d6f1 cbbd
00000060: d619 7d3c ad9e 07be 6b63 67bd 68b0 a83c
00000070: 458b 6a3c a5c7 f1bd 31bb b73c 3996 f9bd
00000080: dede b7bc b46a 3bbd 014b b7be 598a e9bc
00000090: 5e22 20bf 2cad 1ebd 0a62 d4bc 4800 293c
000000a0: 9d69 96be 3b1b 283c 3488 42bb 9494 443c
000000b0: 1f21 5cbd beb5 a4bd 2050 b3bd e38b c7be
000000c0: e0dd aebe 45eb 12be 0351 d1bb cc7c 50bd
000000d0: eb27 ddbd 4e0f 3ebd 15a1 b2be 8c68 bebe
000000e0: 595a 37bd 687c 34bd ebf4 f0bd 1f92 2dba
000000f0: 8279 8bbb f548 1eba 722d a6bc a8ef 97be
00000100: 6120 02be 372b 17bc 6b80 b33c 0118 8fbd
00000110: c4bf c4be 26c5 c5bd 2501 c3bd 5712 cabe
00000120: b391 903c 070a 92be 889c 78bd e2f8 f1bc
00000130: f33f c7be e446 34bd e972 aabd d86e cbbd
00000140: 75f1 f8bc 8381 06be 52c6 06be 937f 6dbd
00000150: 23a9 dfbd 7f26 f8be e1fa b1be b74d a9bd
00000160: ba10 953c f30f 0abe 8153 653c 56f9 6abb
00000170: e0d3 8fbd 7efb f0bd abf2 a6bb f055 b33b
00000180: 07c4 bbbd ade0 29bc def3 b0bc a83a c1bc
00000190: c46a bf3c 0b8f 3ebe eb53 10be 5adc 08be
000001a0: b096 81bd 45c1 363d 8cdd bbbe 34a7 04be
000001b0: 93ec 83bd c0c6 10be 712c c6bd 258a b9bc
000001c0: 2cee a0be eff6 813c bc16 05be 90f7 9c3c
000001d0: 9d93 abbd 942a 11be 1219 fcbd b298 efbd
000001e0: 6879 adba d6c0 7ebb 6901 f93b 3b3e 4bbd
000001f0: 3446 da3c 3f8a 75bd 16b8 54bc 91e6 c53c
00000200: fe38 e9bc f0da e73d 5998 38bf 2958 f2be
00000210: d1c4 c5bb 8398 82bd 3d12 9abf 57ba f3bd
00000220: 58b7 8d3c c81f 293d f207 b73d 408f 27bf
00000230: c392 923e eab3 20be 90bd a03d ed4e 21bf
00000240: e78f 8ebd c44d 08bc ba77 c33c c141 c83d
00000250: 6c90 903d 0ad5 73bb e825 71bc 839c 9ebf
00000260: 6d49 e13d 1b17 95be 66db bbbd 5b08 b13d
00000270: 5644 02bd 9ab2 0ebf 4156 92bd 2fb5 c6be
00000280: 7a75 6bbd f334 80bd a2f1 88be 50d2 cdbc
00000290: 56bf f3bc 0954 90bd b328 be3e 4c19 93be
000002a0: 2bcd 9cbd 431d 2d3e 3f59 493c 0c67 903d
000002b0: ee2c b33c 5b31 f4bc a8c9 babe 0521 96bf
000002c0: 1d50 b0be 7d6f 38bd 4910 ce3d 73c4 bcbe
000002d0: 3df4 9dbe 46f9 ecbd bfe0 fbbd afd9 0abf
000002e0: bf81 6bbd f686 203d 51e3 03be 317c 453d
000002f0: 64e2 30bc 88fd 703d 91ec 1a3e 75c9 49be
00000300: 098e bd3c b124 49bc cbd6 92bc b93e f4bb
00000310: ec9e b8bd f4b1 f6bc dafd 26bf 2cf4 a0be
00000320: 45c1 b33c 729a eebe b93a e43d 45e0 6bbe
00000330: 81da 20be ded9 ff3d fc64 d73d 6bd5 d0bb
00000340: 3fc8 47bd 39a9 29bf 8289 99be 9439 f83b
00000350: dd5c fcbc af51 2abf 0078 92be fc62 c53c
00000360: d598 a1bd 7a5c 3abf 1bb8 8bbc 857f ca3c
00000370: 1302 07be 2c2e 20bf 9695 afbe 5984 bc3c
00000380: e77a f73d ff98 3abb 5f69 603c d486 aebc
00000390: 7657 a1bc 63e3 99bf d155 ab3c 8e9b f4bc
000003a0: 2f00 b8bd 96f0 8a3e 9772 03bf 1d5e d93e
000003b0: f1a6 aebd 7e9c dfbd 165a 11be dd1c 153d
000003c0: 0dcb 4dbf 4088 6ebc 4b78 1bbe c050 0ebd
000003d0: 2435 dabd 3a1b 80bc 50f8 a13d 8820 24be
000003e0: b633 82be cb11 07be 8187 bdbc 8778 f2bb
000003f0: 7597 ea3c 291f e43d 4ed8 043e 0b89 f2bb

fc2.bias f4 [64]
-0.270841 -0.26794648 -0.32573572 -0.41983524 -0.05718318 -0.122995205 -0.042514764 -0.30021837
-0.18155915 -0.08850657 -0.56360084 2.1056235 -0.08018646 -0.69801265 -0.35299137 -0.22284956
-0.7107262 0.8890038 -0.36281064 -0.2149669 -0.15482178 -0.05504069 -0.3507704 -0.12740986
0.9896222 3.4057767 -0.009778238 -0.45450532 1.5026362 0.22415258 1.8218873 0.20596865
-0.35619417 -0.21630828 -0.5866577 -0.36706543 -0.44119698 -0.4330223 4.1890693 -0.08149425
-0.6419989 -0.10124338 -0.5046054 -0.41291472 -0.5698069 -0.35618284 -0.092808835 -0.5733077
-0.0030033803 0.728174 -0.22618406 -0.09563549 -0.16439629 -0.28857526 -0.28669083 3.3931022
-0.012408823 -0.49630117 -0.07173446 -0.1422809 -0.96199965 -0.067425296 -0.27201748 -0.22640994
00000000: acab 8abe 4830 89be d5c6 a6be a5f4 d6be
00000010: e938 6abd e9e4 fbbd f623 2ebd 39b6 99be
00000020: a4ea 39be ef42 b5bd 2548 10bf 89c2 0640
00000030: cc38 a4bd f5b0 32bf 49bb b4be ad32 64be
00000040: 27f2 35bf c195 633f 51c2 b9be 4820 5cbe
00000050: 9a89 1ebe 5972 61bd 2e98 b3be bb77 02be
00000060: e157 7d3f 3ff8 5940 e734 20bc ecb4 e8be
00000070: 6256 c03f 4188 653e 9a33 e93f 72e9 523e
00000080: 155f b6be eb7f 5dbe 332f 16bf 00f0 bbbe
00000090: 92e4 e1be 19b5 ddbe db0c 8640 75e6 a6bd
000000a0: 0a5a 24bf b058 cfbd d22d 01bf 8f69 d3be
000000b0: ddde 11bf 995d b6be 8f12 bebd 4bc4 12bf
000000c0: 5cd4 44bb 9c69 3a3f cb9c 67be 8adc c3bd
000000d0: 8057 28be 23c0 93be 24c9 92be 9628 5940
000000e0: 604e 4bbc 301b febe 84e9 92bd 16b2 11be
000000f0: 9c45 76bf 4616 8abd e045 8bbe 02d8 67be

out.weight f4 [10, 64]
-0.060454458 -0.05976749 -0.25229216 -0.2075967 -0.04913438 0.017443597 0.069868974 -0.10412603
0.093370624 0.043998796 0.16743636 -0.007448158 0.23290761 0.07328098 0.2212783 -0.039970554
0.11052005 -0.0069482625 0.18642744 0.08397067 0.031983905 0.23545423 -0.3302073 -0.15394543
0.05974573 -0.0085305385 -0.0074607455 -0.3229401 -0.0067046764 -0.049077455 -0.006319234 0.12044346
-0.08946963 -0.058079246 -0.4028557 -0.006940242 0.014317326 0.051600475 -0.010123938 -0.00677682
0.024275923 0.012070809 0.22677492 -0.16799322 0.3030275 0.0068739783 0.09313381 0.009700928
0.028983552 -0.008797587 0.009923906 -0.24489807 -0.0063885837 0.10851231 -0.08786541 -0.003570329
-0.017882971 -0.21079408 -0.14080903 -0.18177757 -0.041726418 -0.0030852584 -0.041344747 0.046381153
-0.21694623 0.11771465 0.21065082 -0.04180261 -0.088883914 -0.28440896 -0.11812981 -0.12669465
0.1537452 0.008985119 -0.04548815 -0.005420578 -0.3054781 0.12952948 -0.16551097 0.10333026
-0.44224584 -0.0017577577 -0.252651 0.10045309 -0.03058307 -0.13779807 -0.182113 -0.032433588
-0.020097585 -0.006055359 -0.017616302 -0.031176928 -0.0057004727 0.013431252 -0.0047093593 -0.006434296
-0.013453545 0.03428308 0.29261196 0.0041587222 0.15519546 -0.024911527 -0.0054970756 -0.008286076
0.22393207 -0.06854111 -0.14584512 0.030581346 0.26684514 -0.17394966 -0.059372794 0.31635743
0.04129699 -0.006899572 -0.0930048 -0.12252809 0.1241765 -0.09821571 -0.22515799 0.29036507
-0.26024994 0.12844907 -0.032483507 -0.65568346 -0.18222517 0.10241584 0.14834349 0.0053112297
-0.08824646 0.09850594 0.2384316 0.3224331 -0.049685583 0.07127327 -0.059548184 0.23601806
-0.018623052 0.0065900837 -0.012631236 -0.020793514 -0.012612705 -0.14699635 -0.24480413 0.026453827
0.16045795 -0.019205552 0.033572506 -0.13738912 -0.14514434 0.41915733 0.33980972 0.0014630823
0.19920106 -0.022307921 0.16747731 0.27130163 -0.019219095 -0.022393929 -0.012929484 -0.017536309
-0.15475208 -0.21301188 -0.36889815 -0.014474062 -0.14745273 0.20431747 0.17559336 -0.018822605
0.112257 0.027692951 -0.041272283 -0.07797011 0.16306119 0.07334477 0.07503311 0.18839975
0.0111999735 -0.022134807 -0.043942418 -0.36926594 0.032245494 0.13813056 0.11682029 -0.24178727
0.010454954 -0.13106494 0.02331063 -0.045532133 -0.122311026 0.0106913075 -0.09341674 -0.0020402179
0.040333234 0.069789715 0.30101305 -0.3022087 0.0093194805 0.06623561 -0.2693934 0.077760905
0.17921548 0.04317917 0.17081158 -0.02594631 0.3205806 0.41648474 -0.13919689 -0.10103445
0.068281494 -0.026381325 0.038382858 0.105146766 0.05884875 -0.12677506 0.016904227 0.021859214
-0.3174077 0.13336241 0.020545857 0.12918022 -0.026142217 -0.043699123 -0.013721151 -0.02250029
0.3186449 0.1980826 0.36065647 0.19901204 0.15683477 0.08641998 -0.04142792 -0.02464049
0.08709106 -0.12204326 0.012018795 0.04823364 -0.011206224 -0.08909034 0.1634949 -0.11108337
-0.013478304 -0.028219324 0.031083912 -0.4373032 -0.124525346 -0.16922837 -0.15722278 -0.01065076
0.059020203 0.029016629 0.13765307 -0.22088039 -0.10323139 -0.0052340617 0.050743166 0.15085988
00000000: 189f 77bd c1ce 74bd 702c 81be 3b94 54be
00000010: 2241 49bd e0e5 8e3c 7717 8f3d 0740 d5bd
00000020: 1939 bf3d 1538 343d 7074 2b3e ae0f f4bb
00000030: 557f 6e3e 5714 963d c796 623e 2ab8 23bd
00000040: 5658 e23d 40ae e3bb d6e6 3e3e d1f8 ab3d
00000050: 8e01 033d ea1a 713e ee10 a9be dfa3 1dbe
00000060: f0b7 743d acc3 0bbc 4579 f4bb 6858 a5be
00000070: e7b2 dbbb 7105 49bd 9411 cfbb 10ab f63d
00000080: da3b b7bd 81e4 6dbd 1a43 cebe f86a e3bb
00000090: 3893 6a3c 055b 533d e0de 25bc 1610 debb
000000a0: 4dde c63c a4c4 453c af37 683e 6a06 2cbe
000000b0: 6c26 9b3e 1c3f e13b f0bc be3d a4f0 1e3c
000000c0: ea6e ed3c c123 10bc e197 223c 8fc6 7abe
000000d0: 5357 d1bb b43b de3d c8f2 b3bd 2efc 69bb
000000e0: 4f7f 92bc 67da 57be 3e30 10be e623 3abe
000000f0: 52e9 2abd 0c32 4abb 1c59 29bd 2afa 3d3d
00000100: 2727 5ebe 6114 f13d d9b4 573e 3739 2bbd
00000110: c508 b6bd 0d9e 91be 0bee f1bd 3ebc 01be
00000120: 626f 1d3e 5236 133c c851 3abd 1b9f b1bb
00000130: a067 9cbe 60a3 043e b57b 29be d19e d33d
00000140: 0c6e e2be 9064 e6ba 795b 81be 5aba cd3d
00000150: 5989 fabc f01a 0dbe d57b 3abe 15d9 04bd
00000160: b1a3 a4bc 086c c6bb 1050 90bc c266 ffbc
00000170: 08cb babb c10e 5c3c f850 9abb c9d6 d2bb
00000180: 426c 5cbc 6a6c 0c3d 3cd1 953e e445 883b
00000190: 8feb 1e3e 4213 ccbc d020 b4bb 52c2 07bc
000001a0: 734e 653e 485f 8cbd 6c58 15be bb85 fa3c
000001b0: ed9f 883e dc1f 32be e330 73bd 9af9 a13e
000001c0: 0827 293d ce15 e2bb 4d79 bebd 02f0 fabd
000001d0: 4050 fe3d 5125 c9bd d18f 66be bbaa 943e
000001e0: 7b3f 85be 2788 033e 6d0d 05bd dfda 27bf
000001f0: 3c99 3abe 65bf d13d 5be7 173e d309 ae3b
00000200: 8fba b4bd 7bbd c93d 6a27 743e f415 a53e
00000210: 1c83 4bbd b8f7 913d cce8 73bd b8ae 713e
00000220: 5f8f 98bc a1f1 d73b 3ef3 4ebc 2957 aabc
00000230: 85a5 4ebc 3686 16be efad 7abe b2b5 d83c
00000240: 174f 243e f654 9dbc 5383 093d bcaf 0cbe
00000250: b8a0 14be ca9b d63e 8afb ad3e e5c4 bf3a
00000260: 5dfb 4b3e 1abf b6bc 2c7f 2b3e 0ce8 8a3e
00000270: 5d71 9dbc 7973 b7bc 30d6 53bc 4ea8 8fbc
00000280: 5477 1ebe c91f 5abe 38e0 bcbe 9e24 6dbc
00000290: d9fd 16be 9938 513e bfce 333e dd31 9abc
000002a0: ffe6 e53d 54dc e23c 200d 29bd cbae 9fbd
000002b0: 83f9 263e c835 963d f6aa 993d ddeb 403e
000002c0: 1880 373c 0e54 b5bc f7fc 33bd 6d10 bdbe
000002d0: da13 043d 1972 0d3e 7a3f ef3d 1597 77be
000002e0: 414b 2b3c e335 06be eff5 be3c e77f 3abd
000002f0: 347e fabd 982a 2f3c 4751 bfbd 2db5 05bb
00000300: 7634 253d e9ed 8e3d 621e 9a3e 19bb 9abe
00000310: bcb0 183c 89a6 873d efed 89be 1c41 9f3d
00000320: 4384 373e a4dc 303d 3be9 2e3e 5b8d d4bc
00000330: 2423 a43e 7d3d d53e a189 0ebe 26eb cebd
00000340: 2bd7 8b3d a61d d8bc 5837 1d3d 3057 d73d
00000350: 630b 713d 52d1 01be bc7a 8a3c 1812 b33c
00000360: 4383 a2be 2890 083e c94f a83c d247 043e
00000370: 3428 d6bc dafd 32bd aece 60bc 8752 b8bc
00000380: 6d25 a33e 2ad6 4a3e f7a7 b83e d0c9 4b3e
00000390: 4b99 203e f5fc b03d 53b0 29bd dada c9bc
000003a0: cc5c b23d d1f1 f9bd 7bea 443c a390 453d
000003b0: 4f9a 37bc ff74 b6bd 356b 273e ae7f e3bd
000003c0: 1bd4 5cbc 362c e7bc b0a3 fe3c 34e6 dfbe
000003d0: 2507 ffbd 344a 2dbe 02ff 20be 8680 2ebc
000003e0: 2bbf 713d 48b4 ed3c edf4 0c3e 782e 62be
000003f0: fb6a d3bd 7e82 abbb 11d8 4f3d 037b 1a3e

out.bias f4 [10]
0.051508818 0.048601992 0.13386463 0.17948647 0.0738429 0.1287253 0.04095976 0.08207597
0.09501461 0.11814047
00000000: e9fa 523d e212 473d cf13 093e 4dcb 373e
00000010: f23a 973d 91d0 033e 6cc5 273d 7217 a83d
00000020: 0597 c23d a1f3 f13d
