exps/regularModelExperiments/pretrainedmodels/cleanAccModel4.pt (torch, 973781 bytes, 8 tensors)

fc.weight f4 [256, 784]
000000 86 f1 61 bc a0 5e c4 3c c8 14 04 3c cf 76 01 3d
       -0.013790494 0.023970902 0.008061595 0.031607445
000010 ca 52 f8 3c 9a 15 88 3c b2 a1 d5 3c 6e 98 8e bc
       0.030312914 0.016611863 0.026078079 -0.017406669
000020 65 11 08 bd 63 09 d0 bc b3 75 f5 bc 80 d7 7a ba
       -0.033219714 -0.025395101 -0.02996335 -0.0009568855
000030 66 47 ef 3c a0 e3 c1 ba be 85 0c bd 38 4c 1a bc
       0.02920885 -0.0014792569 -0.034307234 -0.009417586
000040 98 64 37 bc 83 23 02 bd 5c 65 25 bc 2b 3d 07 3d
       -0.011193417 -0.031772148 -0.010094967 0.03301732
000050 a2 ca e5 3c 64 39 09 3c 72 24 dd 3c 9c d2 d6 3c
       0.028050724 0.008375499 0.026994918 0.026223473
000060 98 48 45 3c 64 c2 88 3c 6a 0d a3 3c ba 83 d7 3c
       0.0120412335 0.016694255 0.019903857 0.02630793
000070 64 14 ab bb 20 33 7e 3b 98 88 1a bc a0 fb 18 bc
       -0.0052209366 0.0038787797 -0.009431981 -0.009337336
000080 9c a1 06 bc c0 fb c2 bb 82 ce ee 3c 2e 8c 4e bc
       -0.008217242 -0.005950421 0.029151205 -0.012606664
000090 00 be 4a bb 23 d0 e8 bc 80 6a 5d 3b 0e 7f 80 3c
       -0.0030936003 -0.02841956 0.0033785403 0.015685584
0000a0 9c 00 2d bc 16 30 c1 3c 73 ff b2 bc 55 43 83 bc
       -0.010559227 0.0235825 -0.021850323 -0.016023317
0000b0 c0 de 96 ba fc d8 34 bc da 2c 09 bd 53 73 d6 bc
       -0.0011510476 -0.011038061 -0.03349004 -0.026178038
0000c0 ae 44 dd bc a0 ec 92 3c 03 5f a9 bc 3e 94 e9 3c
       -0.027010288 0.017935097 -0.020675188 0.02851307
0000d0 60 20 d6 3a 8c bb 8d 3c 3a 0c d3 3c 38 74 b5 bc
       0.0016336553 0.017301343 0.025762666 -0.022150144
0000e0 b6 d8 9c 3c 4c f7 86 3c 00 cf f7 3b 4c ae bb bc
       0.019146305 0.016475342 0.007562518 -0.02291026
0000f0 47 c6 99 bc 8e f1 19 bc 6c b1 9d 3c 24 fe 73 3c
       -0.018771304 -0.00939597 0.01924964 0.014892135
000100 e8 9c ad bc 8b f9 01 bd c8 39 01 bd 65 a1 d4 bc
       -0.021192983 -0.031732123 -0.031549245 -0.025955865
000110 99 73 6b bd cb 02 a5 bd 45 11 3d bd 5f 4e 4d bd
       -0.05748329 -0.08057173 -0.046159048 -0.05012357
000120 ea c6 94 bd 7a 26 69 bd f3 e4 3a bd 8f 30 92 3d
       -0.07264502 -0.05692146 -0.0456285 0.07138168
000130 81 29 4d 3d 23 e2 bb 3c a4 47 0d bd ee 3d fd 3c
       0.05008841 0.022934979 -0.03449215 0.03091332
000140 8a 97 61 bc 78 24 fd 3b 10 b9 38 bb f6 29 a5 3c
       -0.01376904 0.0077252947 -0.0028186478 0.02016161
000150 46 65 d2 3c 3c 4f 7f 3c ba e0 a7 bc 1e 99 84 bc
       0.025683057 0.015582856 -0.0204929 -0.016186293
000160 6e 19 da bc 7e b8 cd 3c 48 b3 e4 bb bc b4 4d bc
       -0.026623454 0.025112387 -0.00697938 -0.012555297
000170 37 7d b2 bd 11 c5 ec bc b1 6d 41 bd ae 54 92 bd
       -0.08715289 -0.028902562 -0.04722375 -0.071450576
000180 1a eb 31 bd f7 2b 92 bd 69 05 3e bd b0 f6 0a bd
       -0.0434371 -0.07137292 -0.04639188 -0.033926666
000190 96 87 97 bd 40 12 7e bd a2 24 b1 bd 53 4e 5e bd
       -0.07398908 -0.062029123 -0.08649565 -0.054273915
0001a0 9f 36 42 3d 10 21 bc 3d 5e 24 8d 3d 76 42 ef 3c
       0.047415372 0.09185994 0.06891702 0.029206496
0001b0 b0 d0 d9 bc ee cf 13 bc 0f a4 02 bd 40 da a8 bc
       -0.026588768 -0.009021742 -0.03189474 -0.020611882
0001c0 04 ca 1f 3c e0 83 e7 3b 78 e0 7c bc 3e 60 f2 3c
       0.009752754 0.0070652813 -0.015434377 0.029586907
0001d0 c7 99 95 bc 96 70 4d bd 4d 89 73 bd 19 89 4e bd
       -0.018261803 -0.0501562 -0.059457112 -0.050423715
0001e0 14 f3 d4 bc 4d 13 61 bd 4b 31 82 bd 62 6e 01 bd
       -0.025994815 -0.054950047 -0.06357058 -0.03159941
0001f0 f3 be 3a bd 72 5c b7 bd 24 5c 42 bd 5e f3 a6 bd
       -0.04559226 -0.089531794 -0.047451153 -0.08151887
000200 9d bf b3 bd 89 f3 d4 bc a7 33 0a bd c7 38 60 bd
       -0.08776782 -0.025995033 -0.033740666 -0.054741647
000210 64 e2 93 bd 61 4f c1 bd 58 14 c1 3d 50 7f 1d 3c
       -0.07220915 -0.094389684 0.094277084 0.009612873
000220 50 8f d6 3b 42 38 86 3c 1c 43 76 3c c0 86 d8 3a
       0.006547846 0.016384248 0.015030649 0.0016519651
000230 60 69 bd 3c f8 d9 87 3b 3c 32 c9 3c 26 62 f8 3c
       0.023121536 0.004145857 0.024560086 0.030320238
000240 c4 2b 81 bd ae 6d 18 bd 5c 55 31 bd 6d 94 90 bd
       -0.06307176 -0.037213974 -0.043294296 -0.0705956
000250 fe ab cc bc bf f3 9a bd 42 ae bb bd f9 29 b1 bd
       -0.024984356 -0.07566022 -0.091640964 -0.08650584
000260 71 d2 bc bd 7f d2 a4 bd ea a8 5c bd 0e 7c 26 bd
       -0.09219826 -0.080479614 -0.053872027 -0.04064565
000270 3f 38 9f bd ba 95 b7 bd 35 0b a6 bd e2 f8 51 bd
       -0.077744 -0.08964105 -0.08107606 -0.051262744
000280 ac d3 e0 bc b4 41 92 bd fe 02 be bd ed 17 38 3d
       -0.027444683 -0.07141438 -0.092779145 0.044944692
000290 5c 3a a5 3d 8b 67 a6 bd 50 78 7a 3c c3 29 b1 bc
       0.08067772 -0.08125218 0.015287474 -0.021626359
0002a0 58 2f 8d 3b 87 69 a2 bc ec 12 c4 3c 70 a7 3c 3b
       0.0043086223 -0.01982571 0.023934804 0.0028786324
0002b0 c5 7d 8b bd 34 e7 98 bd d4 56 af bd fa 93 93 bd
       -0.06811098 -0.074659735 -0.08561483 -0.07205959
0002c0 57 a5 f2 bc 71 cf 68 bd 3e 52 42 bd 53 8b 8a bd
       -0.029619856 -0.056838457 -0.047441714 -0.06764855
0002d0 17 89 17 bd 10 c6 ef bc 54 94 85 bd ec 71 7e bd
       -0.036995973 -0.029269248 -0.06522432 -0.062120363
0002e0 c9 71 53 bd 93 8f 42 bd 64 80 54 bd a9 39 83 bd
       -0.051622186 -0.047500204 -0.051880255 -0.06407482
0002f0 c6 f9 8b bd 7d 03 3e bd 6d c9 93 bd 08 66 47 bd
       -0.0683475 -0.046390045 -0.07216153 -0.04868129
000300 9a 0d c7 bc 70 65 81 bd 08 ea 90 bd f6 3a a3 bd
       -0.024298478 -0.06318176 -0.07075888 -0.0797023
000310 4b 46 0a 3d 00 ba 58 b9 02 cb bb 3c d0 8f 72 3b
       0.033758443 -0.00020668656 0.02292395 0.0037011988
000320 bf 21 aa bd c3 95 ad bd 08 07 a3 bd 8e b8 96 bd
       -0.08307218 -0.084758304 -0.079603255 -0.0735942
000330 c7 52 43 bd 1a 81 b7 bd 42 72 51 bd 2d c4 26 bd
       -0.047686365 -0.08960171 -0.051134355 -0.04071443
000340 15 e3 aa bd 49 c2 06 bd 3a 2a 8b bd 58 7f 4e bd
       -0.08344094 -0.03290013 -0.067951635 -0.050414413
000350 21 82 55 bd 57 e6 4d bd 70 20 8f bd 0c a4 2a bd
       -0.052126054 -0.050268497 -0.06988609 -0.041660354
000360 69 53 c3 bd 2f 29 b1 bd 11 ea 8d bd 7d d5 8a bd
       -0.095373936 -0.08650433 -0.0692941 -0.06779001
000370 34 ed 82 bd 8a 64 a8 bd b5 56 bb bd e8 f4 25 bd
       -0.06392899 -0.08222301 -0.091473974 -0.040516764
000380 82 9a 11 bd 14 a5 e6 bb 66 37 e4 3c 52 0f 0d bd
       -0.03554774 -0.007038722 0.027858447 -0.03443844
000390 8b ae cf bc 17 66 70 bd ac d8 87 bd 48 60 a9 bd
       -0.025351783 -0.05869111 -0.06633124 -0.08270317
0003a0 10 be 80 bd 79 f8 6f bd 2e 7e af bd c2 15 89 bd
       -0.062862515 -0.05858657 -0.08568989 -0.06693603
0003b0 be d3 a1 bd 5d 2b a4 bd 1d 6f 4a bd 99 bb b4 bd
       -0.07901715 -0.080160834 -0.049422372 -0.08824844
0003c0 4e 16 3d bd 3f 66 d5 bc 29 a0 84 bd 7f d1 c2 bd
       -0.04616385 -0.026049731 -0.064758606 -0.095126145
0003d0 5b 81 ad bd f3 a4 a3 bd 45 e3 8f bd 10 f7 86 bd
       -0.08471938 -0.07990446 -0.0702577 -0.06590092
0003e0 4f 90 2b bd 93 3a b9 bd 92 98 8b bd 49 91 f7 bc
       -0.04188567 -0.09044375 -0.0681621 -0.030220645
0003f0 1c 38 3a bc b3 1e b1 bc 16 3c b5 3c f0 98 54 bd
       -0.011365917 -0.021621084 0.022123378 -0.051903665

fc.bias f4 [256]
000000 86 2e 5e bd b9 63 d9 bc 91 0e c8 bc 60 97 f7 bf
       -0.054243587 -0.02653681 -0.024421008 -1.9343071
000010 ba f3 9a bd ef c0 79 bc 58 66 03 bd 0c 08 bb bd
       -0.075660184 -0.015243753 -0.032080024 -0.09132394
000020 27 4f 96 bd 39 32 5e bd 93 a4 7f bd a1 be a3 bf
       -0.07339316 -0.054247115 -0.06241281 -1.279255
000030 15 c1 0a bd 71 61 99 bd 94 3c a0 bd 4b d2 2c bd
       -0.033875544 -0.074892886 -0.07824054 -0.04219274
000040 ac 37 84 bc cc e6 23 bd 85 33 9f bc ee a1 11 bd
       -0.016139828 -0.040015027 -0.019433746 -0.03555482
000050 42 6b 3c bd 5e 41 97 3f 81 e1 9a bd ea 5e 8e bc
       -0.046000727 1.1816823 -0.07562543 -0.017379243
000060 29 15 47 bc ef e4 2a bd 13 e5 7b c0 27 77 bb bd
       -0.012151041 -0.041722234 -3.9358566 -0.09153586
000070 cd a9 a7 bc f5 ea 01 bd ef 68 1c bd b9 50 a5 bd
       -0.02046671 -0.031718213 -0.03818601 -0.08072037
000080 dc 1b 4f bd b6 44 bc bd 9e df 4f bd 7f 92 99 bd
       -0.05056368 -0.09192793 -0.050750367 -0.07498645
000090 4e f4 bf bd c0 af cc bc 37 6b bd bc a3 50 5d bd
       -0.09372769 -0.024986148 -0.023122413 -0.05403198
0000a0 e0 1a 76 bd ee e5 d1 bc 41 e0 8d bf bb 2d 8f bd
       -0.060084224 -0.025622334 -1.1084062 -0.06991144
0000b0 63 0e 23 bd 5c 08 8a bd c5 ce 25 bc e3 65 76 bd
       -0.039808642 -0.06739876 -0.0101200985 -0.06015576
0000c0 2b 5b 49 bd 7e 43 3e bc b6 16 31 bd 98 d3 5a bd
       -0.04915921 -0.011612771 -0.04323455 -0.053424448
0000d0 52 07 30 bd 7b 41 bb bd 1b 51 ab bc 7a a0 a3 bd
       -0.04297573 -0.09143349 -0.020912698 -0.07989593
0000e0 da e9 7c 3f 9f 52 98 bd 1a 17 05 bc 58 2b d5 bd
       0.9879433 -0.07437634 -0.008123184 -0.10408658
0000f0 d9 2e da bf 91 6b 94 3f 4c 0a 72 bd e8 7a 0a bd
       -1.7045547 1.1595327 -0.05909185 -0.03380862
000100 57 93 62 bf 88 7f b5 3f b4 1b 76 bd 16 d1 0a bd
       -0.8850607 1.4179544 -0.060085014 -0.033890806
000110 9b fa 85 bd ed 0c 5c bc 39 8b 82 bd 1f b3 0f 3f
       -0.0654194 -0.013430816 -0.06374211 0.5613269
000120 f9 e3 e6 bc c8 45 67 bd 1a 0f 32 bd 86 19 d0 bd
       -0.028184878 -0.056463033 -0.043471433 -0.10161118
000130 7c 73 46 bf f0 52 84 bd 35 8a 15 bd e5 52 f7 be
       -0.77519965 -0.064611316 -0.036508758 -0.4830543
000140 ad 8e c2 bc f9 e5 8a bd 81 6b 61 bd 3b e1 bc bd
       -0.023749674 -0.06782145 -0.055034164 -0.09222647
000150 83 42 26 bd ec cd 34 bd 4f 15 35 c0 f4 50 1e bd
       -0.040590774 -0.044141695 -2.8294256 -0.03865142
000160 c1 72 83 bd dc 38 c8 bc 1d 6f 4e bc 48 23 89 bd
       -0.06418372 -0.024441175 -0.012599734 -0.066961825
000170 59 c9 a4 3e 8a d7 8b be 60 87 8d bd 88 80 8a bd
       0.32184866 -0.2731288 -0.06910586 -0.06762797
000180 d4 f5 92 bd a0 1f 26 bc cf 02 27 bc d7 fb 19 bd
       -0.07175794 -0.010139376 -0.010193541 -0.03759369
000190 0e 6d 54 c0 bb a3 0f bd e9 24 e2 bc 2f 8c 9a bd
       -3.3191562 -0.035068255 -0.02760549 -0.07546269
0001a0 b5 1b c4 bd 42 04 4e bf 8a 96 89 bd ed bc da bc
       -0.09575597 -0.80475247 -0.06718166 -0.026701415
0001b0 79 f2 95 bd 57 70 79 bd 8d 83 1d bd 11 25 18 bd
       -0.073216386 -0.06089815 -0.038455535 -0.037144724
0001c0 45 9f be bd 4b ff ee bb a0 a3 fc bb 6b ed 15 bd
       -0.09307722 -0.007293617 -0.0077099353 -0.036603373
0001d0 7b 3c 0c bd 78 1e a7 bd 02 d1 91 bd cd 48 94 bc
       -0.034237366 -0.08160108 -0.07119943 -0.01810112
0001e0 87 38 7f bd a5 b5 9c bd 8a 05 ad bd 5a 8d 71 bd
       -0.062309768 -0.076518334 -0.08448322 -0.058972694
0001f0 8b 05 fa bc 27 3b d2 bd c2 12 64 bd cc 99 a4 bc
       -0.030520221 -0.10265189 -0.05568195 -0.020092867
000200 0c 02 e8 bf 38 1f 93 bd 63 42 c1 bd e6 6a 3c bd
       -1.8125625 -0.07183689 -0.094364904 -0.046000384
000210 ed 50 ed 3f 06 19 5e bd 1a f7 05 3f c2 04 d3 bc
       1.8540322 -0.054223083 0.5233017 -0.025759105
000220 5f 88 52 bc a7 ff b1 bd b7 c1 16 bd 5e e5 af bd
       -0.012849896 -0.0869134 -0.036805835 -0.0858867
000230 41 49 57 bd 30 70 5c bd ae ab 8c bd f9 65 34 3a
       -0.052560095 -0.053817928 -0.06868683 0.000688165
000240 3b 71 d9 bc d9 03 b8 bd 0e 5e 7d bd 35 56 db bd
       -0.02654325 -0.08985109 -0.061857276 -0.10709802
000250 76 2a be bd 80 94 60 bd 42 5b 8f be 2c e5 4e bd
       -0.092854425 -0.05482912 -0.27999312 -0.050511524
000260 64 6e d4 bc e6 91 35 bd 93 8d 6d bd 1d f5 20 3f
       -0.025931545 -0.044328593 -0.057996344 0.62874013
000270 e1 ee b7 bd 25 be 90 bf cb 68 0e bd ea e8 8e bd
       -0.089811094 -1.1308028 -0.034767907 -0.069780186
000280 32 cc 34 c0 63 f9 33 3d 40 4e 91 bd ff 3b 84 bc
       -2.824963 0.043939006 -0.07095003 -0.01614189
000290 67 5b bd bd 2a 7f 34 bd fe 3e b4 bd 64 95 8e bc
       -0.09245949 -0.044066586 -0.08801077 -0.01740522
0002a0 88 86 4b bd 7f 79 ac bd e2 dc ae bd 38 64 2c bf
       -0.049688846 -0.08421611 -0.08538224 -0.6734042
0002b0 61 3c 05 c0 b5 30 2c bd 4c 8b 7a bc 0e e6 76 bd
       -2.0818102 -0.04203864 -0.015292 -0.06027799
0002c0 be de 53 bd e1 19 5a 3c c0 b4 35 bd de 7a ab bd
       -0.051726095 0.013311834 -0.04436183 -0.083730444
0002d0 78 e1 0c bd 90 b0 99 bd 7e 3f 4d c0 c8 66 b9 bd
       -0.03439471 -0.0750438 -3.2070003 -0.09052807
0002e0 f8 49 b1 bc a6 b9 34 bd 2d a9 54 bd 96 89 52 bc
       -0.021641716 -0.04412236 -0.05191915 -0.012850186
0002f0 6a a4 0d bd b8 79 b8 bd c0 d6 4d bd 38 70 72 bd
       -0.034580626 -0.09007591 -0.05025363 -0.05918905
000300 4e f5 99 bc 0a 8c 73 bd a6 cc 74 bd e0 97 6a bc
       -0.018793728 -0.059459724 -0.05976548 -0.014318436
000310 06 c8 9b 3e cc 9f 7c bd 45 74 1c bd 6b 86 70 bd
       0.30426043 -0.06167583 -0.03819682 -0.05872194
000320 77 95 11 bd 22 ef af bc e9 cb e7 bc 1f 37 58 bd
       -0.03554293 -0.021476332 -0.028295474 -0.052786943
000330 cc 39 ed bc ee 07 f9 bc de c1 68 bd 2e ca 29 bc
       -0.028958224 -0.030399289 -0.05682551 -0.010363145
000340 45 dc 21 bd ea 4f 4d be e2 89 7e bc f5 6b 2e bd
       -0.039516706 -0.20050016 -0.0155358035 -0.042583425
000350 64 db 75 bd 7b 42 5e bd f7 93 b2 bc f3 2a 8e bc
       -0.06002368 -0.05426262 -0.02179907 -0.017354464
000360 aa 95 6e bf 02 91 6d bd 1f fd 10 bd 88 ec 88 bd
       -0.9319712 -0.05799962 -0.035397645 -0.0668574
000370 0f cb 95 bd 4d d1 8c bd 4c 89 32 bd 35 9a ae bd
       -0.07314121 -0.068758585 -0.043587968 -0.085255064
000380 e2 44 8a bd 2f d1 3a bd 77 ed 46 bd 04 05 b3 bd
       -0.067514196 -0.04560965 -0.048566308 -0.08741191
000390 7f 6d 80 bd f9 d2 62 bf 56 73 bd bd 43 02 99 bd
       -0.06270885 -0.8860317 -0.09250514 -0.074711345
0003a0 b9 41 9d bd 07 da ee bc d4 ae 80 bd 59 74 22 bd
       -0.07678551 -0.029156698 -0.06283346 -0.03966174
0003b0 9d 3a 10 bd 71 60 20 c0 03 3d 7b bd 1c 20 18 bc
       -0.035212148 -2.5058863 -0.061337482 -0.009284999
0003c0 15 70 88 bd 1f 4a 58 bd 76 92 45 c0 c7 d6 c5 bd
       -0.06662003 -0.052805062 -3.0870643 -0.09660106
0003d0 7c 43 34 bd 68 71 ea bc 16 e0 82 bd f0 3c f8 bc
       -0.04400967 -0.02861853 -0.06390397 -0.030302495
0003e0 84 e9 c0 bd 71 c3 39 bd 86 c2 1f bd 9a 49 8b 3e
       -0.094195396 -0.045352403 -0.03900387 0.2720459
0003f0 36 e6 ba bd 03 1d 4b bd 65 8f 57 bd ca e5 c9 bb
       -0.091259405 -0.049588215 -0.052626986 -0.006161426

fc1.weight f4 [128, 256]
000000 e0 76 3a bd f8 76 bf bd c5 8c 8a 3d b0 49 ae bf
       -0.045523524 -0.09348863 0.06765131 -1.3616238
000010 6b 8c c5 bc d0 fb 3d 3d 25 3f 3d bc 4c 5b 6c bc
       -0.024114808 0.046382725 -0.011550699 -0.014426064
000020 7d 27 be 3c b0 67 a8 3d 3c 73 e5 bb 85 0f 74 be
       0.023212189 0.08222902 -0.0070022624 -0.23834045
000030 02 4b d4 bd b8 01 b9 3d f7 dd e8 3d 08 46 ec 3c
       -0.10365869 0.09033531 0.113704614 0.028841987
000040 b3 3e b9 bc 61 02 9a 3b 23 82 36 bc 26 92 64 bd
       -0.022612905 0.0046999906 -0.011139425 -0.05580344
000050 8f c8 17 be 16 c2 5a bf b7 49 0c 3c b0 89 bc 3d
       -0.14822601 -0.854524 0.008562497 0.09205949
000060 da 04 3c bd fe be d5 3d c4 75 c3 be 91 bf fc 3d
       -0.045903064 0.104368195 -0.38175786 0.12341226
000070 d5 75 89 bd 27 c2 76 bd c5 ff 03 3d 14 f0 e2 3b
       -0.06711928 -0.06024375 0.032226343 0.006925592
000080 5f ea 8a bc d7 f6 b6 bd 47 10 81 bd 5a 50 5f bb
       -0.01695746 -0.089338 -0.06301933 -0.0034074993
000090 ee 55 a4 3b a4 a9 9e bd e3 ac e0 3d a5 d3 e0 bd
       0.0050151264 -0.077472 0.109704755 -0.10977868
0000a0 13 f7 44 bd 74 aa d2 bd a9 17 8f bf ad 04 51 bd
       -0.04808719 -0.102864176 -1.1179096 -0.05102985
0000b0 73 72 3a 3d e4 32 08 3d 2c d7 23 bc 99 98 d5 3c
       0.045519304 0.033251658 -0.010000031 0.02607374
0000c0 88 d2 97 bc a0 49 9a bc 83 4c 51 bd b4 76 4a 3d
       -0.018533006 -0.018833935 -0.051098358 0.04942961
0000d0 c2 22 5e 3d 91 78 79 bd 72 6f 46 3d c1 2c 8b 3b
       0.054232366 -0.060905997 0.048446126 0.0042472784
0000e0 39 c8 8f bf 77 36 a9 bc 57 40 dc bc d1 66 5e ba
       -1.1232978 -0.020655854 -0.026886148 -0.0008483949
0000f0 59 d8 59 bf 6c 4c 4d bf 5c 1d 64 3d be 71 02 3c
       -0.85095745 -0.80194736 0.05569206 0.007961689
000100 36 80 58 bf b8 e2 dd be 7e d3 bf bc 82 8a a1 3d
       -0.84570634 -0.43337035 -0.023416277 0.078877464
000110 ac 73 ac 3d 84 e7 17 bd 80 46 ac 3d c3 2b 3b bf
       0.084205 -0.037086025 0.08411884 -0.7311365
000120 20 44 dd bd bc ab 89 bb 10 d7 36 3d 7f 58 96 bd
       -0.108040094 -0.0042013805 0.044638693 -0.07341098
000130 7e b5 8e bf 95 9f 2a 3d 1e e7 d8 bd e6 3a 8e bf
       -1.1149137 0.041656096 -0.10590957 -1.1111724
000140 3d 1c 0d 3e 9e 36 59 bd f0 43 c9 3b e1 9b be bd
       0.13780303 -0.053030603 0.006142132 -0.09307075
000150 14 f0 07 be 49 7d 1e bc f4 99 41 be 9c 58 81 bd
       -0.13275176 -0.009673425 -0.18906385 -0.06315729
000160 4c a9 f3 3b 24 48 58 3d cd 43 42 3c e8 01 ae 3d
       0.0074359532 0.052803174 0.011856985 0.08496457
000170 be b1 4c bf d7 3f 6b 3c bb f7 55 bd 5f 60 f9 3d
       -0.79958713 0.014358482 -0.052238207 0.121765845
000180 1e c8 53 3d c5 28 41 3d 1e 66 24 3d 27 a8 1b bd
       0.05170452 0.04715802 0.04013645 -0.03800216
000190 b3 10 4f bf 3f 60 f4 bc 01 d5 d9 bd 8b a4 16 3d
       -0.80884856 -0.02983105 -0.106363304 0.036778014
0001a0 0c ce 1f bd d5 4a 38 bf 5e e9 f2 3d 9f 2a 58 bd
       -0.03901486 -0.71989185 0.118609175 -0.05277502
0001b0 82 50 0c 3d 15 ca db 3c 1c 83 d9 bd 7c 52 c5 3d
       0.034256466 0.026829759 -0.1062071 0.09634873
0001c0 f8 dd f7 bc 5d da df bd 33 2a ae 3d 40 d0 82 bd
       -0.03025721 -0.10930321 0.085041426 -0.06387377
0001d0 fb 40 80 3d 54 71 c0 3d 74 01 e2 3d 06 0a a6 bb
       0.06262394 0.093966156 0.110354334 -0.005067113
0001e0 39 63 c3 bd 27 db 6b bd 66 9d b5 bb 69 55 c0 bd
       -0.095404096 -0.057582047 -0.005542445 -0.09391291
0001f0 43 5c 47 bd 2d e0 76 3d 38 44 8c bd 9c 24 9b bd
       -0.048671972 0.060272384 -0.06848949 -0.07575342
000200 1d 84 0c 3f a5 7d f9 bd 48 80 f8 3d a8 ad 77 bd
       0.5488909 -0.12182168 0.12133843 -0.060468346
000210 50 3c 05 bf 9c e7 cc bd 9d 3e 2f bf b7 fe 8d 3c
       -0.52045155 -0.100051135 -0.68454915 0.017333372
000220 be 88 9b bd 87 9e ec 3d c8 35 4e bd 77 7e 11 3d
       -0.07594441 0.11553674 -0.05034426 0.035520997
000230 52 c4 69 bd ac 6a e3 bc ab c7 76 bd 78 41 10 3c
       -0.05707199 -0.027760826 -0.060249012 0.0088046715
000240 b1 6a 2b 3d d9 05 c2 bd 48 33 27 bd ba dd 83 3d
       0.041849796 -0.094737716 -0.04082039 0.06438775
000250 d5 5b a6 bd d1 e0 82 3d 46 6e 8c bf 4c 06 6d bd
       -0.08122984 0.063905366 -1.0971153 -0.057867333
000260 d8 8a b0 3c 85 53 9d 3c 75 15 81 3c 12 16 e0 be
       0.02155058 0.019204864 0.015757302 -0.43766838
000270 74 e2 e2 3d 2f 37 d5 be 09 f7 b7 3d a7 9c b1 3d
       0.11078349 -0.41643664 0.08982665 0.08672457
000280 05 69 b8 bf f7 78 20 bf 0f e4 ba bd 78 c0 ec 3c
       -1.440705 -0.6268458 -0.0912553 0.02890037
000290 bc 0a 4f bd d5 b4 9e bd 08 65 20 3d 91 46 c1 bd
       -0.050547346 -0.07749335 0.03915885 -0.094372876
0002a0 e0 a2 b7 bc 11 68 3c 3d c2 9c ce bd b9 8f f7 be
       -0.022416532 0.045997683 -0.10088493 -0.4835184
0002b0 fc 29 a3 3e 41 d6 64 3d ec c6 84 bd 5d b4 b6 bc
       0.3186797 0.05586839 -0.06483254 -0.0223028
0002c0 23 e1 de bd 83 b6 ad bb 6c 20 93 bd 25 4c ea bd
       -0.10882785 -0.005301298 -0.07183918 -0.11440305
0002d0 c7 df 66 bd 5b 4d 6b bd 23 ef 27 bf 82 3b ba bd
       -0.056365754 -0.05744682 -0.6559927 -0.090933815
0002e0 e1 ff b1 3d 70 4a b2 bd 94 90 0b be 28 e2 05 be
       0.08691383 -0.08705604 -0.13629371 -0.13074553
0002f0 51 ab 34 bc fc 98 2c bd e2 72 10 bc f0 b7 c1 3c
       -0.011027173 -0.042138085 -0.008816453 0.023647279
000300 e3 27 51 3b d7 d9 6d bc a7 ca d9 3c 79 89 e7 bc
       0.0031914643 -0.014517269 0.02658589 -0.028263794
000310 ec 9e fb 3e d0 4c 40 3d 5a 16 b7 3c 30 8b e5 3c
       0.49144685 0.046948254 0.022349525 0.028020471
000320 64 81 63 bd 9a 12 05 3d 86 06 c9 bd 03 9c 45 3d
       -0.05554332 0.032488443 -0.09815697 0.048244487
000330 03 48 b6 bd a1 50 a1 bd a9 31 59 bc d4 0e b1 3d
       -0.08900454 -0.07876707 -0.013256469 0.08645406
000340 2d 04 78 bd b5 20 56 bf 52 15 e8 bc 93 d0 b5 3d
       -0.060550857 -0.83643657 -0.028330479 0.08877673
000350 b8 36 93 bd f8 e0 b2 3c 76 79 04 be 5e ea 90 3c
       -0.07188171 0.02183579 -0.12936959 0.01768988
000360 85 32 57 bf d3 89 bb 3d 63 5e 6b 3d f6 09 71 3c
       -0.8406146 0.09157147 0.05746306 0.0147118475
000370 7f 11 3d 3d 69 2f 1d bc c2 ca d7 3d e6 5a 3c 3d
       0.046159264 -0.009593823 0.1053672 0.045985125
000380 a3 88 09 3d 63 b3 c5 3d 0b 49 60 3d f5 4b 89 3d
       0.033577573 0.09653356 0.05475716 0.06703941
000390 ba 0c a3 3d 43 e8 ba bf 41 2e f2 3d 3f d3 cf 3d
       0.07961412 -1.4602131 0.118252285 0.10147714
0003a0 b5 02 f0 3d e5 c5 16 bd c6 6d ea bd a2 a6 fc 3d
       0.11719266 -0.03680982 -0.11446719 0.1233647
0003b0 f9 97 ef bc 8d 55 ae bf 12 0b 41 bb ca c4 db bd
       -0.02924727 -1.3619858 -0.0029456061 -0.10730894
0003c0 12 a9 af bc 46 c7 b9 3d fa 70 5b 3e 4d 59 72 3d
       -0.021442924 0.090712115 0.21429816 0.059167195
0003d0 66 54 14 bd 25 77 36 bd 25 33 97 3d f8 34 56 3d
       -0.0362133 -0.04454722 0.07382802 0.05229661
0003e0 fa d4 9e bd 4a f7 d8 bd da 3a cb bd 16 70 a4 be
       -0.07755466 -0.10594042 -0.099233344 -0.32116765
0003f0 56 33 3b 3d 91 1b 3d bd e2 06 4c 3c 3f a3 a1 3d
       0.045703255 -0.046168867 0.012452813 0.07892465

fc1.bias f4 [128]
000000 f9 7b ce 40 a1 c2 7c bf 91 43 c6 40 dc 0c e3 bd
       6.4526334 -0.9873448 6.195748 -0.11086437
000010 74 b4 00 bf 92 a0 38 bf 5d 18 3a bf d9 00 3f bf
       -0.5027535 -0.7212001 -0.72693425 -0.7461067
000020 54 03 5e be 90 2e 16 be 56 20 7e bf ea 4e e6 bf
       -0.21680957 -0.146662 -0.9926809 -1.7992833
000030 39 63 e3 3f ce 71 dd be 77 28 f8 bd 74 7c 7d bd
       1.7764655 -0.4325089 -0.12117093 -0.061886266
000040 10 05 88 c0 a0 ae 0d bf 05 ec 07 c1 08 ca 7b bd
       -4.250618 -0.5534458 -8.495122 -0.06147197
000050 60 84 07 be 5d b6 4c be 3c f6 25 be 51 d4 bc 3f
       -0.13234091 -0.19991441 -0.16207212 1.4752294
000060 d2 f8 05 bf 30 7d 91 bd bb d6 06 bf a5 73 48 3f
       -0.52332795 -0.07103956 -0.526714 0.7830146
000070 02 42 0f be f4 dc b4 bd d5 a7 8a bd 86 35 f0 bf
       -0.13990024 -0.08831206 -0.06770293 -1.8766334
000080 d6 b6 c7 bd a1 1f db be ce 9c 7d 40 d1 8d 80 bf
       -0.0975167 -0.42797568 3.9626956 -1.0043279
000090 5a 28 ec be 9b 15 47 bf bd 4e 29 40 b2 c1 10 40
       -0.46124536 -0.7776734 2.6454308 2.2618222
0000a0 65 78 18 be 4e 97 43 be f5 95 9f bd bd ae c7 bd
       -0.14889677 -0.19100687 -0.07792274 -0.097501256
0000b0 7b c0 5c 40 04 19 25 3f ce 68 d7 3f 78 ad 25 be
       3.449248 0.64491296 1.6828859 -0.16179454
0000c0 75 9a 9f bf 17 27 e6 bc e5 66 a4 3e 62 61 20 be
       -1.2469012 -0.028094811 0.32109752 -0.15662149
0000d0 7e 05 29 bd 55 01 c2 c0 5f 21 c5 bc c5 9a 1d 40
       -0.041265003 -6.0626626 -0.024063764 2.4625714
0000e0 d5 50 d8 bd 55 57 c5 be b5 58 a9 bc 64 1f d8 3d
       -0.105622925 -0.38543192 -0.020672182 0.10552862
0000f0 bf 78 02 c0 81 1e 30 be 77 d7 86 be 71 bf 39 bf
       -2.0386198 -0.17199136 -0.26336262 -0.7255774
000100 7f 1d 82 bf 72 cf 59 be d3 95 14 be 5b a4 71 be
       -1.0165251 -0.2127054 -0.14510278 -0.23597853
000110 0e 36 7e bf 88 8a 9d be 84 58 2d 40 10 ba 27 bf
       -0.9930123 -0.30769753 2.7085276 -0.65518284
000120 7c c0 8e bd 4b f3 de 3f 0f af c3 bc e6 f0 9a bf
       -0.06970307 1.7417997 -0.023887185 -1.2104766
000130 13 6e 86 be bc 78 e2 be e0 fd ba c0 fd ac 9e bd
       -0.26255855 -0.44232738 -5.8434906 -0.07747839
000140 46 ab fd be e1 be c7 c0 ce 54 19 be 79 d5 af bf
       -0.49544734 -6.2420506 -0.14973757 -1.3737022
000150 6b 02 20 bf f8 a7 bc bf e9 36 42 bf 2c 91 5a 3f
       -0.6250369 -1.473876 -0.75865036 0.85377765
000160 e1 a2 54 c0 7d 66 93 40 0e 56 e9 bd 19 fa b8 bd
       -3.3224413 4.606261 -0.11393367 -0.09032077
000170 6b 6e 17 40 c5 3b d4 bd 36 9a aa bf 05 f5 58 3e
       2.3661144 -0.10362963 -1.3328311 0.21187218
000180 4c 86 3f be 3a f6 d4 bf 71 74 fc bf fc 09 d3 bf
       -0.18703574 -1.6637642 -1.9723035 -1.6487422
000190 85 92 83 3e 04 99 a7 be 23 b3 8e be fc 27 97 c0
       0.25697723 -0.3273393 -0.27871045 -4.723631
0001a0 de 90 8e bf 56 71 ec bd e5 34 02 bd 46 94 d9 3f
       -1.113796 -0.115450546 -0.031788725 1.6998374
0001b0 7e ce 5e c0 60 66 4b bf cb 6b e9 be 0e 19 9d bf
       -3.4813533 -0.79453087 -0.45590052 -1.2273271
0001c0 ff 89 63 c0 54 42 48 bf b0 8f 38 be b9 5b 1b 3c
       -3.5552976 -0.7822621 -0.18023562 0.009482318
0001d0 05 23 bf be f5 35 53 bf 3e df 8f bd 5e 10 99 be
       -0.37331405 -0.82504207 -0.07025002 -0.298953
0001e0 58 0e fd be 48 9a 13 be 1d 6e 73 be 7f 9a 2b bd
       -0.49425006 -0.14414322 -0.23772474 -0.041895386
0001f0 e0 68 95 bf b0 d8 a7 3f 47 6f 4a c0 0e 02 96 40
       -1.167263 1.3113003 -3.1630418 4.687751

fc2.weight f4 [64, 128]
000000 2a 19 8a be 4d 2d 70 bd 66 7a 65 bf 8a 67 d7 bd
       -0.26972324 -0.058636952 -0.8963989 -0.105177954
000010 86 35 5a 3b cf 24 9e bd 26 00 64 bc ce 8c 5b bd
       0.0033296063 -0.077218644 -0.013916051 -0.05360108
000020 a4 3f c7 bd 91 b7 08 3e f9 0e e0 bc 19 b2 7d bd
       -0.09728935 0.13351275 -0.02735089 -0.061937425
000030 e4 3c 3f bf 5e fe ef bd 3e ac 2b 3d 21 4c 82 3c
       -0.74702287 -0.117184386 0.04191231 0.015905442
000040 84 88 b8 3d f8 a9 a2 3c 1f 1a 1f 3d 45 57 15 3e
       0.09010413 0.019856438 0.03884327 0.14584072
000050 50 3d 67 bb 2f c6 9a be d0 fe a9 bd d7 4b f5 be
       -0.0035284348 -0.30229327 -0.08300555 -0.47909424
000060 26 41 0b be ba db 91 be 7f 13 86 3c 4d ab c2 be
       -0.13599071 -0.2848795 0.016366718 -0.38021317
000070 f3 d1 be 3d 49 ec 0e 3e a7 d4 bd 3d 4e 46 a3 be
       0.093173884 0.13957323 0.09269076 -0.31889576
000080 76 aa bf bc 40 02 17 3e a1 56 56 bf 1f b2 ed be
       -0.023396712 0.14746952 -0.83725935 -0.46424958
000090 1a cf ae bc fd 51 95 bd 55 b2 29 be 26 6b d8 be
       -0.021338988 -0.07291029 -0.16571935 -0.42269248
0000a0 17 53 b3 3d 0a 65 9d 3d f6 2e a3 bd 5c e4 b1 3d
       0.087560825 0.07685287 -0.079679415 0.08686134
0000b0 d3 63 d1 bf 73 4b ba bd 34 c7 87 be bb 3f 02 be
       -1.6358589 -0.09096422 -0.26519167 -0.12719624
0000c0 a4 a7 79 bc 4d 09 c0 3c e9 b9 ca be 9d 19 de 3d
       -0.015237723 0.023441935 -0.39594963 0.10844729
0000d0 61 c2 75 bc 37 d7 a4 bd 58 c2 ac bb d3 b1 33 bf
       -0.014999957 -0.080488615 -0.005272191 -0.70193213
0000e0 13 7c cc 3d 12 c7 de 3d 43 12 dc 3c b5 f7 37 3e
       0.09984603 0.108778134 0.026864177 0.17965586
0000f0 46 1d c9 be 5e 26 33 be 32 ef 6c 3d 6a 13 5d bf
       -0.39280146 -0.17495105 0.057845302 -0.8635775
000100 6e a9 b0 bc 6a c0 2c bc a6 7b 62 bd 98 79 02 be
       -0.021565165 -0.010543922 -0.0552937 -0.12741697
000110 e5 88 e4 be 04 2c e0 3d c0 e5 0f bf 7a c8 90 bc
       -0.44635692 0.10945895 -0.56209946 -0.01767372
000120 23 12 96 3d 7d 65 69 be 1e 7f 28 3d 12 e3 35 bf
       0.07327678 -0.22792621 0.041136853 -0.71049607
000130 6f 54 c5 bd f7 23 e2 bd 22 ba ce bd 80 7d e6 bd
       -0.09635245 -0.11042016 -0.10094096 -0.11254406
000140 19 cb 9d bc ec b9 c1 be be fa 16 3e 56 dc f9 bc
       -0.019261884 -0.3783716 0.14744088 -0.030500572
000150 20 ea 52 bd be 3a c2 be bc 2d e7 bd 79 13 8c bd
       -0.05149281 -0.37935442 -0.1128802 -0.068396516
000160 c2 83 65 bf b6 14 d1 bb 8a 42 79 3c ec ff 00 bc
       -0.8965417 -0.0063806428 0.015213618 -0.0078735165
000170 4d e4 77 bf 64 07 c8 3d cc 7e 9b be 0a d0 b6 be
       -0.96832734 0.09767035 -0.30370176 -0.35705596
000180 f6 a8 df 3d 23 bd 42 bf 3e fb c8 be c3 a1 aa bf
       0.109208986 -0.7606985 -0.39254183 -1.3330616
000190 a2 db da bd cf 71 d5 be 14 9c 8a bd 14 70 93 bd
       -0.10686423 -0.41688392 -0.06768051 -0.071991116
0001a0 ee 00 89 3c 4a 4d 1c 3d c7 c0 2b 3c a8 12 2d bf
       0.016724076 0.038159646 0.010482973 -0.6760659
0001b0 45 a8 62 bd 8e c3 0b 3e 34 c6 66 3c 6b d1 a6 3e
       -0.055336256 0.13648817 0.014085341 0.32581648
0001c0 61 9f 92 be 6f 6d fb 3d 04 ea 65 be 7f 15 54 bc
       -0.2863722 0.12276732 -0.22452551 -0.012944578
0001d0 91 69 b6 bd 59 18 7e be 18 ae 0a 3d 3b b1 bd be
       -0.08906854 -0.24813975 0.033857435 -0.3704928
0001e0 c5 e3 d2 ba 11 94 af ba 2e 00 df 3d dc f3 c4 bd
       -0.0016089609 -0.0013395568 0.10888706 -0.09616825
0001f0 a6 ca c6 bd 1e b1 a6 be da 93 b4 bd f9 a9 db bd
       -0.09706621 -0.32557005 -0.08817263 -0.10725779
000200 f9 ed c2 be 9c 16 a3 3c 9c 36 ea bd 00 b6 d7 bd
       -0.38072184 0.019908242 -0.11436197 -0.105327606
000210 d2 7d 01 3e da 77 86 3d aa 60 6e 3d 88 8c d5 bd
       0.12645653 0.065658286 0.058197655 -0.10427195
000220 02 d0 bc bd 5c 2a 9d 3c 8a a3 19 bd 93 a3 82 bc
       -0.09219362 0.019185238 -0.03750948 -0.015947139
000230 f3 40 fb be 7a 2f c8 3d fd 4f dc bc 58 ce d6 bd
       -0.4907299 0.097746804 -0.02689361 -0.10488576
000240 8b 57 a1 be c4 09 00 be 00 77 fe bc 0d 9c 03 bd
       -0.31512102 -0.12503725 -0.031062603 -0.032131243
000250 28 44 b6 bd 9a 3f 6c 3b 27 f9 04 be b4 a5 03 bf
       -0.088997185 0.0036048652 -0.12985669 -0.5142472
000260 f4 ea 64 bd 54 1b b5 bd d5 4d dc bd 37 a6 bd be
       -0.05588813 -0.08843103 -0.10757033 -0.37040874
000270 36 b1 e0 bc e9 99 ea bd b4 24 a8 bd e3 32 0c be
       -0.02742825 -0.11455137 -0.082101256 -0.13691287
000280 60 25 2a 3c cf 5b a8 bd 7d 62 ab be 4e 35 fe bd
       0.010384887 -0.08220636 -0.33473578 -0.12412511
000290 91 c2 cb bd ff 1a 98 3d 77 11 e2 bd 44 18 d9 bd
       -0.0994922 0.07427024 -0.110384874 -0.106003314
0002a0 63 b8 55 3d 49 a4 07 bc 95 52 37 3d 5f d2 4e 3c
       0.052177798 -0.008278915 0.04475649 0.012623399
0002b0 97 4d 03 bf 17 7a ab bd 9a cd 1c be 39 77 ec bd
       -0.5129027 -0.08372896 -0.15312806 -0.115461774
0002c0 66 8d 1c bc 1c 69 03 be c9 85 3b bf 87 e7 8b bc
       -0.009555196 -0.12833065 -0.73251015 -0.017078174
0002d0 ab 67 a3 bd 24 ec a4 bd d7 51 92 3a 63 ed a3 be
       -0.079787575 -0.08052853 0.0011163306 -0.3201705
0002e0 38 77 e9 3b ae 2f 56 bd 14 f3 95 bd 17 0b 4d be
       0.0071248077 -0.052291565 -0.07321754 -0.20023762
0002f0 a4 8a 21 be e3 cc 77 3d f2 f7 bc bd a4 13 6d be
       -0.15775543 0.06049813 -0.09226979 -0.23152024
000300 d6 18 98 bd 8a 7f 33 3c 19 e4 be bd 76 c5 16 3c
       -0.07426612 0.010955701 -0.0932085 0.009202352
000310 07 35 ee be fe 82 40 bd 06 ae f3 bd 33 9e 93 bd
       -0.46524832 -0.046999924 -0.11898427 -0.072079085
000320 61 81 32 bd 58 cf f4 bd c0 d7 a8 ba 69 da db be
       -0.043580417 -0.1195361 -0.0012881681 -0.4294007
000330 b6 ae 37 3d a3 3e e7 bd b8 80 4a bd c8 52 5c bd
       0.04484435 -0.11291244 -0.049439162 -0.053789884
000340 83 82 ee bc 30 81 1f be 28 3f 01 be 7d cd a6 bd
       -0.029114967 -0.15576625 -0.12621748 -0.081446625
000350 a8 ad ac bc 98 ba c2 be f5 bd c7 3c 03 78 09 bd
       -0.0210789 -0.38032985 0.02438257 -0.033561718
000360 24 00 98 be 48 00 c8 bd 8b 49 3b 3c 14 b0 01 be
       -0.29687607 -0.09765679 0.011431108 -0.12664825
000370 96 c0 6d bf eb c4 1e bd 2c 3d bb bc 7f 68 e5 bd
       -0.9287199 -0.038762014 -0.022856317 -0.11201572
000380 62 87 8e 3c 37 11 8e be 41 57 b3 bd 2d d2 9b be
       0.01739854 -0.2774751 -0.08756877 -0.3043379
000390 fe 26 65 3b 4c 8d 0d be cd 63 e5 bd 97 09 32 bd
       0.0034965868 -0.13823432 -0.11200676 -0.043466177
0003a0 55 02 92 3d 4b 6f 95 3c 99 e8 c5 bd bc 7b 68 be
       0.07129351 0.018241545 -0.09663505 -0.22703451
0003b0 ac c6 8e bd f0 d9 71 3b 7e a7 92 bd ce 6c e6 3d
       -0.069714874 0.0036903583 -0.07160853 0.112512216
0003c0 02 ad c3 bd a6 dd fb bc b5 6e 9d 3a 37 f0 46 be
       -0.09554483 -0.030745339 0.0012011143 -0.19427572
0003d0 84 f1 2d bd 02 5b 8f be a5 01 ce 3b c7 eb df bc
       -0.042466655 -0.2799912 0.006286817 -0.027334107
0003e0 34 09 8f bd 42 d0 64 bd 16 20 7e bd 54 c3 dd 3c
       -0.06984177 -0.055862673 -0.06204232 0.027070679
0003f0 95 74 bb 3c 20 26 f0 be d4 12 0f be ec f7 b2 be
       0.02288274 -0.46904087 -0.13972026 -0.34954774

fc2.bias f4 [64]
000000 1b fc 35 be 5d 01 f3 be f8 30 cb be 2f 56 19 bf
       -0.17771952 -0.47461978 -0.39685798 -0.5989713
000010 ec b8 f6 be 7c a3 38 bf ee a4 fa be 07 0b 39 40
       -0.4818796 -0.7212446 -0.48953956 2.891298
000020 fa bb ff 3f 02 92 28 bf 12 19 7c 3e d9 c5 8a bf
       1.9979241 -0.6584779 0.24618939 -1.0841628
000030 ba 4d 44 40 7c 85 a4 be c6 24 77 bd a3 1d 19 bf
       3.067244 -0.3213309 -0.060337804 -0.5981085
000040 84 ad 2a bf 74 96 51 c0 f6 d7 9b be f9 2d 2d bf
       -0.66671014 -3.274808 -0.30438203 -0.67648274
000050 2b 1e 56 bf 17 d0 ad be 97 ce d0 be 34 a7 d2 be
       -0.8363978 -0.33947822 -0.40782616 -0.4114319
000060 ce 57 e5 be f1 a5 9c be 66 56 17 be 72 ef a7 be
       -0.44793552 -0.30595353 -0.14779052 -0.3279987
000070 8e 27 18 40 9a a9 0f 40 13 4f 1c 40 91 f8 d9 be
       2.3774142 2.2447267 2.4423263 -0.42572454
000080 79 55 1a bf 93 bb 42 bf 07 ec 5c be 23 f2 2b 40
       -0.6028667 -0.76067466 -0.21574412 2.6866539
000090 3a 04 9b be c8 4e 80 be 3a 8c 8a 3f 31 8d 3e bf
       -0.30276662 -0.25060105 1.0824044 -0.7443419
0000a0 be 1d b3 be f0 71 af bd 5c 5d 27 bf 04 99 55 be
       -0.3498363 -0.08566654 -0.6537683 -0.20859152
0000b0 01 e6 80 be c7 ad df be 2f 7b b0 bd aa e5 de 3f
       -0.2517548 -0.4368727 -0.086172454 1.7413838
0000c0 d3 b0 05 bf a2 c8 13 be a9 80 bb be 19 e6 8b 3f
       -0.5222294 -0.14432004 -0.36621597 1.0929595
0000d0 01 09 9a be 07 09 a3 bd 0c f7 04 40 f2 a4 33 bf
       -0.30084994 -0.07960706 2.0775785 -0.7017356
0000e0 e8 33 bc bd d4 2a 98 be a4 e4 0f bf a3 29 d1 be
       -0.09189588 -0.29720175 -0.5620825 -0.4085208
0000f0 98 3f 9e be c9 99 e1 3e 02 ac 56 be c4 f8 87 be
       -0.30907893 0.4406264 -0.20964053 -0.2655698

out.weight f4 [10, 64]
000000 5d 77 48 be c0 cd 1c bc b5 3c 05 be da 9f 17 3e
       -0.19576783 -0.009570539 -0.13011439 0.14807072
000010 b1 50 8d bd 42 dc 99 3e cb 2e 30 3e 5d 91 88 bc
       -0.06900156 0.30050856 0.1720535 -0.016670877
000020 7a d6 dc 3c 8e 04 38 3d f4 81 ed bb 29 34 4d 3e
       0.02695774 0.04492622 -0.0072481576 0.20039429
000030 b5 2f 10 bd d4 bc 83 bd ee e3 98 bd ef 61 a5 be
       -0.035201747 -0.064325005 -0.07465349 -0.3230128
000040 ad fb 53 be 7a 64 06 be 0a 3f 04 be fe a9 6b 3d
       -0.20701475 -0.13124266 -0.12914672 0.057535164
000050 39 a9 35 bd b1 75 3b be 7c 1e 2b 3c 28 9d da 3a
       -0.044350836 -0.18306614 0.01044428 0.0016678916
000060 c0 be 8b be 1e 7a b6 3b 1c 34 76 3d 11 6c d5 bb
       -0.27293968 0.0055687567 0.06010829 -0.0065131267
000070 1b f0 c8 bd 39 0b bc bb 2e 0f 36 bc 23 27 72 3e
       -0.098114215 -0.0057386425 -0.011112018 0.23647742
000080 38 d7 62 be b7 36 90 bd e3 9c c2 bd 0f 69 bd bb
       -0.22152412 -0.07041686 -0.0950258 -0.005780346
000090 e7 1e 66 3d 15 66 2f 3e 4d fd 1e bc a7 3a d0 be
       0.056181815 0.17128785 -0.009703946 -0.40669748
0000a0 fb 99 3d 3e 2e 96 30 3c c5 f5 8f 3e 08 8a a1 3d
       0.1851577 0.010777993 0.28117195 0.078876555
0000b0 57 fb 53 bc 2d 56 c7 3d 4a 09 00 3d 86 df 48 3e
       -0.012938342 0.097332336 0.03125886 0.19616517
0000c0 d3 69 c9 be 50 2c 97 bc dc 31 af be 64 79 e5 3c
       -0.3933855 -0.018453747 -0.34217727 0.028011985
0000d0 0e 9a 23 3e 39 c4 d5 bc 97 53 7b bc 72 f8 34 be
       0.15976736 -0.026094543 -0.015339754 -0.176729
0000e0 9e d7 d0 3b 5e 73 47 3e ce b5 5a 3e 1d 58 06 be
       0.00637336 0.19477603 0.21358415 -0.1311955
0000f0 e1 c0 f2 bd f6 76 f0 bb 40 42 29 3d 00 e0 e0 bc
       -0.11853195 -0.0073384 0.041322947 -0.027450562
000100 aa b8 b4 bd 7b 0b ba bd 62 c2 12 be 6e 97 5f 3e
       -0.088242844 -0.09084221 -0.14331964 0.2183511
000110 90 ef dc bd 1f d1 74 bd 43 05 7e be ff a3 9a bc
       -0.107878804 -0.059769746 -0.24806695 -0.018877028
000120 c2 b4 a5 bc e3 1b c7 bd 4b 88 14 bc e6 30 86 be
       -0.020227794 -0.09722116 -0.009065698 -0.26209182
000130 c6 55 a6 bb 63 a6 e5 bd 20 4f e0 3d ce 5a a6 be
       -0.005076143 -0.112133764 0.10952592 -0.32491153
000140 a7 c2 80 be b7 7d 31 3c 8f 8b 13 3c 7a e5 29 bf
       -0.25148508 0.010833195 0.009005441 -0.6636578
000150 e3 fc 83 be e2 26 62 3e af e5 74 bd 12 84 40 bd
       -0.25778875 0.22085145 -0.059789356 -0.047000952
000160 9a 34 1a bf fa 0a 58 3e 53 eb 2b 3e 80 6a 40 bc
       -0.60236514 0.21097937 0.16788988 -0.011744142
000170 28 cf 9f 3a 32 2b dc bb 11 02 38 bc 71 c6 e3 3d
       0.0012192475 -0.0067190165 -0.011230961 0.11121834
000180 ee 3a 2f bd 23 75 83 bc a7 10 45 bd ca 44 03 bc
       -0.04278081 -0.016047066 -0.048111584 -0.008012006
000190 72 65 1b 3c d4 2c 15 bc 79 ea 37 3e 1d 73 2f 3d
       0.009484636 -0.009104926 0.17960538 0.04283439
0001a0 56 9d 4d be c3 94 05 be 7e 6e e1 3d e8 dc 7a 3d
       -0.2007955 -0.1304503 0.11007403 0.06124583
0001b0 d9 c5 f7 3b f9 fe 8b 3e d1 98 b9 bc c8 ad 41 bc
       0.007561427 0.27342966 -0.022655876 -0.011821218
0001c0 71 56 84 bd f8 4e ef 3c 37 0e 1d be e0 a9 c3 3a
       -0.064618 0.02921246 -0.15337454 0.0014927946
0001d0 eb ae 4b be 45 a4 3f bc c0 ea 55 bc f2 05 8c bd
       -0.19890945 -0.01169688 -0.013056457 -0.068370715
0001e0 ca 11 91 3d 9b 21 96 be 63 9c 37 be dc 20 23 bd
       0.07083471 -0.29322514 -0.1793075 -0.03982626
0001f0 db 09 07 3e c8 3c 01 bc 71 e5 6d bd 5d 2e 16 bc
       0.13187353 -0.007888027 -0.05808014 -0.009166327
000200 8f 7e 8f 3e 52 00 1e 3e aa d2 16 3d 47 75 16 3e
       0.28026244 0.1542981 0.036822 0.14693175
000210 1d 6a 38 3c ca f3 fb 3e 33 2c 9b be 27 da 7c bc
       0.011255768 0.49209434 -0.3030716 -0.015432871
000220 a2 9f 0c 3d 8a 6b 2c bd 5c ce ed bb 5b 4e 39 bc
       0.034331925 -0.042094745 -0.007257266 -0.011310185
000230 fc 20 0f bd ce 71 2b 3d 96 ed 31 3d 9a 2c 8f be
       -0.034943566 0.04185658 0.04343947 -0.27963716
000240 f8 61 63 3e c7 f1 13 3c ea d2 59 3e 54 73 dd 3d
       0.22205341 0.009029812 0.21271864 0.10813013
000250 61 92 36 be 15 d0 8b be f8 c0 07 be dd 29 df bc
       -0.17829277 -0.27307191 -0.13257205 -0.027241642
000260 a1 71 11 3d f4 06 13 bd 6f 65 0a be 60 9a a1 be
       0.035508756 -0.035895303 -0.13515256 -0.3156309
000270 b8 7f 63 3d 1a 72 1b bc 01 99 d0 3e bf f6 59 bd
       0.055541724 -0.009487653 0.40741733 -0.05321383
000280 79 60 9c be 79 8f a1 3e ec 79 7d 3c 58 4c 15 bc
       -0.30542353 0.31554773 0.015470963 -0.00911244
000290 a0 51 b3 39 2a b1 fa 3e d0 5d 06 bc f0 35 b2 3e
       0.00034202356 0.4896329 -0.008201078 0.34806776
0002a0 bb 8a d2 bd 7f 31 71 bd c3 c6 14 3e 84 1e 43 be
       -0.10280367 -0.058885094 0.14528947 -0.1905461
0002b0 d4 db ca 3d 88 c1 6b bd 87 1c f3 3c 60 0c 1d bc
       0.0990521 -0.057557613 0.029676689 -0.00958547
0002c0 99 27 78 3e be 53 ea 3d 44 34 8b be 4a 26 a4 bc
       0.24233855 0.11441754 -0.27188313 -0.020037789
0002d0 19 4b 61 be 1e d1 d5 3d a9 ff 8d bc 58 8b 7c bd
       -0.22001304 0.104402766 -0.017333822 -0.061656326
0002e0 95 ca 55 bc 52 81 6e 3e 8f ae 01 be 00 56 78 bd
       -0.013048788 0.2329152 -0.12664245 -0.06062889
0002f0 a6 6d b7 3d fa 10 a9 bb cb 0d 63 bd 60 2e 31 3e
       0.08956461 -0.0051594945 -0.055433076 0.17302847
000300 35 2b 6b be af 17 c8 bd 19 9e 2f 3e 75 1a 17 3e
       -0.22965701 -0.09770142 0.17150153 0.14756186
000310 fa 96 51 3d b4 b8 b6 3e e3 f5 d3 be 05 f5 79 bd
       0.051169373 0.35687792 -0.41398534 -0.061024684
000320 ae e3 00 3c 4a 48 fb bd 46 53 d4 bc 07 da 5b 3e
       0.007866783 -0.122696474 -0.025918614 0.2146989
000330 67 b7 89 bd d6 56 1e 3c c1 ac 2c 3e cc f1 3c 3e
       -0.06724434 0.009664258 0.16862775 0.18451613
000340 7e 06 1b 3c b5 e6 f8 3c be 42 9a be 08 48 03 3f
       0.009461997 0.030383447 -0.30129045 0.51281786
000350 e7 3c 87 be d0 99 a3 be 0b db b0 bc dd 84 60 bd
       -0.26413652 -0.31953287 -0.021588823 -0.05481421
000360 68 fc e9 3e ec 07 dd bc a3 9f 89 be 5b cb 0c be
       0.45700383 -0.026981317 -0.26879606 -0.13749449
000370 f3 49 ab 3d 27 b8 ed 3d a1 e1 1f bd 70 b1 8b 3d
       0.08363714 0.1160739 -0.039033536 0.06820953
000380 e8 02 8c bc dc 03 61 3e 5e 4f 3f bd 09 7f e2 bc
       -0.01709123 0.21974128 -0.04670655 -0.027648466
000390 d0 38 47 3c b9 d9 dd 3b 1d 06 24 bd dd 61 58 3e
       0.012159541 0.0067703393 -0.040044893 0.21131082
0003a0 27 5e 4a 3d 9c 90 73 3d b4 42 1e bd b2 03 98 3d
       0.049406197 0.059464082 -0.03863783 0.0742258
0003b0 dd 64 e9 bc 4f 10 02 3d 0b 1a 97 3d fa a5 30 bd
       -0.028490478 0.031753834 0.07378014 -0.043127038
0003c0 6c bb 2f 3d f6 10 a9 3c 2b 18 8a be c6 91 00 3e
       0.04290335 0.02063797 -0.26971564 0.12555608
0003d0 91 4f 35 be db 7d 22 bb a4 8d 45 bd b9 07 82 3d
       -0.17706133 -0.0024794254 -0.048230782 0.06349129
0003e0 45 37 89 3d 42 84 0a 3d c5 d9 27 bc ef a8 47 bc
       0.06699995 0.033817537 -0.010244791 -0.012186273
0003f0 76 b6 9e be 9c c5 e0 bc 5b 03 73 3c a6 09 1e bd
       -0.30998582 -0.027437977 0.014832343 -0.03858342

out.bias f4 [10]
000000 72 c4 43 3d 06 33 7a 3d cb d0 34 3d 2a bb 42 3e
       0.047794767 0.061083816 0.044144433 0.1901671
000010 85 11 bc 3d 1e b0 39 3e b4 a3 89 3d fd 6f be 3d
       0.09183029 0.1813359 0.06720677 0.09298704
000020 2d 3e af 3d 50 0e cb 3d
       0.08556781 0.09914839
