exps/regularModelExperiments/pretrainedmodels/cleanAccModel2.pt (torch, 973781 bytes, 8 tensors)

fc.weight f4 [256, 784]
000000 18 10 84 3b ee 67 9e 3c e0 5d 3e bb 45 c5 05 3d
       0.004030239 0.019336667 -0.0029047653 0.032658834
000010 c0 4f db bc b8 c6 bd bb a6 ec bf 3c 58 7f 73 bc
       -0.026771426 -0.0057915114 0.023428272 -0.014861904
000020 f0 52 89 3c d4 ea 84 3c ea cc e5 bc 70 15 7d bb
       0.01676318 0.016225256 -0.028051812 -0.0038617514
000030 bc 78 32 bc a0 25 86 ba de ec a8 3c 20 b3 4e bb
       -0.010893043 -0.0010234602 0.02062076 -0.0031539872
000040 d0 63 61 3c ea d7 8b bc 7e e4 06 bd 88 a0 4b 3c
       0.013756707 -0.01707073 -0.03293275 0.01242841
000050 90 37 08 bb 40 af 13 3a 81 93 02 3d b8 bc c6 bc
       -0.002078507 0.0005633719 0.031878952 -0.02425991
000060 de 27 eb bc b0 83 1a 3c 5c c4 68 3c 08 b9 2f 3c
       -0.028705534 0.009430811 0.014206972 0.010725267
000070 1c 3a ee bb e4 fb f9 bb 48 7c 4f 3c f0 e0 2e 3c
       -0.007270111 -0.0076289047 0.012663908 0.0106737465
000080 f8 2c eb bb a8 de d3 bc 38 6c 2c bc 35 70 b3 bc
       -0.0071769916 -0.025863007 -0.010523848 -0.02190409
000090 ce fc 51 bc 7c d3 00 bc 6a de 92 bc 00 6c 03 3c
       -0.012816621 -0.007862922 -0.01792832 0.008021355
0000a0 b0 4b 82 3c 80 ba 42 bc 12 e3 f2 3c 0a a4 9b 3c
       0.015905231 -0.011885285 0.029649291 0.018999118
0000b0 d8 97 bc 3b b6 e7 01 bd fa d3 84 3c 25 8d c5 bc
       0.005755406 -0.031715117 0.01621436 -0.024115155
0000c0 3d e8 06 bd fc 41 36 bc 26 99 d3 3c ce 1f 81 bc
       -0.032936323 -0.01112413 0.025829863 -0.015762236
0000d0 d0 75 1d bb 26 08 f3 3c 68 1d 8e 3c ae 5e d4 bc
       -0.002402652 0.029666971 0.017348006 -0.025924053
0000e0 60 77 90 3a ee dd 0c bc ee 57 c4 bc 16 06 9d 3c
       0.0011021905 -0.008597834 -0.02396771 0.019167941
0000f0 40 58 cb bc a0 7c a1 bc 0e ea cb 3c 8e 2c 09 bd
       -0.024822354 -0.019712746 0.02489188 -0.033489756
000100 e0 ba dd bc 80 fd 4b 3a 09 eb 17 3d 8f ad d3 3c
       -0.027066648 0.000778161 0.03708938 0.025839595
000110 76 f7 65 3d 4a ec d0 bc 1d 9c 22 3d 03 16 71 3d
       0.0561442 -0.025503296 0.039699662 0.058858883
000120 22 ac 02 3d f8 21 57 3c 75 e4 ea bc 50 5c 3e 3b
       0.03190244 0.013130657 -0.02867339 0.0029046722
000130 e8 49 b9 bc 70 50 f1 3b 9c a5 c9 bc 60 46 30 3c
       -0.022618249 0.007364325 -0.024615102 0.010758966
000140 2a dd 83 bc 90 6f e1 bc ca 56 90 bc f5 82 e7 bc
       -0.01609667 -0.027519017 -0.01761951 -0.028260687
000150 16 e7 f7 3c 6e 8a d1 bc 46 6a c9 3c 24 11 17 3c
       0.030261558 -0.025578704 0.024586808 0.009220395
000160 b8 5c c3 bb 11 e6 ef bc d0 fb cd bc 80 74 41 3a
       -0.0059619807 -0.029284509 -0.025144488 0.00073797256
000170 c7 b9 44 3c 7d 64 89 3c b7 ee 76 3d 24 0b bb bb
       0.012007183 0.01677155 0.06028625 -0.005708115
000180 a5 ba 9f bd ca c7 8f bd 12 e6 55 3d 67 d9 16 3d
       -0.077992715 -0.070205286 0.052221365 0.036828425
000190 37 5a 0b 3d 92 66 a9 3d e7 aa b5 3d a0 24 7e 3b
       0.034021582 0.08271517 0.08870488 0.0038779154
0001a0 7a b6 d8 bc 78 61 80 bb 88 1f e6 3b 14 91 8a 3c
       -0.0264542 -0.003917869 0.007022802 0.016914882
0001b0 50 9c 0c bb 97 40 10 3d 20 62 87 3a a0 a7 35 bb
       -0.0021455474 0.035217848 0.0010328926 -0.002771832
0001c0 f7 fb 90 bc 90 45 bb bc 5e 53 ed 3c 4c 6c cd bc
       -0.017698271 -0.022860318 0.028970417 -0.025076054
0001d0 c8 d9 a4 bc bc fb 1e bc 93 30 e2 bc 00 ba 62 bc
       -0.020123377 -0.009703573 -0.027611053 -0.013838291
0001e0 ef 89 88 3d f0 b0 37 3d cc 70 ab bd 62 1f fc bc
       0.06666934 0.044846475 -0.08371124 -0.030776683
0001f0 b6 49 86 bd 05 38 86 bd 49 aa 8f 3d 4d c0 d0 3c
       -0.06557028 -0.06553654 0.07014901 0.025482321
000200 74 46 9c 3c e5 5a 43 3d 6e c6 88 bc f1 5f b0 bb
       0.019076563 0.047694106 -0.016696181 -0.005382531
000210 24 37 46 bd 38 94 a3 3c 7b 4d 0c bd 93 7d fb bc
       -0.04839243 0.019968137 -0.03425358 -0.030699527
000220 e6 f5 87 bd 6f 4b 5c bd 28 b7 d6 3c c0 d6 5e 3c
       -0.06638698 -0.053782877 0.026210383 0.013601005
000230 4a 13 14 bc 75 bf b6 bc d2 3f 64 bc c0 c6 7c ba
       -0.009037802 -0.02230809 -0.013931232 -0.0009642653
000240 6e fc 4d bc 00 82 b4 3b f0 9a 1a 3c 8f 4d 0e 3d
       -0.012572391 0.0055086613 0.009436354 0.034741934
000250 51 fd 44 3d 6b 93 6f 3d 87 99 24 bd 3c 98 d7 bc
       0.048093144 0.058490198 -0.040185478 -0.026317708
000260 21 bc b9 bd 12 f3 62 bd 38 c1 d2 3c 8c 1c 66 3d
       -0.09069086 -0.05540759 0.0257269 0.05617957
000270 6f 59 37 3d d9 27 cc 3c d8 d7 db 3c 91 8b cc bc
       0.044763025 0.024921345 0.02683632 -0.024968894
000280 03 cf d0 bc 76 af 88 3c 4c 3b 28 bd 77 bc a2 bc
       -0.025489336 0.016685229 -0.041072175 -0.019865258
000290 50 21 03 bd 9c 37 83 bd 90 d1 d0 bc 04 c1 48 3c
       -0.03201419 -0.06407091 -0.025490552 0.01225305
0002a0 70 9b 28 3c 58 a1 4f 3c 6a e7 74 bc 7c 02 0f bd
       0.010290965 0.012672745 -0.014947752 -0.03491448
0002b0 0e e1 91 3c 5c 61 b3 bc e0 5e 8c bc c0 b2 8a 3d
       0.01780751 -0.02189701 -0.017135084 0.06772375
0002c0 96 a4 1e 3d f8 84 42 bd 44 8b 21 bd 5c b9 a9 bd
       0.03873118 -0.04749009 -0.039439455 -0.082873076
0002d0 18 21 b2 bd 87 c2 bb bd f1 ac 16 bd af 51 9b bd
       -0.086977184 -0.091679625 -0.036786024 -0.07583939
0002e0 1f ea 62 bd 7a de 41 3c ab 01 fb 3c db 79 e1 bc
       -0.055399057 0.011832828 0.030640444 -0.027523926
0002f0 f8 7f 83 bd b1 e9 a7 bd dd 4e 63 bd 39 fb a1 bd
       -0.064208925 -0.0819887 -0.05549513 -0.07909245
000300 28 26 e6 bc 24 8b 7b bc 7c 42 07 bc e4 e5 e9 bb
       -0.028094366 -0.015352998 -0.008255597 -0.007138001
000310 8a 0b a6 3c 95 c2 04 3d 84 07 44 3c 7e 8a e6 3c
       0.020269174 0.03241213 0.0119646825 0.02814221
000320 00 6b 8c 3b dc b7 0e bd d8 c9 8a 3c b4 45 a3 bd
       0.0042852163 -0.03484331 0.01694195 -0.07972279
000330 77 06 ad bd 78 5a 70 bd 85 f2 a0 bd e9 9a b1 bd
       -0.08448499 -0.058680028 -0.07858757 -0.08672125
000340 2c 23 07 bd 06 b7 72 bd 1d a5 81 bd 0b 65 bb bd
       -0.032992527 -0.059256576 -0.06330321 -0.09150132
000350 e3 c9 af bd 51 ec 96 bd 07 08 8a bd 19 7a 9f bd
       -0.08583429 -0.073692925 -0.06739812 -0.0778696
000360 9e 55 a0 bd 87 48 c2 bd 25 ad 8b bd b1 25 88 bd
       -0.0782883 -0.0948649 -0.06820134 -0.06647814
000370 0f 6d 92 3d e0 2c f4 3c 50 89 dd bc 75 de c8 bc
       0.071497075 0.029806554 -0.027043015 -0.024520138
000380 4a 73 7a bc e8 1a 4f 3c 9e 0c 80 3c 20 6f 94 bc
       -0.015286276 0.012640692 0.015631016 -0.018119395
000390 2f 2b f8 bc 1b 25 92 bd ac 5a a8 bd 6f 02 90 bd
       -0.030294029 -0.071359836 -0.08220419 -0.07031714
0003a0 c8 9f 58 bd ac 0c a5 bd 74 c9 97 bd 79 f8 a9 bd
       -0.052886754 -0.080590576 -0.07411471 -0.082993455
0003b0 53 97 90 bd c9 29 af bd dc f5 3b bd 7c 2f ca bd
       -0.07060113 -0.08552892 -0.045888767 -0.09872338
0003c0 08 fb b5 bd 44 ff e3 bd 8c 5f b5 bd df f4 80 bd
       -0.08885771 -0.111326724 -0.08856115 -0.062967055
0003d0 0e ea a7 bd 03 d9 bf bd 45 18 a1 bd cb a7 e3 bc
       -0.08198939 -0.093675636 -0.07865957 -0.02778997
0003e0 d5 a9 3b bd 20 f4 bd bd 2e ab 9c 3c 40 46 70 3a
       -0.04581626 -0.09275079 0.019124594 0.00091657415
0003f0 cc d4 c2 bc d8 d3 90 3b 97 d6 05 3d 00 19 28 b9
       -0.02378311 0.004419785 0.032675352 -0.00016031042

fc.bias f4 [256]
000000 85 31 c0 bd fa f6 8e bd 70 80 ba bd 3f 28 97 bc
       -0.09384445 -0.06980701 -0.09106529 -0.018451808
000010 82 f8 55 bf b0 9a 68 bd 83 f1 82 bd 88 71 0a bd
       -0.8358232 -0.056788146 -0.06393721 -0.033799678
000020 2c 7a b9 bd 9b 3c 39 bd 1d f0 16 c0 61 01 30 bd
       -0.090565056 -0.045223814 -2.3584054 -0.042970065
000030 8b aa 1f bd 38 9b 9f bd 68 8c 23 bd 1a 83 b4 bd
       -0.038981 -0.077932775 -0.039928824 -0.08814068
000040 1f 37 df bd 2d 39 3c bd c3 99 2b bc 14 75 92 bd
       -0.108991854 -0.045952965 -0.010473671 -0.07151237
000050 f1 49 4f bd 35 ce 00 bd 33 70 a4 bc da df 40 c0
       -0.050607625 -0.031446654 -0.020073032 -3.0136628
000060 b2 73 cf bc 91 da fa 3e 27 24 b4 bc 7a 98 9a bd
       -0.025323723 0.48994878 -0.021989895 -0.07548614
000070 0a 96 17 bd b2 d9 4f bf 52 12 8f bd be e1 0b bd
       -0.037008323 -0.8119155 -0.06985916 -0.03415083
000080 32 74 a6 bd 4d 33 96 bd 08 34 3f bd 34 96 af bc
       -0.08127631 -0.073340036 -0.04668048 -0.021433927
000090 d2 52 82 bd 10 4e 26 bd 95 36 03 3b 42 d8 b3 bc
       -0.06363453 -0.04060179 0.0020021547 -0.021953706
0000a0 ff 42 9d bd 0b 7b 9e bd c1 2f 3b bd 5d 85 44 bd
       -0.07678794 -0.07738312 -0.04569984 -0.047978748
0000b0 89 21 63 bd a8 69 0b bc bd bc 44 bd 6a 06 92 bd
       -0.055451903 -0.008509077 -0.048031557 -0.0713013
0000c0 ba f8 cb bc 59 36 49 bd bc 97 16 bd b9 51 be bc
       -0.024898876 -0.049124096 -0.0367658 -0.023232328
0000d0 fa 75 6a bd f0 47 9a bd 86 3c 5e bd 22 a3 84 bd
       -0.057241417 -0.07533252 -0.05425694 -0.064764276
0000e0 a3 0a 49 bf a2 b6 b6 bd 58 98 57 bd f9 54 9c bc
       -0.78531855 -0.08921553 -0.05263552 -0.019083487
0000f0 62 f1 9d bd a6 ad 8d bd d5 13 bb bd 0e fc aa bc
       -0.07712056 -0.069178864 -0.09134642 -0.020872142
000100 bc fe 9d bd 59 f3 e5 bb 51 bb cd 3e 01 aa 7e bd
       -0.07714602 -0.0070175347 0.40181974 -0.062173847
000110 f5 f5 2d bd 76 92 36 bd 0b 75 9a bd 2c 36 89 bd
       -0.04247089 -0.04457327 -0.075418554 -0.066997856
000120 ce fc 82 bd 36 3a a7 bd a9 81 a4 be 12 0a 34 be
       -0.06395875 -0.081654 -0.32130173 -0.17581967
000130 e0 19 14 40 0b 68 5f bd ca d2 ec bf 70 fa a5 bd
       2.3140793 -0.054542582 -1.8501828 -0.08104408
000140 4b 13 a8 bf 7b 96 32 bd 8e e8 5d bd a8 02 bb bd
       -1.3130888 -0.04360054 -0.05417686 -0.09131366
000150 e4 f6 8e bd c3 63 db bc 89 53 ba bd 69 e4 c2 3d
       -0.069806844 -0.026780969 -0.09097964 0.09516222
000160 46 d0 d6 bd 6a f1 1d bd 22 fd 8c bd e1 e9 66 bd
       -0.10488944 -0.03856031 -0.06884219 -0.056375388
000170 a1 5f 3d 3f 78 9d 56 c0 1b de cc bc 16 06 c3 bd
       0.73974043 -3.3533611 -0.025008252 -0.09522645
000180 95 02 30 bd 1d b6 9e bd a8 55 c3 bd 34 f5 6f bd
       -0.042971212 -0.07749579 -0.09537822 -0.058583453
000190 db b0 68 bd 0c 84 86 bd 77 c5 a0 bd 6d 31 9d bd
       -0.056809288 -0.06568155 -0.078501634 -0.07675443
0001a0 24 30 dd bc 69 3d 67 3f 11 a1 c3 bf f3 81 77 bf
       -0.027000494 0.9032808 -1.5283529 -0.9668266
0001b0 51 b8 3a bd 74 c7 1c bd 1d f7 1f bd 71 ae 87 bd
       -0.045585934 -0.03827615 -0.039054025 -0.06625069
0001c0 7b 5d 03 be cd c3 46 3f 05 2d 4c bd 7d 9a a8 bd
       -0.12828629 0.7764252 -0.04984762 -0.08232591
0001d0 e7 a2 84 bd 70 88 4a bd b6 95 af bd 1c 7b 8e bd
       -0.06476384 -0.049446523 -0.08573477 -0.06957075
0001e0 87 e2 0d bd d8 a5 a6 bd 0c 49 a8 bd a2 42 91 bd
       -0.03463986 -0.08137101 -0.082170576 -0.07092787
0001f0 f5 85 e8 bc 6d 72 2e 3f b8 a4 a5 bd 82 11 a5 bf
       -0.028384188 0.6814335 -0.08088058 -1.2895968
000200 4f a8 37 bd d9 9e 3b be ea 4e ad bc ac 95 35 bd
       -0.044838246 -0.18322314 -0.021155793 -0.04433219
000210 b5 ac 7f bd fa 59 17 be 15 b9 ca bd 4b 6b 6c bd
       -0.062420566 -0.14780417 -0.09898583 -0.05771951
000220 d5 fc 92 c0 7f 64 e6 3d 8a b6 bf bc 6c ef 4d bd
       -4.5933633 0.11249637 -0.023402471 -0.05027716
000230 98 6e 60 3e f2 e3 9d bd 3b 84 40 bd 58 d7 f0 bb
       0.21917188 -0.07709493 -0.047001105 -0.0073498897
000240 6b 23 8a 3d ad ff 47 bd 07 b9 23 bd 33 cc d0 bf
       0.06745037 -0.048827816 -0.039971378 -1.6312317
000250 10 9f 83 be 0b 82 77 bd b0 c7 3b bd e9 33 33 bc
       -0.25707293 -0.060426753 -0.045844734 -0.010937669
000260 a7 64 9a bc 60 14 36 bd c6 00 c2 bd 59 a5 08 bd
       -0.018846823 -0.044453025 -0.09472804 -0.033360813
000270 35 24 4f bd e1 02 2a bc 6f 8b 87 c0 85 b7 28 bd
       -0.05057164 -0.010376663 -4.2357707 -0.041190643
000280 05 ef 14 bd cc 61 2e bc 2e d9 80 bd d3 bb 19 bd
       -0.03636076 -0.010643434 -0.06291424 -0.03753264
000290 a9 e9 b0 bd 47 ce 18 bd 8a 77 99 c0 71 8f 46 c0
       -0.08638317 -0.037306096 -4.795842 -3.102505
0002a0 f6 fc 85 3f 44 be 14 bd 16 14 87 bd a7 ff aa bf
       1.0467823 -0.036314264 -0.06595628 -1.3359269
0002b0 97 c6 36 bd a1 e1 8a bd 0d e3 79 bd b8 29 c1 bb
       -0.044622984 -0.067813165 -0.061007548 -0.005894866
0002c0 2d de 04 bd 00 c6 56 bd f3 b6 35 bd c9 fc 6d bd
       -0.032438446 -0.05243492 -0.044363927 -0.058102403
0002d0 32 a2 8c bf a2 44 30 bd e7 e7 d3 bd 09 84 86 bd
       -1.0986998 -0.043034203 -0.10346966 -0.065681525
0002e0 47 d4 64 bd 4f 13 a6 3f b6 b2 58 3f 9b e5 b2 bd
       -0.055866506 1.2974643 0.8464769 -0.087352
0002f0 80 87 0d bf 5a c5 67 bd 83 f7 32 bd 6f 98 81 bd
       -0.5528488 -0.056584693 -0.043693077 -0.063279025
000300 20 ee 86 bf aa 8e bf bd 09 4c 63 bd f2 26 10 bd
       -1.054142 -0.09353383 -0.055492435 -0.03519339
000310 67 e1 7a bd e7 f1 9a bd ca 7c cd bd 55 95 36 bd
       -0.061250117 -0.075656705 -0.10033567 -0.044576008
000320 81 ac 7f bd 84 d3 07 bd 74 9a ec bc a8 60 90 bc
       -0.062420372 -0.0331607 -0.028882243 -0.017624214
000330 ed f2 60 bf bc c3 10 bd 0e 57 21 bf 5b ad 4a bd
       -0.87870675 -0.035342917 -0.6302346 -0.04948173
000340 da c9 7c bd 1e 9d f5 bc c0 51 b0 bd 7f 86 51 bd
       -0.06171594 -0.029982146 -0.086093426 -0.051153656
000350 be 6c 37 bd 75 d4 c2 bc 8e a2 62 bd 11 1b 71 bd
       -0.04478144 -0.023782948 -0.055330805 -0.058863703
000360 27 24 1b bd 04 cf c1 bc a7 47 59 bd 27 8c c9 bc
       -0.037876274 -0.023658283 -0.05304685 -0.024602963
000370 fc 21 9a bd ff 74 68 bd 46 97 8b bf 85 f4 55 bd
       -0.07526013 -0.0567522 -1.090554 -0.052235145
000380 f1 bd 82 be 18 b8 f5 bc e3 26 84 bd 3a 99 59 bd
       -0.2553554 -0.02999501 -0.064527296 -0.053124644
000390 ba 6f 5b bd e3 a8 99 bf 4f db a5 bd 2e 86 e9 bc
       -0.053573348 -1.2004665 -0.080984704 -0.028506365
0003a0 f6 7b be bd c7 06 93 bd 40 78 8f bd fa 97 92 bd
       -0.093009874 -0.07179027 -0.07005358 -0.071578935
0003b0 76 1d 8a bd 50 6e 21 bd 67 fa 5f bd 01 8d d8 3f
       -0.067439005 -0.039411843 -0.05468216 1.6918031
0003c0 d8 d7 4b bd 61 30 ea 3f 74 70 83 bd 46 a1 f1 bb
       -0.04976639 1.8296014 -0.06417933 -0.0073739616
0003d0 7a 0e c5 bd 15 bc 1b bc 92 40 5a bd 11 d7 d0 bc
       -0.09621902 -0.0095052915 -0.053284235 -0.025493177
0003e0 f5 9a d3 bc f3 1c f5 bc 98 c4 eb bc 60 f4 44 bb
       -0.025830725 -0.02992103 -0.028780267 -0.0030052885
0003f0 2f cb f4 bd 8a 36 55 bd 68 d0 c5 bd e3 99 18 3e
       -0.11952817 -0.052053966 -0.09658891 0.14902453

fc1.weight f4 [128, 256]
000000 08 1a a6 bc 5f 0f cf 3d 65 36 b6 3b a3 02 ce bd
       -0.020276085 0.10110354 0.0055606836 -0.10059097
000010 64 4c 64 be 22 48 ed 3d f6 2a 64 3c 83 50 81 3d
       -0.22294766 0.11586024 0.013926258 0.063141845
000020 c2 e7 9f bd 1f f9 40 bd 19 80 6c be fc dc 35 3d
       -0.07807876 -0.04711258 -0.2309574 0.0444002
000030 39 07 9f bd 75 19 43 bc 1e 4d 98 bd 90 e1 c1 3d
       -0.077650495 -0.011907925 -0.07436584 0.09466851
000040 74 cf 3e 3c 66 bd 0e bc ee df 6d bd eb a4 05 bd
       0.01164614 -0.008712148 -0.058074884 -0.03262798
000050 32 73 20 bd d4 b9 c4 bd 10 96 18 bd 3d d9 2b be
       -0.03917236 -0.096057564 -0.037252486 -0.16782089
000060 6f d0 af 3d 35 f4 3e bf b5 48 5a 3c f7 98 ca bb
       0.085846774 -0.7459138 0.013322999 -0.0061827856
000070 f7 c8 00 3d e0 25 cf bd b7 43 84 bd 7f d9 58 3d
       0.031441655 -0.10114646 -0.06458228 0.052941795
000080 0f ba d6 3d 8b 57 ba bc 64 ae b3 bd 75 09 1c bb
       0.104847066 -0.022746822 -0.08773497 -0.0023809348
000090 2b de ef bc 80 06 9b 3d 7f 6f 71 bd 98 1f 71 bd
       -0.029280743 0.07569599 -0.05894422 -0.05886802
0000a0 59 a1 9b 3c 66 a4 b4 bc a8 b8 22 bd cc f6 d9 3c
       0.018997835 -0.022051048 -0.039726883 0.02660694
0000b0 6e c3 29 3c d5 d2 c1 bc 0e 2e c1 bd fe e7 0b 3d
       0.0103615355 -0.023660103 -0.09432612 0.034156792
0000c0 67 95 8e 3d 28 64 02 bd 84 41 1c bd 20 e3 ef bc
       0.0696209 -0.031833798 -0.038148418 -0.029283106
0000d0 1a 0e 82 bd 8f 46 37 3d 6e 62 5f 3d 12 60 25 3d
       -0.06350346 0.044745024 0.05453723 0.040374823
0000e0 07 7b 18 be 8e f2 a6 3d 8b 43 11 bd bc 51 4f 3b
       -0.14890681 0.081517324 -0.035464805 0.003163441
0000f0 a7 e6 90 bc 40 37 cd 3c cf 97 ce 3c b1 0d 26 bd
       -0.017688109 0.02505076 0.025218872 -0.0405404
000100 a3 60 72 3d b7 71 90 bd 9e 56 59 be 7a 19 2e bc
       0.05917419 -0.070529394 -0.21224448 -0.010626191
000110 3e 08 97 bd 40 fd ce 3d 4f 55 8c bd 95 1c c2 bb
       -0.07374619 0.10106897 -0.06852209 -0.0059238174
000120 0d ee ba bd 5c 84 e7 3d c9 25 14 be f3 38 7f 3a
       -0.09127436 0.113045424 -0.14467539 0.0009735964
000130 b5 ce 81 be 84 1d 27 bc 75 2a 09 be 03 ed 25 3d
       -0.25353017 -0.010199908 -0.13395102 0.040509235
000140 78 31 74 bd c2 6a 3f bd c1 88 3f bd 23 77 1d 3d
       -0.05961749 -0.04673267 -0.046761278 0.038443696
000150 8b e1 3a 3c 6a 44 bf bd f6 bd d6 3d 57 56 f9 bd
       0.011406313 -0.09339221 0.10485451 -0.12174671
000160 21 c2 6d 3c e8 43 cd 3d 61 e7 d0 bd 3f 0f 47 bd
       0.014511616 0.10022718 -0.10200382 -0.048598524
000170 18 61 a0 3b 9e 75 1b be 29 b4 b1 bd f3 19 a3 3c
       0.004894387 -0.15181586 -0.08676941 0.019909834
000180 58 73 3a bd e2 b6 f1 bd 2f 82 1b 3d 84 48 bb bc
       -0.045520157 -0.1180246 0.03796595 -0.022861727
000190 80 1b 97 39 e9 c2 a1 3d 37 d5 f6 bd 7e ea 9d bd
       0.00028821453 0.07898504 -0.12052386 -0.077107415
0001a0 c4 be 2b 3d ff d7 d6 bb 55 64 b0 bd 58 65 3a bd
       0.041929975 -0.0065565105 -0.08612887 -0.045506805
0001b0 d3 f1 d6 bd e2 f2 f1 3d cd 7c 33 bc 62 0f 96 bb
       -0.10495343 0.11813904 -0.010955048 -0.0045794705
0001c0 2b 0a a3 be 3c b0 dd be 1a 13 4c 3d 87 43 37 3d
       -0.31843695 -0.4329852 0.049822904 0.044742133
0001d0 ee 0d be 3d a1 62 b4 3c e2 2e 71 3c 20 f3 9f 3b
       0.092800006 0.022019686 0.01472065 0.0048812777
0001e0 51 76 23 bd ff 65 aa 3c 21 ce 88 3c d0 2b 96 bc
       -0.039907757 0.020800589 0.016699852 -0.018331438
0001f0 84 d3 40 3d ef 4e 1a be 26 84 da bc 2c 0a 34 be
       0.047076717 -0.15069173 -0.026674341 -0.17582005
000200 90 fb 02 bd 79 d1 59 3d 65 4c 8f bd 48 26 e9 3d
       -0.03197819 0.053178284 -0.06996993 0.11384255
000210 5c f9 35 3b e2 14 f6 3c 77 f4 4f 3d e3 b5 6d bd
       0.0027767038 0.030039255 0.05077025 -0.05803479
000220 19 57 a9 bd ad 89 68 bd 2d eb 0f ba 18 10 91 3d
       -0.08268566 -0.056771923 -0.0005490061 0.07083148
000230 56 92 f6 bc 62 ec 8d bb b3 25 e2 3d f5 dc c2 bc
       -0.030099075 -0.0043311575 0.11042347 -0.023787001
000240 85 8d 2f bf a8 b4 f4 3d 8d fa e3 3c 31 b4 e6 bd
       -0.68575317 0.1194852 0.027829433 -0.112648375
000250 63 ff aa be 61 38 da bd 17 f4 10 bd 14 47 f0 bc
       -0.3339797 -0.10655285 -0.035389032 -0.029330768
000260 77 eb 29 bd 44 83 d1 3d 90 fa 71 3d 3a aa a4 bd
       -0.041484322 0.10230115 0.059076846 -0.08040281
000270 d1 6c 94 bc 5d 7c a9 bd ca 32 39 bd ee 52 9a bd
       -0.018118294 -0.082756735 -0.04521445 -0.07535349
000280 88 53 ce bd 98 8f 98 bc 15 f2 d5 3c bf 19 bd 3c
       -0.10074526 -0.018623158 0.02611641 0.023083566
000290 b3 c3 c8 bd 7a dd 52 3c a0 2e 6c bd 5b 40 31 be
       -0.09802952 0.012870187 -0.057661653 -0.17309706
0002a0 85 f2 7d be 48 5c 4e bd f9 16 a6 3b d4 3b b1 be
       -0.24799545 -0.050380975 0.0050686565 -0.34615958
0002b0 e6 66 37 bc 2f 89 a1 3d 0a d1 4b bd 38 63 1c bd
       -0.0111939665 0.07887494 -0.049759902 -0.03818056
0002c0 7d 74 98 3c be 2f c5 3c 6a 3e f6 3d 6b f1 b6 3d
       0.018610233 0.024070617 0.12023623 0.089327656
0002d0 c1 3d cd be 81 4e 92 bd 03 18 e6 3d b5 6a 16 bc
       -0.40086177 -0.0714388 0.112350486 -0.009180714
0002e0 ba ef bf bc ed bd 48 be f5 8c 8c bd ac d7 f9 3d
       -0.02342974 -0.19603701 -0.06862823 0.12199339
0002f0 df 77 b3 bd 35 75 04 3c 9f 81 8b bd a0 5d 76 3d
       -0.08763098 0.008084585 -0.06811833 0.06014788
000300 f5 e7 fd bd 14 a2 ca 3d 45 9d 9a bd a1 01 ba bc
       -0.12397758 0.09894195 -0.07549528 -0.022705855
000310 b6 d5 9c bd b2 9d a6 bd 99 95 9d bd c3 eb 50 be
       -0.076579496 -0.08135547 -0.07694549 -0.20402436
000320 d8 13 cc 3d 0d dc ab 3d cd a5 cf 3d 31 80 9c bd
       0.099647224 0.08391581 0.10139046 -0.07641638
000330 64 70 bd be 06 41 bc bc 55 a5 eb bd ae 71 79 ba
       -0.3699981 -0.022980224 -0.11506144 -0.0009515536
000340 3f 30 77 3d 70 16 64 bd 74 a5 78 3d 04 8f ab bd
       0.060348745 -0.05568546 0.060704663 -0.083768874
000350 d3 9e 8c bc 54 7c 00 be fd 3e e2 3d 0a cc 99 bd
       -0.017165577 -0.12547427 0.1104717 -0.075096205
000360 f2 0c 57 3c 98 45 51 bc e6 e6 44 b9 c6 ca 4e 3d
       0.013125645 -0.01277294 -0.00018778033 0.05048635
000370 b7 20 0a bd bc dc 07 bd 2c d1 6d bd a1 35 c6 bd
       -0.033722606 -0.033169493 -0.05806081 -0.09678198
000380 c9 4a d7 3c 32 1e 2c 3d 67 dd 0d 3b 22 e4 fe bc
       0.026280778 0.042020984 0.0021646859 -0.031114642
000390 ba 22 35 bd fa 21 78 be 8a 93 9e 3d dd d8 1e bd
       -0.04422257 -0.24231711 0.077429846 -0.038781036
0003a0 06 91 3b bc 58 d4 ae 3c c6 63 c2 bc 29 06 da ba
       -0.0114481505 0.021341488 -0.023729216 -0.0016633916
0003b0 51 67 6e 3d 97 a4 10 bd 18 63 a7 3d 6c 42 bf bd
       0.058204 -0.035313215 0.081731975 -0.09338841
0003c0 50 54 97 bc 65 2e b3 bd c8 0e 8e 3d f1 10 d7 bd
       -0.01847282 -0.087490834 0.06936413 -0.10501278
0003d0 b3 76 c2 bd 7e 8a e6 ba b4 20 a7 bd f2 eb 85 bd
       -0.09495296 -0.0017588881 -0.081605345 -0.065391436
0003e0 18 cb 64 bd bb 31 11 bd 90 42 59 bd 35 f1 d9 ba
       -0.055857748 -0.035447817 -0.053041995 -0.0016627671
0003f0 c5 34 8a be 91 ae 8d 3d 64 5c 96 3d 64 e2 d5 bd
       -0.26993385 0.069180615 0.07341841 -0.10443571

fc1.bias f4 [128]
000000 de 05 89 be 80 48 a1 be 46 41 1c 40 37 20 a7 bb
       -0.2676229 -0.31500626 2.441484 -0.005100276
000010 89 93 82 be f6 2d f8 be 20 4f 56 be db ae b7 bd
       -0.25503185 -0.48472565 -0.20928621 -0.08968898
000020 0e e5 d5 40 5d b1 81 bd 6e ce 60 bc 3b 3e 7e bd
       6.684211 -0.063326575 -0.013721092 -0.062071066
000030 95 80 df 3e be 31 43 bf 8a 7a c0 40 b1 eb f0 be
       0.43652788 -0.76247776 6.0149584 -0.47054818
000040 77 cd 0c bf 84 b2 34 3f 07 55 8e be d6 a4 8c 3f
       -0.55001014 0.70584893 -0.27799246 1.0987804
000050 02 27 13 c0 fd 84 aa be 05 85 ae bd bb 8e 9c bd
       -2.2992558 -0.33304587 -0.08521465 -0.07644411
000060 82 29 7e bc 45 36 e4 c0 00 a3 ca be 68 3f 6b be
       -0.015512826 -7.1316247 -0.39577484 -0.22973406
000070 15 d6 e7 bc 42 9d 23 3f 75 9c b6 be e7 02 d3 bf
       -0.028300324 0.6391183 -0.35666242 -1.6485261
000080 d0 e2 92 bd 1f 9f c4 3f ea a3 56 3f c1 0f 17 be
       -0.07172167 1.536106 0.83843863 -0.14752103
000090 72 66 4a bd d9 53 77 bc 75 bb dd bf 38 71 6f bd
       -0.049414106 -0.015095674 -1.7322832 -0.058457583
0000a0 d7 19 16 bd 8a cc 3a bf 95 24 43 40 70 7c 36 bf
       -0.036645737 -0.7296835 3.0491078 -0.71283627
0000b0 b3 07 69 bf e5 72 d7 bd 8f cf 43 be 1a f4 7d c0
       -0.91027373 -0.10519961 -0.19122146 -3.9680238
0000c0 4c b4 0c bd 78 a1 3e bd b2 82 77 bd 3f 23 3e bd
       -0.034351632 -0.046540707 -0.060427375 -0.046420332
0000d0 55 2c e7 3f 5a bc 5f bf 0e ba 0d be 6f 7d 5c 3e
       1.8060404 -0.87396777 -0.13840505 0.21532224
0000e0 2c 46 17 bb 63 5c 18 be 26 34 0b c0 6b 4e cf be
       -0.0023082597 -0.14878993 -2.175058 -0.40489516
0000f0 77 0f 4d bf 52 02 7c be 5c 51 11 c1 f7 0d 74 bf
       -0.8010172 -0.2461026 -9.082363 -0.9533381
000100 06 b0 55 c0 35 b5 e7 be 80 4b c1 be 5e 8f 09 c0
       -3.3388686 -0.45255437 -0.37752914 -2.1493754
000110 00 77 9f bd 97 ff ab 3f 9f 96 e2 bd 79 86 42 bb
       -0.07786369 1.3437375 -0.11063885 -0.0029682203
000120 8e 11 af bc 59 2d d0 bd 5e 4d a1 40 af 8f 5d be
       -0.021370675 -0.101648994 5.040694 -0.21636842
000130 bc 82 b6 be 9a 37 a3 be 26 c5 dd bd f6 7b d8 bd
       -0.35646617 -0.31878358 -0.10828619 -0.10570519
000140 14 c2 aa bd 41 9f ed be 73 d2 41 be 50 e8 29 bf
       -0.08337799 -0.46410564 -0.18927936 -0.66370106
000150 1b 52 22 c0 95 5b 95 be 7d 06 a8 bf 91 ed 86 ba
       -2.5362613 -0.29171434 -1.312698 -0.0010294189
000160 87 a6 fa 3f cf bc 4b be 05 50 e8 be c9 0c 83 be
       1.958207 -0.19896244 -0.4537355 -0.25595692
000170 6f 42 98 be 11 98 ad be b6 f0 8d 3f d8 f2 39 bf
       -0.29738185 -0.3390508 1.1089084 -0.72636175
000180 53 36 16 bc 20 d5 41 bf 48 82 8a bd c8 9c ed be
       -0.009168225 -0.7571583 -0.067631304 -0.46408677
000190 71 d7 d4 be 90 cb 15 bd 2b 12 52 3e 7c 78 ed bd
       -0.4157062 -0.036571085 0.20514743 -0.11595246
0001a0 42 67 ed 3d 4b 23 47 bf 66 6a 08 be ee 2b 26 bf
       0.115919605 -0.7778823 -0.13321838 -0.6491078
0001b0 ff b4 f1 bb 73 8d bb be d9 70 27 bf 31 37 eb bb
       -0.0073763127 -0.36631355 -0.65406567 -0.00717821
0001c0 18 e3 b5 be 99 70 06 c0 9b e2 92 be 86 c9 02 be
       -0.3552482 -2.1006224 -0.2868851 -0.12772188
0001d0 ec 55 a9 bd 42 21 fe bf b5 92 16 c0 ce 63 c4 ba
       -0.082683414 -1.98539 -2.3527043 -0.0014983357
0001e0 99 dc 2b be a5 8b d6 be b0 2e a1 be 8a 1b 9a bf
       -0.1678337 -0.41903415 -0.31480932 -1.2039654
0001f0 c3 37 24 bf 57 1a 06 bf df f9 b5 be 65 5f f9 bd
       -0.64147586 -0.5238394 -0.355422 -0.12176398

fc2.weight f4 [64, 128]
000000 7d 14 63 bc b4 8a 10 bd a3 a3 2b bf 3e 57 01 be
       -0.013859865 -0.035288528 -0.67046565 -0.12630937
000010 dd d2 60 3c 31 ea 6e 3e e7 84 08 bd 1e f1 85 bb
       0.013722149 0.23331524 -0.03332987 -0.0040875813
000020 37 be 21 bf bf 12 bc 3d 4a b6 d8 3b a5 d0 ee bc
       -0.6318087 0.09183263 0.0066135274 -0.029152224
000030 aa 0b df 3e 43 e4 8a be 7a 41 40 3d f6 79 d2 3c
       0.43563586 -0.27127275 0.046937443 0.025692921
000040 ca 62 0e 3e 6e eb e0 3b bf fc 68 be e7 25 16 3e
       0.13904873 0.006864003 -0.22752665 0.14662896
000050 20 bd 16 bf 88 e7 43 3e 89 97 1c 3c 31 c7 e4 bd
       -0.5888233 0.19131291 0.009557613 -0.11170805
000060 bd 57 5c bd e6 68 c5 be 2b e2 b8 3c ff 78 8e be
       -0.05379461 -0.38556594 0.022568783 -0.27826688
000070 27 bf 82 bd 16 7c 8c 3e 37 44 d3 bd 8f da 71 bf
       -0.06384116 0.2743842 -0.10315745 -0.9447412
000080 4b f0 9b bd 5f e3 ca 3d 56 08 31 bf f0 5e a3 bd
       -0.076141916 0.09906649 -0.69153345 -0.07977092
000090 cd 2a 8e bb bb 9c 01 3e f7 31 d6 bf 1c a2 23 bd
       -0.0043385983 0.12657444 -1.6733998 -0.03994952
0000a0 b0 78 68 3e af b2 7a 3e d7 0f 3e 3d 49 a1 09 3d
       0.22702289 0.24482225 0.046401825 0.03360108
0000b0 55 79 84 bd c0 b1 33 bf 98 2b f9 3c 9e 1e 46 bf
       -0.06468455 -0.701931 0.030416295 -0.7739047
0000c0 5a 87 0d be b0 b8 1b bd 0e 4a c1 bd c0 65 4c bd
       -0.13821164 -0.03801793 -0.09437953 -0.049901724
0000d0 08 db 8d bf ac 53 8b be db db 4d 3c 38 a3 b4 38
       -1.1082468 -0.27212274 0.012564625 8.613471e-05
0000e0 d2 c3 ed 3c 74 41 2d bd b0 70 c6 be dd e6 b3 bd
       0.029024038 -0.04229875 -0.3875785 -0.08784268
0000f0 fe 97 d7 bc 72 d0 00 be fa ad 8c be db 15 57 bc
       -0.026317593 -0.12579516 -0.27476484 -0.013127769
000100 f3 88 9e bf 4f 1e d5 bd c2 38 1e be 2a cd 8b bf
       -1.2385544 -0.104061715 -0.15451339 -1.0921986
000110 16 4c 04 be 36 80 1a bd 20 f1 86 be 0a 97 46 bb
       -0.1291965 -0.037719928 -0.2635584 -0.0030302429
000120 59 ef f5 bd 3b 34 97 bd 1e 63 3f bd 15 e7 e1 be
       -0.120085426 -0.07383009 -0.046725385 -0.44121614
000130 58 ee 21 be 73 c6 3e 3d 44 4d 9b bd a6 c4 85 3d
       -0.15813577 0.046575975 -0.075830966 0.06531648
000140 62 92 ad 3e 83 5d 7c be f0 e8 fb 3d 82 ce 39 bd
       0.33900744 -0.24645047 0.12300289 -0.045362957
000150 c1 7f 3b bf b0 b4 97 3d 23 8a e6 be da d1 39 3e
       -0.7324181 0.0740751 -0.45027265 0.18146458
000160 e3 3c 27 bf 6c 53 60 3e ae 24 27 3d 37 f1 df bd
       -0.6532728 0.21906823 0.040806465 -0.1093468
000170 92 1a 88 3c 5b c3 af bd d7 1b b6 be 17 84 29 3e
       0.016614232 -0.08582183 -0.35568115 0.16554295
000180 de d8 bd 3d 70 26 69 bc 2e c4 83 bd dc fc 3d 3f
       0.0926988 -0.014230356 -0.06433903 0.7421396
000190 b5 ce 9a 3d 72 3e 0d be 39 60 5b bf 5e 3d 77 be
       0.075589575 -0.13793352 -0.856937 -0.24144503
0001a0 7f 59 fb be 82 44 97 3b 15 7f 0f 3e de 0a a5 bd
       -0.49091718 0.004616321 0.14013322 -0.080587134
0001b0 cb 3a 54 bd da 7c ca be 67 35 e6 bd 02 b8 30 be
       -0.05181388 -0.3954838 -0.112406544 -0.17257693
0001c0 be b8 5c be 80 59 4b bf 5b 9b 0e be a6 01 74 3d
       -0.21554849 -0.7943344 -0.13926451 0.059571885
0001d0 ab 4e 79 bc d4 ed 2b bf 0a 85 2a bf 6f 9c 88 3c
       -0.01521651 -0.6715977 -0.6660925 0.016676156
0001e0 cf 41 02 be 9d 4d aa 3c 9c fb 88 bd 0d 14 33 be
       -0.12720416 0.020788962 -0.06688616 -0.17488118
0001f0 de 43 13 3e b0 68 58 bd 49 7b 44 3e f0 d7 42 3c
       0.14381358 -0.052834213 0.19187655 0.011892304
000200 49 a7 92 ba 63 73 2a bd 53 c3 c5 bd 01 4d d9 ba
       -0.0011188771 -0.041613948 -0.09656396 -0.0016578735
000210 c1 07 bc bd 69 79 94 3c ba f4 b2 bc 20 01 92 bd
       -0.091811664 0.0181243 -0.02184521 -0.07129121
000220 ff ea 80 be 46 44 e5 bd 3b 3d b1 3d 9a 38 3a bd
       -0.25179288 -0.11194663 0.08654257 -0.045464136
000230 99 dc f0 bd d4 4c 4e bd 04 b6 1c be 3c d0 da bd
       -0.11760826 -0.050366238 -0.15303808 -0.10684249
000240 db 60 ab bd af fc ba be 74 e2 0e 3e 6c c3 81 bb
       -0.08368083 -0.36520907 0.13953573 -0.0039600637
000250 4c ad 3e be 2e b6 8d 3c d6 98 66 bd 74 9e 3d bb
       -0.18620795 0.017298784 -0.0562981 -0.0028933557
000260 63 ae de 3d ef 79 eb bb c8 ce 96 bd 4f 87 e8 bd
       0.108731054 -0.0071861665 -0.07363659 -0.11353933
000270 e7 2c dd 3c a8 44 92 bc 7a 0a c0 bd 36 67 c4 bd
       0.02699895 -0.017855003 -0.09376998 -0.095899984
000280 45 e2 b9 bd d9 75 01 be d2 35 65 3c b7 e6 f7 bc
       -0.090763606 -0.12642612 0.013989883 -0.03026138
000290 ba 5c f3 3d c6 a6 65 3c 78 dd 77 3c 96 5a 99 bd
       0.118829206 0.014016813 0.015128486 -0.07487981
0002a0 70 bd fb bd 48 b3 97 bd 44 56 6a be 97 14 2e bd
       -0.12291992 -0.07407242 -0.2288447 -0.042500105
0002b0 10 d6 15 be 82 c8 31 be 7a 3d ec bd a0 16 ed bb
       -0.1463244 -0.17361644 -0.11535163 -0.007235363
0002c0 8c b9 33 bd 00 dd c6 bd b0 77 f9 3d 45 eb 21 bd
       -0.043878123 -0.09710121 0.12181032 -0.03953101
0002d0 6a 0a 31 3c e6 69 ae bd 1a 21 24 3c 51 f7 26 be
       0.010805706 -0.08516292 0.010017658 -0.16305281
0002e0 e0 e2 fa bc 67 8a 1a 3d 0c f9 5f be b3 71 5a be
       -0.03062576 0.037729647 -0.21872348 -0.21332435
0002f0 ef 09 98 bc f4 ae 05 be 83 77 9a be 59 9f 93 be
       -0.018559424 -0.1305502 -0.30169305 -0.2883251
000300 61 c7 90 be 07 27 d5 bc dc c7 01 bd c5 12 1d bd
       -0.28277114 -0.026019586 -0.03168474 -0.03834798
000310 7c 3c 60 bd de c0 11 be f6 07 12 3d 31 6f 89 bd
       -0.054745182 -0.14233729 0.035652123 -0.06710661
000320 67 63 87 bc a8 97 99 bd c3 e4 cd be 5b 8e ce be
       -0.01652689 -0.07499629 -0.40213594 -0.40342984
000330 95 2d c0 bc 50 a9 cf bd 7a ac 96 bd ff 1c f6 bc
       -0.023459235 -0.10139716 -0.07357116 -0.030043123
000340 b4 c6 88 bd a4 5d d9 bc cd 1d 05 3e f6 c9 09 be
       -0.066785246 -0.02653391 0.1299965 -0.13455948
000350 ed d3 70 bd 3e 86 74 bc c3 97 ad bd 14 3c 64 3c
       -0.05879586 -0.014924584 -0.08476212 0.013930339
000360 c2 e0 29 be ac e6 ba bb fa f6 ca bd 5c 33 22 3d
       -0.16589645 -0.0057037678 -0.09910388 0.03959976
000370 cb 78 2b 3d d5 35 00 be 14 84 2b bd 25 3b 43 bc
       0.041863244 -0.12520535 -0.041874006 -0.011915957
000380 fd 65 93 bc c2 28 08 be 40 90 13 be 3b 04 15 bd
       -0.017992968 -0.13296798 -0.14410496 -0.036380988
000390 a7 ed 1c bd 75 dc 05 be 41 4d 28 be 9d d6 2a 3c
       -0.03831258 -0.13072379 -0.1643572 0.010427144
0003a0 e0 ab 03 bd 69 b7 e8 bd 3c e7 ff 3d 1e fe d2 bd
       -0.032146335 -0.11363108 0.12495276 -0.10302375
0003b0 8f 9b 11 bd 71 44 c1 be e9 de 6a 3c 10 ab ff bd
       -0.035548743 -0.3774753 0.0143353725 -0.124837995
0003c0 f5 d8 10 3b fc 32 0e ba 66 a2 e2 3c 25 ab f6 bd
       0.0022101973 -0.00054244674 0.027665328 -0.12044362
0003d0 10 1a 37 3c 57 71 7c bd 11 18 62 be d3 48 73 bc
       0.011175647 -0.061631527 -0.22079493 -0.014848906
0003e0 b2 b1 ec bd 99 81 fb 3c 5c 48 7a 3d 3c b5 c8 bd
       -0.1155733 0.030701445 0.061104164 -0.09800193
0003f0 8d 1c 28 bc ef f1 ec bd 98 2e d2 bd b1 4c 6a bd
       -0.010260713 -0.11569583 -0.10262793 -0.057202045

fc2.bias f4 [64]
000000 88 95 40 40 a2 10 d5 be b7 78 03 bf 90 31 c7 be
       3.0091267 -0.41614252 -0.5135607 -0.38905
000010 fb 3e c1 be c3 68 4b bf d5 d7 d1 be 71 73 17 40
       -0.37743363 -0.7945673 -0.4098498 2.366421
000020 65 45 41 bc 53 e1 44 bd 7e 45 23 bf 9d d7 06 40
       -0.01179633 -0.04806645 -0.6377791 2.10691
000030 1f 72 7b be 60 5a b7 bd 77 ab 28 be 2e a6 83 be
       -0.24555252 -0.089527845 -0.16471659 -0.25712723
000040 3a cc 29 40 ff b8 fc bb 7a 38 63 be 4b ca d6 be
       2.65309 -0.007712483 -0.22189513 -0.41951212
000050 63 18 dc be 23 82 f2 3d af e7 c1 be 8a 0b a8 bf
       -0.42987356 0.11841228 -0.37872073 -1.3128521
000060 11 39 3a 40 30 4d 02 be 18 03 39 3f f9 84 d6 be
       2.909733 -0.12724757 0.72270346 -0.41898325
000070 27 73 fe be e7 dd 1a bd a6 7b 94 3f b1 c6 15 bf
       -0.4969723 -0.03780928 1.1600235 -0.58506304
000080 ac 0b 08 bf a4 59 34 be 36 78 08 bf 45 45 e2 be
       -0.5314281 -0.1761232 -0.5330843 -0.44193473
000090 24 f5 07 bf 11 bf 03 bf c9 e9 0f 40 52 f5 2a be
       -0.5310843 -0.5146342 2.248644 -0.16695145
0000a0 48 d3 18 bd 03 cb 26 bf 91 11 a8 be 6a 2e 20 bc
       -0.03731087 -0.6515352 -0.32825902 -0.009776691
0000b0 78 6a 32 bf 4a d0 f0 bd 05 a5 f7 bc 78 64 99 3f
       -0.6969371 -0.11758478 -0.030230055 1.1983786
0000c0 cc c0 b5 3e f6 1b 55 40 e5 19 0c 40 5e d6 16 bf
       0.35498655 3.3298316 2.1890805 -0.5892085
0000d0 22 b3 25 bf 60 59 a5 3f cc f2 b1 be 36 d7 1f bc
       -0.6472646 1.29179 -0.34755552 -0.0097559
0000e0 46 35 15 bf 1b 55 d5 3f 8a 38 57 40 2d a1 25 bf
       -0.58284414 1.6666597 3.3628259 -0.6469906
0000f0 37 23 01 be 19 ef 0a bf e9 49 9e bc 4d fd 13 40
       -0.1261109 -0.54271084 -0.019322352 2.3123353

out.weight f4 [10, 64]
000000 76 cf 4a bc b1 12 9b 3e fe 9f 00 3e e2 26 16 be
       -0.012378564 0.30287698 0.12561032 -0.1466327
000010 39 74 c5 3d 6a e5 ab be 78 e3 4f be 05 77 11 bd
       0.09641308 -0.33573467 -0.20301616 -0.035513896
000020 a5 9c 9b 3b f8 92 4d 3c b3 4c fa bd 40 69 fc bc
       0.004748898 0.012547247 -0.122216605 -0.030811906
000030 bf 49 c0 be d8 43 0e 3d 1b 2c a3 3e 39 1e 35 3d
       -0.37556264 0.03473267 0.31869587 0.044218276
000040 fc 3f 8f 3c c7 2e 9e bd f5 c6 08 bd c1 ab 9b 3e
       0.017486565 -0.07723766 -0.033392865 0.30404475
000050 3d df 17 3e 01 a2 29 3e 58 ee 12 be 40 9c ad 3c
       0.14831252 0.16565706 -0.14348733 0.02119267
000060 49 34 47 be 8e d5 79 3d b5 dc 02 3e 99 57 a7 bb
       -0.19453539 0.060994677 0.12779506 -0.005106878
000070 3b bc 69 3b 2f 0f 30 bc 3f e8 45 be 17 75 f2 bd
       0.0035665173 -0.010745808 -0.19326876 -0.11838739
000080 71 d5 46 be c4 7a 1f be ed 6a ef bd 43 52 16 be
       -0.19417359 -0.15574175 -0.11690316 -0.14679818
000090 c8 91 6e 3e b5 22 6d 3e 2e f1 da 3c f1 38 1c 3e
       0.23297799 0.23157771 0.026726332 0.15256096
0000a0 6c a4 e3 3d 9c 96 85 3e d0 8a ce be 98 4a 6e bd
       0.11115345 0.26091468 -0.4034028 -0.058176607
0000b0 d8 cd 88 be b3 06 2e 3d ad 17 93 bd 02 fa 08 bc
       -0.26719546 0.042486858 -0.0718225 -0.008360388
0000c0 8d 3b 49 3d a7 b2 02 3e d4 29 f7 bb 8f 4f ab bd
       0.049129058 0.12763463 -0.007542828 -0.08364784
0000d0 c8 f6 c6 3b 2b b2 d1 bc 20 f3 11 3e 06 06 c8 bc
       0.006071899 -0.025597652 0.14252901 -0.024416935
0000e0 c1 00 d7 3d 04 3f cb bc fb c1 f7 3d d4 16 66 3b
       0.10498191 -0.024810322 0.12097546 0.0035108821
0000f0 04 e3 47 3c f8 5b 3f bd 1b 58 86 3d bf 88 25 bd
       0.012200121 -0.046718568 0.065597735 -0.040413614
000100 48 7c ba 3b 0e 19 e9 bd bb 5b fa bd 16 e5 d2 3e
       0.005691085 -0.11381732 -0.122245274 0.41190404
000110 f6 c3 f1 bd cc 0c 07 be 12 15 94 bc 27 a8 3f bd
       -0.11804955 -0.13188475 -0.018076453 -0.046791222
000120 65 52 60 bd d0 e4 05 3e 42 55 0f be 17 3b 3c 3d
       -0.054766078 0.13075566 -0.13997367 0.04595479
000130 56 73 d8 bd 03 e1 fb bc f4 e0 10 3e 05 45 a9 bd
       -0.105688736 -0.030746942 0.14148313 -0.082651176
000140 f2 ab 9b 3d cd 85 c3 3d 63 bf 7d be 4c 0d 7c be
       0.07601155 0.09547005 -0.2478004 -0.24614447
000150 ac fa c4 bd bd 52 74 3e 09 50 77 3e 35 46 0a bd
       -0.09618124 0.23859687 0.24151625 -0.03375836
000160 68 e5 c8 3d fb 92 8b b9 4f 12 b0 bd 7c 63 55 bc
       0.09809381 -0.00026621655 -0.08597242 -0.013024207
000170 1d 36 63 3d 92 ff f7 3c 52 03 25 be 52 2d e4 bd
       0.05547153 0.030273233 -0.16114548 -0.11141457
000180 96 d3 a8 be 76 33 1f 3e 98 0c 37 3d cf 36 95 bd
       -0.32973927 0.15546975 0.044689745 -0.072858445
000190 c0 4b 6f 3e 00 65 c4 be a8 3b 2f bd 94 5c b8 bc
       0.2336874 -0.38358307 -0.042781502 -0.022505082
0001a0 1b 0c 12 3d 3e cf 9e 3d 33 a0 b0 3e 48 3d 93 3d
       0.035656076 0.07754372 0.34497222 0.07189423
0001b0 12 61 2e be f9 ba 7d 3d b4 58 a5 bc 74 b8 13 3d
       -0.17029217 0.06194589 -0.020183899 0.03606458
0001c0 2d 15 a1 be 5a df b3 3d 14 b8 e9 3c ec 18 06 3e
       -0.31461468 0.08782835 0.028530158 0.13095444
0001d0 a5 cb 5a 3d 60 ce 2c bc 40 d9 42 3e 26 45 1d bd
       0.053416867 -0.0105472505 0.19028187 -0.038396023
0001e0 a7 de 3d 3e 07 35 be 3c fb d2 db bd 4b ef 30 3e
       0.18541966 0.023218645 -0.10733601 0.17278783
0001f0 6d 31 ad bd de 31 09 3e 38 d0 90 bd c6 0e 8a bd
       -0.08456693 0.13397929 -0.070709646 -0.06741099
000200 d8 68 f8 bc 9d 81 57 be 21 45 40 3e 23 5d d0 3c
       -0.03032343 -0.21045537 0.1877637 0.025435036
000210 53 1b e3 bc fc 0d 91 be 70 af 6a 3e dd 3a 92 bc
       -0.02772299 -0.28330982 0.22918487 -0.017850334
000220 ef e3 02 be 12 47 40 bd d8 97 81 bc 48 aa ba bd
       -0.12782262 -0.046942778 -0.015819475 -0.0911451
000230 32 a2 94 bc 27 40 bb bb b4 91 60 3d 08 02 62 bc
       -0.018143747 -0.0057144347 0.054826453 -0.01379443
000240 bb 05 8d bd 95 a0 f0 bd d9 08 49 bc 21 71 37 3e
       -0.068858586 -0.117493786 -0.012270176 0.17914249
000250 ca 6c e7 bd de 71 03 bd 8d 4b 36 3e bb c2 78 be
       -0.11300047 -0.032091014 0.17802258 -0.24293034
000260 f7 f5 ba bc 51 5e ca bb 7a 6e 0b 3e 91 bb 74 bd
       -0.022822363 -0.006175794 0.13616362 -0.05974919
000270 f0 07 21 3e 18 59 2d bc e0 8c f1 3d 3e 30 70 3e
       0.15725684 -0.010580324 0.11794448 0.23455903
000280 02 36 3c 3e 28 a5 33 be 0f f8 c4 bd 8b 55 ee bd
       0.18379977 -0.17543471 -0.09617626 -0.1163741
000290 dd cb 7d be ab 11 c2 3e 82 13 ac 3d 03 4b 8d bd
       -0.24784799 0.37904105 0.08402158 -0.06899073
0002a0 28 7c 66 bd 18 50 51 be b2 c7 d5 be b2 f9 26 be
       -0.05627075 -0.2044071 -0.41753918 -0.16306189
0002b0 a3 a6 86 bd 7e ed 4c 3a 91 a6 fd 3d 91 77 97 3b
       -0.06574752 0.00078173715 0.12385286 0.0046224077
0002c0 f9 91 82 be ba 24 a5 bc 30 53 89 bd 82 c5 fc 3d
       -0.25501993 -0.020159114 -0.0670532 0.12342359
0002d0 07 78 71 bd 07 32 45 bc a3 40 d2 3e ba 59 25 3d
       -0.058952358 -0.012035853 0.4106494 0.040368773
0002e0 52 0a 0b be 2c 91 7f 3e 5a 0e 28 3b 01 ec 7c 3e
       -0.13578156 0.24957722 0.002564332 0.24699403
0002f0 ec 8b 23 3e f0 09 36 3e ae c5 a2 bd 7e 82 9b 3d
       0.15971345 0.17777228 -0.07947861 0.07593249
000300 99 cf 0f bd c6 27 b3 be e0 65 00 bd a4 69 fb be
       -0.03511009 -0.34991282 -0.031347156 -0.49104035
000310 87 41 40 be c7 64 e5 bc e9 1c 15 3e 1b ce 37 3d
       -0.18774997 -0.028002156 0.1456181 0.044874292
000320 b2 86 3e be 89 47 8c bd dd 69 00 3e db 69 29 be
       -0.1860607 -0.06849582 0.12540384 -0.16544287
000330 11 6a f9 3d d7 ce 6e bd 28 f2 88 be f7 e0 20 3e
       0.12178434 -0.058302727 -0.2674725 0.15710817
000340 a1 76 5b 3e c4 2b 67 3e 4c d6 30 be 04 be 49 be
       0.21431972 0.22575289 -0.17269248 -0.19701391
000350 f6 e1 1a 3e 50 77 9e 3e 3c cb 28 bd e7 f3 e3 3d
       0.1512526 0.30950403 -0.041209444 0.11130505
000360 3f ac ee bc 1b 9c 0e bd e8 d0 5f be fc b1 00 3e
       -0.029134868 -0.034816843 -0.21857035 0.12567896
000370 48 23 e6 3c da 52 30 3d d4 7d 17 3d 67 cc fd 3c
       0.028092995 0.043047763 0.036985233 0.030981256
000380 97 89 87 3e 93 eb 12 be 41 5f 44 3c 0b 53 8f 3e
       0.2647216 -0.14347677 0.011985601 0.27993044
000390 eb 6b 14 3d b6 4e 3d be 59 3c 21 3e 3b f6 be 3b
       0.03623573 -0.18487057 0.15745677 0.005827693
0003a0 f9 ec 86 bd c7 48 c4 be 7b 42 b7 be df 7e 13 3e
       -0.06588168 -0.38336775 -0.35792908 0.14403866
0003b0 8c ed 6f bd dd 4f 08 be 56 0e ce bc e6 1f a7 bd
       -0.05857615 -0.13311715 -0.02515332 -0.08160381
0003c0 cb 2d cc be e4 6d ca bc 2b ce ba bd 6d 99 85 3c
       -0.39878687 -0.024710603 -0.09121355 0.01630851
0003d0 b3 cd 0f bd b0 d5 39 bc 4a 46 67 3c 5a 99 3c be
       -0.03510828 -0.011342451 0.014115879 -0.18417874
0003e0 de e3 d3 bd 34 23 bf bd 19 36 35 3c be d1 0d be
       -0.103461966 -0.09332886 0.011060261 -0.13849542
0003f0 df da c1 3d 4b 3e e7 bd 36 85 54 be ac 7b ec 3d
       0.094655745 -0.11291178 -0.20753941 0.11547026

out.bias f4 [10]
000000 3e 62 1f 3e b4 a4 9c 3d ab e2 77 3d c5 b4 6a 3d
       0.1556482 0.07648602 0.0605189 0.0573013
000010 30 40 fc 3c fb e3 66 3e 6b 5f fe 3d 0a ec 3e 3d
       0.030792326 0.22547905 0.12420543 0.046611823
000020 33 93 01 3e ea 0e 9f 3d
       0.12653808 0.077665165
