exps/regularModelExperiments/pretrainedmodels/l2regulatizationModel4.pt (torch, 973925 bytes, 8 tensors)

fc.weight f4 [256, 784]
-9.71625e-38 -7.089261e-38 1.5371051e-37 -6.3834335e-38 3.1879406e-38 -1.0241408e-37 1.3911665e-37 4.71647e-38
3.38719e-39 -4.6878198e-38 -3.582803e-38 -1.186198e-37 -1.4964975e-37 -9.333872e-38 -1.4490658e-37 -9.537098e-38
-7.06568e-40 2.6187838e-37 -5.4092374e-38 -1.2722821e-37 -1.2818286e-37 -6.2395443e-38 7.446427e-38 2.9749264e-38
-9.151182e-38 8.092077e-38 -3.5700007e-38 -2.3025455e-37 7.0487824e-38 -3.472059e-38 -1.2464729e-38 -8.362086e-38
-1.3089773e-37 1.755403e-37 1.612391e-37 -1.1829711e-37 1.5463362e-38 -1.9288705e-38 -3.059214e-39 7.507472e-38
1.4046055e-38 -6.545821e-39 3.94826e-40 -5.523806e-39 1.596435e-39 5.53451e-40 9.26815e-40 9.68263e-39
-1.2242554e-37 -2.742628e-38 -4.798178e-38 -1.5868029e-37 -2.156621e-39 -2.2910548e-37 1.1149257e-37 -3.0340544e-38
-3.561294e-39 7.56886e-40 -1.44903e-38 6.097586e-38 -6.330119e-39 -1.5822351e-37 -9.201217e-39 8.707994e-39
1.343e-38 6.714156e-39 9.23676e-40 -2.477307e-39 7.158867e-39 -2.234924e-39 1.120742e-39 -2.934025e-39
-1.145249e-39 4.020557e-39 5.801611e-39 2.341556e-39 -1.006281e-39 1.86608e-38 -3.4450794e-38 -4.536255e-39
-1.2295946e-37 -3.18236e-39 2.7591e-40 -3.3267678e-37 -2.9507523e-38 5.0606033e-38 1.0566228e-37 9.609058e-38
3.3667395e-38 4.376426e-38 1.4985699e-38 -1.380929e-39 1.549035e-39 -2.53433e-39 1.270995e-39 -3.780316e-39
-1.468283e-39 4.21711e-40 -3.282142e-39 -1.141146e-39 -2.0906e-41 4.25832e-40 2.731115e-39 3.416591e-39
6.89781e-40 -2.567814e-39 -9.568388e-39 2.262469e-39 7.2257e-40 9.3684235e-38 6.166284e-38 -1.629625e-37
6.3469583e-38 1.4924887e-37 -4.6084626e-38 -9.69017e-38 4.313351e-39 4.29423e-39 2.21576e-39 2.294992e-39
-2.954512e-39 1.66278e-39 5.16216e-40 2.771258e-39 2.813596e-39 -2.232553e-39 -3.016176e-39 -7.51987e-40
3.613505e-39 -5.43646e-40 -1.235997e-39 -3.07075e-40 -9.43407e-40 -3.544795e-39 1.548393e-39 6.57688e-40
2.26807e-40 -7.837877e-39 1.1122346e-37 -7.130266e-38 -2.0565154e-38 8.61553e-39 -6.2619e-40 1.267146e-37
-4.352991e-39 -2.993e-40 -3.107133e-39 -4.38903e-40 5.67845e-40 -2.252959e-39 1.800964e-39 -1.05892e-40
-1.049344e-39 2.181401e-39 -4.78127e-40 2.6835e-41 1.988018e-39 2.468575e-39 1.053142e-39 7.9618e-40
1.769794e-39 1.941765e-39 3.32133e-39 1.509074e-39 3.4459e-40 2.781971e-39 1.2933884e-38 6.2923413e-38
5.481848e-38 -6.289955e-38 -8.28876e-38 8.35647e-39 -2.667118e-39 3.66399e-39 -3.206071e-39 -3.195134e-39
2.64404e-39 -1.2808e-39 7.524579e-39 7.622427e-38 8.9308434e-36 1.1862091e-38 -6.63572e-40 -3.121813e-39
7.33399e-40 -7.7558e-41 6.85983e-40 -6.11028e-40 2.331832e-39 2.02258e-39 -2.4503e-41 3.359204e-39
-2.431064e-39 -3.0793e-40 -1.1228453e-38 -7.854128e-38 2.6114183e-38 1.094732e-37 1.637728e-39 -1.8577e-41
2.766994e-39 -1.907171e-39 1.353518e-39 2.169349e-39 2.14905e-40 -2.807734e-35 6.579918e-35 -2.3979515e-37
-8.074704e-39 2.531579e-38 4.1769593e-32 2.9920163e-32 -4.788716e-39 2.35545e-39 7.45246e-40 2.823737e-39
1.828277e-39 -1.62236e-39 1.749605e-39 2.277238e-39 3.347081e-39 5.97792e-39 3.1676458e-38 -1.4901593e-37
3.989241e-38 -7.5342594e-38 -1.281926e-39 2.947004e-39 -1.270431e-39 2.39419e-39 -2.32459e-39 2.891464e-39
-2.208022e-39 -1.2402159e-32 -5.3147044e-32 -8.8107e-40 1.305493e-39 2.367766e-39 2.323868e-32 -1.4775752e-25
-9.87606e-34 -9.70036e-40 -6.50581e-40 9.93941e-40 2.507911e-39 -1.45654e-39 7.16667e-40 -1.81568e-39
-1.782897e-39 -7.042528e-39 -4.5203977e-38 8.1184103e-38 -3.7385813e-38 -7.635627e-38 -8.88507e-40 9.11448e-40
00000000: 3140 0482 f0fc c081 4c38 5102 0ac6 ad81
00000010: 6891 2d01 1966 0b82 145b 3d02 0065 8001
00000020: 1ce2 2400 ac3a 7f81 fc10 4381 f874 2182
00000030: 54b1 4b82 9817 fe81 933c 4582 f0cf 0182
00000040: a0b1 0780 a639 b202 e240 9381 902c 2d82
00000050: 3579 2e82 47db a981 06b6 ca01 6cf8 2101
00000060: 6e1e f981 8c49 dc01 8c5e 4281 00b4 9c82
00000070: d8e2 bf01 7009 3d81 98ba 8780 3ca3 e381
00000080: 342b 3282 deee 6e02 a077 5b02 8704 2182
00000090: 9061 a800 1009 d280 d84f 2180 725f cc01
000000a0: b0f2 9800 1647 4780 9d4c 0400 2026 3c80
000000b0: 3662 1100 cc06 0600 9517 0a00 3c6f 6900
000000c0: 13a3 2682 a852 1581 6c9e 8281 03fc 5782
000000d0: c87b 1780 ceeb 9b82 7ec1 1702 8c30 2581
000000e0: 70c7 2680 e43d 0800 10c9 9d80 f9fd a501
000000f0: cced 4480 d95c 5782 4031 6480 58d2 5e00
00000100: 603d 9200 561c 4900 d50e 0a00 b9f9 1a80
00000110: 02f4 4d00 0f56 1880 2c34 0c00 def2 1f80
00000120: 7d78 0c80 adc7 2b00 882c 3f00 4e7f 1900
00000130: 1af5 0a80 b832 cb00 6691 3b81 3c65 3180
00000140: 1e5d 2782 20a7 2280 2001 0300 7868 e282
00000150: 7ca7 2081 42c3 8901 eed1 0f02 aeca 0202
00000160: 804d 3701 7a46 6e01 082e a300 7809 0f80
00000170: 14de 1000 ae98 1b80 04d7 0d00 fc29 2980
00000180: fafc 0f80 8f97 0400 47bd 2380 0d6d 0c80
00000190: 473a 0080 0ca3 0400 3dbd 1d00 1134 2500
000001a0: d482 0700 05f6 1b80 c630 6880 d8a2 1800
000001b0: 3bde 0700 6208 ff01 badc a701 25d0 5d82
000001c0: d8c7 ac01 a425 4b02 98e8 7a81 50e5 0382
000001d0: def7 2e00 91c2 2e00 a320 1800 81fd 1800
000001e0: fa2b 2080 271b 1200 009f 0500 242d 1e00
000001f0: 29a3 1e00 734f 1880 dfd7 2080 3c30 0880
00000200: fb58 2700 77eb 0580 7575 0d80 0058 0380
00000210: d645 0a80 7299 2680 4adc 1000 5e29 0700
00000220: 3f78 0200 d058 5580 b863 1702 b41a c281
00000230: 48ef df80 98d0 5d00 90d1 0680 9879 2c02
00000240: 5e66 2f80 5442 0380 6cd5 2180 7cc7 0480
00000250: ec2e 0600 5588 1880 5b9c 1300 2f27 0180
00000260: 256d 0b80 dcc0 1700 d334 0580 ce4a 0000
00000270: c9a5 1500 62e1 1a00 bb77 0b00 6dab 0800
00000280: 7745 1300 da24 1500 842a 2400 af6e 1000
00000290: 94c0 0300 014b 1e00 68d6 8c00 384b ab01
000002a0: e83a 9501 973a ab81 3aa4 e181 70fe 5a00
000002b0: d70a 1d80 b7e5 2700 39e9 2280 bcca 2280
000002c0: 82ca 1c00 59f2 0d80 77ef 5100 9080 cf01
000002d0: 23f0 3d05 af2a 8100 c539 0780 58fe 2180
000002e0: 6bfc 0700 33d8 0080 3e78 0700 4ca7 0680
000002f0: 3364 1900 2106 1600 4e44 0080 1894 2400
00000300: d178 1a80 625a 0380 5c44 7a80 49cf d581
00000310: dc2d 0e01 d801 1502 52d5 1100 c933 0080
00000320: 4121 1e00 6bc4 1480 0fbd 0e00 439f 1700
00000330: 1157 0200 e548 1586 9aec ae06 3532 a382
00000340: fdec 5780 10d5 0901 50e1 580b b85a 1b0b
00000350: fe24 3480 09a6 1900 711d 0800 6ebf 1e00
00000360: 7ee8 1300 7baa 1180 300d 1300 03cc 1800
00000370: 4d72 2400 0218 4100 8a76 2c01 79d4 4a82
00000380: e831 5901 201a cd81 7df5 0d80 0c17 2000
00000390: 72d5 0d80 0712 1a00 0350 1980 3a7c 1f00
000003a0: 110b 1880 98ca 808a 45fa 898b 1198 0980
000003b0: 2f37 0e00 5ec8 1900 0253 f10a 3aea 3696
000003c0: 1d18 a488 1190 0a80 8e15 0780 b4d2 0a00
000003d0: 094f 1b00 3edc 0f80 c7cd 0700 61c5 1380
000003e0: fe69 1380 b4af 4c80 261d 7681 1001 dd01
000003f0: 388c 4b81 8edc cf81 ccac 0980 bfec 0900

fc.bias f4 [256]
-1.0461981e-15 -0.0017802248 -0.06785327 -1.8940672e-12 -0.03821858 -4.6347566e-05 -1.995979e-13 -5.46552e-12
-9.6222975e-05 -1.2037398e-05 -6.5590705e-20 -3.788396e-14 -3.2416268e-12 -1.5552663e-05 -1.07815545e-07 -5.7420017e-05
-4.0058794e-12 -0.19535756 -2.8074558e-26 -5.8038993e-05 -2.3694687e-08 -1.1520088e-17 -2.35621e-10 -9.112107e-09
-3.8039371e-13 -1.2495192e-07 -4.245016e-19 -2.8312743e-19 -1.4845651e-25 -0.00013833962 -0.0011828642 -0.0038253097
-0.015873745 -1.13738935e-07 0.114460476 -4.1530257e-18 -4.2460813e-15 0.37537912 -1.5226564e-06 -4.7369327e-15
-0.1711311 -2.798479e-07 -2.4616361e-14 -4.5862457e-14 -9.6667105e-21 -0.0010254025 -0.00067780906 0.1666111
-1.5536774e-05 -0.00021259312 -0.10355219 -2.881022e-19 -0.0145145245 -0.0001319751 -0.0009702147 -1.504411e-09
-1.5653978e-23 -0.038393114 -9.9961305e-08 -2.4209266e-06 -7.71492e-08 -0.0051936265 -0.018220497 0.15721984
-0.0005866223 -4.597882e-16 0.37571022 -0.06197667 -8.58666e-17 -9.247672e-09 -4.909884e-07 -0.0007672948
-3.1931115e-16 -8.2935514e-10 0.34919408 -0.00045104863 -4.167758e-12 -6.046232e-08 -0.0074267094 -0.40850767
-0.0003215315 -0.047306832 -4.9066623e-16 -2.4733193e-22 -5.7875465e-17 -0.016564066 -0.00066733704 -5.620332e-07
-6.2424363e-09 -4.7516854e-15 -2.412617e-15 -0.00079464295 -7.183895e-18 -1.9314493e-08 -6.142469e-13 -5.7786547e-08
-4.4830093e-14 -4.2440185e-08 -0.024920592 -0.034851983 -1.376462e-10 -0.0003818849 -0.013600829 -0.076518215
-5.462369e-08 -0.0330072 -4.5050795e-12 -1.2294927e-11 -0.024341622 -0.005988521 -6.5807e-15 -0.0042719995
-0.0015019894 -0.27310666 -2.197976e-13 -0.007774717 0.10554412 -1.6218521e-11 0.34883976 -0.19350599
-2.9993138e-22 -0.08645982 -2.4541988e-10 -9.262818e-05 0.19229127 -2.0412884e-18 -1.5313345e-10 3.7688102e-07
-2.3406e-18 -7.860344e-13 -1.1804635e-11 -1.1899811e-15 -1.9225574e-11 -0.004543091 -5.9226926e-17 -9.854757e-10
-1.2563368e-14 -5.7300568e-15 -0.00011819319 -0.00032619917 -0.039700598 -7.3572455e-09 -0.07321345 -3.4178897e-12
-0.17952578 -7.758338e-06 -2.4392094e-12 -0.098016426 -1.0521436e-08 -0.0001557878 -0.000115661445 -0.00014757772
-5.8375666e-05 -6.3927134e-11 -3.0865176e-14 -2.4611444e-07 -0.046809886 -0.008069187 -2.0454558e-15 -0.0019256871
-0.0008359722 -7.120042e-13 -2.3144676e-19 -7.2450966e-19 -2.1115678e-09 -0.013991083 -0.011272322 -0.06282841
-4.513814e-13 -0.0011995999 -9.930109e-09 -0.007390126 -3.882239e-18 -0.0010888807 -0.0005564221 -1.5820389e-15
-2.2006826e-14 -0.0049161403 -1.2970706e-15 -0.0030302687 -0.09928366 -2.5972819e-20 -0.0058466215 -0.0012326603
-0.06136628 -0.0043737474 -0.028241903 -1.8657347e-14 -1.2608158e-11 -5.066938e-11 -0.0008257048 0.011996394
-2.090919e-28 -0.00050733465 -2.2325676e-12 -0.00014151772 -9.343437e-07 -0.01756674 -0.078162245 -6.5651605e-17
-0.016111657 -3.2579885e-20 -2.1773707e-13 -0.00015337372 -0.0011728051 -2.4043202e-13 -0.062342953 -6.0723546e-23
-1.6891476e-10 -5.102692e-10 -7.361984e-06 -2.2520555e-05 -6.768014e-23 -0.10157477 -0.05251862 -0.012783439
-5.204556e-23 -4.964534e-10 -0.009563131 -2.909814e-07 -0.0060432935 -3.2764626e-07 -9.648127e-09 -7.288992e-11
-6.733893e-14 -6.479709e-21 -7.5973255e-11 -2.890891e-19 -6.4169524e-11 -0.030093472 -1.2906669e-11 -0.61596835
-3.0894451e-12 -2.1609661e-15 -1.7462403e-11 -0.00010372529 -0.016176222 -1.7127468e-07 -2.8508196e-12 -2.184266e-05
-0.051242523 -0.010779708 0.2294662 -4.4495257e-20 -2.6878018e-17 -5.103808e-08 -6.6975934e-17 -0.0001721478
-2.177492e-05 -1.8035186e-08 -0.08730316 -1.2047467e-05 -1.8500824e-15 -3.6293928e-12 -3.6291732e-13 -0.15937953
00000000: e6c5 96a6 6f56 e9ba a8f6 8abd 7b48 05ac
00000010: 168b 1cbd 5265 42b8 2eba 60aa 074d c0ac
00000020: 51cb c9b8 3bf4 49b7 26df 9a9f 3b9d 2aa9
00000030: f51b 64ac 1777 82b7 3988 e7b3 46d6 70b8
00000040: c1f1 8cac d00b 48be bb04 0b95 e56e 73b8
00000050: 2b89 cbb2 1482 54a3 b588 81af 788b 1cb2
00000060: 8324 d6aa 862a 06b4 de94 faa0 0221 a7a0
00000070: bfc7 3796 420f 11b9 560a 9bba 0cb2 7abb
00000080: a809 82bc a440 f4b3 416a ea3d 3838 99a2
00000090: 30fb 98a7 b131 c03e 135e ccb5 7eaa aaa7
000000a0: fe3c 2fbe 013e 96b4 77b9 dda8 d08b 4ea9
000000b0: 5899 369e cc66 86ba ffae 31ba 1a9c 2a3e
000000c0: f854 82b7 88eb 5eb9 2c13 d4bd c610 aaa0
000000d0: 54ce 6dbc cc62 0ab9 0256 7eba c2c3 ceb0
000000e0: 5f65 9799 1942 1dbd 4faa d6b3 3477 22b6
000000f0: 39ad a5b3 4c2f aabb 2743 95bc 3dfe 203e
00000100: 8ec7 19ba 6286 04a6 175d c03e 40db 7dbd
00000110: b2fe c5a4 b1df 1eb2 77cc 03b5 4824 49ba
00000120: 0212 b8a5 aef8 63b0 91c9 b23e b97a ecb9
00000130: d4a3 92ac 83d7 81b3 c15b f3bb eb27 d1be
00000140: 3a93 a8b9 cfc4 41bd c76c 0da6 c380 959b
00000150: a573 85a4 5db1 87bc 3bf0 2eba a1de 16b5
00000160: 0d7d d6b1 9032 aba7 eed8 2da7 964f 50ba
00000170: fc84 04a3 05e9 a5b2 27e5 2cab fb30 78b3
00000180: 94e5 49a9 7a47 36b3 4526 ccbc f4c0 0ebd
00000190: f657 17af b937 c8b9 03d6 5ebc 95b5 9cbd
000001a0: 629b 6ab3 8f32 07bd 2682 9eac 6e4b 58ad
000001b0: 1568 c7bc 5b3b c4bb 3f18 eda7 21fc 8bbb
000001c0: 67de c4ba a3d4 8bbe 5878 77aa 0ec3 febb
000001d0: 8427 d83d dda8 8ead 209b b23e 6f26 46be
000001e0: 224c b59b d911 b1bd c7eb 86af 6041 c2b8
000001f0: 01e8 443e d99e 16a2 3c5f 28af 2256 ca34
00000200: afb4 2ca2 bf3f 5dab 5aab 4fad 8e7e aba6
00000210: 251c a9ad 36de 94bb 6891 88a4 5871 87b0
00000220: 4f52 62a8 7272 cea7 7cde f7b8 b605 abb9
00000230: 189d 22bd 04cb fcb1 eff0 95bd 3a83 70ac
00000240: 9bd5 37be cf29 02b7 e4a4 2bac d6bc c8bd
00000250: c4c1 34b2 f85a 23b9 448f f2b8 18bf 1ab9
00000260: 65d8 74b8 c793 8cae 2001 0ba9 b621 84b4
00000270: b9bb 3fbd a034 04bc 0064 13a7 5667 fcba
00000280: 2525 5bba 4f69 48ab 3f9f 88a0 67d6 55a1
00000290: 181b 11b1 db3a 65bc 8caf 38bc 2eac 80bd
000002a0: ea1a feaa e53b 9dba 1599 2ab2 df28 f2bb
000002b0: b63a 8fa2 c6b8 8eba dbdc 11ba effe e3a6
000002c0: 4938 c6a8 9317 a1bb 75ed baa6 7997 46bb
000002d0: 3b55 cbbd 6c4e f59e 0495 bfbb 3791 a1ba
000002e0: 355b 7bbd a751 8fbb 905b e7bc ea0c a8a8
000002f0: 18ce 5dad a6d8 5eae 1c74 58ba 868c 443c
00000300: 1a87 8491 a7fe 04ba 5d1a 1dac 6064 14b9
00000310: 9ccf 7ab5 20e8 8fbc 8713 a0bd de61 97a4
00000320: 98fc 83bc aada 199f 7026 75aa f2d2 20b9
00000330: cfb8 99ba e859 87aa 535b 7fbd 0ed2 929a
00000340: 47b9 39af 0143 0cb0 f606 f7b6 86ea bcb7
00000350: faa3 a39a 6f06 d0bd c41d 57bd a171 51bc
00000360: 48ad 7b9a cd76 08b0 aeae 1cbc 2e38 9cb4
00000370: d206 c6bb 5ce7 afb4 e9c0 25b2 6149 a0ae
00000380: 40a2 97a9 e6cb f49d 2411 a7ae e9a5 aaa0
00000390: 3b1c 8dae 9686 f6bc 780e 63ad 1ab0 1dbf
000003a0: 7f66 59ac cab6 1ba7 d699 99ad 1787 d9b8
000003b0: ff83 84bc a0e7 37b4 cd9b 48ac c13a b7b7
000003c0: aee3 51bd 5f9d 30bc 30f9 6a3e 771f 529f
000003d0: ede7 f7a3 f634 5bb3 9d6f 9aa4 9382 34b9
000003e0: 49a9 b6b7 cbeb 9ab2 00cc b2bd 7a1f 4ab7
000003f0: ff4f 05a7 5465 7fac e64d ccaa 6334 23be

fc1.weight f4 [128, 256]
-3.79133e-39 1.115144e-39 -8.51217e-40 -1.190815e-39 -1.560503e-39 1.18419e-39 1.918459e-39 -1.5835863e-30
-2.99638e-40 -2.314038e-39 -6.25755e-40 2.46397e-40 -3.3969028e-33 -6.42088e-40 1.218656e-39 2.003277e-39
1.55915e-39 -1.9002906e-16 -1.159371e-39 -1.610619e-39 -2.912851e-39 -2.195637e-39 2.2265422e-37 3.434895e-39
-7.573338e-32 8.60254e-40 -2.78409e-40 8.49966e-40 -1.536199e-39 -8.82782e-40 1.7256e-40 2.4553e-40
1.7276e-39 -4.0714305e-33 -8.181033e-06 9.84519e-40 1.854302e-39 -4.9695477e-14 8.3615e-40 5.82901e-40
6.63557e-40 -1.1085408e-29 3.52212e-33 4.48462e-40 -1.387112e-39 -1.025027e-39 -2.87349e-40 -9.791675e-15
2.896921e-39 -1.28747e-39 2.381595e-39 -2.280599e-39 -2.632917e-39 -3.063744e-39 1.445284e-39 1.672311e-39
3.583504e-39 -8.6389e-41 4.880432e-35 1.63764e-40 1.570637e-39 1.069328e-39 -2.610281e-39 -2.5569376e-20
7.709262e-35 -1.182603e-39 4.832012e-30 -2.63626e-40 5.65746e-40 3.414007e-39 -1.9031e-41 -2.930537e-39
1.571317e-39 9.5768e-41 -3.650377e-15 1.8709726e-31 2.395758e-39 1.808013e-39 3.36843e-39 -5.6057303e-08
2.701726e-39 1.781555e-39 -2.438383e-39 3.238172e-39 6.72351e-40 9.1672e-41 -5.066e-40 -1.66061e-39
-9.006801e-31 -1.450085e-39 -2.241588e-39 1.647204e-39 -3.23104e-40 1.431009e-39 8.28871e-40 1.768575e-39
-7.48665e-40 -2.105186e-39 -1.042855e-39 1.628319e-39 7.295668e-33 -3.699457e-39 6.99789e-40 -3.7352e-40
-1.54379e-39 1.603018e-39 2.76484e-39 -7.095e-41 -1.076591e-39 -2.81018e-40 1.468442e-39 -1.078549e-39
-1.047429e-39 8.948639e-30 9.72787e-40 -1.6398e-39 -1.0455495e-18 -1.26471e-39 7.903684e-31 2.678536e-39
-8.55291e-40 2.72968e-39 -2.4687e-41 -1.899418e-39 -1.354445e-11 -2.201688e-39 -1.90771e-39 3.332455e-39
2.861697e-39 7.28756e-40 3.421979e-39 1.112288e-39 2.303432e-39 2.598644e-39 -1.146046e-39 9.76519e-40
-1.523702e-39 -6.13183e-40 1.119011e-39 -1.23628e-40 1.890761e-39 4.69309e-40 -2.10063e-40 2.362435e-39
-1.271943e-39 3.09016e-40 2.159321e-39 4.64585e-40 3.059208e-39 -2.40304e-40 -3.789613e-39 -1.041528e-39
-7.3497e-40 -3.019105e-39 -4.30183e-40 -1.218198e-39 -1.297148e-39 -1.690633e-39 1.840133e-39 1.779978e-39
2.300118e-39 -5.83707e-40 1.976209e-39 -3.085072e-39 2.005295e-39 -1.579853e-39 -3.358639e-39 -3.70209e-39
1.466128e-39 -3.812521e-39 2.81292e-39 -3.314051e-39 -1.053294e-39 3.666262e-39 1.004898e-39 1.481353e-39
-1.227743e-39 -3.794238e-39 2.334224e-39 5.24797e-40 -2.36235e-40 -1.90307e-39 5.8001e-40 2.130728e-39
1.063989e-39 -2.571814e-39 -1.13188e-40 6.24186e-40 -4.69284e-40 -2.9019e-40 -6.5089e-41 -1.9708503e-17
-2.19453e-39 -3.3446564e-31 -1.029164e-39 -6.94072e-40 -1.1436163e-29 3.019257e-39 -1.056446e-39 4.36888e-40
-2.709635e-39 -3.279051e-39 -5.24978e-40 -4.35032e-40 4.26388e-40 1.962998e-39 1.512703e-39 -2.86271e-39
-1.0538176e-31 9.70916e-40 -4.08764e-40 2.879282e-39 1.238725e-39 -3.348436e-39 -3.286441e-39 8.1984e-40
-3.504094e-39 1.710337e-39 1.305416e-39 -6.568903e-39 2.687748e-39 -2.135056e-39 -5.92929e-40 -2.259307e-39
3.159974e-39 -2.234628e-39 2.061005e-39 1.614718e-39 -1.869674e-39 -1.175293e-39 -1.571506e-39 -1.04404255e-16
-2.365385e-39 -6.25894e-40 -2.983807e-39 1.080481e-39 1.788561e-39 -1.31935e-39 2.775982e-39 -1.7610992e-32
-1.394285e-38 4.2430347e-33 -2.6487319e-17 1.836846e-39 4.26342e-40 -2.453421e-39 -3.5590354e-32 -2.573685e-39
-1.0291269e-34 -1.676094e-39 5.12919e-40 -3.3683e-41 8.12669e-40 -2.540355e-39 8.41495e-40 -3.433637e-39
00000000: af48 2980 9124 0c00 d944 0980 82f7 0c80
00000010: 0cfe 1080 0ae5 0c00 e2e3 1400 cd79 008e
00000020: 4543 0380 9932 1980 5ad0 0680 dbae 0200
00000030: 111a 8d89 e1fd 0680 1e45 0d00 52d0 1500
00000040: 47fa 1000 ae16 5ba5 db9f 0c80 c089 1180
00000050: d8b7 1f80 8be8 1780 d687 9702 1767 2500
00000060: 779d c48b 0a5e 0900 1708 0380 5c41 0900
00000070: 4cba 1080 d69c 0980 07e1 0100 70ac 0200
00000080: d9cf 1200 e01e a989 4541 09b7 70b8 0a00
00000090: 0a31 1400 fcce 5fa9 d91a 0900 e458 0600
000000a0: ba39 0700 bbd6 608f 9b4d 9209 21e2 0400
000000b0: b41a 0f80 5c29 0b80 0321 0380 2164 30a8
000000c0: 708b 1f00 f104 0e80 ebee 1900 62d5 1880
000000d0: 80ab 1c80 795c 2180 ddbc 0f00 b935 1200
000000e0: 5a05 2700 d1f0 0080 80be 8106 82c8 0100
000000f0: 4c1a 1100 daa4 0b00 676c 1c80 f57e f19e
00000100: 85f2 cc06 9ee0 0c80 7b02 c40e e2de 0280
00000110: 1229 0600 dd2c 2500 0d35 0080 25e9 1f80
00000120: 311c 1100 f60a 0100 c984 83a7 bbdd 720c
00000130: 6616 1a00 01b0 1300 d0ad 2400 a8c3 70b3
00000140: 506b 1d00 4066 1300 388d 1a80 b542 2300
00000150: 3e52 0700 8bff 0000 3284 0580 1b15 1280
00000160: ca24 928d 3fca 0f80 a368 1880 bcef 1100
00000170: af84 0380 1295 0f00 8e06 0900 1142 1300
00000180: f926 0880 67ec 1680 0e5b 0b80 17bb 1100
00000190: 6d86 170a 9548 2880 ba9e 0700 3911 0480
000001a0: 75cf 1080 9074 1100 401b 1e00 c8c5 0080
000001b0: 19b9 0b80 5d0f 0380 6bfd 0f00 8ebe 0b80
000001c0: ce67 0b80 fd7f 350f bc97 0a00 18db 1180
000001d0: be4b 9aa1 7fc5 0d80 9e3e 800d ab2a 1d00
000001e0: 3450 0980 3db9 1d00 d144 0080 ceae 1480
000001f0: c846 6ead 69f9 1780 ebc5 1480 8749 2400
00000200: 3f29 1f00 7aef 0700 1643 2500 9b1c 0c00
00000210: 0815 1900 f64b 1c00 b67a 0c80 23a2 0a00
00000220: 7697 1080 4ead 0680 592f 0c00 a058 0180
00000230: ac96 1400 3e1c 0500 9249 0280 82b9 1900
00000240: a9d9 0d80 695d 0300 4f83 1700 130f 0500
00000250: d44f 2100 df9d 0280 e643 2980 5b57 0b80
00000260: cc00 0880 09e0 2080 2daf 0480 d743 0d80
00000270: ec1f 0e80 cc68 1280 8b09 1400 db61 1300
00000280: cb0b 1900 235b 0680 de84 1500 ed97 2180
00000290: f2d5 1500 fd33 1180 8592 2480 ec4f 2880
000002a0: f8f6 0f00 c283 2980 47a1 1e00 3a16 2480
000002b0: 2878 0b80 0cec 2700 3ff1 0a00 6921 1000
000002c0: 735e 0d80 cb50 2980 de6a 1900 ecb6 0500
000002d0: 8792 0280 fcb8 1480 d550 0600 9a33 1700
000002e0: f895 0b00 2c01 1c80 863b 0180 facb 0600
000002f0: 2c1c 0580 ef28 0380 71b5 0080 63c7 b5a3
00000300: 75e5 1780 a314 d98c e434 0b80 ca8e 0780
00000310: f4f3 678f 76e0 2000 f180 0b80 dec1 0400
00000320: 5c81 1d80 a9b4 2380 6db7 0580 b1bc 0480
00000330: 99a4 0400 0a60 1500 cd78 1000 122c 1f80
00000340: 19cb 088c 8592 0a00 7873 0480 445a 1f00
00000350: 107d 0d00 1476 2480 43c9 2380 61ed 0800
00000360: fd27 2680 b99f 1200 f836 0e00 6e87 4780
00000370: 5944 1d00 ab3f 1780 d874 0680 079a 1880
00000380: b968 2200 3c55 1880 3e71 1600 2d95 1100
00000390: e45b 1480 3dcc 0c80 b81c 1180 65bd f0a4
000003a0: bbc1 1980 bdd0 0680 a47d 2080 f1c3 0b00
000003b0: c879 1300 d05d 0e80 4f3a 1e00 0ce2 b68a
000003c0: fed2 9780 af3f b009 6a4d f4a3 6100 1400
000003d0: 78a4 0400 24b7 1a80 b2cb 388b 6306 1c80
000003e0: 60cb 0887 4540 1280 cf95 0500 e55d 0080
000003f0: 64d9 0800 7aa9 1b80 bf29 0900 9563 2580

fc1.bias f4 [128]
1.2945306e-23 0.036248855 -0.0054420717 1.7697005e-22 -1.7114135e-06 -0.77719975 0.021380598 3.4253683e-10
-1.1029795 -2.7710565e-05 5.2443365e-08 2.1607206e-35 1.26092316e-23 2.5728408e-15 -0.0061974013 -2.6342764e-08
-0.016161462 -9.1348795e-07 -0.0005642161 1.347903 -0.00021683148 -2.1704933e-11 -8.305873e-09 -0.0004985701
-0.19266099 -0.09795121 5.0430424e-12 -0.4154437 -0.17539644 0.6679115 -1.5472535e-08 -1.1551102
-0.17852521 -0.010910672 -3.2693566e-13 -0.0040503717 -7.067954e-09 -3.105638e-11 -3.2617513e-06 -7.166197e-20
-1.1776834e-05 -1.6669981e-11 -5.16136e-19 4.6343768e-08 1.7369967e-11 -0.014415424 6.3171026e-14 2.2247733e-12
1.00252576e-16 0.010739356 0.0010914848 -1.1000023e-09 -1.7845881e-11 -0.06257064 -0.030261986 -0.0069328905
-3.4034101e-06 -2.8614235e-21 6.19615e-40 2.6331301e-36 1.5459592 -4.8400596e-16 -1.3111198e-05 -0.00023170716
-0.0006234437 1.505281 0.2826466 -1.6034974e-17 -6.884308e-24 0.41388318 -0.30277333 -3.8513435e-06
-9.0705346e-13 -0.008375438 -7.6713675e-09 -2.1972124e-07 -1.0473718e-13 -8.94215e-11 -3.909435e-16 -4.6671087e-11
-3.2872525e-21 0.13048717 0.07258844 0.22373013 0.4162211 7.08169e-19 -0.0061061312 0.18138959
-3.8499124e-25 0.0011786433 -7.2625346e-07 -0.0033108736 2.3035472e-13 5.9712825e-06 0.50278777 -5.0869913e-09
-2.9461715e-12 5.7767956e-08 -1.0184205e-05 1.4476383e-20 1.1667494e-33 -7.574264e-09 0.06060105 -0.0037237909
-1.3112668e-10 0.13442156 -1.9197505e-05 -4.2023252e-10 -0.0043807025 -1.6726606e-09 7.414659e-33 0.09150687
0.9463109 7.7936106e-13 -0.051356044 -0.0068838047 0.43673673 -1.2106696e-07 -3.181094e-17 -1.2660984e-05
-8.6503167e-07 -4.5120077e-30 -5.464812e-20 -1.7745229e-07 -3.886232e-17 -3.761486e-23 3.4531071e-09 0.031895883
00000000: 0d66 7a19 ae79 143d 6853 b2bb 94f1 551b
00000010: b8b3 e5b5 90f6 46bf 5d26 af3c c64f bc2f
00000020: 6f2e 8dbf fc73 e8b7 173e 6133 69c4 e505
00000030: e4e5 7319 8964 3927 9213 cbbb 5a48 e2b2
00000040: 0b65 84bc 6a36 75b5 e7e7 13ba 1688 ac3f
00000050: 425d 63b9 2aeb bead 9eb1 0eb2 79b2 02ba
00000060: ec48 45be a59a c8bd b06f b12c 09b5 d4be
00000070: 209b 33be 40fc 2a3f 77e8 84b2 a7da 93bf
00000080: 50cf 36be adc2 32bc 650c b8aa fbb8 84bb
00000090: 62da f2b1 6096 08ae 76e4 5ab6 0135 a99f
000000a0: 1e95 45b7 76a1 92ad 2256 18a1 830b 4733
000000b0: b0c9 982d ac2e 6cbc 9e3f 8e29 f48d 1c2c
000000c0: ad2a e724 20f4 2f3c 2710 8f3a e42e 97b0
000000d0: 5af9 9cad 0925 80bd fce7 f7bc 4d2d e3bb
000000e0: 2466 64b6 fb33 589d 3cbf 0600 7f00 6004
000000f0: fee1 c53f 5681 0ba6 2bf8 5bb7 6bf6 72b9
00000100: 996e 23ba 0cad c03f 0eb7 903e 83e5 93a3
00000110: 7129 0599 7fe8 d33e 1b05 9bbe ca3a 81b6
00000120: 1750 7fab 2239 09bc 08cb 03b2 84ec 6bb4
00000130: e0d8 eba9 d4a3 c4ae 145d e1a5 f942 4dae
00000140: b660 789d 6e9e 053e 3fa9 943d 8319 653e
00000150: ef1a d53e bd03 5121 f115 c8bb 31be 393e
00000160: 4c4c ee96 b57c 9a3a c2f3 42b5 3efb 58bb
00000170: 9dad 812a ed5c c836 b3b6 003f a6c9 aeb1
00000180: 8251 4fac 8a1c 7833 d4dc 2ab7 bfb9 881e
00000190: 08dc c108 f71f 02b2 ce38 783d d80a 74bb
000001a0: e12c 10af cea5 093e 540a a1b7 7806 e7af
000001b0: ff8b 8fbb 83e3 e5b0 17ff 190a f467 bb3d
000001c0: 6e41 723f e25e 5b2b b75a 52bd 8a91 e1bb
000001d0: f59b df3e a2fe 01b4 bbb3 12a4 836a 54b7
000001e0: 8634 68b5 5e07 b78e c308 819f b789 3eb4
000001f0: 8838 33a4 f1e4 359a b44b 6d31 42a5 023d

fc2.weight f4 [64, 128]
-1.36516e-39 7.921742e-07 4.001456e-38 8.793882e-39 4.301066e-38 -4.171514e-05 -5.6253015e-05 2.2629497e-15
-1.97154e-05 -6.6814505e-38 -1.347052e-38 2.835174e-39 1.468765e-39 2.199416e-39 2.2964128e-36 -7.530721e-29
3.1503252e-38 -6.8504034e-37 -6.3362004e-37 -2.1511023e-05 4.6774468e-38 1.2028772e-35 -1.9187346e-38 -1.362796e-39
-5.8045803e-06 7.824e-40 -5.159171e-29 -7.1610307e-06 -1.2808361e-38 -9.7372185e-06 3.2391583e-38 -4.014375e-05
-4.9975443e-38 -1.39996e-39 8.11058e-40 -2.711341e-38 5.4289604e-38 -1.529138e-39 2.0891944e-11 -1.745502e-39
7.21257e-40 -2.278631e-36 1.2955426e-37 1.5068594e-38 -2.041756e-35 -7.142542e-05 2.406572e-38 -1.274499e-39
-1.9793652e-20 -7.455232e-05 -2.5740333e-06 4.3048786e-38 1.2735672e-28 -2.5389309e-06 -2.408883e-39 7.2287405e-38
-9.864557e-32 -6.303174e-38 3.234215e-39 2.6597138e-38 -3.31423e-05 1.161532e-39 2.085676e-39 7.200852e-10
1.5052848e-10 -5.3140422e-05 -4.183519e-05 -2.9479486e-38 -3.7732433e-38 -5.067799e-05 -2.3412409e-05 9.6699474e-29
-1.424152e-39 2.8311318e-38 1.0920544e-25 1.0565805e-36 -4.411744e-19 4.0426232e-28 1.0058918e-38 -1.8036976e-38
3.544084e-39 -2.2173956e-05 -4.2561074e-05 4.7070885e-06 -5.5742934e-05 8.534956e-39 6.577433e-38 -2.2948017e-05
3.328834e-29 -1.971558e-07 -2.268945e-39 1.230863e-38 -4.72444e-19 2.9483342e-38 -3.250118e-05 -5.816092e-36
6.45947e-40 -2.6015364e-38 -2.9221982e-29 -1.338167e-39 -5.11608e-40 -3.0621347e-29 -5.202888e-05 -2.6718393e-36
-2.764257e-39 -2.7692417e-05 -8.348965e-36 -2.594182e-39 -3.571338e-39 1.7018318e-31 3.619687e-39 -7.5899757e-06
-1.2868788e-05 3.8386627e-17 -2.0161995e-05 2.4857404e-38 -3.2924952e-05 -1.1389035e-29 3.619226e-39 -7.858913e-39
1.700491e-39 9.902053e-33 -2.665797e-39 -1.6292162e-27 -5.732204e-38 3.2917902e-27 -3.036611e-38 -3.9996296e-05
-2.8261648e-38 2.3830275e-19 -7.651767e-25 -1.627224e-39 -2.9315086e-22 -4.914684e-12 -3.8127712e-19 -4.3364224e-38
-2.0429076e-19 -5.0964645e-22 1.6406659e-36 -1.646324e-39 2.713624e-37 6.211953e-38 1.228378e-39 -1.602696e-37
6.1264466e-31 5.5168263e-30 1.633723e-28 -6.760169e-11 -1.040496e-19 3.99911e-40 -8.00957e-38 1.372741e-39
-6.160217e-20 5.590097e-38 -8.07606e-40 1.5971273e-19 -6.724701e-31 -7.974774e-19 -7.63522e-38 -4.8569936e-19
2.850835e-39 2.438306e-39 1.0254e-37 1.0160469e-24 5.848377e-22 3.136539e-39 -3.823561e-38 -4.4736375e-38
-7.155875e-38 7.7226047e-32 1.722271e-39 -4.4220545e-25 1.743276e-39 3.8910579e-19 3.202867e-39 1.207995e-35
1.108634e-39 -2.7532394e-17 5.3038785e-19 -1.5172e-41 3.491399e-38 1.3538571e-19 -1.573023e-39 3.534203e-33
6.7389306e-26 1.0763452e-38 -1.5090448e-37 -2.454687e-39 9.111603e-19 3.645794e-38 3.6589201e-22 -7.217672e-24
6.25519e-40 -4.0433125e-20 -2.2575646e-19 7.693044e-39 3.055584e-38 -3.3798704e-13 -6.585098e-20 1.13805e-40
-9.54328e-40 -1.906849e-30 1.0565445e-37 4.0950902e-32 2.785626e-25 -3.3893946e-38 1.17717e-40 -2.981916e-38
4.0324583e-38 -7.589483e-08 -1.5523719e-06 -1.3681547e-19 4.578916e-19 -7.81448e-40 -5.263639e-38 -1.318367e-07
-5.24653e-40 2.36141e-40 8.5913073e-32 3.5527882e-38 2.6386002e-38 -3.027758e-35 1.08554805e-20 -3.181727e-39
3.502108e-39 4.94824e-40 9.97111e-40 5.601935e-38 -1.0241362e-38 1.1187317e-38 -1.8096179e-19 -6.4712877e-38
2.2878182e-38 -1.0692206e-12 -5.6876485e-38 -2.0905604e-27 7.78037e-40 -9.888105e-38 3.1221e-41 -5.532547e-19
7.7469176e-19 1.7610988e-24 -3.3353143e-11 2.411178e-39 1.9652136e-19 6.7892e-41 1.7747585e-38 2.438409e-39
-1.059334e-39 -3.4927715e-36 -5.2348e-41 -1.137989e-39 -5.464683e-38 1.5002778e-38 4.2936575e-38 1.6981778e-19
00000000: 83dd 0e80 cca5 5435 28dc 5901 c4c1 5f00
00000010: 1c2c 6a01 4af7 2eb8 37f1 6bb8 0e10 2327
00000020: 8062 a5b7 eae2 b581 54ae 9280 50df 1e00
00000030: 52fe 0f00 14f3 1700 715b 4304 2ced be90
00000040: 2085 2b01 6e1b 6983 179c 5783 9272 b4b7
00000050: 18aa 7e01 ddd2 7f05 84ee d080 ecd6 0e80
00000060: f7c4 c2b6 0385 0800 efcc 8290 c948 f0b6
00000070: 8078 8b80 095d 23b7 475b 3001 0660 28b8
00000080: cd0b 8881 853e 0f80 e6d4 0800 949e 1381
00000090: 55ca 9301 9da6 1080 7ac4 b72d c001 1380
000000a0: 92da 0700 30d8 4184 1257 3002 1c15 a400
000000b0: e31d d985 3bca 95b8 b806 0301 c9e0 0d80
000000c0: 1df2 ba9e f958 9cb8 8ebd 2cb6 4061 6a01
000000d0: 9e71 2111 8062 2ab6 fc3a 1a80 f8c8 c401
000000e0: 9d0c 008c b696 ab81 ad37 2300 00cf 1001
000000f0: 4602 0bb8 e1a5 0c00 04b6 1600 7eef 4530
00000100: 0082 252f 18e3 5eb8 3178 2fb8 6880 2081
00000110: 566f 4d81 148f 54b8 c465 c4b7 8c29 f510
00000120: f581 0f80 3824 1a01 9630 0716 92c4 b303
00000130: 3236 02a1 a81d 0012 2c88 6d00 c067 c480
00000140: 7797 2600 3502 bab7 9b83 32b8 95f1 9d36
00000150: 85cd 69b8 fcef 5c00 050e b301 7e80 c0b7
00000160: bcca 2810 c6b1 53b4 e5b4 1880 7407 8600
00000170: dc70 0ba1 c885 2001 e051 08b8 a263 f784
00000180: a308 0700 20a4 0d81 4d2c 1490 4492 0e80
00000190: 2892 0580 c844 1b90 9639 5ab8 824b 6384
000001a0: a019 1e80 034d e8b7 1790 3185 863f 1c80
000001b0: 70e3 2680 10e9 5c0c 376a 2700 65ad feb6
000001c0: 06e7 57b7 ee06 3124 8e21 a9b7 2a56 0701
000001d0: e618 0ab8 40ff 668f ee68 2700 7493 5580
000001e0: 4784 1200 58a8 4d0a 2807 1d80 6e14 0193
000001f0: a20b 9c81 b866 8213 2e54 2581 b2c1 27b8
00000200: fdde 1981 4bab 8c20 8bcf 6c97 0ab8 1180
00000210: e632 b19b 8aeb acac f810 e1a0 e818 6c81
00000220: 182f 71a0 fc07 1a9c 8a92 0b04 48ed 1180
00000230: ffad b802 fe1a a901 3860 0d00 ce25 5a82
00000240: 87d0 460d 00ca df0e 5819 4f11 5ea8 94ae
00000250: 20ae f59f ca5a 0400 8e0a da81 a5f2 0e00
00000260: 3a74 919f 4a2d 9801 47cb 0880 368e 3c20
00000270: a13a 5a8d b05f 6ba1 b8d9 cf81 685a 0fa1
00000280: f80a 1f00 018d 1a00 fa91 0b02 c439 9d17
00000290: a0c1 301c 6527 2200 aa2c 5081 6891 7381
000002a0: 2ccd c281 837d c80b fec0 1200 20db 0897
000002b0: 8bfb 1200 01b0 e520 4ae0 2200 c074 8005
000002c0: 6c12 0c00 07f1 fda3 f98a 1c21 4b2a 0080
000002d0: 0017 3e01 d2d5 1f20 f320 1180 18ce 9209
000002e0: 0cd9 a615 2034 7500 8966 4d82 abba 1a80
000002f0: aa76 8621 f47e 4601 0c2b dd1b 2e9c 0b99
00000300: b1cf 0600 a6f0 3e9f 5a43 85a0 14c5 5300
00000310: a05c 2601 1145 beaa 7a7c 9b9f 3e3d 0100
00000320: 4764 0a80 b4b3 1a8e 34cf 0f02 16a1 540b
00000330: 026c ac16 4489 3881 2648 0100 d859 2281
00000340: 448c 5b01 a0fb a2b3 185b d0b5 f085 21a0
00000350: 5025 0721 5c82 0880 364a 8f81 ff8e 0db4
00000360: 85b6 0580 4492 0200 080b df0b a46e 4101
00000370: b8a8 0f01 b5fb 2086 e20d 4d1e 5ca5 2280
00000380: 7422 2600 5e63 0500 8adb 0a00 ca7f 9801
00000390: c084 6f80 b0d1 7900 58a4 55a0 4b2a b081
000003a0: 101f f900 bb7a 96ab 20d5 9a81 9aa1 2593
000003b0: da78 0800 0497 0682 0857 0000 be4a 23a1
000003c0: 0ea6 6421 2842 0818 4db0 12ae 6241 1a00
000003d0: f002 6820 41bd 0000 0c41 c100 4b8d 1a00
000003e0: fe88 0b80 ea90 9484 ed91 0080 4064 0c80
000003f0: 48c3 9481 a45d a300 dac4 6901 467c 4820

fc2.bias f4 [64]
-5.7045363e-05 -3.3746016e-18 -2.6982953e-08 -1.8413746e-06 -4.7908607e-14 -1.3563402e-07 -9.982396e-13 -7.38045e-20
-5.232928e-10 -6.959721e-18 -1.366958e-23 -1.9851737e-11 -2.368659e-06 -4.1067145e-12 0.1436928 -6.1518665e-11
-7.957531e-10 1.8565838e-07 -8.4255166e-22 -4.9447994e-16 -9.706721e-22 -2.4187998e-06 -1.5847249e-17 -8.457452e-12
-0.8775208 -7.613325e-21 0.19627662 -1.734842e-18 -1.9755474e-10 0.119086765 0.89300615 -0.0008793701
-2.691857e-05 -2.8920072e-10 -5.5524773e-21 -8.879517e-10 0.5605758 -1.4742345e-16 0.34930176 6.9162454e-30
-1.4579301e-17 -0.12644018 -4.1964637e-20 -1.2065188e-16 -3.1182342e-08 -0.0033786646 -0.00038864484 -0.79554677
-1.7004395e-15 -0.002184817 -7.5712543e-16 -4.5001667e-24 -1.4331795e-18 -1.4954581e-21 -1.7799667e-15 0.44764864
-5.082298e-07 -4.7504623e-14 -0.7424276 0.9164154 -4.1119564e-12 0.2278226 -2.119592e-08 0.19698423
00000000: fe43 6fb8 6c00 79a2 24c8 e7b2 2625 f7b5
00000010: ddc2 57a9 cca2 11b4 5f7d 8cab 1544 ae9f
00000020: 75d7 0fb0 5a62 00a3 3e34 8499 239e aead
00000030: 40f5 1eb6 ff7d 90ac 3524 133e ee47 87ae
00000040: 25bc 5ab0 6359 4734 47a5 7e9c 2e86 0ea6
00000050: 0faf 929c aa52 22b6 422a 92a3 fac8 14ad
00000060: 34a5 60bf c8cf 0f9e bdfc 483e 3d02 00a2
00000070: b736 59af c3e3 f33d 0d9c 643f 8785 66ba
00000080: 30cf e1b7 62fd 9eaf 44c4 d19d 0c14 74b0
00000090: e581 0f3f b9f7 29a5 aed7 b23e 3347 0c0f
000000a0: 6778 86a3 8979 01be 222c 469f 261a 0ba5
000000b0: 59ed 05b3 966c 5dbb 07c3 cbb9 f4a8 4bbf
000000c0: 250f f5a6 262f 0fbb ff39 5aa6 7e17 ae98
000000d0: fe7f d3a1 bcfc e19c 9742 00a7 3432 e53e
000000e0: 496d 08b5 1af1 55a9 bc0f 3ebf 339a 6a3f
000000f0: 36ad 90ac 544a 693e 5212 b6b2 3cb6 493e

out.weight f4 [10, 64]
-1.238726e-06 2.2994742e-19 -5.0640685e-22 -2.8336358e-20 7.5217463e-25 -8.55337e-19 -2.035722e-39 -7.22318e-40
9.8968826e-11 1.7180075e-13 9.3413e-41 -3.843891e-31 -8.605126e-14 -7.152094e-25 -0.029895293 -4.1271756e-22
-1.250172e-11 5.8476917e-07 -1.0252295e-08 8.663988e-38 1.396069e-39 -3.27343e-40 2.170994e-39 5.1060625e-17
-0.7799687 1.8143736e-29 0.00072844804 -6.3086434e-19 -9.465732e-15 -0.0407483 -0.039973408 4.9628816e-14
0.00010971911 1.361714e-23 1.096529e-39 3.13369e-14 -0.042693954 1.5472e-40 -0.037147958 7.979337e-33
-9.509617e-35 0.011142214 -1.91754e-39 -1.72127e-39 6.0136006e-07 -2.4705194e-05 9.530112e-06 0.04032257
3.24315e-26 -0.000756701 -2.13683e-40 -1.10050246e-23 1.66071e-39 -1.1168116e-15 1.5494012e-32 -0.040739246
6.960876e-12 -6.607513e-28 0.04087777 -0.05753562 5.076502e-07 0.7284812 1.01812773e-25 -0.034572955
-8.55765e-06 -2.1408912e-09 3.4528666e-22 -2.7619974e-15 -7.8368504e-25 2.5246346e-18 -7.826126e-34 -2.163728e-39
-4.5870296e-10 9.2055836e-07 -5.13279e-40 1.5192657e-37 6.294631e-14 -3.7161953e-29 -0.033661455 1.5442196e-22
-5.7946443e-13 -5.4556165e-07 8.13796e-40 1.1291016e-14 2.545052e-39 -3.14101e-39 1.916161e-39 5.3731403e-17
0.045981295 2.310747e-39 -0.007841867 1.1439658e-18 -7.5893e-23 -0.037350826 -0.049017023 -6.70484e-15
3.6534604e-16 4.9345614e-12 -1.94056e-39 3.414565e-18 -0.03217517 -2.8565444e-33 0.74032646 -7.825053e-20
-7.4806045e-32 0.019202057 -1.579775e-39 4.23254e-40 4.0786385e-11 -1.0122606e-10 -1.0687711e-05 -0.7904664
-3.3804613e-25 2.887855e-05 3.0786773e-26 -1.5611856e-24 -3.558194e-39 2.6485233e-17 1.0897883e-23 -0.042581417
-2.2416177e-11 1.0976876e-31 0.044385795 -0.04461069 -1.9184419e-31 -0.04570204 6.9756873e-32 -0.03838145
-1.3021602e-07 6.280738e-10 -9.345893e-16 -3.2369549e-06 -3.3783663e-16 -3.255302e-10 -6.504153e-14 1.182687e-39
2.4626028e-09 -3.4364515e-07 -2.5262443e-31 -5.360576e-37 -1.3804865e-12 1.8296466e-22 -0.06000522 -1.0794424e-23
-3.3676717e-10 -4.273241e-07 4.1075192e-22 -4.1134178e-35 -4.29805e-40 -6.946077e-30 1.0419869e-29 -7.770581e-09
0.07556712 -4.5590233e-12 -0.013862943 9.390369e-20 0.00020853642 -0.07123166 -0.060609557 -7.327544e-05
6.3925872e-24 -2.6767144e-30 1.813326e-39 -7.580546e-08 -0.06972676 1.1529451e-22 -0.08422164 -5.808794e-26
-2.9348765e-27 0.008658822 8.76055e-40 1.351475e-39 -0.0018461774 -1.3605501e-06 -0.0004184641 0.1023865
-9.29087e-25 0.0014564127 -6.6389883e-15 1.7466273e-23 2.488799e-39 8.37196e-40 -1.1002055e-31 0.69121253
-9.676662e-06 4.491631e-10 -0.7086958 -0.07244112 5.5068546e-27 -0.08008976 -1.8047244e-31 -0.061956365
1.2480427e-05 -5.069228e-05 -1.8512057e-10 -0.009907866 -9.7449226e-26 -9.328638e-08 -7.007882e-21 4.1414246e-14
1.7274225e-10 5.1879106e-06 2.485962e-22 9.561191e-25 -1.3298398e-05 2.3518732e-25 -0.07618119 -7.789007e-15
-6.409489e-11 2.4789988e-06 1.2763368e-34 9.091648e-12 -5.97574e-17 3.8996907e-17 9.081842e-28 -1.0846304e-10
0.11884559 1.1832356e-25 0.0046770694 -6.013927e-21 1.19262355e-17 -0.099653035 -0.09031974 1.1676313e-05
3.308292e-11 9.415282e-38 -1.454563e-39 2.674242e-12 -0.11894984 1.970341e-14 -0.11897373 8.332736e-18
-1.415436e-30 -0.012257566 2.3006574e-37 -8.3876746e-33 2.0831994e-05 0.037191063 -3.1358684e-07 0.14198849
2.6667072e-07 -0.000107210544 -3.4498852e-14 -8.905425e-24 -1.493037e-39 -4.12858e-40 1.8897815e-08 -0.09626048
-2.4193162e-06 1.4661581e-14 0.107739866 0.77124226 -1.3532889e-06 -0.1101067 -2.5954288e-08 -0.086768396
00000000: 4d42 a6b5 acbc 8720 550d 199c 8ed0 059f
00000010: 6ac9 6817 7073 7ca1 c42a 1680 87dd 0780
00000020: 7fa2 d92e 326e 412a 6604 0100 987b f98c
00000030: 2dc5 c1a9 ba58 5d97 f9e6 f4bc f378 f99b
00000040: beee 5bad 08f9 1c35 1222 30b2 2fdb eb01
00000050: ac33 0f00 8090 0380 d9a3 1700 bf79 6b24
00000060: 07ac 47bf d5ff b70f 52f5 3e3a c332 3aa1
00000070: fc84 2aa8 b0e7 26bd 28bb 23bd 2182 5f29
00000080: 0019 e638 68b2 8319 adf0 0b00 fc20 0d29
00000090: dbdf 2ebd 4caf 0100 7528 18bd 6fb9 250a
000000a0: 1acf fc86 d58d 363c 52e1 1480 33be 1280
000000b0: 266d 2135 003e cfb7 85e3 1f37 4729 253d
000000c0: cf97 2015 585d 46ba a953 0280 3ede 5499
000000d0: 6215 1200 13f3 a0a6 26e6 a00a 32de 26bd
000000e0: ffe9 f42c 8466 5192 736f 273d 78aa 6bbd
000000f0: 7545 0835 be7d 3a3f 8313 fc15 5f9c 0dbd
00000100: d492 0fb7 f51e 13b1 86b6 d01b dc05 47a7
00000110: ed89 7297 0049 3a22 a908 8288 988f 1780
00000120: b42c fcaf 4a1c 7735 d096 0580 afca 4e02
00000130: 14be 8d29 f96e 3c90 98e0 09bd 48af 3a1b
00000140: d01a 23ab b672 12b5 88dc 0800 9f66 4b28
00000150: 92b6 1b00 dc33 2280 7add 1400 d8ca 7724
00000160: e256 3c3d 6c29 1900 2d7b 00bc ced1 a821
00000170: 7e7f b79a 2efd 18bd 13c6 48bd 3c91 f1a7
00000180: 8f9b d225 949e ad2c 7e21 1580 4ff3 7b22
00000190: 1cca 03bd fb4f 6d89 0986 3d3f 8bc3 b89f
000001a0: 2535 c28b a24d 9d3c c533 1180 dc9b 0400
000001b0: 6361 332e 3599 deae 5f4f 33b7 025c 4abf
000001c0: 8c3d d196 3740 f237 df72 1815 ef94 f197
000001d0: ccbe 2680 7d48 f423 b4cb 5219 da69 2ebd
000001e0: be2c c5ad ed7c 0e0c e1cd 353d b3b9 36bd
000001f0: 2b07 798c 1032 3bbd 6519 b50b de35 1dbd
00000200: 82d1 0bb4 c4a4 2c30 42b0 86a6 763a 59b6
00000210: e3bf c2a5 4df6 b2af e475 92a9 dae0 0c00
00000220: 913a 2931 3b7e b8b4 6ff6 a38c 3469 3683
00000230: 4549 c2ab d230 5d1b 09c8 75bd 66cb 5099
00000240: c423 b9af fa6a e5b4 c848 f81b f1b4 5a86
00000250: 1fae 0480 18e2 0c8f 0e57 530f 607f 05b2
00000260: efc2 9a3d 0868 a0ac 6621 63bc 4cb9 dd1f
00000270: 92aa 5a39 e8e1 91bd ba41 78bd 74ab 99b8
00000280: 1e4d f718 2f29 598e d1be 1300 7eca a2b3
00000290: e7cc 8ebd ec61 0b1b 657c acbd 9bd1 8f95
000002a0: 5e86 6893 bbdd 0d3c 168a 0900 5db7 0e00
000002b0: 6ffb f1ba 259c b6b5 4d65 dbb9 03b0 d13d
000002c0: eec4 8f97 1ae5 be3a dc31 efa7 66ec a819
000002d0: c219 1b00 c31d 0900 99d0 0e8c 4ef3 303f
000002e0: f258 22b7 16ee f62f 176d 35bf 035c 94bd
000002f0: 2426 da13 1a06 a4bd 4144 6a8c f5c5 7dbd
00000300: 0763 5137 6c9e 54b8 cf8a 4baf 9a54 22bc
00000310: c945 f195 bb54 c8b3 0a60 049e 6083 3a29
00000320: 9fee 3d2f d013 ae36 6644 961b c8f3 9317
00000330: 2f1c 5fb7 eb92 9116 e204 9cbd 7450 0ca8
00000340: 37f2 8cae e05c 2636 7ea7 2907 24f1 1f2d
00000350: 8bca 89a4 6cd7 3324 54e8 8f12 4383 eeae
00000360: 5165 f33d 3c7a 1216 1a42 993b 2233 e39d
00000370: 0e00 5c23 e416 ccbd 8ef9 b8bd 62e5 4337
00000380: 0e80 112e 7827 0002 bbd6 0f80 dc2e 3c2c
00000390: f99b f3bd f878 b128 80a8 f3bd 3cb6 1923
000003a0: e9aa e58d f5d3 48bc 1b93 9c02 8734 2e8a
000003b0: 5ec0 ae37 a855 183d 0c5b a8b4 6e65 113e
000003c0: f22a 8f34 39d6 e0b8 785e 1ba9 8741 2c99
000003d0: fb41 1080 e17e 0480 bc54 a232 3724 c5bd
000003e0: 895b 22b6 4e0f 8428 b8a6 dc3d 2270 453f
000003f0: a7a2 b5b5 9f7f e1bd 15f2 deb2 a1b3 b1bd

out.bias f4 [10]
0.05403597 0.054783348 0.098095 0.1427796 0.07586642 0.15228371 0.103829876 0.13688038
0.07838118 0.07697221
00000000: d254 5d3d 8164 603d 08e6 c83d d134 123e
00000010: db5f 9b3d 43f0 1b3e c2a4 d43d 5f2a 0c3e
00000020: 5086 a03d 9ba3 9d3d
