exps/regularModelExperiments/pretrainedmodels/l2regulatizationModel0.pt (torch, 973925 bytes, 8 tensors)

fc.weight f4 [256, 784]
000000 48 db 81 80 86 09 25 02 e0 ae 59 82 d4 11 4c 01
       -1.1925442e-38 1.2125019e-37 -1.5992829e-37 3.7481673e-38
000010 96 dc 15 82 f8 fa 13 01 a0 c6 f1 01 ca 34 96 81
       -1.1010096e-37 2.7179697e-38 8.881443e-38 -5.5177046e-38
000020 e8 33 49 00 68 40 1b 80 70 0b 01 81 04 b2 38 81
       6.722612e-39 -2.502663e-39 -2.3701764e-38 -3.3923183e-38
000030 08 2d 0f 81 84 f7 59 81 90 ee e8 81 6c 2f 13 82
       -2.629726e-38 -4.003419e-38 -8.556566e-38 -1.0813464e-37
000040 09 dc af 01 2e 29 95 82 ee a7 61 82 cb 20 2b 82
       6.460058e-38 -2.1917218e-37 -1.6578583e-37 -1.2572507e-37
000050 f8 eb 4a 00 d8 8f 59 00 08 9a 09 82 98 48 17 81
       6.880476e-39 8.22496e-39 -1.0109375e-37 -2.7786403e-38
000060 e3 ba b9 81 02 8d 18 82 6c 32 19 00 6c 5d 1f 00
       -6.8226436e-38 -1.1207664e-37 2.313975e-39 2.880414e-39
000070 00 77 70 00 1c 7b 2a 82 68 6b ab 00 b5 cf 85 02
       1.0328265e-38 -1.2524958e-37 1.57424e-38 1.9661812e-37
000080 d4 e2 0e 81 ce dc 38 30 70 22 9f 31 80 cf fd af
       -2.6244022e-38 6.725259e-10 4.631424e-09 -4.616787e-10
000090 fd 8a 86 31 96 21 0e a0 c8 cb 51 23 9c ad 5b b2
       3.9157144e-09 -1.203898e-19 1.1373065e-17 -1.2786952e-08
0000a0 89 27 84 33 6f 84 06 b3 af f1 f8 b1 9b 49 5b 2d
       6.1539204e-08 -3.1319754e-08 -7.245226e-09 1.2465052e-11
0000b0 8a 6d 71 ad 52 35 4f ae ae 5c ae 2e 70 16 bc a9
       -1.37235865e-11 -4.711371e-11 7.929067e-11 -8.3527694e-14
0000c0 b3 48 2b 33 dc 2f 00 b4 16 b8 2e b4 18 7a b1 32
       3.988016e-08 -1.193834e-07 -1.6271983e-07 2.0661034e-08
0000d0 2c d5 7f 01 e4 e7 08 00 08 c9 aa 80 a4 1d a8 81
       4.6989046e-38 8.1787e-40 -1.5684151e-38 -6.1755986e-38
0000e0 90 6a de 00 af c9 06 02 18 8c 0e 80 f2 24 d3 81
       2.0425708e-38 9.902646e-38 -1.335953e-39 -7.756217e-38
0000f0 d6 b8 fe 25 ae f6 f9 30 da 0b b8 b2 70 49 97 b2
       4.4187226e-16 1.8187245e-09 -2.1425809e-08 -1.7612109e-08
000100 b8 8c 16 32 15 cc 88 33 04 35 dc b2 64 9b a5 b3
       8.763145e-09 6.370116e-08 -2.563548e-08 -7.7116766e-08
000110 74 42 7b 35 6c 82 22 b6 28 b4 9c 36 74 00 b0 b6
       9.360149e-07 -2.4215797e-06 4.6701352e-06 -5.2452615e-06
000120 ce a5 97 b6 ee 1c c1 36 a2 46 c3 b3 54 b7 e5 34
       -4.519453e-06 5.755216e-06 -9.093243e-08 4.2787963e-07
000130 ce 90 fa 32 f4 91 02 34 73 18 83 b4 ca b8 e9 33
       2.916968e-08 1.2160291e-07 -2.441844e-07 1.0883521e-07
000140 2f 56 8d 23 7c bf 3e 82 45 b9 0f 02 fc 15 4c 01
       1.532375e-17 -1.4013949e-37 1.055915e-37 3.7484655e-38
000150 d9 12 34 02 d5 0b be 81 05 df 23 b2 00 2e 03 2e
       1.322972e-37 -6.9811955e-38 -9.5385575e-09 2.9826808e-11
000160 f0 d6 95 80 10 54 6e b1 4a da c5 32 e0 ed 0e b3
       -1.3760594e-38 -3.4681342e-09 2.3033085e-08 -3.3278297e-08
000170 6e 6c 8e b3 58 8e be 35 34 8d 07 b6 a8 40 a8 b5
       -6.6321135e-08 1.4197531e-06 -2.0198759e-06 -1.2535793e-06
000180 7d 26 84 36 e3 dc ca 36 31 1d cb 36 8b fb 28 37
       3.938387e-06 6.0457837e-06 6.0532698e-06 1.0072147e-05
000190 d1 4d be b5 9a 3b 34 36 00 ea 71 36 2c 72 46 36
       -1.4178751e-06 2.6856783e-06 3.6048004e-06 2.9570756e-06
0001a0 de bd 25 b6 dc c4 3c 35 a0 97 34 b5 e3 3e 4a b3
       -2.4697433e-06 7.0321926e-07 -6.727587e-07 -4.7088985e-08
0001b0 60 b8 d4 af 1c f8 a0 20 23 a7 21 02 14 62 20 01
       -3.8693582e-10 2.726924e-19 1.1876378e-37 2.9457726e-38
0001c0 e0 91 a3 01 5e 6d 6a 02 89 5a 98 b2 18 54 b2 b2
       6.0086064e-38 1.7222992e-37 -1.77363e-08 -2.0760169e-08
0001d0 98 5b 10 b3 65 e6 d0 33 82 d6 02 34 7c e6 96 33
       -3.3610917e-08 9.727663e-08 1.2185231e-07 7.026844e-08
0001e0 17 ff 26 b4 6e 3c 8a 34 73 14 0f b6 13 68 93 36
       -1.5552756e-07 2.5748471e-07 -2.1320564e-06 4.393057e-06
0001f0 aa 6d 20 b6 e3 41 2d 36 b8 e6 b6 33 d8 ab a7 b6
       -2.390569e-06 2.581736e-06 8.517003e-08 -4.996993e-06
000200 01 7b 01 b7 87 31 a3 35 32 04 94 b5 be 05 7c 34
       -7.717638e-06 1.2158861e-06 -1.102808e-06 2.3471418e-07
000210 e0 e0 98 36 68 4a 3e 36 80 1f 2b 35 c0 1e 4d b3
       4.556132e-06 2.8355516e-06 6.37483e-07 -4.775825e-08
000220 f8 bc e7 b1 14 a0 0c b2 d6 a4 a0 30 84 56 ec 01
       -6.744468e-09 -8.18547e-09 1.1688381e-09 8.681685e-38
000230 4a 92 80 01 28 e1 6c 00 90 91 93 b1 62 e5 38 35
       4.722969e-38 9.999004e-39 -4.2948116e-09 6.887914e-07
000240 c4 ce 57 35 e0 f1 42 37 3b 07 14 b7 bd b1 f8 36
       8.0394625e-07 1.1619617e-05 -8.823171e-06 7.4116674e-06
000250 6a 2c 91 b5 3c e4 89 35 b8 59 be 36 8e b3 a5 36
       -1.0816268e-06 1.027372e-06 5.672886e-06 4.938286e-06
000260 76 d4 53 b7 dd 1f ac 36 8a 9d 6a b6 46 21 29 37
       -1.26260475e-05 5.129709e-06 -3.4960417e-06 1.0080932e-05
000270 cf 61 5e b7 c3 e9 92 36 2d 04 ad 36 bd 37 86 b7
       -1.3255004e-05 4.3783525e-06 5.156288e-06 -1.6e-05
000280 8a 13 9d 36 7b 76 2e 37 df c0 96 b6 dc 23 43 b4
       4.6812393e-06 1.0398794e-05 -4.4928015e-06 -1.8173836e-07
000290 10 06 e0 32 0e 0e 54 33 24 21 67 30 b8 cd c8 81
       2.6079789e-08 4.937288e-08 8.4084406e-10 -7.376359e-38
0002a0 5a d6 fd 81 bb ae 52 82 41 1e a9 33 d2 ea 47 b4
       -9.32451e-38 -1.5478509e-37 7.875179e-08 -1.8618746e-07
0002b0 28 4c 4d 37 98 01 3d 37 ae 67 04 36 67 ee 96 b6
       1.2236684e-05 1.1265649e-05 1.9729882e-06 -4.498102e-06
0002c0 f9 28 22 b7 40 18 18 36 3e ab 39 b9 14 95 c7 b8
       -9.665492e-06 2.266388e-06 -0.00017706768 -9.5168274e-05
0002d0 e4 67 87 b8 84 6d 2c b6 33 07 f3 b7 02 20 8e ba
       -6.456653e-05 -2.5693744e-06 -2.897121e-05 -0.0010843279
0002e0 59 e9 f9 ba 4d 27 57 bb a5 1e fe b9 63 79 2c ba
       -0.0019066735 -0.0032829822 -0.00048469487 -0.00065793673
0002f0 60 21 07 b6 a0 46 b8 b7 5c 84 b4 35 07 9d b8 35
       -2.0135994e-06 -2.1967397e-05 1.3449567e-06 1.3754769e-06
000300 c5 b0 b2 35 be ac df b4 7a 9d 99 b4 20 93 c7 33
       1.331348e-06 -4.1662673e-07 -2.861305e-07 9.2934215e-08
000310 55 85 01 02 99 f3 e9 1c c6 67 59 36 54 61 9a 37
       9.515688e-38 1.5481615e-21 3.2395924e-06 1.8403553e-05
000320 1f 2d 39 38 c8 e4 0a 36 6f ed 3c 36 ce df 49 b5
       4.414946e-05 2.069677e-06 2.8152388e-06 -7.5204014e-07
000330 1d 72 94 37 f3 22 25 ba d1 ea 5f ba d0 7b 8b ba
       1.7696113e-05 -0.00062994583 -0.0008541765 -0.0010641757
000340 fd 75 c5 38 66 9b 22 bb 62 f1 b9 bb ea 38 42 bc
       9.415669e-05 -0.0024811863 -0.005674527 -0.01185439
000350 8b 94 c3 bb 31 c2 1b ba 94 15 a8 37 ca 92 50 bb
       -0.0059686354 -0.00059417175 2.0037209e-05 -0.0031825774
000360 ec a6 22 ba 4a c4 28 b6 8b e7 ed 36 83 58 d1 b5
       -0.0006204683 -2.5148206e-06 7.0901056e-06 -1.5597474e-06
000370 d0 b1 a7 b5 0c 48 40 35 26 ef 04 b4 72 d2 06 b3
       -1.249422e-06 7.1630416e-07 -1.238046e-07 -3.1390705e-08
000380 28 07 ee 82 18 8b c6 30 92 57 97 37 9a 8a af b6
       -3.4975064e-37 1.4445929e-09 1.804138e-05 -5.2315418e-06
000390 f0 5e cb b3 94 59 31 38 23 38 c5 b7 83 91 8b ba
       -9.470193e-08 4.2283515e-05 -2.351037e-05 -0.0010648224
0003a0 be 28 0f bb c2 92 51 bb cd d4 59 bb 2c 9c 85 bb
       -0.0021844353 -0.0031978344 -0.0033238411 -0.004077455
0003b0 ab d6 b3 bb bc fd 60 bc 99 f6 93 bc d5 9c ee bb
       -0.005488237 -0.01373237 -0.018061923 -0.0072818794
0003c0 7e f8 14 bb 83 eb 1a ba 40 eb a7 ba bd b7 f0 bb
       -0.002273112 -0.0005909728 -0.0012811199 -0.007346122
0003d0 8c e3 5c bb 32 bd b7 b7 30 97 31 b4 16 d7 3f b5
       -0.0033704964 -2.1903401e-05 -1.6539411e-07 -7.1466036e-07
0003e0 83 9b 44 b5 c8 3e 65 35 78 18 d2 b2 94 25 de 80
       -7.324199e-07 8.5400507e-07 -2.4458345e-08 -2.040096e-38
0003f0 4e 2a cf 81 d8 31 72 b3 38 a1 2c 36 8e d1 a6 b6
       -7.6100495e-38 -5.639035e-08 2.572384e-06 -4.971581e-06

fc.bias f4 [256]
000000 08 5b b9 bc 56 dc 1d ba 29 2e d2 aa 00 c8 ea b5
       -0.022626415 -0.00060219073 -3.7335524e-13 -1.7492566e-06
000010 4d 6b 36 a9 bc 9a 82 b4 ec 43 87 b9 d2 d6 fc b0
       -4.0505187e-14 -2.432697e-07 -0.00025799812 -1.8396469e-09
000020 af 24 e7 b7 96 57 a3 bd ef e6 92 bd dc b8 03 a9
       -2.7554428e-05 -0.0797569 -0.07172953 -2.9248183e-14
000030 9b 52 4f bb ab d2 d9 bd ec d9 d3 be 14 2c 39 bd
       -0.003163493 -0.10635885 -0.413772 -0.04520805
000040 d6 bc 68 bb 3a fd b3 b9 a1 63 38 bb ac a4 5e bd
       -0.0035512946 -0.0003433021 -0.0028135555 -0.054356262
000050 fd 10 f7 ac a6 06 9c b7 c9 0f c2 aa 11 2e d1 bb
       -7.0220483e-12 -1.8599745e-05 -3.4472276e-13 -0.0063836654
000060 af a2 ca bb 72 4f ec bd 08 92 22 bd 53 cc 39 b9
       -0.006183944 -0.115385905 -0.039690048 -0.00017719092
000070 00 66 6b 3e 94 54 9a bd d7 8e 0d 3e 4c 42 c2 94
       0.22988129 -0.07535663 0.1382402 -1.9615144e-26
000080 49 a5 00 b7 e5 6b 20 ac 7e 5d cc bd 5f 12 e4 9f
       -7.667878e-06 -2.279726e-12 -0.0997877 -9.659215e-20
000090 be 26 98 bc e3 a5 51 bd 4c 1b 21 ae 35 c9 34 be
       -0.018573161 -0.051183593 -3.6631406e-11 -0.1765488
0000a0 a9 d4 38 bb 4b 8b 18 b3 de f7 aa aa 90 27 73 be
       -0.0028202927 -3.5516944e-08 -3.037006e-13 -0.2374556
0000b0 cb ac 9f a2 43 5f b8 ad f3 29 de ae 3b 0e 04 be
       -4.327999e-18 -2.0960683e-11 -1.0102843e-10 -0.12896053
0000c0 6e c0 3d b8 9c 2c 94 b6 a4 aa d8 3e 66 0e 0e b6
       -4.5240326e-05 -4.415937e-06 0.42317688 -2.116803e-06
0000d0 20 2f 39 bb b0 48 39 bb a5 f9 00 b6 0e 9b 83 ae
       -0.0028256848 -0.0028272085 -1.9218799e-06 -5.9847335e-11
0000e0 57 b2 b4 a6 60 57 2c a7 b4 84 1d bb f9 9f f8 3d
       -1.2538348e-15 -2.3917161e-15 -0.0024035396 0.12139887
0000f0 10 6b 10 3e 24 bc c6 b9 4c 95 34 bb 66 8a 1a b1
       0.14103341 -0.0003790568 -0.0027554808 -2.248862e-09
000100 32 f6 c2 b9 b4 bd d3 b4 77 3e 08 bc 10 08 0f aa
       -0.00037185993 -3.943984e-07 -0.008315674 -1.2703749e-13
000110 c9 58 06 be fd 26 1c b0 9b d7 a2 b5 f7 d0 47 a9
       -0.13119806 -5.6807875e-10 -1.213269e-06 -4.4368124e-14
000120 ce 25 98 bd 32 8f fb be 5a 98 0d be e4 32 ac b2
       -0.07429086 -0.49132687 -0.13827649 -2.0046578e-08
000130 6a bb 1a 3c 5c b1 43 be bd 9d e8 a5 bb 73 98 bd
       0.009444097 -0.19110626 -4.0352472e-16 -0.07443949
000140 19 1b bf ba 4f 1a c2 ad 8a 76 24 be c7 f8 d5 b1
       -0.0014580219 -2.206693e-11 -0.16060844 -6.2273986e-09
000150 f3 b8 20 be 87 6f 26 a5 f0 59 9c a1 a2 6a 1d b1
       -0.15695553 -1.4435992e-16 -1.0594777e-18 -2.290712e-09
000160 a4 61 21 b3 21 cc 15 b6 19 73 ee 3c 44 27 6c ba
       -3.7574537e-08 -2.2321549e-06 0.029107617 -0.00090085366
000170 2b a5 de bb 24 93 bb b1 1e 73 04 bd 42 fc 03 a9
       -0.006794592 -5.4591442e-09 -0.032336347 -2.9306642e-14
000180 9d 4a 71 ae fb 71 0a b6 9a 5b 2e a3 aa fa 0a b6
       -5.4863326e-11 -2.0629948e-06 -9.451956e-18 -2.0709508e-06
000190 7b 2d f7 ba 92 4d bc bd dd 1c 9e 3e 12 3e 28 b0
       -0.0018858159 -0.09194483 0.30881396 -6.120625e-10
0001a0 6c 2c 80 b8 f5 ef 6b a2 16 33 73 bd fa c3 fa a7
       -6.11179e-05 -3.197547e-18 -0.05937489 -6.9601417e-15
0001b0 b6 7e bc bd ee 62 53 bb d3 77 81 bb 4c b6 19 9a
       -0.09203856 -0.0032255012 -0.0039510517 -3.1786917e-23
0001c0 da 01 16 bc 53 27 39 b6 a3 1b 46 a2 df ff 8f bc
       -0.009155715 -2.7590038e-06 -2.6848635e-18 -0.017578064
0001d0 6c c6 c7 b2 ad 66 33 bd 91 fb 30 bd 1e c5 a6 b2
       -2.325688e-08 -0.04379909 -0.043208662 -1.9414582e-08
0001e0 3f e0 3a a9 0b 95 fa 8f 59 ee ef 3d e1 21 6e bd
       -4.14948e-14 -2.4709313e-29 0.11715383 -0.05813778
0001f0 ae 9c 6a b3 54 d8 e8 a8 af 17 ce bb dd 53 47 b7
       -5.462487e-08 -2.5850992e-14 -0.0062894444 -1.188085e-05
000200 54 0b 0b b9 c4 e8 83 a5 45 a1 08 bd 5c ea 49 bd
       -0.00013260293 -2.2882606e-16 -0.033356924 -0.04929577
000210 30 d7 49 bd 8e 6b 16 bd 09 61 bd a7 bf 04 e2 a6
       -0.049277484 -0.036723666 -5.2563244e-15 -1.5683187e-15
000220 cb db 9f b5 52 dc 58 bb 9a 03 a3 b4 4d 21 89 bc
       -1.1910391e-06 -0.0033090306 -3.0363736e-07 -0.016739512
000230 b9 92 82 bc 84 64 16 bd d0 d8 f3 bd e7 65 11 ae
       -0.015939103 -0.036716953 -0.11906588 -3.305969e-11
000240 70 97 b6 bc 4b 8b 16 bb 17 d4 c8 b7 33 44 d8 b4
       -0.022289008 -0.0022971209 -2.394062e-05 -4.0282757e-07
000250 b3 ca 56 b4 51 83 a9 b7 f6 c8 0f a8 81 08 a2 3c
       -2.0004045e-07 -2.0207519e-05 -7.981671e-15 0.019779446
000260 3f f5 00 bd da 17 fc a5 b9 a0 aa b3 9c 73 08 b6
       -0.031483885 -4.3731194e-16 -7.945477e-08 -2.0332873e-06
000270 ac 06 8b b8 e4 a6 86 94 a0 07 b7 b9 45 44 3b b5
       -6.629279e-05 -1.3596369e-26 -0.0003491016 -6.9762274e-07
000280 e9 c9 07 bc 1c a6 da a0 ba 7d ab bd 01 b4 c8 b0
       -0.008287885 -3.7040558e-19 -0.0837359 -1.4603075e-09
000290 95 05 22 b8 3d 25 43 a3 eb fb a2 a5 b4 bb 1a ae
       -3.862901e-05 -1.0578857e-17 -2.8273227e-16 -3.518226e-11
0002a0 cb 54 06 bd e9 8d 70 b9 46 47 62 3d dc 44 e5 ac
       -0.03279571 -0.00022941049 0.055243753 -6.5162164e-12
0002b0 9b 13 59 b4 3d 7f 8e ab f0 45 86 ab d1 a7 9a ad
       -2.0216832e-07 -1.0125023e-12 -9.540684e-13 -1.7582298e-11
0002c0 c1 dc 9b bb 29 b4 bd bd dc 3e 28 b8 bd 2a 26 bd
       -0.0047565405 -0.092628784 -4.0112864e-05 -0.040568102
0002d0 8c 1f 9e a1 9f 9d 64 a5 e4 55 40 3e 2f 4f e8 bd
       -1.0714847e-18 -1.9829252e-16 0.18782765 -0.11343228
0002e0 c2 82 14 be 18 7c 50 bd 85 f9 30 b1 06 4d 4b b9
       -0.14503005 -0.050899595 -2.5753206e-09 -0.00019388282
0002f0 62 25 3b b1 c0 dd e4 b8 57 34 cc ba c1 5d 9c a4
       -2.7233331e-09 -0.00010913191 -0.0015579563 -6.781304e-17
000300 f4 53 b5 ba c0 01 a7 b5 54 84 6d bc 29 d3 2e ac
       -0.0013834224 -1.2442979e-06 -0.0144968815 -2.4844105e-12
000310 33 3a 2a bb 0f ab 04 3d c1 36 af 3d e0 c1 2c be
       -0.002597463 0.032389697 0.08555365 -0.16870832
000320 41 43 e7 9f 10 46 b0 9a 5b 78 81 be 67 7a 8e ae
       -9.794357e-20 -7.2905086e-23 -0.25287136 -6.4791554e-11
000330 6b 61 3b be ec 6c 86 a6 fa 93 e0 ae 6d f8 25 a1
       -0.18298881 -9.327641e-16 -1.02126266e-10 -5.6232963e-19
000340 a6 27 9b a8 de d0 21 be b0 1d 72 9e 78 be b2 b9
       -1.7225652e-14 -0.15802333 -1.28175126e-20 -0.00034092716
000350 73 08 69 aa 6c 24 15 be fa b9 a3 a2 4c 08 90 be
       -2.0697489e-13 -0.14564675 -4.437815e-18 -0.2813133
000360 2f 04 8f b6 1b 10 e6 bd 74 6e 1e b9 fb af 54 aa
       -4.262219e-06 -0.112335406 -0.00015109201 -1.8890438e-13
000370 e5 66 a0 b5 a6 e4 1c bd cf 6f dd b1 5b 18 d2 bb
       -1.1950875e-06 -0.038303994 -6.4446577e-09 -0.006411595
000380 7a de 77 b3 ed 32 a5 bd 6b e1 c4 9b 49 de de bd
       -5.771151e-08 -0.08066354 -3.2571153e-22 -0.10882241
000390 90 46 3c bd c5 d7 9e be 53 ce d8 bb 42 17 b5 a2
       -0.04596573 -0.31023994 -0.0066163926 -4.9084773e-18
0003a0 ec 79 80 b8 9e ca 80 bd 71 db 26 3e f6 4a 70 be
       -6.126225e-05 -0.06288646 0.16294648 -0.23466095
0003b0 50 88 a0 b0 1a 78 b8 b1 79 7e eb b0 0c cb b8 b2
       -1.1680275e-09 -5.3687588e-09 -1.7134446e-09 -2.1512754e-08
0003c0 a4 f5 74 b3 80 f5 21 3e c0 41 ef bd 40 da 71 b6
       -5.7034086e-08 0.15816307 -0.11682463 -3.6038837e-06
0003d0 c3 55 0d b9 74 d0 2a 3d 99 97 31 be 21 95 25 bb
       -0.00013478757 0.041702703 -0.17342986 -0.002526589
0003e0 38 e1 f6 a8 d7 11 7a b8 40 fe 36 98 b1 7f ae b9
       -2.740916e-14 -5.962126e-05 -2.3651312e-24 -0.00033283004
0003f0 cd e0 a6 ae c1 cc 67 3d 70 ae f8 9c 4c 4c a1 ba
       -7.588739e-11 0.056591753 -1.6456354e-21 -0.0012306063

fc1.weight f4 [128, 256]
000000 20 21 81 9b 9a cf 46 12 60 9c 11 80 e4 a3 39 1d
       -2.1362666e-22 6.273367e-28 -1.6173e-39 2.4569276e-21
000010 9c 05 6c 81 f4 6d 1f 81 2b 8b b6 94 78 8a 08 00
       -4.335038e-38 -2.9282575e-38 -1.8432196e-26 7.84357e-40
000020 11 c7 08 80 e4 cb 07 00 10 94 ca 00 58 9e c6 81
       -8.06096e-40 7.1599e-40 1.8603885e-38 -7.2960925e-38
000030 9a e6 28 80 72 1b 35 27 7c 95 88 b0 55 fa 9e 81
       -3.756144e-39 2.5133674e-15 -9.937788e-10 -5.839924e-38
000040 cc 10 95 1a 71 ae 28 80 78 5c 0c 00 08 be 9b 9e
       6.165209e-23 -3.735998e-39 1.135197e-39 -1.6489858e-20
000050 04 e7 22 00 00 6d fc 9d e4 d2 de 81 75 38 20 b4
       3.20528e-39 -6.6816548e-21 -8.1852534e-38 -1.49217e-07
000060 89 d2 01 80 08 fa 35 80 80 9c 63 0c b5 55 1b 02
       -1.67361e-40 -4.956976e-39 1.7534539e-31 1.1412198e-37
000070 69 73 76 26 60 81 22 80 11 0c 68 a7 dc b1 49 01
       8.5504805e-16 -3.168818e-39 -3.2203009e-15 3.7045477e-38
000080 e8 50 27 80 8c 75 f3 81 bb 0f 01 00 48 f4 33 81
       -3.610608e-39 -8.9432774e-38 9.7479e-41 -3.305237e-38
000090 13 73 1b 00 bc 89 42 96 2b aa b1 81 b4 3c dd bc
       2.520839e-39 -1.5714657e-25 -6.526371e-38 -0.027006485
0000a0 9a ca e6 81 e0 e1 19 00 94 df 0a 02 a2 af 0d 88
       -8.4779375e-38 2.376916e-39 1.0202803e-37 -4.26371e-34
0000b0 dc 5f 42 82 77 68 02 00 7c 44 18 80 28 1c bb b7
       -1.4280379e-37 2.21146e-40 -2.22862e-39 -2.2305248e-05
0000c0 a0 99 a0 1e 48 93 73 8b e5 c0 a1 b0 3c cc ae 92
       1.7004197e-20 -4.69109e-32 -1.1769116e-09 -1.1031291e-27
0000d0 90 86 86 80 1c a3 0c 80 91 12 b4 81 10 e7 4a 01
       -1.2354228e-38 -1.160539e-39 -6.61482e-38 3.726732e-38
0000e0 38 e3 84 00 18 90 fe 80 f0 65 87 80 f1 20 39 ad
       1.2203796e-38 -2.3377907e-38 -1.243436e-38 -1.0523347e-11
0000f0 17 77 62 28 32 91 e5 01 95 55 97 97 2b 43 00 80
       1.2571344e-14 8.432966e-38 -9.77975e-25 -2.4095e-41
000100 76 74 a8 21 e4 82 06 02 59 41 88 02 f5 9e 22 00
       1.141495e-18 9.882329e-38 2.0020912e-37 3.17943e-39
000110 ff 2e 34 b9 c0 c7 bb 99 f8 1f 68 00 5e 6b c7 81
       -0.00017183645 -1.9416025e-23 9.56236e-39 -7.325512e-38
000120 fb ed 20 00 20 b7 1e 26 ca 5b 06 80 8c 5e ba 01
       3.024107e-39 5.506544e-16 -5.8394e-40 6.846128e-38
000130 90 34 18 82 34 85 38 01 8e 14 a8 81 14 42 95 81
       -1.1182281e-37 3.389103e-38 -6.174295e-38 -5.4828773e-38
000140 e0 09 93 98 45 5f 09 80 90 74 dc 81 01 e7 24 00
       -3.800858e-24 -8.60696e-40 -8.0982496e-38 3.388946e-39
000150 df f0 2b b8 7c ee be 81 d4 d8 f7 81 b0 bd a3 01
       -4.0993906e-05 -7.0137185e-38 -9.1044603e-38 6.014893e-38
000160 10 79 58 81 38 a9 e4 23 e2 42 5d b4 c0 cf f5 00
       -3.9759792e-38 2.4791476e-17 -2.0606561e-07 2.2574223e-38
000170 64 54 1e 80 fd 90 00 00 1e fc ce 81 ef 92 09 00
       -2.785339e-39 5.2012e-41 -7.603422e-38 8.7923e-40
000180 44 2b 12 00 60 a6 8c 80 20 bc 1e 80 40 f0 f3 17
       1.66856e-39 -1.2916654e-38 -2.822551e-39 1.5764155e-24
000190 84 70 88 a1 93 14 0e 00 cc 9d 24 27 e0 cb 79 80
       -9.245501e-19 1.293078e-39 2.2845114e-15 -1.1185232e-38
0001a0 1f ee 12 00 e8 c0 68 80 08 bc f2 0e c0 e7 10 00
       1.73846e-39 -9.620093e-39 5.9838673e-30 1.552504e-39
0001b0 32 19 9c a6 e8 6a 96 81 0b 0c 3f 97 58 3a f5 80
       -1.0831504e-15 -5.52547e-38 -6.173063e-25 -2.2520626e-38
0001c0 73 d2 36 01 40 26 e5 91 3e 5a 05 80 3a 2e 0a 80
       3.357911e-38 -3.6153403e-28 -4.9155e-40 -9.34938e-40
0001d0 20 8b 51 a5 00 1b 46 81 34 85 10 00 a8 9f 23 02
       -1.8174998e-16 -3.6386228e-38 1.517152e-39 1.2021168e-37
0001e0 66 d8 c9 01 09 85 17 82 11 b7 14 a5 78 30 1d 28
       7.4146255e-38 -1.1131907e-37 -1.2898979e-16 8.725761e-15
0001f0 62 f3 27 24 48 3c 1e 80 06 8f df 81 9d ef 82 14
       3.6418506e-17 -2.77669e-39 -8.212249e-38 1.3221156e-26
000200 7b 95 0a 02 83 34 0a 00 7e 77 1d 0f b6 7a 80 0d
       1.0181538e-37 9.37193e-40 7.763711e-30 7.918151e-31
000210 b1 bc bf 81 e6 cf 24 80 db 16 0b 00 80 d2 0e 00
       -7.043308e-38 -3.380658e-39 1.01839e-39 1.36121e-39
000220 31 87 1c 80 b9 84 73 9e 33 23 02 00 b4 6c 92 01
       -2.619891e-39 -1.2891759e-20 1.96298e-40 5.378791e-38
000230 9c ba 18 00 e0 70 93 01 e6 fe 14 82 a8 f7 3d 80
       2.270995e-39 5.416124e-38 -1.0946475e-37 -5.690808e-39
000240 f7 43 1e 80 e4 a5 35 a3 74 fd ab 12 e0 86 00 82
       -2.779446e-39 -9.847158e-18 1.0854098e-27 -9.442662e-38
000250 4d 68 18 00 bb fd 13 00 56 f9 b1 81 1d 96 54 af
       2.241468e-39 1.835896e-39 -6.537731e-38 -1.9334619e-10
000260 c1 c6 25 0b ae 1b 02 80 24 69 34 01 2d 99 a7 01
       3.192737e-32 -1.936e-40 3.3136213e-38 6.156591e-38
000270 40 44 13 80 72 68 08 80 8c f5 46 81 13 37 17 80
       -1.769358e-39 -7.72152e-40 -3.6543028e-38 -2.131973e-39
000280 08 2f 92 81 50 33 1f 80 28 12 9c 80 bb f6 1f 80
       -5.3699416e-38 -2.865308e-39 -1.433285e-38 -2.93541e-39
000290 fa 55 3a 02 c0 19 07 00 08 b3 01 00 a3 d4 15 00
       1.3689796e-37 6.52086e-40 1.5606e-40 2.004825e-39
0002a0 86 b1 93 81 e9 ec 3c 19 14 f5 02 28 91 8d 90 81
       -5.4254005e-38 9.767216e-24 7.2695925e-15 -5.3100384e-38
0002b0 4f 33 df 28 59 ce 09 82 54 06 87 01 e0 3d 1c 80
       2.4780225e-14 -1.0124389e-37 4.960025e-38 -2.59359e-39
0002c0 11 29 5f 02 60 78 65 81 16 15 3d a0 44 d8 05 81
       1.6395238e-37 -4.2147022e-38 -1.60159e-19 -2.4583405e-38
0002d0 4e 1f 14 00 78 26 1a 80 64 50 d0 25 e4 e9 02 80
       1.84794e-39 -2.401523e-39 3.6136723e-16 -2.67575e-40
0002e0 6f b9 ce 9d 38 5f 97 bb 04 e9 04 00 44 6d a1 01
       -5.471948e-21 -0.0046195053 4.50932e-40 5.929885e-38
0002f0 14 9e 27 80 73 2a de 15 2e f0 16 80 84 d7 15 80
       -3.638292e-39 8.973206e-26 -2.106541e-39 -2.005858e-39
000300 e0 d9 b2 01 be 39 4d 1f 78 db e4 80 70 bf d8 01
       6.569951e-38 4.3458202e-20 -2.1017224e-38 7.962057e-38
000310 cc 70 94 01 e1 84 c1 2a d6 82 da a6 6c e1 89 01
       5.452847e-38 3.437589e-13 -1.5162252e-15 5.0649316e-38
000320 03 d0 0c 00 b4 a4 99 01 ee ae b9 a6 d6 06 21 00
       1.176646e-39 5.643966e-38 -1.2884369e-15 3.033024e-39
000330 b7 36 18 80 04 f1 05 00 f4 d5 09 80 a1 d1 1d 00
       -2.22368e-39 5.45638e-40 -9.03271e-40 2.73843e-39
000340 f0 c0 06 80 8a 21 57 26 8f 3f 17 00 1c 92 ba 82
       -6.20226e-40 7.4638563e-16 2.135017e-39 -2.7414106e-37
000350 38 7b 6e 81 cd 44 1c b5 87 b9 01 00 4a be a8 81
       -4.38021e-38 -5.8214647e-07 1.5839e-40 -6.1986505e-38
000360 7a a9 57 82 44 6d d9 a2 cc 01 0b 22 10 33 9f 01
       -1.5844343e-37 -5.8933657e-18 1.8838964e-18 5.8480647e-38
000370 27 98 20 00 c9 27 0e 00 e4 6b f0 01 66 55 80 01
       2.993318e-39 1.299969e-39 8.831689e-38 4.7142315e-38
000380 a2 02 02 80 42 d8 99 82 ba f3 e2 01 f4 ee 01 80
       -1.84615e-40 -2.2605455e-37 8.336902e-38 -1.77556e-40
000390 f0 38 90 81 b1 93 99 ad 95 ea 64 87 d8 67 04 00
       -5.2978947e-38 -1.7459674e-11 -1.7221751e-34 4.04594e-40
0003a0 ed 2c 0d 80 19 8f 1a b7 bf 66 52 a6 bc ea 9b 29
       -1.209978e-39 -9.212433e-06 -7.2997633e-16 6.924103e-14
0003b0 38 cf 4b 01 40 6b be 80 4a 90 8b 01 84 c4 0c 80
       3.7433884e-38 -1.7487218e-38 5.126758e-38 -1.172522e-39
0003c0 04 48 02 00 9c c4 5e 28 69 8a a0 01 42 14 11 02
       2.09505e-40 1.23661084e-14 5.8973326e-38 1.0658731e-37
0003d0 74 d6 f2 8b d3 ff 7b a4 c9 8c 1e 82 60 4d cb 8e
       -9.353768e-32 -5.464364e-17 -1.164841e-37 -5.0117873e-30
0003e0 4f cb 1c 82 4d 7e f4 24 a4 16 7e 02 85 25 09 80
       -1.1519417e-37 1.06032094e-16 1.866747e-37 -8.39979e-40
0003f0 e9 bf 1e 00 de 21 a4 25 72 a1 54 02 f0 f2 1e 21
       2.823909e-39 2.8472414e-16 1.5621633e-37 5.3854007e-19

fc1.bias f4 [128]
000000 e5 50 39 b8 f2 ec 0f aa e3 5b a8 bb 8c f5 5a a0
       -4.4182776e-05 -1.2783158e-13 -0.005137907 -1.8546563e-19
000010 51 91 c9 b6 90 08 c6 b4 05 b3 b8 ba e5 70 b9 ba
       -6.007184e-06 -3.6886604e-07 -0.0014091438 -0.0014148025
000020 63 ff d7 bd 49 b1 83 bd 52 c6 d8 af 0e 65 52 bc
       -0.10546758 -0.06430299 -3.9431086e-10 -0.012841476
000030 b9 51 7a b8 c3 22 00 a8 84 61 46 a3 ed b1 84 9f
       -5.9680755e-05 -7.112965e-15 -1.0754251e-17 -5.619853e-20
000040 4b f0 ad bd 01 20 e7 b9 71 8f aa bb 76 21 e8 b0
       -0.08493098 -0.00044083598 -0.005205088 -1.6889732e-09
000050 a5 1f d7 a8 bc f1 0a bb 9a e1 af b5 21 4b fe ad
       -2.3883519e-14 -0.0021201214 -1.3104175e-06 -2.890982e-11
000060 4c a5 c1 3d 60 62 87 bc 16 e3 ed 3e ff 36 f6 bc
       0.09455356 -0.016526401 0.46462315 -0.030055521
000070 8c 9e 66 b0 9d 6e a0 ad 65 9c be b4 64 da 5c a9
       -8.389882e-10 -1.8239016e-11 -3.550405e-07 -4.9039237e-14
000080 05 77 fa a2 62 d4 9a be d0 7a 26 a7 2c ab 41 be
       -6.7888653e-18 -0.3024016 -2.3103705e-15 -0.18912953
000090 69 8e a8 bc a2 75 04 bb b2 bc 6f be ae 8f 84 bc
       -0.020575719 -0.0020211716 -0.23411825 -0.016181793
0000a0 f5 6a 05 bc fd 38 73 be 28 08 30 b9 2d 37 e8 98
       -0.008143176 -0.23752208 -0.00016787706 -6.0026308e-24
0000b0 31 63 04 9a cc e0 16 b2 67 34 54 3e 58 a3 01 b6
       -2.7377086e-23 -8.782262e-09 0.20723115 -1.9317577e-06
0000c0 4c 2d 0a b5 a4 7b 20 ad eb d6 d5 a8 3e 01 3c bf
       -5.147492e-07 -9.122401e-12 -2.3740956e-14 -0.73439395
0000d0 28 6e ff b0 64 eb a8 ae 11 90 74 b2 94 40 02 af
       -1.8585e-09 -7.681569e-11 -1.4235426e-08 -1.1846374e-10
0000e0 de e3 52 be 4b f5 26 3f 6e 98 40 bd c8 3a a1 a7
       -0.20594737 0.6521804 -0.04702037 -4.4750208e-15
0000f0 e3 96 e9 bc 0c 1d c4 bb 51 b8 59 b7 2e 7a 59 3e
       -0.028514331 -0.005984908 -1.2977122e-05 0.21238014
000100 91 52 c8 a5 d7 a9 b2 af a4 85 2b 3f aa 65 ab b1
       -3.475042e-16 -3.249869e-10 0.67000794 -4.988313e-09
000110 81 58 bf a2 30 34 d6 3e 5a a9 e4 a4 1f 47 e2 b6
       -5.186436e-18 0.4183669 -9.916613e-17 -6.7436044e-06
000120 54 a1 ef bd 68 b5 5b b5 41 4c 2c a7 86 12 2d a6
       -0.11700693 -8.184784e-07 -2.3911132e-15 -6.0046536e-16
000130 d5 29 1f b2 51 9d 1c bd 87 b5 f9 ab dc f4 ab b8
       -9.26453e-09 -0.038235966 -1.7742898e-12 -8.199524e-05
000140 f5 e2 1a be c4 d2 af a4 71 89 81 b1 4d a2 1f a7
       -0.1512564 -7.62512e-17 -3.7700194e-09 -2.2153666e-15
000150 ef 6f f4 b6 89 63 49 be 1d 11 9b b8 73 c4 85 3e
       -7.2847974e-06 -0.19666876 -7.3941635e-05 0.2612644
000160 30 7f 99 ab c1 b1 a4 b8 8b 4d 63 bd 0f 6c 93 be
       -1.0906605e-12 -7.853239e-05 -0.055493873 -0.2879338
000170 a7 bd 1a a9 51 6a 88 3f e0 73 64 b0 c7 fb 09 b9
       -3.4359366e-14 1.0657445 -8.3110585e-10 -0.00013159133
000180 6e 2d a4 3f 8d 32 59 2f ec aa 94 b1 3e 7f 93 bd
       1.2826364 1.9753994e-10 -4.3267985e-09 -0.07202004
000190 d7 c1 aa bd 11 09 43 bd 06 4b 5a a0 9e dd df ab
       -0.08337753 -0.04761607 -1.8490141e-19 -1.5906614e-12
0001a0 5e 77 73 ba 25 c1 69 b1 25 28 67 be b8 90 93 b2
       -0.00092875015 -3.4015752e-09 -0.22573908 -1.7178863e-08
0001b0 20 6e d6 b0 fe 0d d0 bc 2a 69 28 b8 62 ba cb bb
       -1.5601849e-09 -0.025397297 -4.0152263e-05 -0.006217287
0001c0 74 3d de a4 a3 65 5c bc 2e 65 14 a7 06 d4 e3 b7
       -9.638126e-17 -0.013451966 -2.0593976e-15 -2.715924e-05
0001d0 4f 3a 22 ae a7 a5 c6 b5 70 18 88 b4 2f d2 5c bd
       -3.6886324e-11 -1.4800361e-06 -2.5349755e-07 -0.053911384
0001e0 ec 7c 0e ae 51 ea 39 bb 4c af 5e b3 f4 b2 96 3d
       -3.2398015e-11 -0.0028368423 -5.1847834e-08 0.07358351
0001f0 e5 3a 47 af f1 90 6f 3b c6 85 f0 3c 98 7a 9f a2
       -1.8119868e-10 0.0036554898 0.029360663 -4.3226838e-18

fc2.weight f4 [64, 128]
000000 cc 12 0a 82 20 9b cc 01 93 be af ae f0 1b 10 81
       -1.0144033e-37 7.516036e-38 -7.9919314e-11 -2.6468667e-38
000010 6c 0c 18 00 a4 9f 19 80 ab bd df 9e 30 bf 20 82
       2.208508e-39 -2.353156e-39 -2.3689488e-20 -1.1809812e-37
000020 84 88 d0 01 78 c5 48 80 3e ba 21 80 34 a7 42 81
       7.6603023e-38 -6.682994e-39 -3.097382e-39 -3.5752135e-38
000030 d0 c3 86 24 e4 02 97 81 ec dc 0c 01 86 5a e4 81
       5.8444956e-17 -5.547279e-38 2.5872443e-38 -8.388387e-38
000040 14 6b 19 01 3c 96 0f 00 08 c8 9d 80 06 ea ef 81
       2.8178487e-38 1.431426e-39 -1.448993e-38 -8.813054e-38
000050 4d 56 0f 82 66 38 bb 2e ac 95 07 80 4e 53 d4 81
       -1.0530748e-37 8.513794e-11 -6.9654e-40 -7.7996037e-38
000060 5c 3b b7 ba bc 40 40 ba 4b 58 20 b1 2a e1 82 82
       -0.0013979482 -0.0007333865 -2.3333253e-09 -1.923102e-37
000070 70 6d 12 80 a6 89 67 1d d7 26 20 26 51 e9 0c 80
       -1.692298e-39 3.0643758e-21 5.556379e-16 -1.185724e-39
000080 aa 84 98 01 ac 2f a2 31 20 e0 7b 81 84 39 1c ba
       5.6026345e-38 4.72024e-09 -4.626222e-38 -0.0005959498
000090 10 7f 1f 21 97 0c cf 81 f9 11 4b ae 5e 18 95 a6
       5.403946e-19 -7.6057856e-38 -4.617282e-11 -1.0345557e-15
0000a0 26 3a 26 9c f4 51 a0 81 13 56 18 00 f2 fa 00 00
       -5.499995e-22 -5.8892315e-38 2.23493e-39 9.0022e-41
0000b0 70 27 58 80 f8 a7 da 00 d6 d1 1a bb 00 79 23 01
       -8.095671e-39 2.0080394e-38 -0.0023623607 3.0025185e-38
0000c0 c5 8a bf 01 38 3a 48 01 e8 e7 9d 81 41 1d b4 2f
       7.0361444e-38 3.6775968e-38 -5.800546e-38 3.2762595e-10
0000d0 34 e3 13 00 08 44 01 80 b3 89 5d 02 64 c3 59 81
       1.82638e-39 -1.1624e-40 1.6276033e-37 -3.999679e-38
0000e0 00 83 18 b0 1b 0c 2d b2 7e d2 b8 81 52 39 ac 81
       -5.548344e-10 -1.0072678e-08 -6.7892967e-38 -6.326507e-38
0000f0 de 4c af 2c 05 26 10 30 b0 3a 47 81 5c e9 ce 30
       4.982333e-12 5.2440924e-10 -3.6592634e-38 1.5054797e-09
000100 e9 85 05 00 ec 6b be 02 eb c8 32 bb a8 ed 15 02
       5.07215e-40 2.7979935e-37 -0.00272804 1.1014995e-37
000110 23 bf 10 80 27 3f 93 32 92 fe 10 80 c6 1b 47 01
       -1.537935e-39 1.714177e-08 -1.56069e-39 3.6570454e-38
000120 0b 84 25 b5 fb 9b 2f 82 7e 7f 5d 82 95 80 0f 80
       -6.165944e-07 -1.2901734e-37 -1.6273104e-37 -1.423659e-39
000130 62 78 97 01 df f9 d0 ba 54 3b 5b 02 23 51 3b a6
       5.564138e-38 -0.0015943608 1.6106605e-37 -6.498862e-16
000140 1f da 17 32 aa c9 92 01 46 9c 9d 01 24 7c b7 01
       8.838952e-09 5.3921303e-38 5.7896933e-38 6.7401716e-38
000150 84 40 18 82 2c a4 06 02 41 7c 9c 9a 70 49 d3 ba
       -1.1185711e-37 9.89188e-38 -6.472083e-23 -0.0016119909
000160 c7 57 0f 00 31 22 26 00 02 87 80 02 dc 38 00 01
       1.409021e-39 3.502014e-39 1.88854e-37 2.3550682e-38
000170 ae aa 6c 02 ec e3 e3 ba d3 00 0a 80 80 d0 ce 22
       1.7387524e-37 -0.0017386652 -9.1865e-40 5.605717e-18
000180 6a ae f1 b4 31 b5 aa 17 44 4f 4c 81 b6 30 cf 28
       -4.501665e-07 1.1031732e-24 -3.7525753e-38 2.3002742e-14
000190 3e a2 28 02 4b ef 14 82 6f 4a 27 00 c5 da 0a 00
       1.2389252e-37 -1.0941996e-37 3.608286e-39 9.96835e-40
0001a0 ca 9e 20 00 6d 28 12 00 0c dc 9e aa a1 41 95 81
       2.995699e-39 1.667541e-39 -2.8219126e-13 -5.482813e-38
0001b0 7a 84 af 82 a7 7e 33 90 b0 fb 79 2f 34 c4 c8 01
       -2.5789977e-37 -3.5399095e-29 2.2735835e-10 7.3749935e-38
0001c0 d7 fe 4d 82 d0 9d 96 af 59 d5 50 02 0e 51 28 29
       -1.5134157e-37 -2.7396974e-10 1.5342654e-37 3.7373797e-14
0001d0 bc 47 d4 81 cc 84 b4 2b 58 76 2e 28 94 6f f4 29
       -7.7979435e-38 1.2826628e-12 9.684602e-15 1.08551324e-13
0001e0 61 41 be 81 61 ba 43 a6 78 01 9d 00 f9 51 8f b9
       -6.988879e-38 -6.7906806e-16 1.44187e-38 -0.0002733616
0001f0 8a 70 09 00 1a 3a 0d 00 ef 57 04 b9 7c c5 a3 01
       8.66891e-40 1.214704e-39 -0.00012621259 6.016012e-38
000200 fe 09 fe 81 a4 68 1d 81 60 2b 0d 01 03 d3 99 02
       -9.33192e-38 -2.8911422e-38 2.592873e-38 2.2602444e-37
000210 c6 10 39 8e 8a 25 3e 02 c2 63 36 09 cd 50 de 1f
       -2.2811087e-30 1.3969769e-37 2.1954359e-33 9.415433e-20
000220 43 a8 60 8f c1 27 f6 98 98 ef c5 8d 76 c0 50 99
       -1.1076459e-29 -6.362965e-24 -1.2198742e-30 -1.0792215e-23
000230 31 dc b1 82 dc 48 34 01 59 94 55 02 d0 f2 45 81
       -2.6134196e-37 3.3113053e-38 1.5691342e-37 -3.6357395e-38
000240 38 cf b7 00 6e 60 e8 01 40 a9 9b 01 0e 29 ac 81
       1.6880232e-38 8.536171e-38 5.718087e-38 -6.324173e-38
000250 a0 7c 50 80 f6 27 03 02 2b da 4e 82 94 49 74 81
       -7.391547e-39 9.635828e-38 -1.5197101e-37 -4.4868512e-38
000260 fd 67 14 aa aa d7 b0 81 57 f8 74 ac 94 8c 22 81
       -1.3181119e-13 -6.496165e-38 -3.4812342e-12 -2.985556e-38
000270 d8 2d 16 81 1e 3c 01 81 fe db dc 01 18 15 9a 82
       -2.758354e-38 -2.373669e-38 8.113091e-38 -2.2640373e-37
000280 7d 6e 1c 00 7a 6a 15 a1 1e 6c 9a 80 82 13 74 a1
       2.61103e-39 -5.0624084e-19 -1.4181452e-38 -8.2696234e-19
000290 08 0e 2e 18 d8 d1 f7 99 af b2 47 82 1c 17 09 01
       2.2496057e-24 -2.5623957e-23 -1.4671491e-37 2.5179506e-38
0002a0 9f e2 1c 82 60 11 c0 81 df 9c 9f 82 1e e2 06 80
       -1.1526107e-37 -7.0554593e-38 -2.345299e-37 -6.32129e-40
0002b0 cc 7a 45 00 e8 f0 95 01 cb 42 69 bb 34 3d 84 81
       6.3807e-39 5.507964e-38 -0.003559279 -4.8576964e-38
0002c0 e0 d7 53 1c 0e 90 0b 00 8a 44 22 82 6a 35 39 20
       7.0093056e-22 1.061868e-39 -1.192155e-37 1.5687783e-19
0002d0 48 9e b2 81 33 e1 09 80 09 bc 1b 00 f6 17 06 80
       -6.5613996e-38 -9.07306e-40 2.547013e-39 -5.59609e-40
0002e0 d2 b7 97 21 36 ee 0e 21 58 6a 3f 01 d8 11 bf 01
       1.0280815e-18 4.842674e-19 3.5157457e-38 7.0187924e-38
0002f0 39 ab 11 00 b6 82 1d 00 9a 60 ab 0f e8 06 6d 21
       1.622627e-39 2.71012e-39 1.6899111e-29 8.0307864e-19
000300 d3 f6 04 00 4e 26 8e 82 0a d3 fa b8 14 e1 30 01
       4.55886e-40 -2.088701e-37 -0.00011960238 3.248758e-38
000310 d0 07 cb 80 b7 10 3c b8 48 33 c4 02 59 7f 3d 82
       -1.8645408e-38 -4.483826e-05 2.8829046e-37 -1.3922074e-37
000320 6c 58 50 b7 88 e4 14 00 45 b8 8f 02 00 c9 8d 82
       -1.2418353e-05 1.918691e-39 2.1117727e-37 -2.0833456e-37
000330 c7 4d 0b 00 e6 54 d9 b6 6c 46 62 81 6c 3d 02 02
       1.038092e-39 -6.4769874e-06 -4.156017e-38 9.568519e-38
000340 11 ec 9b 9e 3f 8d 07 00 68 bb 62 81 73 aa 99 02
       -1.6508898e-20 6.93518e-40 -4.1644102e-38 2.2579163e-37
000350 5c 10 79 07 5a 62 00 00 d8 cb 1e 80 92 46 8a b6
       1.8737486e-34 3.5282e-41 -2.82819e-39 -4.120936e-06
000360 72 6e 00 81 b8 4f cc 01 19 27 44 82 60 d5 76 01
       -2.3589128e-38 7.5052156e-38 -1.4411026e-37 4.5336153e-38
000370 08 ac 0d 02 86 93 47 b7 84 48 d1 81 d5 a6 1e 01
       1.0408415e-37 -1.1895672e-05 -7.687853e-38 2.9139713e-38
000380 45 e1 ba ba da 0e dc 01 f0 df 8c 00 08 e9 32 85
       -0.0014257809 8.083655e-38 1.2937303e-38 -8.412321e-36
000390 10 74 38 81 95 27 22 02 e6 ff e5 81 2a 44 2a 0e
       -3.3878733e-38 1.191324e-37 -8.448851e-38 2.0986938e-30
0003a0 e0 38 40 81 38 fb cf 8b 88 92 71 81 c9 28 04 00
       -3.5305636e-38 -8.011149e-32 -4.436984e-38 3.81973e-40
0003b0 dc 50 3a 01 17 20 06 00 1a 30 8d 82 28 02 50 81
       3.4220818e-38 5.62525e-40 -2.0745697e-37 -3.8205113e-38
0003c0 74 b6 2f 82 f5 1d 01 00 40 f3 43 82 93 81 08 1d
       -1.2909331e-37 1.02582e-40 -1.4396147e-37 1.8066438e-21
0003d0 bc 73 5e 93 3e e1 52 82 fe 45 8f 01 31 26 2f 02
       -2.80774e-27 -1.5493005e-37 5.263034e-38 1.286793e-37
0003e0 ec 04 47 81 fa 85 9e 81 ac 2d 64 01 3b be a9 b9
       -3.655406e-38 -5.823228e-38 4.1909754e-38 -0.00032375925
0003f0 ae 0a 8f 82 f4 d0 c5 81 0f 36 64 9e 6a 63 3d 82
       -2.1018091e-37 -7.2666204e-38 -1.20813986e-20 -1.3914057e-37

fc2.bias f4 [64]
000000 c8 19 1e ba 84 82 a1 ba 26 dc 03 b2 18 79 8f bd
       -0.00060310634 -0.0012322222 -7.6752595e-09 -0.07005519
000010 b4 90 93 b7 7f bf ea aa 5a 03 88 ba b3 06 a4 a8
       -1.7591148e-05 -4.1699627e-13 -0.0010376975 -1.8210563e-14
000020 2f 8a 26 a1 6a c0 c9 3e 0b 82 fa 9b f3 86 6c bb
       -5.642587e-19 0.39404613 -4.144307e-22 -0.0036091178
000030 98 5f 90 3e 0e 2e 47 3f dc 5b 10 ae ca b7 01 3f
       0.28197932 0.7780465 -3.2823397e-11 0.50671065
000040 9a 27 3d 3f de e1 6a a6 e7 90 9d 95 96 72 a2 3e
       0.7388855 -8.1491166e-16 -6.364041e-26 0.31728047
000050 4c 1e 94 a9 f1 00 ad 3e 25 de 0d a7 76 5d dd b2
       -6.577776e-14 0.3378978 -1.9688106e-15 -2.5770287e-08
000060 8d 34 db 3e 3a e7 64 ab 93 6b 6a aa f0 ec 83 ba
       0.4281353 -8.1322763e-13 -2.0820697e-13 -0.001006512
000070 67 fc 1c b5 16 ce 2a 3f 1c a5 90 3e 25 76 36 ab
       -5.848182e-07 0.6672071 0.28250968 -6.482335e-13
000080 26 ad 2a be fd ec c8 b4 4d 0d 65 bf ec 5d cd bd
       -0.16667613 -3.7425335e-07 -0.8947342 -0.1002768
000090 de 66 5f 9c cf 2b 05 3f 48 2a d9 3e 3b a6 42 b1
       -7.3917463e-22 0.5201997 0.4241507 -2.8325207e-09
0000a0 31 87 41 3f d3 f3 fd 3e fa aa 15 a8 5d e4 90 bd
       0.7559691 0.49600086 -8.308236e-15 -0.07074807
0000b0 bc 44 e4 3e f6 fa 59 b7 4a 10 eb bb 02 84 2b b0
       0.4458369 -1.2992639e-05 -0.0071735727 -6.239703e-10
0000c0 42 43 32 b9 83 eb b5 bc ae 3f 1f 3f 1f 87 02 9c
       -0.00017000458 -0.022207027 0.6220654 -4.318803e-22
0000d0 c0 3e 0e 3f 69 92 35 b3 76 a7 81 ab 07 93 c2 ae
       0.555645 -4.2275506e-08 -9.212481e-13 -8.848216e-11
0000e0 cb 01 45 3e 3c 84 a5 b1 3f 7d 16 3f fe 05 6b b8
       0.19238965 -4.8171653e-09 0.5878486 -5.6033947e-05
0000f0 da fa c1 3e 08 b3 ac ad 97 68 1e bf 3e 58 d5 b0
       0.37886697 -1.9633642e-11 -0.6187834 -1.552287e-09

out.weight f4 [10, 64]
000000 3a c3 ae b8 77 fa 48 b9 26 5a d0 ab 50 ae 4a bc
       -8.33333e-05 -0.00019166792 -1.480431e-12 -0.012370661
000010 9d 00 38 a0 db 85 1f 80 c7 d8 1e b6 63 08 de 01
       -1.5585609e-19 -2.894919e-39 -2.3670016e-06 8.1561955e-38
000020 6a a0 14 80 42 77 6f bd f4 45 05 80 56 20 d6 2f
       -1.894256e-39 -0.058463342 -4.84272e-40 3.894935e-10
000030 ab 14 29 bc c7 dd 40 3c 93 2e 28 0d 7c a5 23 3c
       -0.010319869 0.011771626 5.182506e-31 0.009988185
000040 b4 0f c4 bc 1a d1 1a 80 4c 4d 20 80 be fe 87 bd
       -0.02393327 -2.462734e-39 -2.966465e-39 -0.06640385
000050 23 6f 00 00 47 39 d9 3c 0c b4 0c 80 89 00 62 a4
       3.9868e-41 0.02651657 -1.166615e-39 -4.900639e-17
000060 42 32 e0 39 92 52 97 b3 cd df 1c 00 1f ee 9c 35
       0.00042762054 -7.046505e-08 2.651678e-39 1.1692208e-06
000070 d7 89 4b 19 d4 57 e2 bb 61 13 be 3b 1e 17 cb a4
       1.05226906e-23 -0.0069074426 0.00580065 -8.807638e-17
000080 7b ed 54 bd 49 d7 2b 21 51 78 51 bf 16 64 ff bc
       -0.05198429 5.822198e-19 -0.81824213 -0.031175654
000090 c3 19 13 11 77 39 0b be f1 bd d8 bd 6c eb 6b 37
       1.1604194e-28 -0.1359614 -0.105831034 1.4061905e-05
0000a0 10 b8 02 be 78 57 3d 3c 9e 59 18 00 f8 4e cb 3c
       -0.12765527 0.011556499 2.2362e-39 0.024817929
0000b0 98 10 b5 bc 54 ca ef ac e7 2d 02 b6 36 e9 19 00
       -0.02210264 -6.8152515e-12 -1.9398228e-06 2.379548e-39
0000c0 81 b1 ea 34 c3 6d 38 ba c6 82 0a bc fa b6 0c 99
       4.3715048e-07 -0.0007035399 -0.00845403 -7.274782e-24
0000d0 b6 69 e3 3a a4 54 22 39 50 87 81 a9 bc 12 8e 31
       0.001735023 0.00015481055 -5.752224e-14 4.1348738e-09
0000e0 7f 1a 20 3f 02 db a8 af f1 71 26 bd 7a 23 7c 32
       0.6254043 -3.0714636e-10 -0.040636007 1.4676397e-08
0000f0 7f 80 58 bd c0 39 03 2a e6 3d 8e 3d cd 1b 74 2b
       -0.05285692 1.1655173e-13 0.069454 8.6724795e-13
000100 f8 74 d8 b5 a3 90 12 2a 17 f8 09 ad 1f 30 2c 3d
       -1.6127296e-06 1.3017586e-13 -7.842635e-12 0.04203808
000110 ff 16 36 1f 9a 46 09 00 94 4c a5 b8 f0 2a 91 86
       3.855902e-20 8.51847e-40 -7.882077e-05 -5.460603e-35
000120 86 c2 1d 80 36 e3 d6 bd c9 9b 23 00 b4 b6 53 ba
       -2.733011e-39 -0.10492556 3.270128e-39 -0.0008076236
000130 3a d7 e1 bd ac 5a 90 bd f5 b3 d7 0e 1e 82 de bd
       -0.11027379 -0.07048544 5.3174884e-30 -0.10864662
000140 20 0f 45 3c aa 9b 1c 80 b2 30 8c 8a c2 d2 03 bf
       0.012027532 -2.627236e-39 -1.3499827e-32 -0.51493466
000150 84 21 0f 00 b4 ed 25 3a 8d 1b 70 8b 8c bc be a6
       1.389556e-39 0.0006329671 -4.6243046e-32 -1.3235004e-15
000160 ab ba a7 bc 07 6d a4 86 48 93 b6 09 dc 50 b7 ba
       -0.020474752 -6.1850145e-35 4.395341e-33 -0.001398589
000170 25 a3 14 18 1d e2 9a bb 70 0f 59 3e fb 6d 07 80
       1.9210919e-24 -0.004726662 0.21197295 -6.82302e-40
000180 88 13 5d be b2 27 1a 96 11 1e 1b 3e c8 62 b2 ba
       -0.21589482 -1.2452547e-25 0.15148188 -0.0013609761
000190 57 88 d8 1f 61 95 2f be d4 95 68 be 84 78 e5 33
       9.1705114e-20 -0.17146827 -0.22713405 1.0685565e-07
0001a0 54 c1 2c 3e 49 94 ab 3e 89 13 74 87 80 06 25 bc
       0.16870624 0.3351157 -1.8362261e-34 -0.0100723505
0001b0 78 4f 10 be 6c e9 90 2e 50 43 07 3a 1f e4 87 90
       -0.14092815 6.589826e-11 0.00051598717 -5.359959e-29
0001c0 57 aa 0b 35 b8 d0 5a bc 14 62 20 3f 6b f4 0c 1a
       5.202941e-07 -0.0133554265 0.62649655 2.914876e-23
0001d0 e1 32 cf bd 9e 7f 58 2b 13 b0 10 00 5e a6 bc a7
       -0.10117126 7.691572e-13 1.532531e-39 -5.2360858e-15
0001e0 a9 92 e5 bd fc bc 14 b1 26 b2 3a bc 70 1e 11 37
       -0.11209614 -2.164426e-09 -0.011395013 8.64976e-06
0001f0 3a 45 52 bc 16 12 cf 1e d3 75 12 3e 08 6e 57 25
       -0.012833888 2.1924458e-20 0.14302759 1.8685557e-16
000200 86 8f 84 b4 e2 26 e3 38 43 59 3d 2c f4 56 65 be
       -2.4691343e-07 0.00010831446 2.6908066e-12 -0.22396451
000210 77 7f 86 36 ae c2 83 86 cc 7c 1d 39 00 15 3d 01
       4.00835e-06 -4.956278e-35 0.00015019177 3.4728884e-38
000220 a1 b1 8b 23 b8 7c 0f 3f c6 9c 9d 27 c3 41 21 b9
       1.5145639e-17 0.5604968 4.3746228e-15 -0.00015378655
000230 1e 5d 6e 3e 9f 27 09 be cc b8 1b 1b 53 60 f1 bc
       0.23277709 -0.1339402 1.288101e-22 -0.029464876
000240 0f a6 03 bd 98 8f 17 80 9c c8 68 84 c8 db 16 3e
       -0.032140788 -2.163728e-39 -2.7363584e-36 0.14732277
000250 a7 00 0e 13 ea ea b6 3d b3 03 8c 92 c7 ec 45 a3
       1.7923241e-27 0.08931525 -8.836154e-28 -1.0729531e-17
000260 67 c6 be bc 12 92 1d 80 02 a3 fb 8a 90 16 5b 37
       -0.023287965 -2.71563e-39 -2.4231738e-32 1.305867e-05
000270 30 5d db b7 01 46 10 bd 5c ed b9 3c 53 86 65 a0
       -2.6150228e-05 -0.03522301 0.02269619 -1.9441499e-19
000280 3e a6 17 3e 47 38 10 28 c6 cb e7 3d a9 d4 04 be
       0.1480951 8.005809e-15 0.113181636 -0.12971748
000290 c5 16 26 85 e6 e5 de bd ae 03 c3 bd 7c e9 40 b5
       -7.8094646e-36 -0.108836934 -0.09522186 -7.186534e-07
0002a0 3e 99 a7 bd 15 40 37 be ae 1e 28 00 ee 13 20 bc
       -0.081835255 -0.17895539 3.684426e-39 -0.009770377
0002b0 ee 6f c1 bd da 21 c8 b4 7f 04 2d 37 5b 0f c9 ab
       -0.09445177 -3.7277533e-07 1.031265e-05 -1.4286171e-12
0002c0 f4 01 0b b5 99 2a 37 b9 a8 19 6e 3c d0 98 81 9b
       -5.178438e-07 -0.00017468109 0.014532484 -2.1440013e-22
0002d0 ab bc 85 be 0a 0e 3c b6 e3 eb ba 19 1a 6b 68 1b
       -0.26120505 -2.8022355e-06 1.9327223e-23 1.9225197e-22
0002e0 04 24 b4 bd d5 07 b5 af 3e 31 76 bd cf 43 05 32
       -0.08795932 -3.2929273e-10 -0.060105555 7.757037e-09
0002f0 d7 11 90 3e b7 ac d6 2e c1 60 35 bf b0 9b 77 35
       0.2813861 9.7622736e-11 -0.7085076 9.2241226e-07
000300 d2 40 8e bb 95 73 d6 3a 4f 56 84 2d e0 c5 cd bc
       -0.0043412233 0.001636135 1.5044991e-11 -0.025118768
000310 99 93 32 af eb f1 62 15 8c d9 81 3b 41 e2 fa 99
       -1.6241443e-10 4.5831176e-26 0.003962701 -2.5940777e-23
000320 f2 65 04 00 e8 b4 1f be f1 76 d7 23 21 e3 a3 ba
       4.03913e-40 -0.15596354 2.336072e-17 -0.0012503603
000330 38 79 ac bc 81 71 08 be 4b ae 44 24 bd bf 41 be
       -0.021053895 -0.13324548 4.2648357e-17 -0.18920799
000340 d9 e2 ab be 7f c3 10 00 87 7e 29 9e 20 6d 35 3e
       -0.3357151 1.539499e-39 -8.972951e-21 0.17717409
000350 50 fc 00 80 0b 79 7e be d6 4f 2c a6 03 d9 88 8e
       -9.0513e-41 -0.24850862 -5.9782685e-16 -3.3735563e-30
000360 8a 46 81 3e 67 c3 a3 1e 16 4a 2e 80 a5 1a d8 35
       0.2524913 1.7339113e-20 -4.25101e-39 1.6101009e-06
000370 0c 96 21 33 ba a1 3d 3f 46 e3 04 bb 1d e5 e7 a6
       3.76222e-08 0.740749 -0.0020277067 -1.6090946e-15
000380 b4 da 6b 3e 0f 3f ea 2f 0e b1 96 3d db 46 75 bc
       0.23032647 4.2609158e-10 0.07357989 -0.014970507
000390 51 69 78 0c 17 71 3e 3e 5a 6d f9 bc 0e a0 bf ac
       1.9136918e-31 0.18597828 -0.03044765 -5.446316e-12
0003a0 4d 44 42 bd c1 e9 2b be d7 ee 04 80 dd cd 3d 3d
       -0.047428418 -0.16788389 -4.53022e-40 0.046338905
0003b0 61 81 aa bd 3f 97 cf 38 da 1e c8 3d 33 b0 7f b3
       -0.08325458 9.898701e-05 0.097715095 -5.9532066e-08
0003c0 26 f6 d4 b9 4a 1d 7a ba 1b 36 9c 3d 51 5d b5 9a
       -0.00040619186 -0.00095411076 0.07627507 -7.5010606e-23
0003d0 7a b8 3c 3e 4b 44 51 38 86 b9 38 a1 9a 83 c5 33
       0.18429747 4.9893086e-05 -6.2587163e-19 9.1974655e-08
0003e0 ca 04 5e bd 9e 87 89 b0 80 dd 23 be 1b e7 d2 bb
       -0.054203786 -1.0006607e-09 -0.16002464 -0.0064362413
0003f0 29 7c 07 3e d4 be a4 ad 44 ca a5 3d a9 0e f0 23
       0.13230957 -1.8729386e-11 0.0809522 2.6027061e-17

out.bias f4 [10]
000000 40 6a ca 3d a8 cf 28 3e 6d 88 04 3e b7 b5 b9 3d
       0.09883547 0.16485465 0.12942667 0.090678625
000010 db b7 23 3d 82 9c 9a 3d a5 bb 4a 3e 38 f8 62 3d
       0.03997026 0.07549383 0.19798143 0.0554125
000020 e7 a1 0b 3d d6 b0 b1 3d
       0.03408995 0.08676307
