exps/regularModelExperiments/pretrainedmodels/l2regulatizationModel3.pt (torch, 973925 bytes, 8 tensors)

fc.weight f4 [256, 784]
-4.3053124e-38 -8.491409e-38 -1.1038474e-37 -1.3462431e-38 -9.74626e-40 6.987809e-38 9.3224945e-38 3.6681554e-38
5.7419146e-38 7.956466e-38 1.5879235e-37 -1.0123e-40 -2.4770983e-38 2.306865e-39 2.2971362e-38 -3.3315813e-37
-1.2430053e-37 2.3063126e-37 7.482073e-38 2.737863e-39 5.1082833e-38 -3.239134e-38 7.1560434e-38 1.4746682e-38
-4.0785195e-38 1.7180785e-37 3.8773155e-38 3.9483994e-38 1.914314e-37 -3.674518e-39 2.860613e-38 -1.63358e-40
-1.7451123e-37 2.0452915e-38 1.0989994e-38 6.0406827e-27 4.828493e-26 -3.994243e-24 4.2105238e-24 -1.5910785e-24
-4.3033372e-23 5.621333e-23 7.669344e-23 -1.3200999e-23 -2.0061173e-22 -1.2428023e-22 -1.0546722e-23 -3.0966438e-22
-3.2150787e-22 -9.337226e-38 1.127128e-37 2.0103712e-38 4.8523345e-38 -5.545978e-38 -1.0010836e-37 7.4197846e-38
-1.923527e-37 5.822939e-38 1.6262568e-37 -1.6340726e-37 4.974033e-27 8.260581e-26 -2.473456e-24 -9.649022e-24
-4.703433e-23 -3.9913522e-23 -3.0127721e-22 5.0756654e-22 -1.2620479e-21 -1.2555398e-22 1.2336896e-21 9.200648e-22
-9.602755e-22 2.1120474e-21 1.6643966e-21 -2.6641947e-21 -1.0241607e-21 4.36207e-22 1.2992855e-22 -5.61801e-38
-1.7874851e-37 -1.6889202e-37 -1.1736468e-37 -4.9355985e-38 7.398831e-38 8.58496e-39 -3.957369e-38 7.173024e-24
2.2994772e-26 1.1700564e-22 -5.833093e-23 6.4285954e-22 -4.4528893e-22 -1.4776411e-22 -1.5359697e-22 8.166384e-22
1.310811e-21 2.1663775e-21 3.800086e-22 -4.1963508e-22 2.9961897e-21 -2.3190667e-21 1.0127085e-20 -2.7561787e-21
-8.555184e-22 -2.901736e-21 -9.762455e-22 -1.8116147e-22 -1.9707345e-23 -1.1085714e-25 2.934656e-25 7.1965263e-38
-5.3712757e-38 -1.999731e-39 -8.680968e-28 4.2366005e-23 5.0717354e-27 2.78778e-22 -5.3188395e-22 2.8940378e-22
9.710979e-22 4.9830084e-23 1.1879889e-21 2.5534703e-22 2.6924499e-21 -1.2570946e-21 -1.7889312e-21 4.8911594e-21
-3.880856e-21 -2.811162e-21 -5.3670847e-21 4.8803244e-21 -3.8338547e-22 -1.7880933e-21 -2.210898e-22 1.5219381e-22
1.7588208e-23 3.916628e-24 3.396352e-24 2.692743e-38 -1.9366866e-37 2.7979368e-38 -6.431699e-37 6.7381856e-27
-2.5395206e-23 -9.43602e-23 4.874263e-22 2.5202897e-22 -1.3447997e-21 2.8267423e-22 -2.6143388e-22 -4.3797456e-21
-7.753819e-21 4.8694786e-21 -1.2818523e-20 -1.04185846e-20 1.3237765e-20 -4.3864534e-22 -5.5604523e-21 -9.444313e-21
4.5572967e-21 -1.7429303e-21 2.4555897e-21 3.7517556e-22 6.4756827e-22 1.8554548e-23 2.9649716e-23 -3.446747e-39
2.8334446e-38 -1.8899126e-37 -9.7626945e-27 6.3331445e-23 -6.454295e-23 5.761335e-22 -1.3853031e-22 -7.5211316e-22
3.3308818e-21 4.3981993e-21 -1.1080876e-20 1.9515661e-20 1.1686794e-20 -1.0462487e-20 -3.522348e-20 -4.2698346e-20
-6.867394e-21 1.1130771e-20 -6.596214e-21 -1.435297e-20 -9.060495e-22 1.533457e-21 1.8917376e-21 6.8750387e-22
4.2692365e-22 -5.495512e-23 2.4487512e-22 1.443353e-38 2.2761941e-38 -7.7319535e-30 7.3488453e-25 -2.1874116e-23
1.570642e-22 -1.1199846e-22 -3.2115465e-21 1.3390614e-21 -4.2178307e-21 1.28684165e-20 -1.4499523e-20 -3.230675e-20
-1.34571154e-20 -1.6487595e-20 -2.9737896e-20 1.06947383e-19 -2.4622231e-20 -1.2192031e-20 -1.0118114e-20 1.2705312e-20
5.9616866e-21 3.594526e-21 2.4979219e-21 -8.700117e-22 -5.047721e-22 -2.4754279e-21 -3.0331619e-21 -4.9317494e-38
6.941551e-38 -2.899545e-25 1.6004777e-21 1.1074955e-21 -1.3001112e-21 -2.3265998e-21 -4.0039875e-21 -7.267005e-21
1.4989615e-20 2.0543657e-20 1.8196875e-20 -6.2701635e-21 1.4280302e-20 9.636594e-21 -1.0973457e-20 -1.680954e-20
-8.1083556e-21 -6.1978143e-21 5.0237336e-21 -7.7641685e-21 9.964535e-22 2.5241259e-21 -2.0891345e-21 -3.3528441e-21
3.0363824e-23 -2.6182353e-21 5.356862e-22 9.133904e-39 -8.30318e-38 -3.1766454e-24 -6.372639e-22 -4.80178e-23
00000000: 4c67 6a81 7c28 e781 783f 1682 c897 9280
00000010: dc9c 0a80 ec39 be01 4ec8 fd01 a0b6 4701
00000020: 4e4f 9c01 7a98 d801 0f23 5802 301a 0180
00000030: b6dd 0681 9a1e 1900 d022 fa00 55bc e282
00000040: 6a30 2982 a2f5 9c02 70ae cb01 0cd0 1d00
00000050: 8a0f 8b01 f05a 3081 58ce c201 c093 a000
00000060: 440e 5e81 4cda 6902 e419 5301 a8f8 5601
00000070: 0e48 8202 1003 2880 20bf 1b01 60c7 0180
00000080: 4a88 6d82 68b6 de00 a2ab 7700 cd4b ef13
00000090: 6c18 6f15 1185 9a98 02e3 a218 1d35 f697
000000a0: bc18 509a 5eea 871a f16e b91a 2e58 7f99
000000b0: 5386 729b de3e 169b d600 4c99 3e2e bb9b
000000c0: ef56 c29b f82e fe81 ae6a 1902 f8e8 da00
000000d0: d617 8401 d3f9 9681 ac42 0882 5afc c901
000000e0: 91e8 8282 f683 9e01 c75a 5d02 1f6b 5e82
000000f0: b00a c513 a785 cc15 d85f 3f98 a5a3 3a99
00000100: ae71 639a 8c02 419a 641c b69b 0f67 191c
00000110: 1db7 be9c 13c9 179b 0e6e ba1c 4809 8b1c
00000120: dc1c 919c f094 1f1d 3a84 fb1c 054d 499d
00000130: 4cc4 9a9c e2d5 031c f012 1d1b d1ef 9881
00000140: c44c 7382 48e2 6582 9fbf 1f82 1a5c 8681
00000150: 546a c901 607b 5d00 ac75 5781 18bf 0a19
00000160: acba e314 7e73 0d1b 1909 8d9a d94a 421c
00000170: 9094 069c c7a2 329b f6af 399b 56d0 761c
00000180: 8b15 c61c d6af 231d 7cb3 e51b 62a7 fd9b
00000190: bd62 621d 4639 2f9d 944b 3f1e 4040 509d
000001a0: 4448 819c bd3f 5b9d ab86 939c c202 5b9b
000001b0: 0699 be99 083c 0996 7ba5 b516 78e8 c301
000001c0: 5438 9281 70c6 1580 318e 8992 93de 4c1a
000001d0: 82e9 c813 ce82 a81b 87c0 209c 11ef ae1b
000001e0: 88bf 921c a8f6 701a 1886 b31c 0a59 9a1b
000001f0: 8e6f 4b1d 7ef7 bd9c f62a 079d 64c8 b81d
00000200: 569d 929d c867 549d 42c3 ca9d 9a5f b81d
00000210: 07be e79b c11a 079d fda3 859b b4fd 371b
00000220: 4b1a aa19 6884 9718 d763 8318 5c9b 1201
00000230: d7cd 8382 8c55 1801 00dc 5a83 a976 0514
00000240: 7c9b f599 2326 e49a c950 131c 9857 981b
00000250: 6b38 cb9c b8dd aa1b ef06 9e9b 4d76 a59d
00000260: 2b77 129e b5f6 b71d 9322 729e 2fcd 449e
00000270: e70d 7a1e 8a92 049c 6511 d29d e565 329e
00000280: 782b ac1d 2db1 039d 038a 391d 9bc7 e21b
00000290: 2bb7 431c d672 b319 9260 0f1a 2188 2580
000002a0: 7444 1a01 ec9e 8082 be5e 4194 4420 991a
000002b0: 270e 9c9a 2c20 2e1c 0e79 279b f04f 639c
000002c0: a0ac 7b1d c628 a61d d44f 519e f951 b81e
000002d0: dec1 5c1e 7ca1 459e 9356 269f 22a3 499f
000002e0: aeb8 019e 1b41 521e ab32 f99d 5a8f 879e
000002f0: 18eb 889c bfba e71c 87ef 0e1d 09c9 4f1c
00000300: 9e07 011c 92df 849a 9704 941b cf2a 9d00
00000310: 08db f700 99d2 1c8f 8d6f 6317 b08d d399
00000320: 04e1 3d1b d865 079b 58a8 729d 6e5a ca1c
00000330: 5b58 9f9d d813 731e b2f1 889e 7790 189f
00000340: 9e32 7e9e 8fb8 9b9e e96e 0c9f ba85 fc1f
00000350: e78c e89e 0b4d 669e 3220 3f9e 1eff 6f1e
00000360: e539 e11d 1fcc 871d d6bc 3c1d f378 839c
00000370: d98e 189c bd09 3b9d e22d 659d 4741 8681
00000380: 8df7 bc01 2079 b396 7bdb f11c 285c a71c
00000390: 9e77 c49c fcca 2f9d 3144 979d 1445 099e
000003a0: aa92 8d1e 8407 c21e 58dd ab1e 4de1 ec9d
000003b0: a7df 861e b607 361e 6248 4f9e f9c2 9e9e
000003c0: 9a29 199e 9525 ea9d 92ca bd1d 37a9 129e
000003d0: 6d94 961c b2b7 3e1d bdd9 1d9d 7055 7d9d
000003e0: 98d4 121a 09d4 459d b6e6 211c 9c75 6300
000003f0: b808 e281 f2c7 7598 e899 409c 2833 689a

fc.bias f4 [256]
-7.551759e-13 -5.140215e-18 -0.14158134 -5.4229123e-24 -0.025231438 -2.4296327e-08 -0.032852393 -0.14667228
-2.4901774e-06 -4.415318e-05 -0.0013061584 -0.024323136 -0.00014166159 9.6906326e-05 -0.049447857 0.30853665
-0.01901502 -0.08429286 -0.00036177618 -1.16088465e-10 -1.5580218e-06 -0.058277197 -1.2980925e-08 -1.8185257e-20
-5.027874e-07 -0.022873627 -0.00012966494 -1.2403218e-12 0.014659341 -0.01516587 -0.33875665 -0.12175999
-3.8598424e-05 -0.0029700964 -1.8526763e-10 -3.742378e-12 -1.4304825e-08 -4.08949e-09 -3.0003702e-20 0.22705677
-8.9194465e-08 -1.7332494e-12 -2.2782724e-05 -2.5238405e-12 -5.551275e-05 -1.98826e-29 -1.7511602e-11 -0.0053627696
-4.7367905e-07 -1.0604155e-05 -0.012467614 -9.477826e-15 0.18015537 -0.039272062 -0.0035436056 -0.00011724201
-1.3288127e-20 -8.928447e-15 -0.011936041 -0.05754219 -3.6320693e-05 4.7298017e-05 -3.1075147e-22 -3.462382e-13
-6.5064356e-08 -6.9384573e-15 -0.00024105908 0.3493741 -2.1734016e-11 -0.063047685 -4.0847885e-06 -0.21158199
-3.6285032e-15 -0.041599683 -2.2957707e-30 -9.030921e-17 -2.9551284e-10 -6.58061e-24 -0.0029239743 -0.064183824
-1.4258268e-05 -0.14888915 -0.00032365316 0.03844445 -3.3889634e-13 -0.16146985 -4.795628e-16 -1.3168359e-25
-4.75617e-24 -2.8967419e-12 -1.5573261e-07 0.03585443 -8.9777796e-11 -8.136345e-14 -2.2539794e-08 -0.0020528834
-0.1458612 0.0022908885 -0.03654935 -2.158081e-09 -0.0024511765 -0.059215087 -1.8363873e-05 -1.1742665e-10
-5.0700594e-12 -0.03539187 -0.0011953422 -0.0119650485 -1.2307312e-09 -5.1342607e-14 -0.018992985 -0.10032348
-0.0006123769 -0.00832159 -0.0016193745 -0.085371844 -0.01619686 -3.993266e-15 -0.00044178113 -3.9939867e-11
-1.5008491e-11 -0.00054583966 -1.06022014e-19 -3.844478e-06 -4.661826e-11 -2.8854029e-05 -1.6047221e-05 -1.6659794e-15
-2.771819e-05 0.25964653 -0.049763557 -1.492081e-20 -1.9335831e-26 -4.094135e-08 -2.0334912e-12 -0.014258077
-0.10269771 -5.813494e-19 -0.0059303083 -5.773106e-09 -2.4279643e-07 -0.0007096749 -0.02611962 -0.038019985
-3.0023952e-09 -3.912256e-18 -2.5531526e-06 -0.018079232 -0.007782132 -5.4785058e-05 -1.8635127e-19 -1.17091115e-20
-4.80033e-13 -2.3895177e-06 -4.461701e-14 -0.2349515 -2.153862e-23 -8.5597485e-06 -4.8079075e-12 -0.11755428
-6.958533e-05 -0.00011619586 -0.025481353 -2.667177e-16 -1.1573561e-09 -1.37201296e-14 -6.567939e-08 -0.34658855
-1.2595715e-05 -4.0953167e-16 -7.371816e-05 0.43424106 -0.0153653 -0.00652917 -0.14084609 -9.890535e-21
-1.3875e-22 -8.85201e-05 -0.2297226 -0.0037857094 -2.25138e-10 -5.209269e-13 -6.766485e-11 -0.059050307
-0.00011633006 -0.009560577 -0.076898344 -0.0008643431 -1.7359765e-29 -0.0038608655 -6.270959e-25 -2.5291984e-06
-7.36162e-07 2.3709144e-05 0.24029996 -2.8411405e-12 -8.3763364e-11 -6.4724166e-18 -1.04515775e-05 -0.0924559
-0.20821479 -2.2308115e-11 -0.18586938 0.53649914 -0.00028466966 -1.3527313e-12 -6.775861e-16 -8.862682e-06
-3.9156783e-21 -0.0028126684 -6.790403e-10 -0.088049 -1.05623094e-07 -0.06458757 -5.0911082e-23 -1.0096917e-12
-1.8438619e-17 -4.0805684e-21 -7.441246e-12 -0.0020088851 -2.9003587e-07 0.24331044 -1.3252907e-12 -1.57027e-07
-1.1668739e-20 -3.008455e-07 -0.0007555131 -6.663253e-06 -1.3924907e-21 0.24414288 -0.00026463773 -1.2851634e-05
-6.4259606e-05 -0.029923715 -0.03163768 -0.0018358643 -4.5631867e-09 -0.10737083 -0.00010595749 -7.8855346e-17
-4.7725743e-11 -4.748642e-14 -1.6912304e-18 -0.0006940575 -0.0022166863 -4.3508444e-15 -5.1533185e-08 0.51963395
-4.1246748e-13 -5.7901422e-12 -0.16071382 -3.5301223e-17 -4.7049254e-24 -6.788545e-14 -3.2210444e-14 -9.264132e-05
00000000: 2990 54ab f5a3 bda2 b3fa 10be ecc9 d198
00000010: 29b2 cebc 30b4 d0b2 3b90 06bd 4231 16be
00000020: ec1c 27b6 1e31 39b8 6733 abba 5041 c7bc
00000030: fe8a 14b9 303a cb38 d689 4abd 84f8 9d3e
00000040: 63c5 9bbc bca1 acbd c7ac bdb9 ff47 ffae
00000050: 391d d1b5 12b4 6ebd b602 5fb2 41c1 ab9e
00000060: 49f7 06b5 7961 bbbc abf6 07b9 4d8f aeab
00000070: bc2d 703c 457a 78bc 8371 adbe 4d5d f9bd
00000080: bee4 21b8 f3a5 42bb 34b4 4baf 58ac 83ac
00000090: 49c1 75b2 8983 8cb1 40b0 0d9f 9281 683e
000000a0: 2d8b bfb3 e4ee f3ab 871d bfb7 7899 31ac
000000b0: 5dd6 68b8 2ea2 c98f 9f08 9aad 2cba afbb
000000c0: f44d feb4 80e8 31b7 f744 4cbc c2bc 2aa8
000000d0: a67a 383e bedb 20bd d63b 68bb d3df f5b8
000000e0: 7001 7b9e 32d7 20a8 628f 43bc 5cb1 6bbd
000000f0: 0c57 18b8 dc61 4638 76d6 bb9b 2fea c2aa
00000100: 82b9 8bb3 f9fb f9a7 cec4 7cb9 29e1 b23e
00000110: a72c bfad 251f 81bd 1110 89b6 f3a8 58be
00000120: 09bb 82a7 6e64 2abd 4b41 3a8e 263d d0a4
00000130: bc75 a2af 3493 fe98 26a0 3fbb cf72 83bd
00000140: cb36 6fb7 6676 18be feaf a9b9 ed77 1d3d
00000150: 1cc8 beaa 5a58 25be 7d39 0aa6 3204 2396
00000160: d4fe b798 10d7 4bac 7437 27b4 18dc 123d
00000170: 686c c5ae d636 b7a9 889d c1b2 ab89 06bb
00000180: a35c 15be bb22 163b c5b4 15bd 5d4d 14b1
00000190: eba3 20bb 858b 72bd 1e0c 9ab7 aa1c 01af
000001a0: 0963 b2ac 11f7 10bd 07ad 9cba 0d09 44bc
000001b0: 8126 a9b0 ff39 67a9 2d97 9bbc 6676 cdbd
000001c0: eb87 20ba 4757 08bc 3141 d4ba 6fd7 aebd
000001d0: 47af 84bc 61df 8fa7 dc9e e7b9 4ba8 2fae
000001e0: 1e04 84ad ae16 0fba 6056 fa9f d1ff 80b6
000001f0: 7f07 4dae 8e0b f2b7 259d 86b7 cb17 f0a6
00000200: 5c84 e8b7 64f0 843e dfd4 4bbd 4eec 8c9e
00000210: 287e bf94 7ed7 2fb3 1f18 0fac b69a 69bc
00000220: 2d53 d2bd 8595 2ba1 0853 c2bb c75c c6b1
00000230: b059 82b4 7a09 3aba d0f8 d5bc d8ba 1bbd
00000240: b252 4eb1 3756 90a2 d456 2bb6 e61a 94bc
00000250: 4101 ffbb 02c9 65b8 3701 5ca0 ca2d 5d9e
00000260: 061e 07ab 9a5b 20b6 e9ef 48a9 2097 70be
00000270: 0a4f d099 d79b 0fb7 c829 a9ac 4cc0 f0bd
00000280: 57ee 91b8 2dae f3b8 45be d0bc 96c0 99a5
00000290: d910 9fb0 ee28 77a8 a00b 8db3 0e74 b1be
000002a0: 2f52 53b7 3514 eca5 2399 9ab8 d854 de3e
000002b0: bdbe 7bbc a6f2 d5bb f539 10be b1d3 3a9e
000002c0: 0cbd 279b dea3 b9b8 673c 6bbe aa19 78bb
000002d0: b78a 77af bda0 12ab edcb 94ae bcde 71bd
000002e0: 3af6 f3b8 f7a3 1cbc e17c 9dbd 1595 62ba
000002f0: 870c b08f 9306 7dbb a813 4297 4cbb 29b6
00000300: ab9c 45b5 00e3 c637 3111 763e 70ed 47ac
00000310: 9532 b8ae 3fca eea2 2f59 2fb7 8559 bdbd
00000320: 4236 55be 6939 c4ad 8b54 3ebe 0258 093f
00000330: b73f 95b9 4861 beab 084d 43a6 eeb0 14b7
00000340: 1eee 939d bf54 38bb 37a7 3ab0 0953 b4bd
00000350: e9d2 e2b3 7d46 84bd de30 769a fa19 8eab
00000360: f510 aaa3 d628 9a9d 65e8 02ad 80a7 03bb
00000370: 3ab6 9bb4 5f26 793e a184 baab 419b 28b4
00000380: 8f6a 5c9e e483 a1b4 a00d 46ba e894 dfb6
00000390: 606d d29c 9700 7a3e 13bf 8ab9 599d 57b7
000003a0: 1dc3 86b8 9422 f5bc 8396 01bd 62a1 f0ba
000003b0: 37ca 9cb1 3de5 dbbd 7f35 deb8 fbd3 b5a4
000003c0: 69e6 51ae 1ddc 55a9 e194 f9a1 69f1 35ba
000003d0: d345 11bb 75c1 9ca7 5655 5db3 bb06 053f
000003e0: d432 e8aa f7b8 cbac 2a92 24be 54cc 22a4
000003f0: 5303 b698 4cdd 98a9 1d10 11a9 6e48 c2b8

fc1.weight f4 [128, 256]
3.0562587e-05 -1.938901e-13 0.32829002 2.9192918e-10 0.03584568 1.63416e-07 0.052644473 0.092601396
-1.1515805e-06 0.008144014 -1.4005191e-05 0.02184043 0.0009069099 2.0845244e-08 -0.07516305 -0.56395125
-8.96467e-05 -0.14860027 1.2015338e-06 8.628175e-06 0.05382445 0.0112924 -2.9754905e-05 0.0004171655
2.3316526e-05 0.018993812 0.009481201 -3.4438067e-08 0.027439596 0.016977843 -0.15206032 0.12923872
-0.009400017 0.0045059156 -0.00057517044 7.501436e-07 -1.4803961e-16 -5.1687734e-05 7.6991297e-10 -0.32035124
0.002703774 6.6727036e-05 -6.294429e-06 -1.0438085e-06 -6.809781e-06 -2.782947e-39 -0.00014626536 0.0021552707
-0.0015704334 0.003229811 -0.0483106 1.738807e-11 0.26416403 0.022643013 0.06832172 0.00015095496
3.5515822e-31 -1.3041273e-07 -0.0009296541 0.04453848 -0.01864113 6.780235e-05 1.07974145e-23 -1.36241415e-05
0.00031507693 -3.022416e-07 1.5348287e-11 -0.19950978 -2.4467472e-05 -0.080549195 -0.00075611804 -0.08294281
-1.43809575e-05 -0.039214432 2.9698e-39 1.9335284e-05 -0.0004301461 -1.0938454e-36 -0.010827744 0.044274844
1.03428665e-05 -0.00032785838 0.009817323 -0.39809045 -0.00014214472 0.14645039 5.3570864e-07 6.5387633e-09
2.9185886e-16 0.050267555 0.00077652535 -0.22961424 2.359069e-11 -2.1774963e-13 -0.00082157657 -0.04260077
-0.0079702195 -0.006479441 0.16571592 1.7812799e-13 0.00063543033 0.018406207 -0.00024584803 3.8572234e-06
0.0013148477 0.038228612 0.036906406 -0.004520787 0.023331948 -5.409324e-15 0.09774279 -0.009438932
0.026094375 0.03775776 0.09747947 0.26123676 0.034814727 2.757806e-12 0.00974273 0.0006533269
-0.00029301722 -1.4805791e-10 8.7945045e-06 0.0073117013 -0.0038685186 -0.011976542 -0.007543691 -6.4517974e-10
0.007929947 -0.2819782 -0.005347159 0.00016030844 -9.696729e-15 -0.0007971337 3.062774e-07 -0.0034532417
0.022084992 1.6989379e-13 0.1303142 0.0017957106 0.009315836 0.0001408435 0.03699999 0.006417363
-0.0020043277 2.7265867e-09 -0.0009252687 0.061752096 -0.0005528164 -0.00016393843 -1.1635241e-15 -1.1632561e-08
3.610895e-15 -0.00012361308 0.0014324737 -0.33932555 6.3659645e-06 4.8897336e-06 0.0068367445 0.12642631
-0.027400808 -1.4034201e-07 -0.0053473036 -5.8979654e-21 1.9206436e-20 -1.2439197e-10 0.0014763642 -0.09438956
-3.361539e-07 -3.8502947e-08 -0.0028412503 0.07923872 -0.044181827 -0.04516913 0.09721375 -2.9915855e-18
3.1339667e-08 0.000499118 0.25109574 -0.0019611309 -9.496798e-05 -1.6611983e-10 2.4536553e-06 -0.062686324
-0.031653266 -0.0030338462 0.035747267 -0.06832601 7.99228e-40 -3.2255637e-05 -7.7634933e-35 0.00021436966
0.009289298 -0.061629977 -0.38334703 0.0018525036 2.9243743e-05 3.0563154e-08 4.271325e-06 -0.15115808
0.19550845 2.6733618e-10 0.0010823654 0.004443647 -0.05214428 3.2275899e-21 -2.6087617e-09 -1.7251757e-06
3.3055139e-09 0.00082723296 5.8094518e-08 -0.019525077 0.0012770597 -0.033990785 8.7556095e-05 8.7494647e-07
0.0007956305 2.6862563e-05 2.9912752e-12 -0.00088752614 -0.0013401099 -0.34895217 -7.090818e-21 3.8231698e-07
-3.6162671e-28 0.001441077 0.022508357 1.0557364e-05 5.0406703e-07 -0.26470304 -8.734848e-09 2.0924842e-06
-0.011911845 0.03938669 -0.08583756 0.078625455 -0.00022168564 0.04170752 0.0131565165 -1.0061083e-06
-1.9913023e-06 1.1661058e-05 5.358041e-07 -3.2325326e-07 0.0006145703 8.111774e-06 -0.004214585 -0.16821927
-2.8854595e-07 -0.0009220649 0.5179674 0.0009198148 -1.9866506e-12 1.2223742e-06 3.576031e-07 -0.0020452356
00000000: 5430 0038 044d 5aaa a115 a83e 617d a02f
00000010: ebd2 123d 7377 2f34 bba1 573d cda5 bd3d
00000020: 0190 9ab5 786e 053c d6f7 6ab7 b4ea b23c
00000030: b1bd 6d3a 2d0f b332 16ef 99bd 1c5f 10bf
00000040: b500 bcb8 ab2a 18be 6344 a135 bbc1 1037
00000050: 0777 5c3d c203 393c 2c9a f9b7 01b7 da39
00000060: dc97 c337 e998 9b3c 0a57 1b3c 0ee9 13b3
00000070: 01c9 e03c 1e15 8b3c b3b5 1bbe 2857 043e
00000080: 8702 1abc 5ca6 933b 09c7 16ba 7a5d 4935
00000090: 95ad 2aa5 48cb 58b8 cfa1 5330 1405 a4be
000000a0: cd31 313b ceef 8b38 bc34 d3b6 fd18 8cb5
000000b0: 937f e4b6 b94d 1e80 cf5e 19b9 713f 0d3b
000000c0: 00d7 cdba 3dab 533b 56e1 45bd 74f2 982d
000000d0: 8240 873e d77d b93c 42ec 8b3d aa49 1e39
000000e0: c882 e60c 9407 0cb4 08b4 73ba fb6d 363d
000000f0: 48b5 98bc 1c31 8e38 35da 5019 3e93 64b7
00000100: e930 a539 c543 a2b4 4501 872d 4b4c 4cbe
00000110: 7f3f cdb7 faf6 a4bd 3936 46ba ecdd a9bd
00000120: be45 71b7 509f 20bd 9856 2000 3532 a237
00000130: 3b85 e1b9 b01b ba83 da66 31bc 8a59 353d
00000140: 4686 2d37 68e4 abb9 d6d8 203c 83d2 cbbe
00000150: af0c 15b9 17f7 153e 9ecd 0f35 92ab e031
00000160: c43e a825 5ae5 4d3d bc8f 4b3a ff1f 6bbe
00000170: 8381 cf2d 0f2a 75aa 125f 57ba 257e 2ebd
00000180: 8695 02bc 7e51 d4bb 6fb1 293e e68d 482a
00000190: 0293 263a 9dc8 963c 2ae5 80b9 4c6d 8136
000001a0: f856 ac3a 9b95 1c3d 2c2b 173d 1c23 94bb
000001b0: a422 bf3c 35e4 c2a7 5f2d c83d c0a5 1abc
000001c0: dfc3 d53c e2a7 1a3d 51a3 c73d d3c0 853e
000001d0: e399 0e3d 3710 422c f99f 1f3c 0744 2b3a
000001e0: 1ba0 99b9 99ca 22af 1c8c 1337 ff96 ef3b
000001f0: f986 7dbb 4239 44bc 1131 f7bb 7d58 31b0
00000200: 9cec 013c 725f 90be 3937 afbb 7818 2839
00000210: 45ae 2ea8 bdf6 50ba 726e a434 c84f 62bb
00000220: 96eb b43c 8d48 3f2a 1671 053e 0d5e eb3a
00000230: 73a1 183c 64af 1339 4d8d 173d be48 d23b
00000240: 0a5b 03bb 9f5e 3b31 bb8d 72ba c4ef 7c3d
00000250: e1ea 10ba e3e6 2bb9 76ae a7a6 8bd8 47b2
00000260: a118 8227 229e 01b9 d7c1 bb3a 14bc adbe
00000270: 389b d536 7e12 a436 c506 e03b e675 013e
00000280: a977 e0bc ebb0 16b4 6f38 afbb 9fd1 de9d
00000290: 5066 b51e 3ac5 08af 9082 c13a 504f c1bd
000002a0: a478 b4b4 705e 25b3 4534 3abb e947 a23d
000002b0: 01f8 34bd 4403 39bd 0118 c73d 74bd 5ca2
000002c0: 549a 0633 3ed7 023a 9f8f 803e 5186 00bb
000002d0: 8c29 c7b8 93a6 36af 7aa9 2436 b061 80bd
000002e0: dba6 01bd 7ed3 46bb ba6b 123d 82ee 8bbd
000002f0: ecb3 0800 3a4a 07b8 9963 ce86 6bc8 6039
00000300: 2432 183c b76f 7cbd 1046 c4be b5cf f23a
00000310: 7650 f537 8b44 0333 6752 8f36 2fc9 1abe
00000320: 5e33 483e 39f8 922f 28de 8d3a 039c 913b
00000330: 3e95 55bd abde 731d d245 33b1 968c e7b5
00000340: 3727 6331 aada 583a 9983 7933 0ef3 9fbc
00000350: 0363 a73a ec39 0bbd 529e b738 dddd 6a35
00000360: dc91 503a ea56 e137 067e 522c dfa8 68ba
00000370: a0a6 afba dca9 b2be 18f1 059e 3f41 cd34
00000380: 4a35 e591 85e2 bc3a 7263 b83c 881f 3137
00000390: 394f 0735 2887 87be 4510 16b2 9b6c 0c36
000003a0: e629 43bc f053 213d 9acb afbd 6206 a13d
000003b0: 4974 68b9 81d5 2a3d 6e8e 573c 9e09 87b5
000003c0: 50a2 05b6 dda3 4337 2dd4 0f35 978b adb4
000003d0: 1d1b 213a ce17 0837 801a 8abb ac41 2cbe
000003e0: 74e9 9ab4 bab6 71ba 8399 043f ba1f 713a
000003f0: 51cc 0bac 7510 a435 99fc bf34 5c09 06bb

fc1.bias f4 [128]
0.361421 -2.0486096e-23 -4.7380557e-13 0.4564729 -0.15809767 0.62292933 -1.4697229e-05 -4.43075e-09
-2.4104862e-08 -0.26693654 -0.03566523 -3.9206174e-10 -4.1046107e-15 -1.0820147e-09 0.11291194 0.060902204
-0.002073485 -1.150965e-13 -7.0153135e-17 -3.2547105e-14 0.26744512 -4.0699283e-07 -0.0001433026 -4.4550535e-12
0.35798332 -1.7514717e-06 -0.0261161 -0.0006613628 -0.0033664636 0.008598493 -0.00035351695 0.7498793
0.80160594 -1.1740239e-08 -0.00015232258 0.0042287344 -1.8124808e-08 -7.3373333e-13 -0.005243811 -7.0115064e-12
0.85407907 -2.0121649e-14 -0.00095046713 -1.0090229e-12 -1.1930505e-08 -1.7344222e-15 1.1039609 -2.620111e-07
-1.0160084 -8.2763643e-14 -0.26096576 -6.0482192e-12 -0.27793065 -6.3805904e-18 -7.734114e-17 -6.905127e-14
-6.937166e-20 -0.064649284 -0.004009173 -2.6322396e-15 -0.037859023 -6.6168264e-05 0.99617 -8.2030834e-13
0.022226198 -4.6559915e-08 -2.5175786e-14 -0.0027993133 -0.035985563 -0.0006600038 -8.5022445e-10 -0.0002507857
-1.8322403e-11 -0.071355656 -0.18767363 0.66082656 -1.0711771e-08 -0.024511158 -7.448343e-10 -0.010176347
0.34787658 -0.04535986 -3.9379455e-09 -1.9911456e-06 -1.5075008e-14 -0.03203967 -0.0010974254 -6.7031746e-05
-3.153043e-05 -7.0137908e-06 -9.580351e-14 -1.5105191e-10 0.14374626 -5.0554104e-07 -0.11198673 -8.2673576e-11
-7.7228503e-07 -0.00013616127 -0.00051471434 -4.1529153e-13 -1.5803806e-08 -1.3762416e-15 -2.9862182e-08 -0.15610187
-4.0678482e-05 0.726949 0.3427667 0.40559253 -0.0018829431 -0.0010882557 -0.00019860304 -9.73806e-15
-0.0007414602 -0.0003224542 -0.0001993886 -0.928181 -0.24753073 -2.2354713e-07 -2.5447797e-09 -0.06674065
0.14327563 -1.3040487e-07 -0.0003454132 -0.2918021 0.5621713 -0.12888996 -7.771119e-12 -0.26898664
00000000: 2c0c b93e 1e21 c699 4a5d 05ab d1b6 e93e
00000010: 5be4 21be 4c78 1f3f 1e94 76b7 4a3d 98b1
00000020: 270f cfb2 e8ab 88be b415 12bd c989 d7af
00000030: 5ae2 93a7 02b6 94b0 603e e73d 9774 793d
00000040: 4ee3 07bb 4f96 01aa 1ac3 a1a4 4294 12a9
00000050: 91ee 883e ab80 dab4 8043 16b9 8ebf 9cac
00000060: 9749 b73e 1c14 ebb5 6ef1 d5bc 4e5f 2dba
00000070: e39f 5cbb b2e0 0c3c 3e58 b9b9 17f8 3f3f
00000080: 0c36 4d3f 1eb2 49b2 c8b8 1fb9 3291 8a3b
00000090: e0b0 9bb2 0f87 4eab 46d4 abbb 09b2 f6ac
000000a0: eda4 5a3f 5d3d b5a8 c528 79ba e201 8eab
000000b0: eaf6 4cb2 e3f4 f9a6 974e 8d3f 88aa 8cb4
000000c0: 900c 82bf fe5d baa9 4e9d 85be 84cd d4ac
000000d0: ed4c 8ebe f966 eba2 2756 b2a4 597d 9ba9
000000e0: 98cc a39f d866 84bd 615f 83bb 40ac 3da7
000000f0: 1012 1bbd d1c3 8ab8 ff04 7f3f 72e5 66ab
00000100: b713 b63c 2bf9 47b3 69c3 e2a8 af74 37bb
00000110: 9965 13bd 1b04 2dba 3ab5 69b0 e37b 83b9
00000120: 622a a1ad ea22 92bd 842d 40be ee2b 293f
00000130: de06 38b2 a0cb c8bc 0ebd 4cb0 b1ba 26bc
00000140: e11c b23e 43cb 39bd 894e 87b1 9f9f 05b6
00000150: 9ac8 87a8 073c 03bd 7cd7 8fba 6593 8cb8
00000160: 8b3f 04b8 0158 ebb6 f7ba d7a9 5515 26af
00000170: 3832 133e 84b4 07b5 4c59 e5bd 16cd b5ae
00000180: 064f 4fb5 83c6 0eb9 e5ed 06ba d1c9 e9aa
00000190: f0c0 87b2 5a56 c6a6 d141 00b3 2bd9 1fbe
000001a0: 309e 2ab8 5419 3a3f 1e7f af3e d3a9 cf3e
000001b0: 16cd f6ba cda3 8eba 1940 50b9 e06c 2fa8
000001c0: 8d5e 42ba 120f a9b9 f812 51b9 459d 6dbf
000001d0: b278 7dbe 2b08 70b4 3de0 2eb1 52af 88bd
000001e0: d9b6 123e 6b05 0cb4 9318 b5b9 1667 95be
000001f0: 75ea 0f3f bbfb 03be 02b6 08ad 9eb8 89be

fc2.weight f4 [64, 128]
0.0043172073 -8.7168836e-38 -1.0735207e-16 -0.003238656 0.00029099482 -0.04823752 -4.05066e-40 -7.352345e-31
5.8724063e-38 -0.0010811054 0.0033813263 -1.113011e-39 5.630371e-38 -3.529633e-39 -0.0015246925 -0.027622333
-2.2478054e-17 -2.9965224e-34 5.5003644e-38 1.207017e-39 0.0031998237 4.1939134e-15 -6.113684e-13 3.7076676e-38
-0.0032627673 -2.436241e-39 1.3745348e-38 -4.716351e-06 -1.1258278e-12 1.237879e-39 -9.50755e-33 -0.0015483791
2.6314417e-05 8.45785e-40 -6.932978e-20 -2.8246042e-05 7.69369e-17 1.21816e-39 6.941e-40 7.27078e-40
0.00021797452 -1.8171591e-32 1.490071e-39 2.5734465e-38 -2.63981e-40 2.98058e-39 -0.0028688076 -3.1937166e-20
0.00024051986 -9.9901845e-37 -9.69856e-07 2.604379e-39 0.00088644435 -1.1851978e-34 6.076103e-35 1.244549e-39
2.666871e-39 0.0001540947 2.1871334e-33 -6.4857e-40 0.0018059667 3.504538e-17 0.00353782 -4.88662e-40
-0.0002011149 4.5555e-40 -1.6126602e-18 -2.519378e-39 -1.537817e-39 -2.715094e-06 -3.8698012e-38 -9.538385e-16
-5.3492096e-13 -0.0005517286 -0.024908401 -0.02397106 3.6496073e-32 5.201356e-17 1.0368277e-31 -6.83252e-40
-0.028765261 7.326623e-09 2.0791422e-37 -3.529769e-39 -1.736548e-39 -2.1264521e-05 -2.7842136e-25 -4.058727e-38
-3.4334693e-38 2.98226e-40 -3.470338e-39 3.250053e-39 -0.017908825 2.310801e-39 -0.03970711 -8.2683217e-35
1.720874e-39 1.324114e-39 4.1026222e-19 7.512396e-38 -7.607352e-39 -5.68182e-38 2.4500478e-33 0.00030397426
-8.3611555e-17 0.0012278532 -0.07550377 -0.03614372 -1.371547e-37 -5.617177e-06 5.7049654e-37 1.495366e-39
-4.2249456e-13 1.0912506e-37 -1.9300763e-16 0.00043536286 -2.994138e-39 -5.39377e-40 -2.4120085e-24 -2.3489577e-08
-0.06369763 1.300957e-39 -5.673859e-18 0.00061722053 0.0045038774 -0.00020791974 3.261957e-39 -2.4651113e-06
1.6520086e-12 -2.8113175e-38 3.9021454e-38 1.1062607e-13 3.0523302e-38 -3.983466e-07 -1.435281e-39 3.643785e-39
-3.078092e-39 -8.366707e-08 -2.6462057e-13 2.36217e-39 -1.6400324e-37 5.400657e-38 -1.3531188e-12 -0.002601605
-1.2477748e-37 7.620667e-38 1.503682e-39 -1.22247e-38 3.076097e-12 -3.344748e-38 8.932375e-14 -1.6010541e-38
-0.0022738134 -8.177485e-16 -8.812688e-39 1.1376242e-25 4.6345793e-15 -9.010387e-38 4.3969472e-38 -1.5343835e-09
4.3024924e-12 -6.1241816e-38 3.2527435e-28 -4.9423674e-16 6.863257e-27 -2.5045335e-38 1.473042e-39 -1.241235e-39
-1.0488627e-07 3.229518e-39 2.1312186e-38 -1.5372561e-37 1.1275118e-37 3.098373e-39 -5.9304512e-09 -7.6040284e-38
1.185819e-12 -2.2275024e-38 -7.418933e-13 -8.374681e-38 -1.6880011e-13 -6.65454e-40 2.1226432e-38 5.5907134e-38
6.5543247e-38 -3.018624e-39 4.47957e-40 1.14615e-39 -0.0032371024 -8.275472e-25 -1.7267203e-12 9.74377e-40
-0.00050813047 1.176397e-39 2.308743e-39 3.031697e-39 -2.572578e-39 -9.707783e-34 -1.077062e-39 -4.8773342e-23
-9.870109e-38 -5.4986636e-13 -9.578759e-06 1.6097347e-12 2.582297e-38 7.34167e-40 -1.402979e-39 3.278727e-39
-0.0047494923 5.027299e-38 3.381354e-39 -1.0044339e-25 -1.777809e-39 -6.333102e-26 9.164914e-33 2.5130192e-38
-4.685246e-38 2.4027678e-38 -3.36227e-39 -7.06055e-40 -4.59592e-07 -1.2733915e-37 -0.0015965467 3.287565e-38
2.2720842e-21 3.0492308e-23 7.594673e-26 1.24475e-40 -2.7547846e-38 1.1222302e-37 7.77574e-40 -5.6540635e-27
2.2466807e-23 -0.0022010985 -2.1483352e-06 -2.4513522e-08 2.1146715e-37 4.2340628e-16 1.0331073e-37 2.1939034e-38
1.935569e-30 6.00508e-23 3.508273e-24 1.2346469e-13 -1.326054e-39 -4.591142e-38 -1.1075134e-38 5.8014064e-25
-0.0002755873 1.6548296e-14 -4.409288e-26 -1.2058292e-13 -2.1302881e-12 -0.00012464453 -1.2172036e-37 1.9271524e-18
00000000: 5c77 8d3b d04b ed81 7a89 f7a4 a23f 54bb
00000010: aa90 9839 b594 45bd 2969 0480 e498 6e8d
00000020: b3dc 9f01 e1b3 8dba 3e99 5d3b 9f1e 0c80
00000030: f645 9901 2e6f 2680 31d8 c7ba 3b48 e2bc
00000040: ce52 cfa3 3027 c787 f2bb 9501 ac24 0d00
00000050: 22b4 513b 061a 9727 bc15 2cab 58dd 4901
00000060: 27d4 55bb 4087 1a80 70ac 9500 2641 9eb6
00000070: 3972 9eab b47a 0d00 ce76 458a fbf2 caba
00000080: c8bd dc37 b435 0900 48b3 a39f eaf1 ecb7
00000090: 8867 b124 bc43 0d00 de8e 0700 ccea 0700
000000a0: 1790 6439 60b4 bc8a b639 1000 9c1c 0c01
000000b0: dfdf 0280 a574 2000 9b02 3cbb aad1 169f
000000c0: 0f34 7c39 64f9 a983 002c 82b5 f35b 1c00
000000d0: 4660 683a 318a 1d87 d087 a106 4c8d 0d00
000000e0: 270a 1d00 7b94 2139 2fb3 3509 f30f 0780
000000f0: 30b6 ec3a 489e 2124 c5da 673b 3152 0580
00000100: 5fe2 52b9 e3f5 0400 94fc eda1 006f 1b80
00000110: cfbe 1080 f634 36b6 28b1 5281 6e76 89a6
00000120: 1e91 16ab e1a1 10ba b40c ccbc f55e c4bc
00000130: 9a7f 3d0b c6de 6f24 8396 060c a170 0780
00000140: 20a5 ebbc a8bd fb31 c47f 8d02 8f6f 2680
00000150: cae8 1280 3661 b2b7 a055 ac96 66fa 5c81
00000160: 94ef 3a81 553f 0300 e4c9 2580 d363 2300
00000170: 87b5 92bc 9329 1900 eca3 22bd 48cf db86
00000180: 19bd 1200 176b 0e00 132d f220 c281 cc01
00000190: 34d6 5280 82ac 9a81 c18a 4b09 bc5e 9f39
000001a0: 8dcb c0a4 ebef a03a b8a1 9abd 700b 14bd
000001b0: 70af 3a82 2f7b bcb6 4221 4203 7948 1000
000001c0: e2d7 edaa 8988 1402 cc85 5ea5 6a41 e439
000001d0: 709a 2080 90df 0580 c09e 3a98 20c6 c9b2
000001e0: e773 82bd 8a2a 0e00 1554 d1a2 f8cc 213a
000001f0: 4395 933b 0805 5ab9 0285 2300 4a6e 25b6
00000200: e27f e82b 0c10 1981 f873 5401 961b f929
00000210: 462f 2601 57dc d5b4 fba0 0f80 64ad 2700
00000220: 7884 2180 75ac b3b3 d8f7 94aa c5b8 1900
00000230: ca3a 5f82 1605 9301 3e6f beab b07f 2abb
00000240: 9bd6 2982 4c74 cf01 a75f 1000 7d1d 8580
00000250: 0a76 582c fc1a 3681 a323 c929 e056 ae80
00000260: 4204 15bb 30b3 6ba6 30f6 5f80 c0d4 0c16
00000270: 73fa a627 3c49 f581 8064 6f01 52e2 d2b0
00000280: 6861 972c 51b7 a681 c82a ce11 3c74 0ea6
00000290: d9f0 0714 1a5c 0881 3e0a 1000 0f84 0d80
000002a0: d63d e1b3 952a 2300 b411 e800 8f3d 5182
000002b0: 0d78 1902 01bd 2100 cdc4 cbb1 5800 cf81
000002c0: a2e3 a62b b48d f280 0cd3 50ab 02fb e381
000002d0: 520d 3eaa 043f 0780 a822 e700 9631 9801
000002e0: fa6c b201 b2de 2080 b9e0 0400 007b 0c00
000002f0: 9125 54bb 860e 8097 a803 f3ab 2b9c 0a00
00000300: 0f34 05ba 51cf 0c00 d623 1900 2303 2100
00000310: 4d03 1c80 584c a188 69ba 0b80 79da 6b9a
00000320: 4f58 0682 0cc6 1aab 75b4 20b7 ce8c e22b
00000330: f897 0c01 8ffe 0700 ef46 0f80 c2b3 2300
00000340: a1a1 9bbb 29db 8801 d7d1 2400 90af f895
00000350: cf5b 1380 cecc 9c95 0b59 3e0a 60d2 0801
00000360: cc16 7f81 b2d1 0201 a49c 2480 32b0 0780
00000370: d8bd f6b4 3853 2d82 3843 d1ba f8fd 3201
00000380: 80ac 2b1d a673 131a f508 bc15 fc5a 0100
00000390: 18fc 1581 04c0 1802 8f77 0800 04fb df93
000003a0: 1f49 d919 4e40 10bb 1e2c 10b6 ce91 d2b2
000003b0: c6ea 8f02 bd13 f425 899e 0c02 1ae5 ee00
000003c0: 3208 1d0e a531 911a 41b8 8718 4602 0b2a
000003d0: 8070 0e80 2ef7 7981 f898 7880 7a8b 3317
000003e0: b47c 90b9 c60d 9528 5e56 5a95 a9c3 07aa
000003f0: dce7 15ac 03b3 02b9 5bad 2582 e132 0e22

fc2.bias f4 [64]
-0.045643058 -0.0005666186 0.6453221 -0.026649851 0.90656984 0.7356713 -0.003298622 -1.897678e-15
2.4252982e-21 -1.3429155e-06 -8.063803e-11 -3.694322e-16 -0.00079816254 0.5648189 -0.028242385 -4.3947953e-11
0.38728067 -5.8886098e-08 -3.1731806e-13 -0.00011770365 -6.499028e-20 0.93671006 -0.028535603 -2.9584432e-12
-8.388475e-07 -2.532925e-08 -6.164767e-12 -0.00536098 -5.797451e-07 -0.12592308 -2.1960865e-22 -5.349852e-12
0.8854074 -0.0020690775 -2.2263744e-09 -0.017556606 -9.836569e-19 -1.6323662e-16 -1.063772e-26 -8.7989775e-08
-8.407721e-19 1.1242719 0.5815992 -1.1699106e-11 -7.388255e-09 -0.0020403615 -4.998501e-11 -2.6556824e-11
0.7305046 -0.0015251017 -1.2945555e-23 -8.742362e-10 -8.536288e-06 -2.1767096e-13 -1.6057571e-09 -1.00561575e-19
-4.8929568e-08 -0.001965329 -0.00023295011 -0.009539918 -0.0013372796 -9.41405e-19 -0.110124834 -2.130566e-10
00000000: 37f4 3abd 2189 14ba d433 253f ca50 dabc
00000010: f614 683f f454 3c3f b22d 58bb fbbd 08a7
00000020: 1740 371d 3a3e b4b5 2d53 b1ae 92f6 d4a5
00000030: c83b 51ba f997 103f 935c e7bc ff48 41ae
00000040: a749 c63e f3e9 7cb3 5aa2 b2aa aad7 f6b8
00000050: 3774 999f 3bcc 6f3f 7fc3 e9bc 932e 50ac
00000060: 292d 61b5 9c93 d9b2 49e7 d8ac 29ab afbb
00000070: c89f 1bb5 fbf1 00be cbbe 849b 2f3b bcac
00000080: 0faa 623f 5c99 07bb cbfe 18b1 dfd2 8fbc
00000090: 8229 91a1 f232 3ca5 a6b3 5294 e4f4 bcb3
000000a0: f226 78a1 24e8 8f3f afe3 143f 17d0 4dad
000000b0: c7db fdb1 96b7 05bb 1ed6 5bae a798 e9ad
000000c0: 5902 3b3f ece5 c7ba 4967 7a99 e74e 70b0
000000d0: 1437 0fb7 6213 75aa 8eb1 dcb0 be71 ed9f
000000e0: a126 52b3 c0cc 00bb 1244 74b9 514d 1cbc
000000f0: a847 afba 46ed 8aa1 2189 e1bd 1a42 6aaf

out.weight f4 [10, 64]
-0.005770078 -5.673346e-13 -0.059267327 0.00036252695 -0.07437781 -0.052803572 0.0017991939 5.5411505e-08
5.0346105e-15 1.0401781e-38 -4.4035847e-14 -7.855245e-17 4.4264943e-05 0.67915875 0.0049390397 3.434914e-10
-0.054732516 -0.0005168376 7.731905e-18 -7.4284623e-09 3.1368292e-34 -0.05676061 -0.0003146736 -6.6936915e-18
3.3321907e-09 1.5244354e-25 6.155656e-08 -3.1489114e-06 2.8780783e-05 -0.024742326 6.9600705e-12 2.7289874e-29
-0.06726763 -4.199405e-06 1.1735269e-12 -0.012877802 4.2666157e-31 -2.9580876e-08 1.9102649e-20 -5.4926026e-08
1.6123698e-37 -0.06588218 -0.06267231 1.3269439e-12 -3.83145e-13 5.4031766e-08 -2.246029e-39 -2.698296e-13
-0.063827045 -0.019041589 -3.17487e-40 1.113597e-09 -6.9827e-08 1.6338527e-13 -6.5784556e-10 -1.4138029e-17
0.00011561105 7.0203476e-10 -0.00043615288 -0.009093819 0.022682475 -2.01371e-40 -0.032595713 7.160429e-32
0.0139580835 -8.7008356e-10 -0.06993258 -3.2309876e-05 -0.05887796 -0.047856607 -9.176341e-05 1.9077225e-08
4.4335726e-21 -1.1228435e-26 -6.259931e-08 3.6374786e-05 -0.010902221 -0.04072345 7.6142214e-06 -5.0981526e-09
-0.03478664 -8.2853294e-05 -1.3668369e-31 -1.7791793e-07 -1.416015e-39 -0.042896744 -0.0009350377 3.4848324e-09
0.0004754371 2.0749409e-16 -1.2720552e-10 -0.034271415 -5.512105e-20 0.018300256 1.857016e-39 2.0597367e-13
-0.05309559 -0.00088610116 0.0012428168 -0.0034172297 6.4036433e-13 -1.0519933e-08 1.2750092e-12 4.5717614e-12
3.94373e-11 -0.06634885 0.75383073 9.605617e-12 2.073299e-06 7.1759935e-08 8.806483e-18 -1.8951557e-30
-0.05128383 -4.0078416e-05 -5.37357e-40 1.7749388e-10 9.301205e-07 -1.7221484e-10 1.780779e-08 -6.6864053e-35
-5.5301545e-05 -0.0014107525 3.081941e-05 -0.0740154 -0.0026481894 -7.295683e-13 0.18290192 -9.210668e-23
0.08690949 -0.003693204 -0.087703206 0.02692882 -0.09617139 -0.070422105 0.0455291 -3.0188878e-07
-1.4553865e-11 -1.1052539e-18 4.42637e-09 4.006703e-05 8.6986574e-07 -0.0772638 0.02187511 2.2788322e-13
-0.06781362 2.8399043e-06 1.5851932e-31 2.7764938e-06 -2.5885505e-12 -0.0902833 0.00054395234 -8.4236364e-20
5.441169e-05 -7.1977547e-07 -5.8662354e-25 -0.008959092 0.00013348287 -0.020590818 6.937167e-33 1.4825687e-26
-0.08903708 0.008802691 -2.1827153e-05 0.010132454 -1.8047392e-33 -7.1880537e-09 1.1668344e-35 -4.720787e-15
-9.1843495e-26 0.6992128 -0.086167865 2.9828767e-12 7.698879e-09 0.00038857403 2.4954954e-24 9.854729e-19
-0.087148815 5.9306956e-05 6.52373e-40 -9.2601365e-10 3.491559e-07 -7.996384e-15 -6.166909e-06 -8.997191e-25
0.0051336423 7.811861e-10 -0.006715629 0.013479818 -0.0028290295 8.20947e-40 -0.051345445 -9.758839e-28
-0.0053608743 2.1814446e-06 -0.121194564 -0.06802149 -0.12391149 0.612134 -0.021553783 9.4812e-41
6.1700837e-07 -2.071512e-15 8.9017034e-05 -5.6771705e-11 -0.0003646933 -0.10245997 0.014735959 -8.949105e-05
-0.09325564 0.0006456855 -9.818519e-10 1.4766814e-09 -1.2318497e-17 -0.107273206 0.015921503 -4.2750012e-19
-1.524597e-05 1.0922941e-07 -0.009469703 4.3033147e-06 1.6138246e-08 -0.34236142 -5.700421e-24 1.7410666e-20
-0.111143544 -0.00016381685 -0.0012096989 0.040667795 -2.055633e-17 5.0201765e-10 -7.590082e-29 -0.00021661981
-2.327272e-10 -0.097229004 -0.11544691 7.923054e-13 2.8088672e-05 -0.016920378 1.2617095e-32 6.347586e-08
-0.11334225 -5.9717935e-05 4.89365e-37 1.0616819e-10 2.0680054e-05 6.5843525e-11 5.3664247e-05 6.953961e-25
4.6252873e-05 6.366052e-10 0.007822397 0.009821326 -0.04540608 -2.288246e-39 -0.05500931 6.087945e-26
00000000: ec12 bdbb c4b0 1fab 4cc2 72bd 8b11 be39
00000010: 6553 98bd 8f48 58bd eed2 eb3a 98fd 6d33
00000020: 1664 b527 ef43 7100 e051 46a9 2f21 b5a4
00000030: 1fa9 3938 59dd 2d3f abd7 a13b 1ed6 bc2f
00000040: 342f 60bd 627c 07ba e4a0 0e23 723d ffb1
00000050: 627a d007 d07d 68bd c7fa a4b9 21f4 f6a2
00000060: 85fc 6431 49b7 3c16 1431 8433 e351 53b6
00000070: 436e f137 6bb0 cabc bee2 f42c 4860 0a10
00000080: 9cc3 89bd 9de8 8cb6 c328 a52b 6bfd 52bc
00000090: a875 0a0d 0919 feb2 5f6b b41e cee7 6bb3
000000a0: e376 5b02 3ded 86bd 575a 80bd 31c0 ba2b
000000b0: 04b1 d7aa 8e10 6833 0475 1880 8be6 97aa
000000c0: c1b7 82bd 1bfd 9bbc 0675 0380 360d 9930
000000d0: cdf3 95b3 99f4 372a c4d3 34b0 7a66 82a3
000000e0: 3674 f238 4ef9 4030 73ab e4b9 3efe 14bc
000000f0: 99d0 b93c 5731 0280 1583 05bd 37e5 b90b
00000100: 72b0 643c b02a 6fb0 d038 8fbd 7784 07b8
00000110: 042a 71bd 4a05 44bd 1b71 c0b8 43df a332
00000120: e27e a71d ee66 5e94 566e 86b3 2191 1838
00000130: 3b9f 32bc a2cd 26bd aa7d ff36 d32b afb1
00000140: 707c 0ebd 86c1 adb8 f26c 318c b509 3fb4
00000150: 466b 0f80 7fb4 2fbd 511d 75ba d279 6f31
00000160: 1644 f939 7239 6f25 2cdd 0baf 2f60 0cbd
00000170: a126 829f 6bea 953c 9b38 1400 dee7 672a
00000180: c37a 59bd 3e49 68ba 03e6 a23a 9af3 5fbb
00000190: 1d3f 342b 28bb 34b2 0c71 b32b c4da a02c
000001a0: 7472 2d2e e8e1 87bd 0dfb 403f dafb 282d
000001b0: 0123 0b36 711a 9a33 7173 2223 d8c0 198e
000001c0: fe0e 52bd df19 28b8 efd9 0580 1628 432f
000001d0: 65ad 7935 2b5a 3daf bff7 9832 51c1 b186
000001e0: 95f3 67b8 00e9 b8ba 1744 0138 6395 97bd
000001f0: 3f8d 2dbb f05a 4dab a44a 3b3e 46b3 de9a
00000200: 9afd b13d ae09 72bb bd9d b3bd d499 dc3c
00000210: 81f5 c4bd 7739 90bd b97c 3a3d 4713 a2b4
00000220: 6404 80ad 501b a3a1 c316 9831 a50d 2838
00000230: b880 6935 7c3c 9ebd 6e33 b33c 6f49 802a
00000240: dee1 8abd 2f95 3e36 14c5 4d0c cd53 3a36
00000250: 2e27 36ac 73e6 b8bd 0698 0e3a c2e5 c69f
00000260: 1b38 6438 9836 41b5 1b8d 3597 28c9 12bc
00000270: 89f7 0b39 13ae a8bc 4e14 100a 95d3 9214
00000280: 1359 b6bd 2939 103c 7419 b7b7 9802 263c
00000290: 8fee 1589 cafa f6b1 8228 7805 9315 aaa7
000002a0: bb64 e395 9cff 323f c778 b0bd bbe6 512c
000002b0: 0744 0432 86b9 cb39 6114 4118 1d6e 9121
000002c0: 147b b2bd 5cc0 7838 8d1a 0700 6b8a 7eb0
000002d0: 9f73 bb34 d00c 10a8 58ed ceb6 8c39 8b97
000002e0: 1d38 a83b 16bb 5630 c70e dcbb 74da 5c3c
000002f0: 3d67 39bb 77f0 0800 9a4f 52bd 8ea2 9a92
00000300: 46aa afbb ef64 1236 db34 f8bd da4e 8bbd
00000310: 4fc5 fdbd d0b4 1c3f 8f91 b0bc 4c08 0100
00000320: 7ea0 2535 a744 15a7 a8ae ba38 42af 79ae
00000330: 4e34 bfb9 88d6 d1bd 176f 713c 24ad bbb8
00000340: d0fc bebd 3843 293a d8f1 86b0 1cf4 ca30
00000350: 753c 63a3 0eb2 dbbd d06d 823c fe59 fca0
00000360: f1c8 7fb7 8191 ea33 d026 1bbc 3165 9036
00000370: 61a0 8a32 ff49 afbe 3c86 dc98 6870 a41e
00000380: 3a9f e3bd 40c6 2bb9 c28e 9eba 4693 263d
00000390: 4399 bda3 5afe 0930 736e c090 7024 63b9
000003a0: e2e2 7faf 0020 c7bd 6e6f ecbd 9f03 5f2b
000003b0: f79f eb37 9b9c 8abc fe05 830a 3950 8833
000003c0: fb1f e8bd a579 7ab8 b485 2603 6177 e92e
000003d0: 147a ad37 9cca 902e 8c15 6138 f536 5717
000003e0: a5ff 4138 1cfd 2e30 8329 003c a0e9 203c
000003f0: bafb 39bd b3ea 1880 7151 61bd f0ba 9615

out.bias f4 [10]
0.076906726 0.07605638 0.10958756 0.13741912 0.07071618 0.09829489 0.0652447 0.1132964
0.109188296 0.10342747
00000000: 4681 9d3d 73c3 9b3d 716f e03d 99b7 0c3e
00000010: a5d3 903d d54e c93d 039f 853d f107 e83d
00000020: 1d9e df3d c8d1 d33d
