exps/regularModelExperiments/pretrainedmodels/l2regulatizationModel2.pt (torch, 973925 bytes, 8 tensors)

fc.weight f4 [256, 784]
2.6329048e-37 9.410019e-38 4.2593767e-38 2.0210378e-38 -3.479674e-38 1.974183e-39 7.297818e-38 -7.920926e-38
-7.665615e-38 1.2012022e-37 -6.773686e-39 8.506208e-38 3.8461002e-38 -2.2794093e-38 4.0007934e-38 -4.696436e-38
-1.2418487e-37 5.02763e-40 1.2503158e-38 9.293817e-38 6.869275e-38 -1.9271802e-37 6.916048e-38 1.0848746e-37
2.2617742e-38 -4.64828e-40 6.316501e-38 3.9564025e-38 -1.300283e-37 1.0320429e-38 1.84488e-37 1.1818001e-37
-2.0881287e-38 2.79642e-39 2.7350768e-38 2.9722074e-37 1.3721304e-37 -2.6819037e-38 -5.1769944e-36 7.249294e-36
-9.868424e-37 -7.933389e-36 -4.1413547e-36 1.0912152e-35 2.520766e-37 -3.1841223e-38 5.324905e-38 -2.917898e-38
6.184448e-38 3.2185886e-38 -7.825121e-38 -1.7143327e-37 8.03417e-38 1.1834464e-37 1.0588782e-37 -1.0138338e-38
-1.0647432e-37 -5.738111e-38 1.9698389e-38 -3.7579843e-38 -4.4455095e-38 -1.9091384e-37 -8.2789384e-36 3.1008413e-36
-3.227707e-36 -5.0787967e-36 -5.3209662e-36 1.2359162e-35 1.1455849e-35 6.036393e-36 8.870448e-36 -2.1886687e-35
-5.1934085e-36 5.8289733e-36 6.799559e-36 -7.382892e-36 -8.1020805e-36 -1.6085904e-35 -4.8296083e-36 -1.1602933e-37
-2.0021708e-38 -1.6093899e-37 1.1432805e-37 2.7810483e-38 1.3110843e-37 1.6073105e-37 5.082857e-39 -9.466813e-38
-2.8232487e-38 6.718315e-37 6.205061e-36 1.2193035e-35 -1.6039813e-35 -5.272811e-36 -3.149563e-35 -1.1268513e-35
-1.3854102e-37 -1.8198693e-35 -3.0483418e-35 -1.2176101e-35 -4.1282897e-36 7.0190845e-36 1.3692573e-36 7.858826e-37
2.990676e-36 -1.3910389e-35 -4.1255242e-36 -6.8935037e-37 8.946231e-38 2.440961e-38 1.0531506e-37 -1.8289934e-37
1.0232186e-37 4.6563567e-38 -1.5211737e-37 3.2166983e-38 1.2529791e-36 -1.5447634e-36 1.158844e-36 -6.0009596e-36
1.7976748e-36 -2.2391552e-35 1.8687061e-35 -2.8152335e-36 -1.015537e-35 4.0352936e-35 -1.6538768e-35 -3.8357377e-35
-1.6785494e-35 -1.5862584e-36 5.3372674e-36 -3.018921e-35 -3.0099457e-35 -3.8523946e-35 3.976616e-35 6.842166e-36
-3.0208867e-36 -2.7219985e-36 -5.2794783e-38 -2.53912e-40 4.0724738e-38 7.12935e-38 6.0816286e-38 1.3543891e-36
5.3874723e-36 1.4395134e-35 -2.8502631e-36 8.0557695e-36 1.1237988e-35 1.0295816e-35 2.6358395e-35 6.20793e-35
9.565304e-35 3.899408e-35 3.2604648e-34 2.5958118e-35 9.584991e-35 7.798386e-35 -3.4347925e-35 1.4924548e-35
-1.2746414e-35 1.6567307e-35 -2.5324315e-35 -1.2830852e-35 3.9729663e-35 4.167737e-35 2.9915616e-36 1.6911769e-37
7.454141e-38 -1.1308081e-37 -1.0110348e-37 2.0975762e-36 8.0225466e-36 -6.525073e-36 1.1672743e-35 -1.7180557e-35
1.2239554e-35 8.7407734e-35 -1.4981688e-34 2.8154008e-36 3.376044e-34 1.5030809e-31 -2.8093205e-31 -6.5467324e-31
-7.7885893e-32 1.7599768e-34 4.1074424e-35 8.8108444e-35 5.3239723e-35 4.59611e-36 -7.583339e-37 -3.4126903e-36
2.488068e-35 -4.6009337e-35 4.3891387e-36 1.1619858e-38 5.9372967e-37 -1.2191377e-37 1.9257482e-36 -1.3511879e-35
-6.284276e-36 -2.1322338e-35 1.1369287e-35 -9.6893924e-36 -3.1771093e-35 -5.519189e-35 -1.075828e-34 1.4188046e-34
1.4793942e-34 3.006706e-34 3.895965e-33 1.8142443e-31 1.16190314e-32 1.3166802e-32 -8.325495e-34 7.7659184e-35
-1.2996266e-34 -4.450268e-35 -5.3716666e-36 -3.5012613e-36 -1.6056524e-35 1.0224594e-35 3.2473695e-36 8.2719825e-38
-1.4688365e-36 2.5466153e-36 -6.196478e-37 -5.344663e-36 -2.6748667e-35 1.8595307e-36 3.3851666e-35 3.6777614e-35
-3.496395e-36 -2.970616e-35 1.243042e-34 -2.3013973e-34 -2.7428726e-34 -1.7446293e-34 1.1473501e-34 -1.3924293e-34
2.4367332e-34 2.7490967e-34 -3.765787e-34 -9.1974977e-35 -6.1672265e-35 -3.7454797e-35 9.134408e-37 3.036085e-35
-1.7978647e-35 -1.5150205e-35 -6.396231e-36 -1.3202237e-37 -2.9915742e-37 -3.3807101e-37 8.042989e-37 1.6103633e-35
00000000: ac2f b302 2115 0002 0ce7 6701 5012 dc00
00000010: 9473 3d81 387f 1500 5eaa c601 cca0 d781
00000020: 8aad d081 ca7f 2302 48c2 4980 9e8f e701
00000030: d066 5101 a834 f880 ecd2 5901 c4b2 7f81
00000040: 1d08 2982 8079 0500 b825 8800 7400 fd01
00000050: dcff ba01 3728 8382 d245 bc01 5daa 1302
00000060: 1049 f600 c00f 0580 96f3 ab01 3468 5701
00000070: 40fc 3082 2861 7000 b01c 7b02 b9db 2002
00000080: 8860 e380 4873 1e00 68e9 1401 2847 ca02
00000090: c4c3 3a02 4804 1281 7a34 dc84 e92c 1a05
000000a0: 0ce7 a783 7ab9 2885 5c27 b084 6813 6805
000000b0: f08d ab02 305c 2d81 2cf5 9001 90dd 1e81
000000c0: 505b a801 943c 2f01 2205 d581 c757 6982
000000d0: feb5 da01 1715 2102 8520 1002 9065 6e80
000000e0: e3ec 1082 cc34 9c81 187f d600 a89a 4c81
000000f0: 5c09 7281 e2ed 8182 d412 3085 2ce5 8304
00000100: 9e4a 8984 3307 d884 3154 e284 d76c 8305
00000110: 93a3 7305 4061 0005 50a7 3c05 3bbd e885
00000120: 36e7 dc84 e6ef f704 529c 1005 4a04 1d85
00000130: ec4f 2c85 ff0d ab85 c76d cd84 52ee 1d82
00000140: 6004 da80 0e0f 5b82 839d 1b02 286a 1701
00000150: 9f74 3202 99c6 5a02 f058 3700 07db 0082
00000160: 58b6 1981 c79c 6403 91f7 0305 99a8 8105
00000170: 8690 aa85 d447 e084 a175 2786 9fa7 6f85
00000180: 8092 3c82 8e85 c185 e113 2286 807a 8185
00000190: 1899 af84 8847 1505 91f7 e803 04b6 8503
000001a0: 286b 7e04 aeeb 9385 fb7a af84 e392 6a83
000001b0: 218a f301 08e6 0401 f158 0f02 1ef3 7882
000001c0: f745 0b02 2484 7d01 2b0d 4f82 3b22 2f01
000001d0: f02e d503 f869 0384 c62a c503 aa40 ff84
000001e0: e4ed 1804 9a1b ee85 05b7 c605 5b7e 6f84
000001f0: 18fb 5785 928d 5606 cfde af85 5bf1 4b86
00000200: 767e b285 a6f1 0684 b205 e304 6c83 2086
00000210: 4209 2086 14d4 4c86 e46e 5306 4c84 1105
00000220: 8b7e 8084 e18f 6784 98b8 8f81 cec3 0280
00000230: 00ba 5d01 5114 c201 c48e a501 f76f e603
00000240: 6128 e504 4813 9905 3c79 7284 c853 2b05
00000250: 6d01 6f05 c1f7 5a05 3025 0c06 fb08 a506
00000260: 164a fe06 fe53 4f06 efb1 d807 5c04 0a06
00000270: 12d0 fe06 1151 cf06 f99f 3686 7cb4 9e05
00000280: 0a8b 8785 802c b005 aca5 0686 e770 8885
00000290: 373d 5306 4c98 5d06 717e 7e04 ea30 6602
000002a0: c8eb ca01 e9ea 1982 6c9d 0982 2a71 3204
000002b0: e69e 2a05 e0c5 0a85 7540 7805 edb1 b685
000002c0: 3c27 8205 9f5e e806 0b24 4787 0082 6f04
000002d0: 6a60 e007 6e1c 430c d855 b68c 2074 548d
000002e0: 0e34 ca8b e8f0 6907 9c63 5a06 803b ea06
000002f0: 1489 8d06 357f c304 1a06 8183 e828 9184
00000300: d449 0406 aaa0 7486 7db1 ba04 7087 7e00
00000310: 2609 4a03 c0f0 2582 15d3 2304 d5ae 8f85
00000320: daa6 0585 edbc e285 49cc 7105 1212 4e85
00000330: 92ec 2886 a7b9 9286 8800 0f87 6b97 3c07
00000340: 2da5 4407 74d4 c707 02d5 a109 9c80 6b0c
00000350: 5e51 710a 5dbb 880a bd54 8a88 1a74 ce06
00000360: 00c0 2c87 e99d 6c86 457c e484 5ced 9484
00000370: 04be aa85 fc73 5905 b920 8a04 4e2f e101
00000380: dae8 f983 5fa4 5804 f0da 5283 3a56 e384
00000390: 6638 0e86 fe30 1e04 80fc 3306 188b 4306
000003a0: 5fb8 9484 eef1 1d86 873a 2507 3ff4 9887
000003b0: 8f4b b687 a9e6 6787 4d82 1807 ea15 3987
000003c0: def2 a107 75b5 b607 8c47 fa87 ed82 f486
000003d0: f8f3 a386 d424 4786 f569 9b03 0c6d 2106
000003e0: 882e bf85 c81a a185 6508 0885 15b3 3382
000003f0: 9398 cb82 4714 e682 28d8 8803 423e ab05

fc.bias f4 [256]
-4.2883046e-20 -3.6756873e-07 -2.2654036e-15 -9.417075e-09 -3.5600892e-13 -3.253139e-14 -0.0067827487 -0.0022609876
-0.006163705 -1.6905507e-11 -4.2002534e-06 -0.03431185 -7.4146023e-09 -0.039713472 -0.025110835 -1.3652335e-05
-0.00043902427 -0.019232474 -0.06641624 -2.5787456e-12 0.15770139 -3.7747755e-10 -2.002355e-05 -0.0011475666
-1.1779985e-16 -0.025133053 -0.09051302 -7.5777143e-20 -0.18431188 -1.8725133e-07 -0.18868263 0.0051057786
-8.3968414e-05 -0.042578496 -0.05947481 -0.0029571317 -5.5393933e-13 -0.0040261312 -9.244649e-18 -1.8876154e-17
-8.388036e-15 -2.9177661e-05 -1.5504144e-08 -1.001637e-08 -1.0100812e-07 -7.916908e-23 -0.007828899 -4.858782e-07
-0.0010379927 0.063246764 -4.5403153e-19 -3.0657539e-09 -2.8176474e-09 -0.0028911093 -4.39982e-15 -8.5658e-06
-0.00015635612 -0.0076027997 -0.012783998 -9.4416455e-06 -0.012153091 -0.001024814 -3.4064415e-23 -0.0029412808
-3.5086723e-05 -4.5536566e-05 -0.031865463 -0.0022556966 -5.74652e-17 -5.9319814e-16 -8.0170746e-20 -0.38092133
-0.007004967 -1.0462772e-11 -5.518065e-13 -2.269938e-07 -1.8061894e-11 -6.360449e-11 -0.13703859 -5.003879e-12
-6.012465e-08 -0.074266404 -3.8842507e-05 -0.0001424021 -0.00040294195 0.3941778 -5.265091e-10 -5.260566e-10
-3.084124e-10 -2.040423e-16 -1.152145e-05 -0.00016010356 -0.08661548 -9.725459e-05 -1.2995556e-08 -1.7228854e-06
-0.048510317 -9.676743e-09 -2.5266093e-18 0.12931287 -0.00013730073 -5.2333814e-07 -3.9515815e-21 -0.03778258
-2.9331773e-15 -1.0346587e-06 -4.018192e-05 -0.0012172731 -6.416021e-16 -0.058742724 -4.149358e-21 -0.0007816489
-9.390625e-17 -2.5690944e-08 -0.056393024 -5.3410132e-12 -1.4668856e-22 -0.0010474854 -0.03088105 -0.06312291
-0.070083395 -8.401196e-20 -8.3976975e-06 -1.11030644e-20 -1.6079849e-25 -2.6377087e-05 -1.9677357e-12 -1.6096334e-07
-0.0016582042 -0.0008260105 -4.6913254e-17 -0.0016763925 -0.014232405 -4.7367045e-12 -6.3990275e-24 -0.24729496
-1.6355412e-15 -5.489538e-22 -0.008334952 -0.006549828 -0.18628897 -0.0047050444 -0.004970738 -1.3264244e-09
-1.6361926e-16 -1.2041768e-09 -0.0049935943 -4.5597855e-28 -0.0013558618 -9.000905e-14 -0.0008368454 -4.1881462e-06
-2.1163665e-05 -2.5659401e-14 -1.1148434e-11 -1.7571842e-19 -7.1896164e-07 -3.6496754e-08 -8.678775e-10 -8.841089e-06
-1.8276099e-24 -0.0010830408 -0.14956751 -0.0072786217 -0.00558657 -0.12258175 -2.5384716e-06 0.17927267
-1.8409663e-07 -3.9435016e-13 -1.1223706e-09 -6.1023777e-12 -5.219807e-11 -3.9520673e-15 -1.8120486e-08 -5.8351843e-06
-2.5809257e-08 -0.05069964 -9.951294e-13 -0.0016864382 -1.6336266e-05 -3.134485e-15 -2.2633054e-16 -0.15133876
-3.3022183e-13 -1.5381324e-15 -1.7373608e-15 -1.788844e-07 -3.2786146e-24 0.25626117 -0.00019376638 -4.325725e-05
-0.025222395 -0.07091645 -0.0033160106 -0.12294868 -0.12712607 -0.008540502 -2.6364798e-05 0.61665404
-5.737292e-07 -2.4121725e-14 0.1925293 -5.231641e-17 -1.5503933e-15 -2.4900202e-11 -0.039786033 -0.0013460334
-4.2176803e-06 -0.0005813681 -6.379651e-07 -4.833591e-19 -0.0188396 -7.769462e-05 -2.4077835e-09 -3.0724347e-17
-1.0985218e-07 -0.019467464 -0.16375558 -8.813301e-15 -7.2314956e-06 -0.018026875 -2.0562042e-24 -0.02047732
-0.00080156006 -2.883365e-09 -1.4400879e-05 -3.190069e-07 -0.0007776082 -5.740383e-06 -1.3858085e-09 -2.3059877e-19
-4.3452424e-08 -1.4006753e-12 -4.5823877e-17 -6.428171e-15 -0.0007888237 0.4754343 -0.21134014 -0.09191339
-4.4664127e-11 -0.038572617 0.41595808 -5.435511e-09 -1.543714e-11 -2.1850214e-15 -7.062746e-08 -6.990929e-17
-4.0652925e-09 -0.02140752 -6.5649948e-09 -0.16683261 -1.08307295e-05 -0.035888493 -1.7153308e-12 -0.012765155
00000000: 6c82 4a9f 4356 c5b4 523d 23a7 bcc8 21b2
00000010: 4b6a c8aa 2482 12a9 d241 debb 142d 14bb
00000020: e8f8 c9bb d1b3 94ad e7ef 8cb6 958a 0cbd
00000030: 88c3 feb1 98aa 22bd 3db5 cdbc 550c 65b7
00000040: d72c e6b9 6c8d 9dbc 3d05 88bd 8d76 35ac
00000050: 797c 213e 3e85 cfaf 3ff8 a7b7 f269 96ba
00000060: 61d0 07a5 d5e3 cdbc e45e b9bd 79ec b29f
00000070: 41bc 3cbe 410f 49b4 0536 41be 604e a73b
00000080: 3318 b0b8 ca66 2ebd dc9b 73bd 70cc 41bb
00000090: 89eb 1bab a3ed 83bb 9f88 2aa3 0f1a aea3
000000a0: fd1a 17a8 8dc2 f4b7 f92d 85b2 7614 2cb2
000000b0: cde9 d8b3 496b bf9a c844 00bc 4c6d 02b5
000000c0: 410d 88ba 8587 813d a701 06a1 50ad 52b1
000000d0: 94a0 41b1 c478 3dbb 2d85 9ea7 d5b5 0fb7
000000e0: 87f3 23b9 e820 f9bb f973 51bc 8f67 1eb7
000000f0: c21d 47bc 0d53 86ba b4b9 249a 81c2 40bb
00000100: 152a 13b8 84fe 3eb8 5c85 02bd 4fd4 13bb
00000110: 7881 84a4 4cfa 2aa6 3e4c bd9f 1f08 c3be
00000120: ec89 e5bb 2310 38ad d951 1bab 95bb 73b4
00000130: c5df 9ead 25de 8bae d853 0cbe ef0e b0ac
00000140: e01d 81b3 fc18 98bd d3ea 22b8 c651 15b9
00000150: f441 d3b9 acd1 c93e c9b9 10b0 f199 10b0
00000160: 308d a9af a83e 6ba5 404c 41b7 79e1 27b9
00000170: 7563 b1bd 29f5 cbb8 0f43 5fb2 e43d e7b5
00000180: c1b2 46bd c43e 26b2 4d6e 3aa2 986a 043e
00000190: 62f8 0fb9 867b 0cb5 5a49 959d e8c1 1abd
000001a0: 925b 53a7 9ade 8ab5 0289 28b8 e88c 9fba
000001b0: e1ed 38a6 369c 70bd 21c2 9c9d 92e7 4cba
000001c0: 7788 d8a4 fcae dcb2 5ffc 66bd 92eb bbac
000001d0: e955 319b c74b 89ba 41fa fcbc 9646 81bd
000001e0: e287 8fbd 1d5e c69f d6e3 0cb7 20bb 519e
000001f0: 130f 4796 5d44 ddb7 9377 0aac 44d5 2cb4
00000200: 1a58 d9ba a088 58ba 6559 58a4 66ba dbba
00000210: 092f 69bc 71a8 a6ac e68c f798 e43a 7dbe
00000220: d2b4 eba6 3ee9 259c 538f 08bc f19f d6bb
00000230: 89c2 3ebe c62c 9abb 93e1 a2bb 694d b6b0
00000240: e2a3 3ca5 3480 a5b0 4ea1 a3bb 6081 1092
00000250: 2cb7 b1ba afae caa9 be5f 5bba e787 8cb6
00000260: a088 b1b7 8d1e e7a8 1520 44ad a273 4fa0
00000270: abfe 40b5 9bc0 1cb3 738f 6eb0 3054 14b7
00000280: 8b67 0d98 d2f4 8dba 3a28 19be 8181 eebb
00000290: 8c0f b7bb 240c fbbd 9c5a 2ab6 4193 373e
000002a0: 19ac 45b4 d9ff ddaa e841 9ab0 55b5 d6ac
000002b0: cd91 65ae 6363 8ea7 5fa7 9bb2 dacb c3b6
000002c0: 28b3 ddb2 6daa 4fbd 510d 8cab 7a0b ddba
000002d0: dd09 89b7 0bdd 61a7 7e78 82a5 8cf8 1abe
000002e0: fbe5 b9aa 12ab dda6 4d61 faa6 5f13 40b4
000002f0: a7ab 7d98 aa34 833e c42d 4bb9 1e6f 35b8
00000300: 329f cebc a53c 91bd 6d51 59bb 84cc fbbd
00000310: 562d 02be 76ed 0bbc f929 ddb7 0add 1d3f
00000320: 5f02 1ab5 e944 d9a8 6726 453e 5144 71a4
00000330: 6b6f dfa6 4506 dbad aef6 22bd 636d b0ba
00000340: 9985 8db6 f466 18ba a140 2bb5 95a9 0ea1
00000350: 8155 9abc fbef a2b8 2d76 25b1 e8b0 0da4
00000360: e0e7 ebb3 3b7a 9fbc 8baf 27be 2dc4 1ea8
00000370: 13a6 f2b6 19ad 93bc 5217 1f98 0dc0 a7bc
00000380: c91f 52ba b224 46b1 4e9b 71b7 f943 abb4
00000390: 67d8 4bba 849d c0b6 cd76 beb0 1a1f 88a0
000003a0: 72a0 3ab3 a520 c5ab 4953 53a4 6a99 e7a7
000003b0: 10c9 4eba 206c f33e 8d69 58be 163d bcbd
000003c0: 566f 44ae 52fe 1dbd 75f8 d43e 43c3 bab1
000003d0: 59c9 87ad 8872 1da7 dbab 97b3 2933 a1a4
000003e0: b1ae 8bb1 d35e afbc 4e92 e1b1 2bd6 2abe
000003f0: a1b5 35b7 d0ff 12bd 4e69 f1ab f124 51bc

fc1.weight f4 [128, 256]
1.1879531e-37 -7.080739e-39 1.456859e-39 -3.8620357e-25 1.6082688e-38 -2.8228074e-24 -7.003425e-08 -4.2217147e-13
1.0934284e-37 1.3041995e-22 1.639838e-19 9.769112e-38 -3.792591e-38 8.51297e-19 -0.031491026 -3.0313962e-19
5.623374e-34 -1.0496877e-06 -9.161539e-08 -3.903099e-23 -0.0033235578 7.2996423e-23 2.8472773e-23 -4.5934216e-38
-2.675513e-39 -4.168487e-39 -1.2718143e-37 -9.848348e-38 -2.27636e-39 -7.233896e-19 -2.992187e-39 -2.863227e-10
1.692078e-38 3.7690348e-13 -8.309403e-38 2.2145502e-14 4.7175486e-38 -7.61125e-40 2.0694359e-38 -5.167703e-39
-4.360546e-35 -4.0176395e-20 -1.1635046e-37 -4.208348e-23 1.6392304e-23 6.669148e-38 6.109438e-38 2.6276985e-35
-5.09023e-40 -0.08297296 -2.151459e-33 7.222747e-35 -2.7430781e-22 -5.966119e-38 -7.474949e-39 -5.664728e-38
-5.260136e-38 -4.757744e-09 -3.9021768e-38 7.966502e-39 1.5511502e-37 -1.2015972e-34 -1.71058e-40 -1.2718284e-18
-5.0777497e-14 4.5902233e-38 8.042198e-39 1.444279e-37 -1.2367938e-37 -4.3977126e-34 8.8940783e-38 -0.14969341
1.8111245e-38 1.07240544e-23 3.554758e-38 -1.5514044e-22 -1.475917e-22 -1.5291347e-38 2.1315527e-05 2.038536e-30
7.8342176e-35 1.6229232e-26 -1.33533e-39 1.0948956e-37 -7.635126e-39 -0.18416207 -9.842355e-22 9.926573e-38
-1.0161288e-22 -8.2970787e-38 -6.5707793e-38 -4.0385724e-38 -2.026414e-21 -1.1501445e-37 6.3974757e-38 2.6103377e-38
3.2153783e-12 -5.788737e-38 -4.6786e-40 -2.5334131e-05 3.4452984e-20 1.4485243e-22 -1.2131864e-37 2.8256477e-38
-8.0819407e-38 1.3137659e-18 3.3279076e-37 -2.798236e-39 -2.8011064e-37 1.5537696e-11 -1.67429e-40 5.171321e-38
4.0414414e-34 8.151822e-38 6.485551e-18 -1.1027258e-37 -7.604522e-39 2.6600385e-25 -1.0614141e-38 -4.4784856e-19
3.7677123e-12 -8.48262e-38 2.808535e-38 1.4973557e-37 8.37287e-40 7.654669e-16 5.7748384e-38 -6.6796254e-36
3.7316997e-26 2.1739083e-08 3.9725634e-38 -1.7512346e-22 -3.356787e-38 3.8729e-41 -1.429532e-39 -1.6934669e-11
-4.2100525e-35 -1.3273301e-38 -4.0795445e-14 2.399197e-39 -0.0054445774 -5.133523e-09 3.9808373e-34 2.6259313e-34
4.30733e-40 -1.815769e-39 6.308847e-39 -6.9784047e-38 3.558609e-39 -5.933453e-38 -6.971904e-38 -6.132956e-20
-6.4191775e-20 -7.8618016e-25 -5.483708e-38 7.3384274e-38 6.838238e-31 1.4763059e-22 -1.1385068e-38 -1.5751663e-34
2.86605e-40 -1.8010793e-37 -5.1670078e-11 1.1364692e-06 -8.4296187e-07 2.201648e-06 -4.394945e-38 -3.449735e-06
-5.884826e-37 -2.4069275e-29 7.826802e-24 -4.667916e-30 1.429324e-39 2.9897478e-37 -8.7400485e-21 1.161267e-39
-5.511115e-23 5.5606294e-11 1.9430165e-33 -1.6832109e-37 5.2787115e-38 3.147148e-39 -1.4077266e-37 -3.306e-40
-1.1542118e-37 -7.577516e-38 -1.4069688e-37 5.718024e-38 2.7583137e-38 -0.022374384 -1.879252e-22 1.1906065e-37
-0.02094991 3.8844836e-18 -5.022431e-38 -9.427106e-39 -0.00017810584 -8.591417e-06 -2.697734e-19 -0.11939751
1.148503e-39 -7.6460046e-38 -0.016375124 -7.691549e-38 1.150945e-39 -6.0668396e-30 1.0474741e-37 5.4516964e-12
4.999077e-22 -3.2560897e-24 -2.5639868e-22 1.894295e-39 -2.889836e-09 1.4124784e-34 -8.22353e-40 -7.32188e-40
6.0223996e-38 -7.9738464e-07 -0.0344996 4.5040513e-38 9.789596e-38 -1.3322565e-10 8.4488163e-38 3.5801613e-12
-2.416176e-38 -3.3155546e-21 -4.5348094e-15 3.2028904e-22 -1.600581e-37 1.231278e-37 5.658398e-30 6.4886643e-38
-1.6838597e-25 5.02384e-37 6.06743e-40 1.3214062e-28 4.56722e-14 -0.06753158 3.379362e-21 -6.168686e-06
4.987303e-34 1.4734075e-16 0.0001603462 -1.2192547e-38 9.814609e-38 -2.542268e-39 -7.696255e-30 2.014187e-37
-8.121849e-22 8.097058e-39 6.183955e-23 2.7924514e-05 -5.958144e-38 -3.014201e-06 -7.2419934e-38 -2.7904157e-37
00000000: 20b2 2102 381a 4d80 21dd 0f00 660c ef96
00000010: fe1f af00 7667 5a98 bc65 96b3 52a9 edaa
00000020: 6bd4 1402 05ab 1d1b 1099 4120 63f8 0402
00000030: 017d 4e81 2f42 7b21 bcfc 00bd 2af1 b2a0
00000040: 60de 3a08 ffe2 8cb5 18be c4b3 06be 3c9a
00000050: 0cd0 59bb 997e b01a 96af 091a f416 7a81
00000060: 3e22 1d80 0c64 2d80 431c 2d82 7c0c 0682
00000070: 91c9 1880 c681 55a1 0095 2080 5668 9daf
00000080: 4040 b800 842d d42a 1634 e281 0d78 c728
00000090: 846c 8001 b549 0880 7457 e100 7445 3880
000000a0: add8 6786 48ba 3d9f 385e 1e82 d380 4b9a
000000b0: 6189 9e19 2e8d b501 9250 a601 61b6 0b06
000000c0: f38a 0580 baed a9bd 79bc 3289 7803 c006
000000d0: 14cf a59b c869 a281 1e65 5180 6435 9a81
000000e0: cc31 8f81 8f79 a3b1 6874 5481 5ebf 5600
000000f0: b221 5302 3cb8 1f87 d7dc 0180 52b0 bba1
00000100: 78ae 64a9 60ea 7901 6092 5700 c795 4402
00000110: f957 2882 9a23 1288 ae1e f201 3b49 19be
00000120: c836 c500 f26e 4f19 188a 4101 a48d 3b9b
00000130: 6b6d 329b 0e82 a680 bfce b237 bc62 250e
00000140: ec44 d006 feb9 a014 5b8a 0e80 8b07 1502
00000150: a023 5380 fb94 3cbe c4bb 949c 0f1d 0702
00000160: 54af f59a 33de e181 a6df b281 7ce1 5b81
00000170: 8c1c 199d b08c 1c82 e627 ae01 cc1e 0e01
00000180: 1b43 622c 9c95 9d81 3418 0580 a284 d4b7
00000190: 1ab3 221f a81d 2f1b 6021 2582 c8d7 1901
000001a0: e802 dc81 ace0 c121 547c e202 5878 1e80
000001b0: 28a2 be82 c8ab 882d b9d2 0180 d9c6 8c01
000001c0: c84c 0608 e8e9 dd01 4c46 ef22 6318 1682
000001d0: 50ce 5280 fea5 a416 e893 7380 7b2e 04a1
000001e0: 8990 842c 3ceb e681 44e9 1801 3bcf 4b02
000001f0: 041e 0900 7da1 5c26 c034 9d01 570f 0e85
00000200: eac8 3815 c0bc ba32 7449 5801 16b6 539b
00000210: c8c2 3681 f66b 0000 f490 0f80 7cf5 94ad
00000220: 44d8 5f86 9088 9080 f2b9 37a9 fc1f 1a00
00000230: 6d68 b2bb f262 b0b1 3849 0408 e885 ae07
00000240: b5b0 0400 a0c5 1380 80b2 4400 62f8 bd81
00000250: f4bf 2600 2286 a181 14cb bd81 72cf 909f
00000260: 8c91 979f 9c4f 7397 de47 9581 60c5 c701
00000270: dce9 5d0d 7479 321b f0f8 7b80 2260 5187
00000280: f01e 0300 7426 7582 563f 63ae c988 9835
00000290: e647 62b5 06c0 1336 9848 6f81 ff81 67b6
000002a0: 1140 4883 6917 f48f 7264 1719 695a bd8e
000002b0: 6090 0f00 c178 cb02 4818 259e 24a5 0c00
000002c0: 2640 859a 1f8f 742e 646b 2109 571b 6582
000002d0: 40b3 8f01 f844 2200 1d9c 3f82 9499 0380
000002e0: 691a 1d82 9447 ce81 b581 3f82 d0a8 9b01
000002f0: 482d 1601 7c4a b7bc 0830 639b 950e 2202
00000300: 259f abbc e94f 8f22 3cb9 8881 f0a6 6680
00000310: ecc1 3ab9 db23 10b7 013f 9fa0 af86 f4bd
00000320: 8f81 0c00 e024 d081 2025 86bc 4662 d181
00000330: 5e88 0c00 aa19 f68e 2593 0e02 84d0 bf2c
00000340: 7c16 171c 80ed 7b98 c6fb 9a9b 86a0 1400
00000350: 8896 46b1 26c0 3b07 63f4 0880 0bf9 0780
00000360: 00f2 a301 db0b 56b5 744f 0dbd 5039 7501
00000370: c33f 0502 b07b 12af a8ff e501 74ee 7b2c
00000380: 948c 0381 2784 7a9d 3c62 a3a7 549a c11b
00000390: 1cdc 5982 c797 2702 2a88 e50e 64a3 b001
000003a0: a573 5096 d2f3 2a03 5a9b 0600 1582 2711
000003b0: 76b0 4d29 ff4d 8abd 5e56 7f1d 9cfc ceb6
000003c0: 48bb 2508 50df 2925 9b22 2839 dcc3 8480
000003d0: ec96 0502 cfae 1b80 3e19 1c8f 1614 8902
000003e0: c377 759c 4e2b 5800 d484 951a 703f ea37
000003f0: 3432 a281 9447 4ab6 5425 c581 e6e7 bd82

fc1.bias f4 [128]
-0.018503997 -2.8606547e-07 -1.8374232e-06 -3.3985252e-14 1.7044561e-12 0.19645074 -1.5013969e-25 -0.012948412
-0.13156335 0.06910089 2.7942026e-06 -0.019382069 0.16704659 -0.0013685145 0.47195178 4.08533e-20
-2.7979163e-25 -0.0006685809 0.9172651 -0.3344739 -3.715525e-15 -0.0024592727 -0.07166076 0.26914316
-1.2242978e-06 -4.395234e-17 -2.5244623e-07 -0.4564247 -6.3646717e-18 -0.00012634255 -0.0052748476 -3.4543308e-09
-3.205287e-11 0.8893314 -0.00038428602 -0.022621648 -1.2337023e-27 -6.98044e-08 0.43293273 -0.0027424686
-0.59354955 -2.6557665e-05 2.590119e-13 -0.13763149 -3.7065138e-07 0.8733341 -7.2487734e-07 -1.6738541e-12
-1.3348996e-24 -1.8552832e-07 -0.057432137 1.9955658e-15 -1.8520919e-09 -3.935664e-05 0.27003115 -6.4323187e-09
0.057244495 -0.06517743 0.09614956 -1.9773422e-10 -0.031533077 -5.0135986e-05 -0.0020213241 -1.1947424e-11
-8.359482e-15 0.11352773 -1.4550361e-06 -1.31556285e-11 -2.9429486e-07 -4.2381984e-15 -1.2580951e-15 1.0760794e-08
-7.2182195e-07 -0.00012302757 -0.96535826 -3.9355306e-09 -0.008121786 -0.0021688212 -2.1750918e-13 -4.086861e-17
-3.1087795e-13 1.0178932 -1.6053472e-06 -4.3573405e-07 0.025750846 -1.8965445e-24 -0.00011403077 -8.913405e-08
-0.8963985 -1.0858726e-05 0.5121329 -1.3158834e-09 -5.1834423e-08 9.812655e-19 -3.9344023e-08 0.32704744
0.12913328 -8.836733e-06 -5.3993013e-28 -0.0077140243 -9.598211e-08 -3.6629788e-12 1.0072798 -0.06820426
-0.024208264 -0.058828376 -9.165574e-11 -0.02990034 -0.00031426828 0.0006823865 -8.329995e-11 -0.08019759
-2.3713158e-12 -0.2147302 -0.0022827184 0.10201253 -1.7232624e-13 -0.027006237 -0.104773864 -3.299961e-07
0.36954558 1.9479142e-13 1.9215501e-29 -1.850688e-05 -2.8138134e-24 -3.1407274e-06 -0.012451262 0.030541243
00000000: b295 97bc 8a94 99b4 619d f6b5 540e 19a9
00000010: 81e1 ef2b 622a 493e 2bdd 3996 9425 54bc
00000020: 8bb8 06be c484 8d3d 0984 3b36 25c7 9ebc
00000030: 430e 2b3e ba5f b3ba aaa3 f13e 9cec 401f
00000040: c12e ad96 b443 2fba e3d1 6a3f 2a40 abbe
00000050: abdd 85a7 c02b 21bb e0c2 92bd 22cd 893e
00000060: 8d52 a4b5 c4b1 4aa4 f287 87b4 80b0 e9be
00000070: a0d0 eaa2 d27a 04b9 a1d8 acbb 3b61 6db1
00000080: 53f8 0cae 39ab 633f ff79 c9b9 0951 b9bc
00000090: e97c c392 60e7 95b3 5ca9 dd3e fdba 33bb
000000a0: ddf2 17bf 27c8 deb7 8ccf 912a 45ef 0cbe
000000b0: f0fd c6b4 d392 5f3f 3195 42b5 f392 ebab
000000c0: d290 ce97 a335 47b4 f63d 6bbd b1cb 0f27
000000d0: b18c feb0 df12 25b8 8641 8a3e 4603 ddb1
000000e0: 3479 6a3d bf7b 85bd 0fea c43d 3c69 59af
000000f0: d428 01bd 1b49 52b8 3178 04bb 6a2e 52ad
00000100: 4e97 16a8 3a81 e83d a94a c3b5 af6f 67ad
00000110: 94ff 9db4 7bb2 98a7 844f b5a6 79de 3832
00000120: 3ac3 41b5 f600 01b9 b821 77bf 4b39 87b1
00000130: 3d11 05bc c822 0ebb c1e4 74aa 2379 3ca4
00000140: 3c02 afaa 534a 823f 4f77 d7b5 d5ee e9b4
00000150: 70f3 d23c efbc 1298 ce23 efb8 f669 bfb3
00000160: 5f7a 65bf df2d 36b7 241b 033f 88da b4b0
00000170: 8da0 5eb3 2acf 9021 36fb 28b3 c372 a73e
00000180: 843b 043e 7b41 14b7 561c 2b92 edc5 fcbb
00000190: b91e ceb3 2ee1 80ac 8bee 803f adae 8bbd
000001a0: 6950 c6bc 06f6 70bd 988d c9ae 8ff1 f4bc
000001b0: 60c4 a4b9 2fe2 323a b42d b7ae a23e a4bd
000001c0: d4dd 26ac 3ce2 5bbe a999 15bb f2eb d03d
000001d0: a805 42aa 2f3c ddbc ae93 d6bd 522a b1b4
000001e0: 1435 bd3e ce50 5b2a 4bde c20f 393f 9bb7
000001f0: 51b5 5998 49c5 52b6 6100 4cbc a131 fa3c

fc2.weight f4 [64, 128]
1.0875948e-38 1.6149946e-37 3.615165e-39 -5.764249e-38 1.18532e-40 -8.490749e-11 6.580714e-38 -3.2488197e-38
-1.8525253e-37 -7.2411757e-32 5.2294463e-38 1.298365e-39 -7.8138536e-19 -3.783519e-37 -5.7832266e-17 -4.49811e-40
-1.5024348e-37 -3.411811e-38 -1.6269408e-29 6.4033443e-38 1.731535e-39 2.7627597e-38 -1.1836588e-37 -1.8874903e-30
-3.5102136e-37 3.5631567e-38 -3.467789e-39 3.0509192e-31 -3.9738437e-38 -5.217378e-33 1.018031e-39 2.688862e-39
-5.33783e-40 -1.9279833e-31 7.113047e-38 1.22488e-39 7.910543e-38 4.707393e-38 -3.3474437e-31 -3.543264e-38
-2.1600333e-32 -3.1290535e-38 -9.441478e-38 -1.713973e-31 5.639156e-38 -3.1328382e-31 8.62235e-38 -2.897867e-39
-1.98306e-40 -1.205823e-39 -4.219999e-38 8.34398e-38 4.302058e-38 3.759279e-38 3.1222205e-21 -5.0748074e-38
-1.292996e-31 -4.6377637e-38 -6.030079e-31 -1.4413397e-37 1.3801506e-32 4.3852105e-32 -1.357607e-37 1.0991045e-38
2.0170582e-38 -4.2616196e-32 -1.1657054e-38 -2.4169428e-38 -2.074303e-39 1.805416e-39 -2.990261e-38 -7.6167914e-38
2.830629e-39 3.526117e-34 1.2702064e-32 1.5662178e-38 -1.129734e-37 -5.554778e-38 -7.462735e-38 -8.198903e-38
-1.3468283e-38 1.5028212e-31 2.6098803e-38 3.230625e-37 3.605804e-20 -2.10333e-40 9.21231e-38 -1.1991303e-38
1.7730534e-31 1.239947e-39 -6.5653607e-31 4.8969283e-38 -2.8846e-40 2.360775e-39 4.5553085e-38 2.8345469e-28
-1.5845955e-16 -2.3423802e-38 1.0607213e-38 -1.035015e-31 3.3373722e-34 3.1667114e-38 -5.2479432e-17 1.110879e-30
-1.348388e-37 3.8454545e-37 -7.283447e-38 1.2754361e-38 -1.8979514e-37 1.642086e-39 -2.1434665e-38 3.0811336e-38
-1.7228052e-31 -1.0216931e-13 2.574157e-39 -1.6227996e-07 1.5347873e-37 -1.1130675e-34 5.41875e-40 5.0988414e-38
-2.839547e-10 -3.151022e-37 1.18904e-39 7.0722917e-38 -6.591786e-39 -8.5226704e-38 -2.0232698e-38 9.512793e-32
6.9900545e-38 9.58096e-40 2.3355744e-09 1.215524e-39 -8.84885e-40 0.052129455 -1.583393e-39 -4.676277e-20
-1.8687198e-09 -0.0045536947 -6.4524683e-15 -1.6850236e-14 -0.10297314 -4.016186e-17 -0.17096177 -1.375707e-27
-3.4144547e-28 -6.0162504e-18 -0.2084029 3.794757e-39 3.245574e-39 3.4263451e-38 5.049721e-38 -0.1690181
9.09926e-40 -1.502853e-39 -3.583232e-39 -0.103533156 -5.1720065e-38 3.1543767e-38 1.2860232e-12 -1.767092e-39
-7.60901e-40 -0.17946054 -2.11701e-40 -2.9245552e-37 -2.0949961e-38 1.0600478e-22 -0.049824063 -5.3900338e-18
0.002360787 -2.7850788e-10 2.3353541e-38 0.028795108 4.1394334e-38 -0.22111659 1.372429e-39 -8.126818e-38
-1.0098701e-33 -1.19052e-39 1.521851e-39 3.143166e-39 2.826266e-39 -6.2221526e-32 -0.15979336 8.46072e-40
0.00032173027 -6.74108e-12 -0.23083153 1.901429e-39 -0.0068362104 -3.187396e-39 2.5888176e-38 1.8551451e-20
2.4002e-40 -0.07810766 -8.767331e-19 -2.0539462e-37 7.77715e-40 2.303278e-39 1.5898e-39 2.833042e-38
1.7256e-41 8.30621e-40 -0.15013354 1.0565555e-37 -3.35759e-39 -2.0082597e-14 -1.5810967e-15 -6.69779e-40
1.3409503e-37 0.014071317 6.99221e-40 -4.945002e-38 0.037229247 2.6718334e-38 -8.80625e-40 2.42602e-13
-0.07831721 6.69913e-40 -0.19537908 4.5372948e-38 -1.8707424e-38 9.8838e-40 -1.8762503e-37 -0.22300032
-0.044016346 -2.2681503e-12 7.485271e-29 -0.13033068 2.266019e-39 1.8144142e-13 -0.28569454 -0.21112722
3.202746e-21 -1.1966569e-37 -3.56762e-40 -4.2114453e-18 -1.7822536e-37 -2.4495641e-21 -3.8648697e-38 4.7808253e-21
1.886445e-39 -0.09186259 -1.1411836e-37 -0.024252905 -3.91813e-40 2.8209522e-16 -1.56963e-39 -8.09802e-40
-0.2233213 -3.185088e-39 6.250548e-38 3.5488888e-24 -1.9015124e-38 9.41886e-40 -1.7575908e-21 -0.0026239597
00000000: b86d 7600 59d2 5b02 9c5d 2700 f4ea 9c81
00000010: 6b4a 0100 abb6 baae e224 b301 f0e1 3081
00000020: 1627 7c82 defd bb8b ec5b 8e01 5023 0e00
00000030: cf9f 66a1 19bf 0083 255a 85a4 e4e5 0480
00000040: 3680 4c82 b4c1 3981 ccfd a48f cc50 ae01
00000050: d1da 1200 406b 1601 7d1c 2182 a421 198e
00000060: 8ce4 ee82 28ff 4101 c9c2 2580 1704 c60c
00000070: 4c5b 5881 aeb8 d889 db15 0b00 7447 1d00
00000080: f8cf 0580 3c44 7a8c b4a2 c101 7856 0d00
00000090: 7058 d701 be25 8001 f342 d98c e4e9 4081
000000a0: 894f e08a a45c 2a81 c082 0082 867c 5e8c
000000b0: 2e83 9901 3455 cb8c 02b9 ea01 138e 1f80
000000c0: cc28 0280 5821 0d80 34c2 6581 0e25 e301
000000d0: f039 6a01 b4ac 4c01 87e8 6b1d 3f26 8a81
000000e0: 29d7 278c fe80 7c81 f0af 438d 5c2f 4482
000000f0: b252 8f0a 72b1 630b b3c9 3882 90ae 7700
00000100: 60a3 db00 a446 5d8b 20ef 7e80 4497 0381
00000110: 5096 1680 c4a8 1300 28ce 2281 4a59 cf81
00000120: a4d2 1e00 c659 ea07 e1e7 830a c88b aa00
00000130: 7cc5 1982 2737 9781 ac27 cb81 0432 df81
00000140: 18a8 9280 cd13 430c 6c18 0e01 6ddd db02
00000150: 7f47 2a1f 534a 0280 6ec8 fa01 e092 8280
00000160: ce27 660c 7880 0d00 e20e 558d 9c4e 8501
00000170: 1c24 0380 e1b4 1900 bc03 7801 27a9 b311
00000180: 01b1 36a5 0810 ff80 9880 7300 465a 068c
00000190: 72ce dd07 8469 2c01 c704 72a4 1c40 b40d
000001a0: 7788 3782 a2da 0203 3846 c681 f8e1 8a00
000001b0: fa2a 8182 78e1 1100 2067 e980 bcc0 2701
000001c0: 06a2 5f8c 9910 e6a9 b407 1c00 2d3f 2eb4
000001d0: 88e7 5002 b9f3 1387 87e6 0500 bdcd 8a01
000001e0: 121b 9caf 8c72 d682 8ff2 0c00 ae86 c001
000001f0: 38c7 4780 5802 e881 8850 dc80 5bf7 f60b
00000200: 9249 be01 c86e 0a00 dc7f 2031 633c 0d00
00000210: b3a2 0980 b285 553d db3d 1180 b8d4 5c9f
00000220: de6a 00b1 2937 95bb 8479 e8a7 00c6 97a8
00000230: 95e3 d2bd c136 39a4 9a10 2fbe 4efd d992
00000240: b26a d891 e1f5 dda2 9267 55be 3d52 2900
00000250: 5757 2300 488c 3a01 6b77 8901 1513 2dbe
00000260: 81e8 0900 585d 1080 9804 2780 3109 d4bd
00000270: a0cb 8c81 98bd 2b01 defd b42b ef3d 1380
00000280: 1549 0880 81c4 37be 234e 0280 f008 c782
00000290: f81f e480 e426 001b 5114 4cbd 6edb c6a2
000002a0: 6fb7 1a3b 801c 99af 2c4c fe00 b8e3 eb3c
000002b0: 485f 6101 636c 62be c6f1 0e00 a83b dd81
000002c0: 20cb a788 aff6 0c80 4d92 1000 de39 2200
000002d0: 7bc6 1e00 4c89 a18b dfa0 23be 8136 0900
000002e0: e8ad a839 402e edac 1a5f 6cbe 69b4 1400
000002f0: 4a02 e0bb 2ab5 2280 daf2 0c01 a836 af1e
00000300: 149d 0200 e9f6 9fbd 0a62 81a1 cac8 8b82
00000310: f477 0800 9a14 1900 b74f 1100 d83e 1a01
00000320: 1a30 0000 6f0b 0900 9bbc 19be 96cf 0f02
00000330: 988f 2480 51e3 b4a8 2cdc e3a6 124b 0780
00000340: 4c85 3602 628b 663c 259d 0700 a29d 8681
00000350: b27d 183d ec77 1101 d396 0980 a292 882a
00000360: c664 a0bd 724b 0700 7411 48be a908 7701
00000370: b0b4 cb80 34c3 0a00 c861 7f82 325a 64be
00000380: 7c4a 34bd 5d9b 1fac 30c6 bd10 6875 05be
00000390: bdac 1800 ee48 4c2a 8e46 92be bc31 58be
000003a0: 1efe 711d 68e1 2282 82e2 0380 fa5f 9ba2
000003b0: 7996 7282 7615 399d 6c6c 5281 4e9d b41d
000003c0: a48a 1400 7422 bcbd 7254 1b82 07ae c6bc
000003d0: 3744 0480 e89d a225 7d17 1180 66d1 0880
000003e0: 57ae 64be bbae 2280 f627 aa01 7e4a 8918
000003f0: 6e0e cf80 9841 0a00 c0cc 049d bdf6 2bbb

fc2.bias f4 [64]
-1.8725032e-14 -0.13180347 -0.015579163 -1.7697153e-19 -0.00049212365 -1.5961892e-07 -0.17883423 -0.0011544153
-7.292823e-08 -0.002157659 -2.4473874e-09 -0.7782337 0.72692055 0.7341724 -8.6640964e-24 -1.2016177e-12
-6.0687043e-21 0.34152934 -4.8378368e-14 -0.006194439 -7.8195225e-20 -0.0675732 0.32044056 -2.2102594e-07
0.5065508 0.9587083 0.5806538 -9.176e-24 -0.000634719 -2.7771219e-09 -3.31327e-22 -1.42784415e-08
-8.95528e-23 -0.03047903 -0.00033619485 -8.3178114e-05 0.8986889 -1.1499313e-16 -3.0689357e-12 0.4592037
0.9393402 -0.2245697 -3.438705e-08 0.62629145 -0.73774225 -1.9911651e-10 -4.3851763e-14 -0.00054479804
-0.007986758 -0.028457263 -6.84307e-05 -1.5178961e-20 -0.14344631 -8.531912e-15 -5.6535203e-08 -0.002416935
-0.7036168 -0.00018051625 -8.055333e-06 -0.0068148533 -0.0013376912 -0.0019213847 -0.0010199184 -2.375896e-16
00000000: fca8 a8a8 7df7 06be bf3f 7fbc 5dee 50a0
00000010: dc01 01ba b763 2bb4 5220 37be c04f 97ba
00000020: b89c 9cb3 8367 0dbb e52e 28b1 533a 47bf
00000030: 7717 3a3f b9f2 3b3f 8796 2799 d71c a9ab
00000040: e844 e59d efdc ae3e 76e0 59a9 b8fa cabb
00000050: 1da2 b89f d163 8abd c910 a43e 2653 6db4
00000060: 50ad 013f e86d 753f baa5 143f 5a7d 3199
00000070: 4563 26ba a5d7 3eb1 5f46 c89b 404d 75b2
00000080: 8086 d89a 29af f9bc 4f43 b0b9 e96f aeb8
00000090: 7a10 663f fb93 04a5 08f5 57ac bf1c eb3e
000000a0: 9978 703f 99f5 65be f6b0 13b3 a354 203f
000000b0: addc 3cbf 51ee 5aaf a47d 45a9 c7d0 0eba
000000c0: e4da 02bc 351f e9bc 7482 8fb8 7a5c 8f9e
000000d0: 97e3 12be 80b2 19a8 1dd1 72b3 7165 1ebb
000000e0: 3b20 34bf f648 3db9 6425 07b7 224f dfbb
000000f0: 7855 afba f9d6 fbba c8ae 85ba 09f6 88a5

out.weight f4 [10, 64]
5.115519e-05 0.23042919 1.6268426e-07 8.244978e-32 -0.006591396 0.0001423764 0.08343766 0.058258343
6.529421e-14 1.251213e-06 7.8624164e-30 0.051308855 -0.045162372 -0.051931363 -2.4385748e-17 -4.6923113e-30
-2.7730448e-06 0.018239113 -1.087279e-39 -0.0030759175 5.4536e-40 -0.026071323 0.60007894 -8.069195e-16
-0.051135387 0.0015743852 -0.04773098 6.28233e-40 -6.60941e-11 -5.091704e-09 0.0014106893 -5.015781e-13
2.089937e-39 -0.0002452285 1.1507988e-06 -5.0735395e-07 -0.23126003 -9.00057e-24 -2.3495877e-14 -0.046860695
-0.050160892 0.11341867 2.9478413e-29 -0.04302399 0.040771484 3.912225e-18 -0.00011617681 -7.241446e-10
0.0052171564 -0.0019319652 7.758005e-15 1.068356e-39 0.0070841475 1.514669e-39 -0.0043535475 0.020206617
0.036082923 5.086423e-06 -0.0005861816 1.3789063e-05 -1.7080903e-06 -0.0032613485 0.000294764 -1.7876826e-19
2.5216086e-16 0.2527879 -7.27067e-10 -5.484186e-38 7.10618e-06 -9.3473844e-08 -0.029858612 -0.0021359148
8.957482e-13 0.00035029888 3.2346843e-24 0.083312795 0.72383493 -0.08320058 -1.4968673e-13 9.412506e-14
-1.73649e-40 -0.34023374 -2.7752607e-20 0.011778124 -9.44627e-40 0.08913201 -0.074415244 1.5494261e-07
-0.07467221 -0.02368179 -0.08264881 1.0085e-40 -1.110538e-07 -2.5558398e-15 4.819654e-34 -6.712576e-18
3.410097e-32 0.028947223 4.030374e-05 -0.0029897788 -0.08868829 7.09354e-40 1.0723933e-23 -0.08235684
-0.077259056 0.059653528 9.4453005e-23 -0.06831071 0.08844207 2.4845372e-11 1.8703372e-27 -9.8096316e-11
4.5895575e-08 -0.009396148 9.8925395e-17 1.219124e-39 0.018837232 2.1431945e-15 7.980393e-06 0.020311149
0.073075354 -1.7687949e-08 5.307434e-06 0.0004617531 -1.0363796e-06 -0.011357535 -0.011461035 -1.5355468e-30
1.768943e-13 -0.18553226 0.03672133 1.2505757e-20 -0.008416371 -4.0892452e-08 0.009726599 -1.1510078e-06
1.3729992e-08 -2.6338514e-06 -1.2211005e-08 0.10528258 -0.1316107 -0.12202864 -6.160229e-10 9.785715e-12
5.8158702e-36 -0.15454453 -6.39051e-18 0.010644886 -8.66068e-40 0.0037333786 -0.10172951 0.0053883693
-0.12494927 -0.034028184 -0.12120131 -1.3097753e-38 0.0006991528 -2.795317e-10 2.5745128e-33 0.00033056876
-2.46497e-39 0.015256526 -8.103162e-07 -0.00027883993 -0.121006645 -3.5171074e-13 -3.749073e-07 -0.11534581
-0.1186298 0.003327419 -7.859597e-10 0.58549327 0.12357105 -3.9459422e-09 1.7628748e-06 -1.2715549e-08
-5.40445e-07 -0.00252896 -2.898804e-16 2.126421e-39 0.17922644 7.1709735e-18 4.954721e-05 -0.102162965
0.11536183 8.1654726e-08 2.086694e-13 3.1218307e-05 -4.516104e-07 0.00063770445 -1.8953659e-05 6.612361e-19
-4.4903353e-27 -0.26365685 2.3796876e-09 2.88362e-39 -0.0035296783 -6.88571e-40 -0.08352422 -0.0025287366
-1.4585987e-06 2.6912974e-06 1.6374805e-05 -0.6629297 -0.08030013 -0.07507337 3.6927963e-17 -3.45244e-40
-1.07288e-23 0.11433034 4.431914e-26 0.0001655073 2.03412e-40 -0.039110787 -0.07310978 -2.071348e-25
-0.07710306 -0.013057152 -0.07027977 2.235288e-39 1.376139e-16 -1.5956256e-09 -1.9502786e-17 5.4471785e-11
3.0679596e-20 -8.477203e-05 4.656949e-07 -6.539784e-06 -0.09184219 1.38776e-40 -3.7810365e-05 0.6499418
-0.08475271 0.11995199 -2.0953742e-11 -0.075097404 0.05523934 1.6018962e-08 -1.9010201e-06 3.7722843e-09
-0.00904003 0.023075294 2.7395849e-16 -2.15056e-40 -0.037070256 -3.050281e-30 0.0021621757 0.0006296778
0.040097073 1.370032e-10 -3.1038535e-06 -0.00058505335 0.0005199776 0.013302119 -3.969213e-05 4.2207876e-21
00000000: 788f 5638 a1f5 6b3e 4fae 2e34 470d d60b
00000010: a3fc d7bb e04a 1539 5de1 aa3d 4da0 6e3d
00000020: 8d07 9329 5aef a735 0078 1f0f 3c29 523d
00000030: 2efc 38bd fbb5 54bd 38eb e0a3 bf57 be8e
00000040: 8c18 3ab6 316a 953c e4d6 0b80 5595 49bb
00000050: 3ef0 0500 8793 d5bc c69e 193f 2694 68a6
00000060: 5773 51bd 9a5b ce3a 8f81 43bd 42d7 0600
00000070: ac57 91ae 1af3 aeb1 e1e6 b83a 832e 0dab
00000080: e5c1 1600 0392 80b9 2575 9a35 1931 08b5
00000090: 6ecf 6cbe aa18 2e99 cea1 d3a8 00f1 3fbd
000000a0: 8275 4dbd 0c48 e83d 2b79 1510 ec39 30bd
000000b0: 0000 273d ec55 9022 f3a3 f3b8 250d 47b0
000000c0: aef4 aa3b ff39 fdba 7cc1 0b28 24a2 0b00
000000d0: 2322 e83b 487e 1000 34a8 8ebb 5988 a53c
000000e0: b0cb 133d 0aac aa36 fba9 19ba 9357 6737
000000f0: 8941 e5b5 59bc 55bb 8e8a 9a39 640d 53a0
00000100: 605c 9125 6a6d 813e cbda 47b0 334b 9581
00000110: 9f71 ee36 cabb c8b3 0c9a f4bc b4fa 0bbb
00000120: 7621 7c2b 52a8 b739 8645 7a18 e69f aa3d
00000130: 3f4d 393f 1165 aabd 4388 28aa 67f3 d329
00000140: 10e4 0180 1e33 aebe d80e 039f 08f9 403c
00000150: 3c49 0a80 d88a b63d 0567 98bd 4d5e 2634
00000160: beed 98bd 5000 c2bc c843 a9bd 2119 0100
00000170: 797c eeb3 ec2a 38a7 1529 2008 7da6 f7a2
00000180: f70f 310b ba22 ed3c d00b 2938 2af0 43bb
00000190: 35a2 b5bd 64b9 0700 586e 4f19 b4aa a8bd
000001a0: ff39 9ebd 4257 743d 945f e41a 7ce6 8bbd
000001b0: 1e21 b53d ce8a da2d f22e 1413 51b7 d7ae
000001c0: b81e 4533 4df2 19bc 3f1b e424 6c46 0d00
000001d0: 8a50 9a3c f66e 1a27 87e3 0537 9163 a63c
000001e0: 88a8 953d 36f0 97b2 8316 b236 7417 f239
000001f0: bb19 8bb5 f414 3abc 11c7 3bbc 1e28 f98d
00000200: 502a 472a 2bfc 3dbe 1b69 163d 213a 6c1e
00000210: d2e4 09bc baa1 2fb3 505c 1f3c 547c 9ab5
00000220: 25e1 6b32 39c1 30b6 91c8 51b2 659e d73d
00000230: f5c4 06be 27ea f9bd c254 29b0 f126 2c2d
00000240: 3861 f704 ec40 1ebe a9c4 eba2 e367 2e3c
00000250: 3f6e 0980 b3ab 743b 9057 d0bd eb90 b03b
00000260: 67e5 ffbd 2361 0bbd 6438 f8bd 359f 8e80
00000270: 5a47 373a 97ac 99af d5e1 5509 3050 ad39
00000280: 55d7 1a80 82f6 793c 8184 59b5 4331 92b9
00000290: 55d2 f7bd dcfe c5aa de46 c9b4 6d3a ecbd
000002a0: 2ef4 f2bd d410 5a3b ff0a 58b0 e3e2 153f
000002b0: d212 fd3d e094 87b1 eb9b ec35 9373 5ab2
000002c0: 1913 11b5 e8bc 25bb cc1a a7a5 9927 1700
000002d0: 2387 373e f747 0423 e9d0 4f38 d13a d1bd
000002e0: d342 ec3d 295a af33 dcf0 6a2a 67f0 0238
000002f0: dc74 f2b4 9f2b 273a acfe 9eb7 9629 4321
00000300: 69e1 b193 08fe 86be e887 2331 5c66 1f00
00000310: 2d52 67bb 757f 0780 bf0e abbd 29b9 25bb
00000320: 12c5 c3b5 239c 3436 a05c 8937 c3b5 29bf
00000330: 6574 a4bd 11c0 99bd d84c 2a24 66c2 0380
00000340: 7286 4f99 0626 ea3d 2f75 5b15 078c 2d39
00000350: 0837 0200 a232 20bd 95ba 95bd d235 8096
00000360: 36e8 9dbd aaed 55bc d7ee 8fbd 1357 1800
00000370: 74a8 1e25 164d dbb0 a7e1 b3a3 c791 6f2e
00000380: 5be1 101f a3c7 b1b8 9f04 fa34 5170 dbb6
00000390: c217 bcbd da82 0100 9296 1eb8 9662 263f
000003a0: d492 adbd 64a9 f53d a24f b8ad abcc 99bd
000003b0: a542 623d 129a 8932 8e26 ffb5 5d9d 8131
000003c0: a21c 14bc 6608 bd3c 23ed 9d25 7d57 0280
000003d0: fbd6 17bd dc77 778e 4ab3 0d3b f610 253a
000003e0: d43c 243d f9a2 162f cc4b 50b6 445e 19ba
000003f0: 1b4f 083a 22f1 593c 1a7b 26b8 f474 9f1d

out.bias f4 [10]
0.064244576 0.10334381 0.16264705 0.10982655 0.05386482 0.11659267 0.08086835 0.120143466
0.083747216 0.087948404
00000000: a992 833d eba5 d33d f38c 263e beec e03d
00000010: 5ca1 5c3d 23c8 ee3d 4e9e a53d c70d f63d
00000020: a983 ab3d 4b1e b43d
