exps/regularModelExperiments/pretrainedmodels/neuralBalanceModel3.pt (torch, 973831 bytes, 8 tensors)

fc.weight f4 [256, 784]
0.0003074483 -0.00015173118 0.00050125906 0.00013794699 -0.0008652762 -0.00056429626 0.0009004683 0.00028526923
0.00013602688 0.0009344967 8.348866e-05 0.0002898608 -7.282255e-05 0.0005245192 -0.0003964637 0.0003898327
0.00022201015 -0.0007325113 9.095681e-05 -0.0004928769 -0.00078901753 -0.0002930073 -0.00068578613 -0.00075898337
0.00073606154 -8.545261e-05 -0.00069831475 0.00019606839 -0.00038478582 8.647482e-05 0.000967565 -0.00044521465
0.00021442768 -0.000808709 -0.00047818758 0.0025806176 0.002101855 0.0020479537 0.0017990292 0.0006984428
0.0008501301 -0.00031798196 0.00085929356 -0.00010033824 4.7435686e-05 -0.0009026523 -0.0017702405 -0.0009975306
0.00095558824 0.00034955613 0.0007093434 7.838081e-05 -0.00033518934 0.00016485811 6.557501e-05 0.00074405636
-0.00017212072 -0.0008612023 -0.0010105331 0.00063547364 0.00018467374 -0.0006719434 0.00046695175 -0.0015599565
0.0006096912 0.0013534788 -0.0019351224 -0.0012412345 -0.00013329134 0.00010127796 -0.0008369458 0.00015960785
0.000498731 -0.0007203123 -0.00075947057 0.0013078289 0.0025737528 0.0026281269 0.0028634204 -0.0006319927
0.00021221516 -0.00029879328 0.0007173952 -0.0007181339 -0.00055696716 0.0008710898 0.00070439855 0.00028237613
0.00070323946 -8.538852e-05 0.0023040038 0.0024656553 0.0009825764 0.00082703563 0.0005937626 -0.00065907737
0.00023499104 -0.0002204563 -0.0016935258 -1.14702625e-05 -2.4765537e-05 -0.00029764313 -0.0012680105 -9.7343596e-05
0.0030414462 0.0017905339 -0.0005525373 0.00018214012 0.0023295274 -0.00082943996 -0.0005648246 6.9167974e-05
0.0003588291 0.00028100915 -0.0006716506 0.0006834916 -0.0013931524 -0.001216874 0.0010871863 8.8804976e-05
0.000626214 -0.00014397249 -0.0010044996 -0.0008666695 -0.0002433929 -0.0016799003 -0.0011600088 -0.0016766085
-0.0016235674 -0.0014905201 -0.00085698545 -0.0013938873 -0.0011968159 -0.0012343667 -0.00089580443 -0.00014230731
-0.0013949492 0.0010099766 0.00028448837 0.0009130073 0.00053172087 0.0005049039 0.00069890975 -0.0022048762
-0.002754986 -0.0021958414 -0.0025840264 -0.0015303345 -0.0001856018 -0.001409145 -0.00015041733 -0.0020197472
-0.0018721618 -0.0016476193 -0.0011158762 -0.0006535397 -0.00065183215 -0.00090735115 -0.0011062636 -0.00028629263
-0.0018346761 -0.0016378934 -0.0022484623 -0.00064127106 -0.0021841887 -0.0015153058 -0.00013234298 0.0007221974
0.00094274094 -0.00031927237 0.0022597646 -0.00087168254 -0.00306771 -0.0023119885 -0.0033366384 -0.0008521602
-0.0014049892 -0.0005054153 -0.0004920877 -0.0004941434 -0.000861487 -0.0014596186 -0.0020667524 -0.0017963918
-0.0008035127 -0.001505511 -0.0021137614 -0.0009905605 -0.0006050435 -0.0010967364 -0.0010078294 -0.0013075563
-0.0008081567 -0.0011400178 0.0023450253 -0.0007246664 -0.00030402042 -0.00027217556 0.00018456868 -0.0013474128
-0.0026162858 -0.0016400376 -0.0022776637 -0.0021511486 -0.0019304842 -0.0015292005 -0.00038233548 -0.00096701365
-0.00038699928 -0.0007528295 -0.002184092 -0.0006363032 -0.00121259 -0.0014976338 -0.0014556608 -0.002340796
-0.0016301993 -0.00060009654 -0.0022046184 -0.00026512152 -0.0017453763 -0.0006521146 -0.0020520552 0.00021359247
-0.0007713668 -0.00092069735 -0.0010774938 -0.0015349046 -0.0015764794 -0.0014739409 -0.001409039 -0.0010831532
-0.0018865824 -0.0006359551 -0.0013565769 -0.0006996478 -0.0015131824 -0.0008879853 -0.0016477568 -0.001882241
-0.0014423635 -0.0014836598 -0.0018454758 -0.0010404019 -0.0012103713 -0.0017186486 -0.0014373005 -0.0010969662
-0.0017058775 -0.000106825544 -0.0015021896 -0.00044319758 0.0008398914 0.0010533091 -0.0017240427 -0.00028905852
00000000: 0331 a139 071a 1fb9 ed66 033a dda5 1039
00000010: b4d3 62ba 48ed 13ba 680d 6c3a 3090 9539
00000020: 70a2 0e39 03f9 743a a216 af38 75f8 9739
00000030: 4fb8 98b8 e37f 093a 75dc cfb9 7662 cc39
00000040: 65cb 6839 0006 40ba 11c0 be38 6934 01ba
00000050: 12d6 4eba c69e 99b9 54c6 33ba 83f6 46ba
00000060: 41f4 403a 0535 b3b8 1c0f 37ba b597 4d39
00000070: 14bd c9b9 d159 b538 30a4 7d3a b36b e9b9
00000080: fed7 6039 8bff 53ba 40b5 fab9 941f 293b
00000090: 46bf 093b f636 063b 67cd eb3a b417 373a
000000a0: 44db 5e3a d1b6 a6b9 3742 613a af6c d2b8
000000b0: aef5 4638 f89f 6cba 6a07 e8ba 93bf 82ba
000000c0: 7180 7a3a a144 b739 3bf3 393a 6060 a438
000000d0: 5abc afb9 c3dd 2c39 5185 8938 c70c 433a
000000e0: 4e7b 34b9 4fc2 61ba dd73 84ba ea95 263a
000000f0: fba4 4139 5c25 30ba 34d1 f439 7477 ccba
00000100: afd3 1f3a 3667 b13a efa3 fdba ebb0 a2ba
00000110: 1fc4 0bb9 3165 d438 7b66 5bba 685c 2739
00000120: 45bd 023a 57d3 3cba 3517 47ba 756b ab3a
00000130: 68ac 283b a73c 2c3b 39a8 3b3b 50ac 25ba
00000140: 1386 5e39 5ba7 9cb9 940f 3c3a 2641 3cba
00000150: 6f01 12ba d959 643a 63a7 383a e20b 9439
00000160: 9a59 383a 9d12 b3b8 c5fe 163b d596 213b
00000170: cbc9 803a 6ccd 583a bca6 1b3a efc5 2cba
00000180: ed67 7639 4a2a 67b9 4cf9 ddba 6770 40b7
00000190: 96bf cfb7 fc0c 9cb9 5f33 a6ba f224 ccb8
000001a0: 0053 473b 59b0 ea3a 27d8 10ba defc 3e39
000001b0: fcaa 183b c66e 59ba bd10 14ba 460e 9138
000001c0: 3a21 bc39 6954 9339 b511 30ba 582c 333a
000001d0: 709a b6ba 847f 9fba eb7f 8e3a cf3c ba38
000001e0: 8328 243a 52f7 16b9 6aa9 83ba 3531 63ba
000001f0: 4937 7fb9 1a30 dcba 700b 98ba a5c1 dbba
00000200: e2cd d4ba 8e5d c3ba 52a7 60ba 19b3 b6ba
00000210: 7ade 9cba 79ca a1ba 6bd4 6aba 5438 15b9
00000220: bad6 b6ba 3161 843a 6227 9539 e256 6f3a
00000230: 2f63 0b3a 875b 043a 0a37 373a af7f 10bb
00000240: ff8c 34bb 1be8 0fbb c558 29bb 8195 c8ba
00000250: 1b9e 42b9 0fb3 b8ba 58b9 1db9 bc5d 04bb
00000260: 5363 f5ba eef4 d7ba 9842 92ba 4f52 2bba
00000270: b7df 2aba 4edb 6dba 0c00 91ba 8c19 96b9
00000280: 8479 f0ba 95ae d6ba f05a 13bb f91a 28ba
00000290: 9b24 0fbb 3a9d c6ba 8cc5 0ab9 d951 3d3a
000002a0: 4622 773a 0364 a7b9 8f18 143b a081 64ba
000002b0: a20b 49bb bb84 17bb 81ab 5abb 8163 5fba
000002c0: 9d27 b8ba d97d 04ba 72ff 00ba 6789 01ba
000002d0: 6ad5 61ba ac50 bfba 5a72 07bb e874 ebba
000002e0: d3a2 52ba 9154 c5ba 0887 0abb b2d5 81ba
000002f0: c89b 1eba 5ec0 8fba 2519 84ba 4f62 abba
00000300: 7ada 53ba a66c 95ba ffae 193b 8af7 3dba
00000310: ee64 9fb9 c9b2 8eb9 c788 4139 ac9b b0ba
00000320: fe75 2bbb 88f6 d6ba db44 15bb 49fa 0cbb
00000330: 4d08 fdba 746f c8ba 3374 c8b9 307f 7dba
00000340: 2ae6 cab9 8859 45ba fc22 0fbb 96cd 26ba
00000350: c5ef 9eba 404c c4ba dfcb beba 0a68 19bb
00000360: 69ac d5ba cc4f 1dba 5c7b 10bb 0200 8bb9
00000370: 1cc5 e4ba acf2 2aba c67b 06bb cbf7 5f39
00000380: 8d35 4aba f45a 71ba b13a 8dba da2e c9ba
00000390: dfa1 ceba 4031 c1ba 81af b8ba 97f8 8dba
000003a0: 3347 f7ba 39b6 26ba 2bcf b1ba 9268 37ba
000003b0: fa55 c6ba afc7 68ba 8bf9 d7ba 87b5 f6ba
000003c0: b00d bdba 5d77 c2ba e4e3 f1ba 185e 88ba
000003d0: 52a5 9eba 4744 e1ba cd63 bcba 14c8 8fba
000003e0: c097 dfba 8707 e0b8 1ee5 c4ba f95c e8b9
000003f0: 282c 5c3a 300f 8a3a 46f9 e1ba c78c 97b9

fc.bias f4 [256]
-0.04835684 -0.025816487 -0.060635906 -1.4383272 -0.1534699 -0.30969933 -0.071165234 -0.028282465
-0.030463692 -0.01825639 -0.092741795 -0.040557683 -0.029695313 0.011710157 -0.037118707 -0.07167936
-0.06720174 0.6164907 -0.04016593 -0.031777576 -0.09506473 -0.0461297 -0.09806057 -0.09951908
-0.053774808 -1.1222936 -0.04343466 -0.75537485 -1.9340026 -0.08317746 -0.08537309 -0.040447246
-0.06762325 -0.08414195 -0.07611077 -0.07987758 -0.03612612 -0.07580426 -0.30336404 -0.036121596
0.125687 -0.07530897 -0.09235104 -0.154779 -0.038870256 -0.78824204 -0.07340183 -0.07184541
-0.111560374 -0.0803261 -0.0635501 -0.05445779 -0.066246465 -0.10885806 -0.086663805 -0.077295765
-0.013853253 -0.040711716 -0.079369105 -0.040342655 -0.04909908 -0.35844555 -0.045406923 -0.03222184
-0.048591748 -0.08621148 -0.050977707 -0.3720911 -0.026909284 -0.044777844 -0.08584547 -0.076578
-0.05190078 0.6960388 -0.07306653 -0.09202426 -0.056842506 -0.079883516 -0.028784156 -0.014690241
-0.020168917 -0.073862836 -0.07384464 -0.08238202 -0.06167445 -0.029147249 -0.047074486 -0.07661544
0.060527846 -0.06379001 -0.13211928 0.53856075 -0.2238183 -0.007996913 -0.096250765 -0.01972021
-0.055905193 -0.011225303 -0.031219143 -0.08224253 -0.08066467 -0.066768296 -0.04798051 -0.9173544
-0.07575132 -0.038336042 -0.032573007 -0.0747676 -0.0013089345 -0.07105698 -0.015948717 -0.091042615
-0.02437947 -0.0138864145 -0.061421547 -0.06723214 -0.039075505 -0.08318825 -0.093714945 -0.061100822
-0.054064225 -0.015144649 1.1133373 -0.06534659 0.3229683 -0.044827495 -0.059040107 -0.031725425
-0.05731637 -1.4324423 -0.06273547 -0.009655711 -0.1042513 -0.04465416 -0.07119229 -0.78559554
-0.065930605 -0.062402237 -0.024005394 -0.04196296 -0.0545242 -0.03884302 -0.077910535 -0.055719927
-0.07675572 0.15050444 -0.03945773 -0.09222429 -0.0647498 -0.08970245 -0.044694588 -0.05954371
-0.09182638 -0.031527665 -0.025451511 -0.02730846 -0.023025729 -0.020607952 -0.03375529 -0.057053603
-0.03796512 -0.033649493 -0.061386883 -0.04783649 -0.057118036 -0.07113262 -0.06356775 -0.031391792
-0.56505716 -0.09961175 -0.038073897 -0.08675518 -0.04976575 -0.041427016 -0.07076303 -0.049225807
-0.037810754 -0.09313985 -0.06279436 -0.08382966 -0.081361234 -0.0026980457 -0.044731848 -0.042509966
-0.022342075 -0.04377499 -0.028231036 -2.5862825 -0.09521349 -0.022367312 -0.07244115 -0.043921225
-0.0902998 -0.09151981 -0.047258962 0.5989566 -0.087957084 -0.024433235 -0.053425614 1.1180726
-0.067499265 -0.04673627 -0.07078032 0.571002 -0.1398458 -0.043994438 -0.06253067 -0.086351804
-0.06618654 -0.042210337 -0.0918826 -0.07206659 -0.048331194 -0.025580112 -0.010054045 -0.069408916
-0.030302828 -0.07542604 -0.018544154 -0.027428024 -0.01789431 -0.100210235 -0.08255165 -0.03007741
-0.09023416 -0.053738385 -1.151382 -0.031897712 -0.048879568 -0.052465905 -0.034336835 -0.078665525
-0.16876851 -0.50028586 -0.07535436 -0.08274593 -0.040914815 -0.07589911 -0.06894592 -0.019418117
-0.9769892 -0.08112897 -0.020049803 -2.2765732 -0.048411872 -0.014395468 -0.9502436 -0.08557298
-0.069680326 -0.35085115 -0.07713671 -0.009634012 -0.042787474 -0.04613747 -0.0038549055 -0.5010197
00000000: d211 46bd 197d d3bc 5b5d 78bd 1b1b b8bf
00000010: 3727 1dbe e990 9ebe 14bf 91bd a1b0 e7bc
00000020: fe8e f9bc 6d8e 95bc 69ef bdbd d01f 26bd
00000030: 9643 f3bc f5db 3f3c c909 18bd a1cc 92bd
00000040: 11a1 89bd 56d2 1d3f 0885 24bd 3429 02bd
00000050: 4cb1 c2bd 7ff2 3cbd fbd3 c8bd a9d0 cbbd
00000060: f942 5cbd 51a7 8fbf 8be8 31bd 3f60 41bf
00000070: 668d f7bf f258 aabd 16d8 aebd 03ac 25bd
00000080: 0f7e 8abd 9d52 acbd f7df 9bbd db96 a3bd
00000090: fbf8 13bd 443f 9bbd 8852 9bbe 3df4 13bd
000000a0: 18b4 003e 973b 9abd 8b22 bdbd 637e 1ebe
000000b0: 6b36 1fbd 3bca 49bf b353 96bd b023 93bd
000000c0: c479 e4bd 0382 a4bd 8e26 82bd 220f 5fbd
000000d0: 3aac 87bd f9f0 debd cb7c b1bd 3e4d 9ebd
000000e0: c1f8 62bc 54c1 26bd 458c a2bd 573e 25bd
000000f0: 1e1c 49bd 2d86 b7be 9cfc 39bd 0cfb 03bd
00000100: 2408 47bd a58f b0bd 00ce 50bd ba82 bebe
00000110: dc70 dcbc f968 37bd c0cf afbd edd4 9cbd
00000120: ea95 54bd 992f 323f e8a3 95bd 3777 bcbd
00000130: b0d3 68bd f899 a3bd c0cc ebbc 56af 70bc
00000140: 4939 a5bc 6645 97bd dc3b 97bd e8b7 a8bd
00000150: 599e 7cbd 36c6 eebc 2dd1 40bd 8ee8 9cbd
00000160: 0cec 773d 56a4 82bd 474a 07be 1edf 093f
00000170: a030 65be 7c05 03bc 1f1f c5bd 478c a1bc
00000180: d8fc 64bd 55ea 37bc 4abf ffbc c66e a8bd
00000190: 8533 a5bd d1bd 88bd 3687 44bd bdd7 6abf
000001a0: 8223 9bbd 4106 1dbd 466b 05bd c11f 99bd
000001b0: 8e90 abba 5286 91bd e2a6 82bc 8d74 babd
000001c0: 74b7 c7bc d883 63bc 2995 7bbd 01b1 89bd
000001d0: a30d 20bd 9a5e aabd 9fed bfbd db44 7abd
000001e0: 7372 5dbd 4321 78bc d681 8e3f 6fd4 85bd
000001f0: 1a5c a53e 099d 37bd 0ad4 71bd 85f2 01bd
00000200: 92c4 6abd 455a b7bf 747b 80bd fd32 1ebc
00000210: b581 d5bd 48e7 36bd 43cd 91bd ca1c 49bf
00000220: a006 87bd 7d99 7fbd f6a6 c4bc 5ae1 2bbd
00000230: c454 5fbd dc19 1fbd 8f8f 9fbd 943a 64bd
00000240: 1a32 9dbd d61d 1a3e 6e9e 21bd 17e0 bcbd
00000250: 8b9b 84bd ebb5 b7bd ac11 37bd 1be4 73bd
00000260: 780f bcbd 2723 01bd b07f d0bc feb5 dfbc
00000270: 74a0 bcbc 02d2 a8bc fd42 0abd 0ab1 69bd
00000280: 5081 1bbd 0dd4 09bd d070 7bbd 32f0 43bd
00000290: 9af4 69bd fbad 91bd cf2f 82bd ae94 00bd
000002a0: 96a7 10bf 3f01 ccbd 60f3 1bbd b3ac b1bd
000002b0: 2cd7 4bbd 60af 29bd 35ec 90bd 00a1 49bd
000002c0: 73df 1abd 1bc0 bebd 549a 80bd e3ae abbd
000002d0: b8a0 a6bd b2d1 30bb be38 37bd ee1e 2ebd
000002e0: ba06 b7bc 674d 33bd c644 e7bc a785 25c0
000002f0: 4aff c2bd a73b b7bc 075c 94bd bee6 33bd
00000300: 1aef b8bd bd6e bbbd 9d92 41bd 3855 193f
00000310: d822 b4bd 3528 c8bc d1d4 5abd 011d 8f3f
00000320: 0e3d 8abd 886e 3fbd 46f5 90bd 302d 123f
00000330: bd33 0fbe 8333 34bd 1410 80bd 37d9 b0bd
00000340: cf8c 87bd bfe4 2cbd f22c bcbd a697 93bd
00000350: eef6 45bd 628d d1bc b9b9 24bc 4326 8ebd
00000360: a33d f8bc f878 9abd e9e9 97bc bcb0 e0bc
00000370: 1797 92bc 063b cdbd d710 a9bd e764 f6bc
00000380: b0cc b8bd c81c 5cbd 7c60 93bf 2da7 02bd
00000390: f135 48bd 7de6 56bd c8a4 0cbd 641b a1bd
000003a0: a7d1 2cbe bc12 00bf 6353 9abd b376 a9bd
000003b0: 4b96 27bd fe70 9bbd 8533 8dbd be12 9fbc
000003c0: f71b 7abf f226 a6bd 7c3f a4bc 60b3 11c0
000003d0: 874b 46bd f8da 6bbc 2a43 73bf e340 afbd
000003e0: 8fb4 8ebd c3a2 b3be daf9 9dbd fad7 1dbc
000003f0: eb41 2fbd a5fa 3cbd 95a2 7cbb d442 00bf

fc1.weight f4 [128, 256]
-0.0034294815 -0.0033960668 -0.00084369053 -0.20152313 0.0015740797 -0.6904752 -0.00029123653 -0.0035802834
-0.003160239 -0.0017086865 -0.0014573048 -0.0025824083 -0.000836276 -0.0035062968 -0.0037410595 0.0008802889
-7.3477415e-05 -2.6190763 -0.00061736687 -0.0034439103 -0.004278878 0.0013058202 -0.0021517545 0.0027660802
-0.0011915532 -0.48420295 0.00016910121 -1.6678463 -2.0624084 -0.0030115433 0.0004547518 -0.0045200726
0.0019505132 0.0034201883 -0.0003206769 0.0033472052 -0.00078692334 -0.0052590054 0.0034678895 -0.0020802259
-2.8560965 -4.6499918e-05 -0.0017085654 -0.05835658 0.0021691974 -0.904005 -0.0038681969 -0.001322904
-0.0030767457 -0.0022855855 -0.002991897 0.0035468705 -0.001935773 -0.002600387 -0.0012504498 0.0016310713
-0.0010934804 0.00072299375 -0.0036634002 -0.000702839 -0.0018459103 -0.035319485 -0.0034932736 -0.0044155885
-0.001829174 0.0029536968 -0.001763192 -0.13886304 -0.0025474073 -0.003267291 -0.0021185242 0.0041123237
-0.00085649994 -1.5345671 -0.0022548542 -0.0013703668 -0.0005509507 -0.002722241 0.001959466 -0.0012141226
-0.002633508 -0.0034924215 5.004548e-06 -0.0012393171 0.001636711 0.00086264306 -0.000916463 -0.00096991187
-0.009203953 -0.4453263 -0.01703872 -1.7505866 -1.8579773 -0.0026175915 -0.0030151273 -0.0007689748
-0.0019325648 -0.0049151625 -0.0048643122 0.0030472823 0.003551343 -0.0036224201 -0.0018414455 -1.5405872
-0.0003775147 -0.0012343997 -0.0004519084 -0.0027943677 -0.0036778706 0.00046004233 -0.005356498 0.0015516902
-0.21523109 0.00045097605 0.0050974702 -0.0029022654 -0.0039213235 -0.0006739809 -0.004263047 -0.000158997
0.0046577225 -0.000992513 -1.2230476 -0.002442317 -0.4018677 -0.0004296679 -0.0030029563 -0.0017710236
-0.0039174636 -1.2171221 -0.00426554 -0.0035091415 0.00013202924 -0.0033910866 -0.0012216016 -0.34783298
-0.0005032733 0.003913649 -0.001659962 -0.00020979517 -0.00041407652 -0.0013502839 -0.0029138748 -0.0020206836
0.00030456387 -0.0005781899 -0.0047866753 0.003253092 -0.0028158794 -0.001577444 -0.002581058 0.0022058515
0.00312777 -0.005112513 -0.0013923816 -0.0026413759 -0.0041153207 -0.0018807361 -0.002414869 0.0017157985
-0.0027212892 -0.0008578409 -0.00439053 -0.0027987347 0.000519853 0.00016270451 0.0034110483 -0.00041457269
-0.05085069 0.0042537106 0.0045981146 0.0052222162 -0.0013623256 -0.0030376173 -0.0009299229 -0.0013717059
0.00453111 0.0015176492 -0.00072363275 -0.0037391242 -0.00063765614 -0.005086089 -0.00040166095 0.0038969445
-0.0006233868 -9.461052e-05 0.00033025545 -0.2108663 -0.001070685 -0.0009813086 -0.00085179583 -0.0038950297
0.0029382596 -0.0032259384 0.0034483175 -0.22935502 -0.004613759 -0.0009924968 -0.0023379684 -1.2890884
0.002041115 -0.0013030887 0.0044501494 -0.14450173 -1.77645 -0.0014725007 -0.00085775304 0.0018607005
-0.000562176 0.0007568098 -0.0046217344 -0.003210358 -0.0012687629 -0.00077257183 -0.0022422215 0.003570699
-0.0025156478 0.0032413106 -0.001352566 -0.0037117829 -0.0055458406 0.0016091515 -0.001969418 -0.0003400478
-0.004108366 -0.0031961643 -0.020917894 -0.0032938493 -0.0010674726 0.0009838239 -0.003325702 -0.0019433148
-0.0044547506 -0.05646842 -0.00050226075 0.00089569174 -0.00066320517 -0.0031708414 -0.00074702647 -0.0020085622
-1.547212 -0.0021685318 -0.003903093 -1.580263 -0.0042679883 -0.017754981 -1.9060853 -0.0003151172
0.001977866 -1.757992 -0.003099716 -0.004545891 -0.0029073714 -0.0033909706 -0.0011502366 -0.81490314
00000000: 27c1 60bb 8c90 5ebb 1d2b 5dba 145c 4ebe
00000010: 5a51 ce3a fcc2 30bf 1bb1 98b9 30a3 6abb
00000020: 031c 4fbb 01f6 dfba 0903 bfba 9f3d 29bb
00000030: 8839 5bba e6c9 65bb 902c 75bb 30c3 663a
00000040: e317 9ab8 f29e 27c0 cad6 21ba 3ab3 61bb
00000050: d535 8cbb 0e28 ab3a 7304 0dbb 2047 353b
00000060: e42d 9cba 73e9 f7be c350 3139 fd7b d5bf
00000070: 80fe 03c0 505d 45bb c16b ee39 1e1d 94bb
00000080: 5da8 ff3a 3d25 603b 8620 a8b9 c95c 5b3b
00000090: 8849 4eba bc53 acbb 8845 633b 6654 08bb
000000a0: 49ca 36c0 e808 43b8 f1f1 dfba 4f07 6fbd
000000b0: 1829 0e3b df6c 67bf 9381 7dbb 4b65 adba
000000c0: 3aa3 49bb c3c9 15bb b413 44bb 9d72 683b
000000d0: c3b9 fdba 416b 2abb 22e6 a3ba acc9 d53a
000000e0: 1d53 8fba 4a87 3d3a a815 70bb ba3e 38ba
000000f0: 79f2 f1ba 2aab 10bd 68ef 64bb a4b0 90bb
00000100: e5c0 efba cf92 413b e81a e7ba 1d32 0ebe
00000110: 67f2 26bb 0c20 56bb f0d6 0abb acc0 863b
00000120: bd86 60ba b26c c4bf 2dc6 13bb e19d b3ba
00000130: ad6d 10ba a067 32bb 626a 003b 3223 9fba
00000140: ef96 2cbb 1ce1 64bb bdec a736 9570 a2ba
00000150: e886 d63a ff22 623a ca3e 70ba af41 7eba
00000160: 2dcc 16bc cf01 e4be c994 8bbc 3913 e0bf
00000170: 33d2 edbf e68b 2bbb 7199 45bb 0695 49ba
00000180: 1d4e fdba 5f0f a1bb cf64 9fbb eab4 473b
00000190: a6bd 683b 2066 6dbb a85c f1ba f631 c5bf
000001a0: 2aed c5b9 95cb a1ba 1eee ecb9 b621 37bb
000001b0: 6e08 71bb d631 f139 9085 afbb 1562 cb3a
000001c0: 8a65 5cbe fb70 ec39 ae08 a73b ef33 3ebb
000001d0: 727e 80bb 18ae 30ba 08b1 8bbb 6fb8 26b9
000001e0: cf9f 983b 3617 82ba d38c 9cbf 480f 20bb
000001f0: 9ac1 cdbe 0d45 e1b9 3fcd 44bb b121 e8ba
00000200: 115e 80bb a8ca 9bbf f1c5 8bbb a0f9 65bb
00000210: 5471 0a39 fe3c 5ebb 261e a0ba 2a17 b2be
00000220: 19ee 03ba 113e 803b 1593 d9ba 76fc 5bb9
00000230: 6918 d9b9 02fc b0ba b5f6 3ebb 726d 04bb
00000240: dfad 9f39 ab91 17ba 8bd9 9cbb d431 553b
00000250: 9e8a 38bb 3dc2 ceba f826 29bb 0c90 103b
00000260: 46fb 4c3b de86 a7bb 9380 b6ba ef1a 2dbb
00000270: d0d9 86bb 0883 f6ba c742 1ebb a5e4 e03a
00000280: a857 32bb bae0 60ba 6fde 8fbb fa6a 37bb
00000290: bf46 083a a99b 2a39 e58b 5f3b 015b d9b9
000002a0: d048 50bd b662 8b3b c8ab 963b 201f ab3b
000002b0: 1090 b2ba c312 47bb 12c6 73ba d0ca b3ba
000002c0: b579 943b dbeb c63a 2cb2 3dba 180c 75bb
000002d0: 6128 27ba 35a9 a6bb 0596 d2b9 e163 7f3b
000002e0: c86a 23ba a369 c6b8 2326 ad39 56ed 57be
000002f0: 3a56 8cba 419f 80ba 0d4b 5fba c143 7fbb
00000300: d18f 403b 446a 53bb 2bfd 613b 0bdc 6abe
00000310: 042f 97bb ab16 82ba 9a38 19bb d900 a5bf
00000320: 3ac4 053b 67cc aaba 8fd2 913b 43f8 13be
00000330: b762 e3bf ed00 c1ba d5da 60ba c0e2 f33a
00000340: fe5e 13ba a564 463a eb71 97bb df64 52bb
00000350: 9e4c a6ba 6b86 4aba 3cf2 12bb 6302 6a3b
00000360: 91dd 24bb 2b6c 543b 9548 b1ba 6241 73bb
00000370: e2b9 b5bb 2aea d23a 5a11 01bb 7148 b2b9
00000380: 799f 86bb bd76 51bb 015c abbc 9fdd 57bb
00000390: 70ea 8bba a7f3 803a 05f4 59bb d3b6 feba
000003a0: 28f9 91bb 6e4b 67bd 26aa 03ba dbcc 6a3a
000003b0: f2da 2dba e4cd 4fbb 19d4 43ba 15a2 03bb
000003c0: 0b0b c6bf ed1d 0ebb 09cb 7fbb 0f46 cabf
000003d0: 7bda 8bbb e572 91bc 9afa f3bf 5136 a5b9
000003e0: 169f 013b e205 e1bf 9b24 4bbb b3f5 94bb
000003f0: 9989 3ebb 0c3b 5ebb 89c3 96ba 7e9d 50bf

fc1.bias f4 [128]
-0.53709316 -0.61430115 -0.4576465 -0.33167756 -0.8443104 -0.60322326 -0.024882833 -0.3956849
-0.10405727 -0.01470841 -0.62584555 -0.67209584 -0.124031916 -0.9196783 -0.79240173 -0.6804897
-0.19674246 -1.2086693 -0.1208417 -1.3067786 -0.041047577 -0.36864355 -1.0978723 -1.0698731
1.9415523 -1.9966292 -0.36513555 -0.18377717 -0.18195143 3.7768939 -0.5223218 0.104437314
1.7561148 -1.0964046 -0.02454444 -0.1799492 -0.5881489 -0.099574745 -0.7169575 -1.4067005
-0.08861539 -0.14592354 -0.8935995 -0.0726774 -0.5345192 -0.06150426 -0.8565284 -0.23079164
-0.5050933 -0.60786825 -0.9119071 -0.021759244 -0.42366177 -0.16896127 -0.70764625 -1.0082631
-0.10115498 -0.5861907 -0.05869176 -0.67419636 1.7682486 -0.5056823 -0.32418126 -0.06165699
-0.7567356 -0.5669921 -0.21840249 -0.68259525 -0.114928186 -0.5944422 -0.87362725 -0.9099584
-0.8735905 -0.04377859 -0.031401373 -0.21771587 -0.6557984 -0.5385624 -0.73766714 -0.069126315
-3.129874 -1.1128633 -0.45606783 -0.71178055 -0.104302816 -0.18031237 -0.17738762 -0.20570582
-0.0010331887 -0.7185971 -1.9937094 1.5348109 -0.50912297 -0.9978924 -0.23833 -0.08039122
-0.50639707 -0.1390031 -0.33265603 -0.5340874 -0.38048875 -0.5474686 -0.52063894 -0.0736047
-0.5897812 -0.06361665 -0.2734192 -0.6217428 -0.41509235 -0.02951398 -0.67181164 -0.010616819
-0.52269506 -0.9534103 -0.020214692 -1.217553 -6.4263325 -1.0427505 -0.36152053 -0.9920243
-0.009897034 -2.1893637 -0.28396258 -0.0066962703 2.5004153 0.5825927 -0.30908343 -0.46401006
00000000: f07e 09bf d742 1dbf a450 eabe a4d1 a9be
00000010: ba24 58bf d76c 1abf 15d7 cbbc 3697 cabe
00000020: fa1b d5bd 8bfb 70bc 6a37 20bf 790e 2cbf
00000030: 7204 febd 0970 6bbf d7da 4abf 9334 2ebf
00000040: db76 49be adb5 9abf da7b f7bd 8544 a7bf
00000050: 8121 28bd d9be bcbe 1487 8cbf 9af1 88bf
00000060: c984 f83f 8c91 ffbf 0cf3 babe 1530 3cbe
00000070: 7a51 3abe a1b8 7140 e2b6 05bf 3be3 d53d
00000080: 5fc8 e03f fc56 8cbf 6c11 c9bc 9a44 38be
00000090: ed90 16bf d8ed cbbd 878a 37bf c30e b4bf
000000a0: fc7b b5bd fb6c 15be f0c2 64bf e4d7 94bd
000000b0: 40d6 08bf e4eb 7bbd 7245 5bbf a554 6cbe
000000c0: cb4d 01bf 419d 1bbf be72 69bf 7140 b2bc
000000d0: 32ea d8be 2f04 2dbe 4e28 35bf c40e 81bf
000000e0: 582a cfbd 9810 16bf c566 70bd 2298 2cbf
000000f0: f855 e23f 6574 01bf 16fb a5be 0a8c 7cbd
00000100: 6db9 41bf 6526 11bf e7a4 5fbe 90be 2ebf
00000110: 785f ebbd 5d2d 18bf 09a6 5fbf 09f3 68bf
00000120: a1a3 5fbf 2e51 33bd ba9e 00bd e9f0 5ebe
00000130: 67e2 27bf 3adf 09bf c1d7 3cbf 1992 8dbd
00000140: db4f 48c0 4e72 8ebf b981 e9be 4037 36bf
00000150: b79c d5bd cea3 38be 1aa5 35be 8ca4 52be
00000160: 0f6c 87ba fbf5 37bf df31 ffbf af74 c43f
00000170: e255 02bf e075 7fbf c80c 74be 27a4 a4bd
00000180: 3da3 01bf d456 0ebe e451 aabe f4b9 08bf
00000190: 6ccf c2be e726 0cbf 9848 05bf 10be 96bd
000001a0: e7fb 16bf 7249 82bd 9afd 8bbe 892a 1fbf
000001b0: fc86 d4be 4dc7 f1bc d9fb 2bbf 2bf2 2dbc
000001c0: 58cf 05bf b312 74bf 4899 a5bc c7d8 9bbf
000001d0: 84a4 cdc0 d978 85bf 3819 b9be 4ef5 7dbf
000001e0: 2b27 22bc 891e 0cc0 8b63 91be 636c dbbb
000001f0: ce06 2040 cc24 153f 2f40 9ebe ba92 edbe

fc2.weight f4 [64, 128]
0.2621458 0.33224806 -0.08009518 -0.7568048 0.5828575 -0.10267325 -0.8073152 -1.233857
-0.40720335 -0.21272731 0.99827236 0.12883225 0.6641749 -0.46870908 -0.42277697 -2.1830738
-0.2958382 0.35932875 -0.46698883 -0.2048884 0.43435213 -0.46921024 -0.53430444 -0.27736714
-0.015780477 -1.9828496 -0.9668691 -0.31781623 -0.39975172 0.10450523 -0.47422948 -0.9718478
-0.37652624 -2.1090102 -0.35968637 -1.8317733 -0.15464099 -0.15317447 0.15916127 0.9744676
-0.3474862 -0.33908725 -0.018853959 -0.7441966 -2.270928 -0.13643508 0.6575998 -0.1269579
-0.5884847 0.014281025 0.20677845 0.47839156 0.14417614 -0.47134033 -2.2121441 0.8183007
0.82533765 -0.08776317 -0.13402215 0.3404969 -0.1983069 -0.045881566 -1.4954408 -0.2171282
-1.0850432 -0.9866731 -0.33532095 -0.42256343 -1.7349896 -0.35959345 -0.14764942 -0.0051581184
0.3985299 0.3367371 0.24196678 -0.7070495 -0.013570512 0.061935045 -0.11852095 0.052237518
-0.22980723 1.3142753 0.39785236 -0.031479675 0.34171164 -0.5997278 1.2760483 -1.4100325
-0.075814426 -1.4369452 0.44348222 -1.1841786 -0.2641315 0.35654977 0.2179149 0.8168339
-0.5297429 -0.24767166 -0.5408888 -1.2622843 -0.32539648 -1.0606463 0.39613762 -0.7419683
0.63107866 -0.4456033 -0.60186017 -1.047968 -0.08812072 -0.30669922 -0.3997455 0.058156285
-0.14511143 1.0935124 0.18363123 0.7750282 -0.87570643 -0.6594891 0.85679793 -0.09445385
-0.17048983 -0.12054821 -0.18182096 -0.094151385 -0.2785815 -1.3002654 0.03624006 -0.25900868
-0.98036236 -1.5143636 1.8232352 0.06080033 -0.11727736 -1.1760491 -1.3738741 0.4393203
0.1805528 -0.34324938 -0.23944816 -1.4908112 -1.222343 0.79879755 -1.1137933 -1.2735182
-0.027830305 0.038851388 0.24229103 -1.3425744 0.4175619 -0.8646616 -1.3350903 -0.7844847
-1.4688115 0.5110657 -0.42950833 0.3651646 0.47105563 -1.8860979 0.02507863 0.08903213
-2.9399014 -0.3810301 -1.2521726 -0.3388053 -0.061138432 -0.15350571 0.06468437 -0.09134502
0.34106246 -1.6168389 -1.5353332 1.312463 0.06319464 0.48062602 -1.2813843 -3.5785234
1.1325359 1.4727142 0.46586293 0.15041953 -1.7547383 -1.5947514 0.45801243 -0.5907017
0.0023086423 0.5834972 -1.2386986 1.1443043 -0.14713174 0.15034868 -0.011121916 1.6378952
-0.58010226 -0.14620176 0.19635022 -0.6679375 -0.960997 -0.29286426 -1.2746385 1.3462352
-0.33623725 -0.016083678 0.8196395 0.23098066 -0.4528679 -0.17735001 0.9859147 -1.1898748
-0.023905944 1.1809857 -1.3749377 -0.3169611 0.73615867 1.4466636 -0.55341554 -1.4863117
-0.63518167 -0.024307515 0.09112452 -2.5052319 -0.04071731 -1.4947382 -1.0101714 0.6583516
-0.9564005 -0.61707795 -1.0109613 0.33391014 0.7306842 -0.24582766 -0.38149098 1.0926675
1.0511552 1.4986616 0.5646397 0.4835353 0.60800743 0.20537296 1.2358736 -1.5828172
0.3041236 3.800486 -0.70159495 1.6716816 0.4642967 0.834756 -0.6780833 -1.6285199
-0.14842878 -1.0753417 0.5821841 -0.44148585 -0.5402537 -0.4134791 -0.37174907 -2.4640863
00000000: f937 863e 6b1c aa3e f108 a4bd f6bd 41bf
00000010: 2636 153f 5a46 d2bd 35ac 4ebf 07ef 9dbf
00000020: f57c d0be 30d5 59be c78e 7f3f 9aec 033e
00000030: 5e07 2a3f a3fa efbe 3976 d8be 7bb7 0bc0
00000040: 1b78 97be f0f9 b73e 2919 efbe 44ce 51be
00000050: 6763 de3e 533c f0be 2dc8 08bf 1103 8ebe
00000060: 0f46 81bc 04ce fdbf bc84 77bf cfb8 a2be
00000070: 42ac ccbe d706 d63d 35ce f2be 04cb 78bf
00000080: 0cc8 c0be 06fa 06c0 d028 b8be 8c77 eabf
00000090: 355a 1ebe c5d9 1cbe 2cfb 223e b576 793f
000000a0: b6e9 b1be d89c adbe 9e73 9abc ab83 3ebf
000000b0: e256 11c0 a3b5 0bbe 7658 283f 4001 02be
000000c0: efa6 16bf f6fa 693c bbbd 533e bdef f43e
000000d0: e9a2 133e 8553 f1be c593 0dc0 287c 513f
000000e0: 5449 533f 2dbd b3bd 1a3d 09be 9c55 ae3e
000000f0: f710 4bbe 4fee 3bbd 9b6a bfbf db56 5ebe
00000100: b2e2 8abf 9c96 7cbf 30af abbe 3c5a d8be
00000110: 2414 debf a21c b8be 6931 17be 6f05 a9bb
00000120: 1c0c cc3e ce68 ac3e 24c6 773e 3201 35bf
00000130: da56 5ebc 9aaf 7d3d 1dbb f2bd 02f7 553d
00000140: 9652 6bbe 2c3a a83f 4eb3 cb3e d5f0 00bd
00000150: d4f4 ae3e c387 19bf 8d55 a33f f27b b4bf
00000160: 9844 9bbd d2ed b7bf 1a10 e33e 2a93 97bf
00000170: 3e3c 87be b18d b63e 1525 5f3e 071c 513f
00000180: 3b9d 07bf a49d 7dbe b077 0abf 8892 a1bf
00000190: 5e9a a6be 42c3 87bf 8dd2 ca3e a2f1 3dbf
000001a0: 5f8e 213f 1e26 e4be 8213 1abf d123 86bf
000001b0: a378 b4bd ae07 9dbe 71ab ccbe 4935 6e3d
000001c0: 1798 14be 37f8 8b3f d309 3c3e 4068 463f
000001d0: 4c2e 60bf 47d4 28bf 1c57 5b3f 0571 c1bd
000001e0: e394 2ebe fbe1 f6bd 462f 3abe 71d2 c0bd
000001f0: 3ca2 8ebe 196f a6bf 7570 143d c99c 84be
00000200: 07f9 7abf abd6 c1bf c55f e93f c409 793d
00000210: 1d2f f0bd c788 96bf 1bdb afbf 97ee e03e
00000220: d5e2 383e 62be afbe e631 75be e7d2 bebf
00000230: bc75 9cbf ff7d 4c3f c790 8ebf a502 a3bf
00000240: 61fc e3bc a222 1f3d 241b 783e 7ad9 abbf
00000250: acca d53e 765a 5dbf 3de4 aabf fdd3 48bf
00000260: 0402 bcbf 34d5 023f 84e8 dbbe dbf6 ba3e
00000270: 342e f13e a86b f1bf b371 cd3c 7a56 b63d
00000280: 5827 3cc0 6116 c3be 3147 a0bf e377 adbe
00000290: 4b6c 7abd 9a30 1dbe 3d79 843d 1913 bbbd
000002a0: bd9f ae3e 94f4 cebf cc85 c4bf cafe a73f
000002b0: 316c 813d 9d14 f63e 6704 a4bf 8706 65c0
000002c0: f0f6 903f e681 bc3f 9685 ee3e 9407 1a3e
000002d0: 449b e0bf d020 ccbf 9b80 ea3e 3a38 17bf
000002e0: 974c 173b 1360 153f ad8d 9ebf 9078 923f
000002f0: b4a9 16be 01f5 193e b238 36bc 8da6 d13f
00000300: 9581 14bf eab5 15be 0810 493e f4fd 2abf
00000310: e603 76bf 4ef2 95be 5b27 a3bf 6f51 ac3f
00000320: 4a27 acbe ebc1 83bc e5d3 513f 3286 6c3e
00000330: 4dde e7be 3e9b 35be e864 7c3f d14d 98bf
00000340: 66d6 c3bc 8a2a 973f f5fd afbf ba48 a2be
00000350: e574 3c3f 462c b93f a4ac 0dbf 763f bebf
00000360: 449b 22bf 8e20 c7bc 7e9f ba3d b855 20c0
00000370: 32c7 26bd 9553 bfbf 4c4d 81bf bb89 283f
00000380: aad6 74bf d2f8 1dbf 2e67 81bf 45f6 aa3e
00000390: 1f0e 3b3f 3fba 7bbe c952 c3be 87dc 8b3f
000003a0: 418c 863f 25d4 bf3f 3a8c 103f f091 f73e
000003b0: 60a6 1b3f 4a4d 523e 1b31 9e3f c199 cabf
000003c0: 17b6 9b3e 2a3b 7340 ba9b 33bf aaf9 d53f
000003d0: 4cb8 ed3e 92b2 553f de96 2dbf 5773 d0bf
000003e0: b7fd 17be cca4 89bf 040a 153f 6f0a e2be
000003f0: 114e 0abf 88b3 d3be e555 bebe 97b3 1dc0

fc2.bias f4 [64]
-0.0023456586 -1.3325964 -0.23662207 -0.45582828 -0.112735145 -0.6494916 -0.32854456 0.05151449
-0.95699525 -0.6722945 -0.679033 -0.013309514 0.98991406 0.8057733 -0.87998277 -0.5667343
-0.8914484 -0.49779618 1.1304556 -0.42647868 -0.2974373 0.55860585 0.80038494 -0.63742393
-1.0938 -0.23846155 -0.25940955 -0.13861874 -0.5359241 -0.38137323 -0.30436075 -0.5652043
-0.5231708 0.5215941 -0.02697141 -0.4248586 -0.6212717 -0.638086 -0.33856106 -0.98237526
0.9240687 -0.10172883 -1.083973 -0.5221148 -0.4183398 -0.9802485 0.02024147 -0.1901885
-0.023923563 -0.21432596 -0.110424295 -0.27182427 -0.37025353 -0.66686755 0.9888318 -0.038825538
-0.088137686 -0.39500067 -0.1322182 1.2414885 -0.48277673 -0.3550287 -0.15326878 -0.32161796
00000000: 9fb9 19bb 8592 aabf 0e4d 72be 5362 e9be
00000010: afe1 e6bd 1545 26bf fe36 a8be dc00 533d
00000020: a4fd 74bf 7e1b 2cbf 1bd5 2dbf 2610 5abc
00000030: 026b 7d3f 2947 4e3f 8d46 61bf 8015 11bf
00000040: f635 64bf 24df febe c5b2 903f 6a5b dabe
00000050: b449 98be cb00 0f3f 07e6 4c3f 372e 23bf
00000060: a301 8cbf 442f 74be 54d1 84be 12f2 0dbe
00000070: 5232 09bf 5a43 c3be 2cd5 9bbe 3bb1 10bf
00000080: 86ee 05bf 3187 053f 25f3 dcbc 1187 d9be
00000090: aa0b 1fbf 9b59 23bf e057 adbe f27c 7bbf
000000a0: c48f 6c3f 3457 d0bd a1bf 8abf 51a9 05bf
000000b0: a230 d6be 91f1 7abf 70d1 a53c c6c0 42be
000000c0: 59fb c3bc 4478 5bbe 2226 e2bd 8d2c 8bbe
000000d0: df91 bdbe d5b7 2abf 1524 7d3f 8707 1fbd
000000e0: 8881 b4bd 873d cabe 3564 07be 18e9 9e3f
000000f0: 832e f7be 52c6 b5be 7ef2 1cbe 1cab a4be

out.weight f4 [10, 64]
-0.5036205 -0.66056406 9.338477 2.1779683 2.0974083 -1.5510653 -1.5700061 -0.053681787
-1.9060122 -1.1171248 2.785073 -2.247443 0.043406308 0.0150460815 0.75882995 -1.2102154
-1.7025893 -7.9023447 0.08221195 -3.3321946 4.004701 0.7213892 -0.12757732 -4.5489745
-2.9663038 2.0888531 1.1553876 3.612834 -2.6514027 1.6142262 -6.244577 0.58405185
-4.495392 -0.063522965 1.6358755 4.2537065 -0.22774832 -2.5639408 4.0390124 6.223972
-0.28325883 -4.7287827 0.8173868 5.8319445 1.7970951 -0.8930985 -0.76436394 -0.2426866
5.067085 -0.7598854 -0.8036649 0.6041234 -0.48426986 2.0750482 -0.11823426 0.81762767
-0.042134274 -2.2475502 -5.8264685 -0.06699886 -0.5064038 -2.9487083 0.22810744 3.161616
0.0419888 -2.0271163 -3.3716538 7.3797655 -4.878383 -1.3837985 14.942724 -0.011023908
-9.037898 -4.410107 3.0228202 -1.3179083 -0.17465307 -0.86931294 2.8889363 0.59471285
0.1299851 4.313063 -0.13054425 -3.0702295 0.017382966 -0.007917647 0.17322515 -4.245577
2.0858338 -6.124843 4.916421 -0.88040966 1.2396762 -0.9344107 2.7670586 -2.700049
9.38128 0.006235905 1.2967224 -1.0946562 2.2344337 21.059505 0.2220635 0.1772209
0.86229044 -2.5043166 0.13325053 -0.69801414 -0.99665654 -4.66963 -1.0730121 -6.9241104
3.5943215 -9.097266 -4.083608 1.7624775 7.1868057 -6.582094 0.1649755 2.4092112
0.18471183 3.2439904 -0.48851094 -0.021344941 2.7208078 -0.684196 -0.018520515 -1.4261352
-0.36158332 -2.1314135 4.4607096 -1.9793471 -2.6551926 -0.035616886 1.6967901 -0.084537596
-5.160857 -1.7948581 1.5863403 0.099240184 0.0022514707 0.12516193 2.3321965 -5.3500876
5.587619 3.5436096 -0.7443121 0.10934364 -4.1173296 -0.06976406 -0.11249651 2.7223625
0.927968 8.594969 -0.6044753 2.0145092 2.5299392 9.334611 -0.1204037 0.5843846
2.498984 -0.087248474 -3.0175958 7.033926 4.602185 -2.4767914 2.3585656 0.33655173
0.11729247 4.494348 4.5393524 0.46763182 2.3103914 -2.8837996 -1.5939466 1.4741312
1.0638051 -0.53985184 -0.36989957 0.011398875 5.0023313 7.8406477 -0.095192604 1.9662442
0.1845697 5.20338 2.1423593 0.8705036 2.7374036 -1.0474123 0.13353908 1.0126451
-0.61925125 -3.9881275 -3.642351 0.16623878 0.23291513 2.1443403 -1.3575053 -0.09704503
1.6150683 -0.40657687 0.39414686 3.5419037 -0.34883305 -0.279573 4.207081 2.116968
2.6110795 3.7459097 0.639101 -1.340354 -1.796338 -0.07408326 0.23946096 -2.9725935
4.567138 -4.2855105 -1.3639363 3.0625062 -7.3214664 -2.3038342 10.039024 -2.1436107
-8.863685 -0.08372513 3.8795023 0.8132603 -3.4156256 -2.2391498 -2.4713974 1.1536695
-0.52698606 -7.160216 -0.95904034 -7.363317 0.6021452 7.104979 -1.6707319 -0.5372658
-2.6848612 0.29121968 0.02025469 1.83143 -4.0394216 2.9633176 0.2662388 -3.2859864
-0.5623641 2.0694764 1.4165022 -0.07712665 1.2227461 -0.7804605 0.26202747 -3.0970814
00000000: 46ed 00bf ba1a 29bf 676a 1541 d563 0b40
00000010: f03b 0640 4f89 c6bf f6f5 c8bf 6fe1 5bbd
00000020: 35f8 f3bf f2fd 8ebf a33e 3240 1bd6 0fc0
00000030: d0ca 313d d783 763c ae42 423f 57e8 9abf
00000040: 72ee d9bf 02e0 fcc0 bd5e a83d ad42 55c0
00000050: 8326 8040 f6ac 383f a1a3 02be 3391 91c0
00000060: ecd7 3dc0 c5af 0540 bee3 933f ac38 6740
00000070: 95b0 29c0 f79e ce3f 93d3 c7c0 6c84 153f
00000080: 40da 8fc0 5418 82bd 5e64 d13f 5d1e 8840
00000090: db36 69be 9b17 24c0 973f 8140 c72a c740
000000a0: 4d07 91be 3052 97c0 4340 513f 4a9f ba40
000000b0: 3607 e63f 1aa2 64bf 5bad 43bf d682 78be
000000c0: 8f25 a240 d987 42bf fcbc 4dbf d5a7 1a3f
000000d0: 38f2 f7be 97cd 0440 ce24 f2bd 0c50 513f
000000e0: fd94 2cbd ddd7 0fc0 6e72 bac0 b336 89bd
000000f0: aea3 01bf a3b7 3cc0 ff94 693e eb57 4a40
00000100: 73fc 2b3d 46bc 01c0 2dc9 57c0 0a27 ec40
00000110: b71b 9cc0 4f20 b1bf 6615 6f41 9f9d 34bc
00000120: 3b9b 10c1 991f 8dc0 e375 4140 38b1 a8bf
00000130: 41d8 32be 4b8b 5ebf 55e4 3840 1a3f 183f
00000140: d01a 053e 9d04 8a40 64ad 05be a47e 44c0
00000150: b966 8e3c 05b9 01bc ef61 313e c4db 87c0
00000160: 4d7e 0540 b7fe c3c0 5253 9d40 8762 61bf
00000170: b6ad 9e3f 8a35 6fbf 7d17 3140 9acd 2cc0
00000180: b919 1641 9056 cc3b 00fb a53f b21d 8cbf
00000190: f600 0f40 de79 a841 9d64 633e 6579 353e
000001a0: 11bf 5c3f b946 20c0 d472 083e 0eb1 32bf
000001b0: e224 7fbf 9c6d 95c0 7658 89bf 5092 ddc0
000001c0: 5d09 6640 678e 11c1 ebac 82c0 dd98 e13f
000001d0: 50fa e540 84a0 d2c0 56ef 283e 8430 1a40
000001e0: 1925 3d3e 8a9d 4f40 1b1e fabe 96db aebc
000001f0: b721 2e40 7827 2fbf 56b8 97bc 998b b6bf
00000200: 7321 b9be 1469 08c0 22be 8e40 3f5b fdbf
00000210: adee 29c0 03e3 11bd 6b30 d93f 0c22 adbd
00000220: be25 a5c0 e9bd e5bf 330d cb3f 703e cb3d
00000230: 698d 133b 732a 003e b542 1540 eb33 abc0
00000240: c6cd b240 80ca 6240 3d8b 3ebf 8fef df3d
00000250: 2ac1 83c0 76e0 8ebd 9264 e6bd 303b 2e40
00000260: 508f 6d3f fe84 0941 e5be 1abf b8ed 0040
00000270: 86ea 2140 915a 1541 3796 f6bd 3b9a 153f
00000280: 5bef 1f40 54af b2bd 4a20 41c0 ec15 e140
00000290: 1945 9340 c083 1ec0 bdf2 1640 8250 ac3e
000002a0: 0937 f03d b3d1 8f40 6042 9140 706d ef3e
000002b0: 74dd 1340 2c90 38c0 7106 ccbf 55b0 bc3f
000002c0: c42a 883f bb33 0abf 7a63 bdbe 59c2 3a3c
000002d0: 1913 a040 96e6 fa40 57f4 c2bd e4ad fb3f
000002e0: d7ff 3c3e 1782 a640 6a1c 0940 53d9 5e3f
000002f0: 9f31 2f40 9b11 86bf 78be 083e 5b9e 813f
00000300: 4087 1ebf 7b3d 7fc0 471c 69c0 803a 2a3e
00000310: 4e81 6e3e df3c 0940 bcc2 adbf 8bbf c6bd
00000320: 8fba ce3f d82a d0be 9ecd c93e 8dae 6240
00000330: 3f9a b2be 3124 8fbe 68a0 8640 677c 0740
00000340: ed1b 2740 fcbc 6f40 209c 233f b890 abbf
00000350: 67ee e5bf f7b8 97bd 4135 753e f93e 3ec0
00000360: ff25 9240 e722 89c0 7795 aebf 1a00 4440
00000370: 7449 eac0 0572 13c0 d89f 2041 eb30 09c0
00000380: a7d1 0dc1 1578 abbd c449 7840 d431 503f
00000390: 9c99 5ac0 3b4e 0fc0 602b 1ec0 71ab 933f
000003a0: 8fe8 06bf 7d20 e5c0 ab83 75bf 4ba0 ebc0
000003b0: 3026 1a3f fd5b e340 8bda d5bf 408a 09bf
000003c0: c4d4 2bc0 bf1a 953e 2aed a53c 4c6c ea3f
000003d0: f142 81c0 ffa6 3d40 7450 883e 9a4d 52c0
000003e0: 18f7 0fbf 4d72 0440 f24f b53f 94f4 9dbd
000003f0: f282 9c3f 42cc 47bf 7728 863e 9536 46c0

out.bias f4 [10]
0.06381861 0.0029661814 0.086272694 0.10406054 0.10725308 0.07242143 0.02058903 0.068597846
0.22934784 0.1004417
00000000: 55b3 823d 4464 423b bdaf b03d b11d d53d
00000010: 81a7 db3d b051 943d 53aa a83c 077d 8c3d
00000020: 29da 6a3e 61b4 cd3d
