exps/regularModelExperiments/pretrainedmodels/neuralBalanceModel1.pt (torch, 973831 bytes, 8 tensors)

fc.weight f4 [256, 784]
5.7067617e-05 -0.0005915349 -0.00053367176 -0.00041841794 -1.0417557e-05 0.000120519966 -0.00029542582 0.0002403975
-0.00021172487 -0.00023236054 -0.00038487656 -0.0009570676 0.00074472313 -0.0004557123 -0.00046110657 -0.00097332086
-0.00062442746 -0.00026476363 -0.00065223 -0.0005391474 2.4128894e-05 -0.00068961614 -0.0010083781 0.00059509516
-0.0006941526 0.001034293 -0.00095764693 -0.0008491716 0.001026522 0.0010163871 -0.0008831818 -0.0009864359
-0.00059892173 -0.0003760787 0.000557754 -0.00026886087 0.00076810434 -0.00089683296 0.00015680194 0.000655041
0.00092277443 0.00077464257 -0.0010445762 0.0005909463 -0.00041414506 -0.000736436 -0.0007211556 0.00066811475
0.0007118076 0.00057155435 -0.0010003075 0.00044929536 7.300126e-05 0.0006692279 0.00085755344 -0.00050119427
-0.0009953101 0.0009748321 0.00011511209 -0.000940037 0.0001817244 -0.0007172888 -0.00023655969 -0.00077494566
0.00010087729 -0.0004214223 0.00038164144 -0.00080303976 0.00018730453 -0.00044886526 -0.00011679171 -0.0005145141
0.00052023877 -0.0011439581 -0.001306838 0.0001242514 0.0012763281 0.0011494153 0.0008880677 -0.0010178932
-0.00067310495 -0.0001827495 0.00097123685 -0.000262332 7.875385e-05 0.0009762265 -0.00083073654 -2.9430612e-05
2.9260755e-05 -0.0006167555 -0.00075100706 -0.0016929337 -0.0010968851 -0.003121899 -0.003383328 -0.0016463366
-0.0032197488 -0.0028213945 -0.0014028813 -0.0017512545 -0.00095306797 -0.00086157746 -0.001952639 -0.0019562985
0.0020709413 0.001808296 -0.0013283242 -0.0014076205 -0.0008862152 -0.00028908334 0.0010406846 0.00053657405
-0.00068936846 -0.000645476 -0.0005180842 0.0008219565 -0.0002548726 -0.0005883642 -0.0012377966 -0.0018002266
-0.0021621857 -0.001927129 -0.0031526363 -0.0022917562 -0.0015814656 -0.0026401586 -0.0028294066 -0.0020991547
-0.0027063505 -0.0027477888 -0.0018855161 -0.0018288253 -0.0022965602 -0.0024091993 -0.003104598 -0.0016096083
-0.0024920101 -0.0005596373 -9.723516e-05 0.00064014434 0.0005641284 0.0009863167 -0.0005083009 0.0001319645
-0.00078738615 -0.002224761 -0.00032270775 -0.0029335117 -0.002682959 -0.0026853986 -0.002065556 -0.0026263243
-0.0028859824 -0.001563929 -0.001690516 -0.0015992112 -0.0010390426 -0.0027409138 -0.0012968143 -0.0013649263
-0.002711979 -0.0016645535 -0.0029419323 -0.0021895966 -0.0002519617 0.00011397225 0.00075231044 -0.00057656056
0.0004224022 -0.0007025232 -0.0006115446 0.00020796496 -0.0009218777 -0.0024561589 -0.0027073394 -0.0016278491
-0.0025676216 -0.0017784527 -0.0025300079 -0.0020251686 -0.0016176581 -0.0009876126 -0.0023117848 -0.0016671733
-0.0028247982 -0.002134105 -0.0012457973 -0.0012899938 -0.0009469277 -0.0023716034 -0.0023761622 -0.0025297378
-0.0018406761 -0.0014922633 -0.0009370439 -0.00069711526 -0.0004931772 -0.0006736639 0.00050715695 0.0023219227
0.0020271863 -0.00041154653 -0.0014754137 -0.0018809128 -0.0015350868 -0.0028706356 -0.002904674 -0.0010433806
-0.0029082596 -0.0025273343 -0.0020148512 -0.00040509092 -0.0010939195 -0.0014113683 -0.0013256797 -0.001638929
-0.0021871943 -0.00057561026 -0.001748324 -0.00255536 -0.0025871159 -0.0025898628 -0.00078875024 -0.00016317832
-0.00024671748 0.00041597965 -0.0010017642 -0.0016465845 -0.0014996692 -0.0011335805 -0.0029634424 -0.0025917569
-0.0024252005 -0.0017605204 -0.0014743414 -0.0012951115 -0.0020208824 -0.0009081184 -0.0012381745 -0.0005982596
-0.00037896223 -0.002162324 -0.0014143835 -0.0008210695 -0.00070009637 -0.0009425686 -0.0023042117 -0.0011717406
-0.0013656034 -0.003076184 0.00039810262 -0.00060847314 -0.0007247648 0.0003470869 -0.0013946843 -0.0013631749
00000000: e35b 6f38 3c11 1bba 1be6 0bba 1b5f dbb9
00000010: 11c7 2eb7 aabf fc38 62e3 9ab9 3613 7c39
00000020: 7602 5eb9 cfa5 73b9 42c9 c9b9 b8e3 7aba
00000030: 8639 433a abec eeb9 adc0 f1b9 7526 7fba
00000040: 9eb0 23ba f9cf 8ab9 6afa 2aba 9255 0dba
00000050: 6868 ca37 5bc7 34ba 8e2b 84ba 2900 1c3a
00000060: cbf7 35ba 1d91 873a 990a 7bba f19a 5eba
00000070: 5d8c 863a 4b38 853a 5485 67ba 4c4b 81ba
00000080: f500 1dba 6e2c c5b9 3d36 123a e5f5 8cb9
00000090: 9c5a 493a 7119 6bba 336b 2439 0fb7 2b3a
000000a0: 58e6 713a 6211 4b3a 29ea 88ba bce9 1a3a
000000b0: 9c21 d9b9 620d 41ba ef0b 3dba 6c24 2f3a
000000c0: 9998 3a3a 5dd4 153a c01c 83ba 678f eb39
000000d0: 4118 9938 206f 2f3a 70cd 603a 9462 03ba
000000e0: 1175 82ba e08b 7f3a 5568 f138 d16c 76ba
000000f0: 468d 3e39 7008 3cba 020d 78b9 b925 4bba
00000100: 158e d338 58f2 dcb9 0c17 c839 1683 52ba
00000110: 2d67 4439 ad55 ebb9 12ee f4b8 75e0 06ba
00000120: a260 083a ddf0 95ba 354a abba 7b49 0239
00000130: 774a a73a faa7 963a 37cd 683a d46a 85ba
00000140: 4f73 30ba 72a0 3fb9 9a9a 7e3a 9b89 89b9
00000150: a728 a538 74e9 7f3a c9c5 59ba c2e1 f6b7
00000160: fe74 f537 c3ad 21ba 3bdf 44ba 6ee5 ddba
00000170: 5bc5 8fba c698 4cbb d3ba 5dbb e4c9 d7ba
00000180: 6c02 53bb 25e7 38bb e3e0 b7ba 5a8a e5ba
00000190: 4fd7 79ba 7cdb 61ba b1ef ffba 3e35 00bb
000001a0: a1b8 073b 5804 ed3a 2a1b aeba e87f b8ba
000001b0: e550 68ba 1c90 97b9 9567 883a e0a8 0c3a
000001c0: bcb6 34ba 2935 29ba 0bd0 07ba 9178 573a
000001d0: 6ca0 85b9 743c 1aba 903d a2ba 95f5 ebba
000001e0: 75b3 0dbb b897 fcba 769c 4ebb 4a31 16bb
000001f0: 2e49 cfba 8306 2dbb 916d 39bb f991 09bb
00000200: 075d 31bb 3f14 34bb 6c23 f7ba 32b5 efba
00000210: e381 16bb a8e3 1dbb 8376 4bbb 7ef9 d2ba
00000220: fe50 23bb a0b4 12ba bbea cbb8 5ccf 273a
00000230: 04e2 133a 4c47 813a 7f3f 05ba f35f 0a39
00000240: 9768 4eba 4ccd 11bb 1a31 a9b9 2940 40bb
00000250: 95d4 2fbb 83fd 2fbb 475e 07bb 691e 2cbb
00000260: c022 3dbb c0fc ccba 4e94 ddba a09c d1ba
00000270: 7c30 88ba e7a0 33bb def9 a9ba 54e7 b2ba
00000280: 75bb 31bb 262d daba 6fcd 40bb 567f 0fbb
00000290: ba19 84b9 6304 ef38 b336 453a 5324 17ba
000002a0: dd75 dd39 8929 38ba 1050 20ba 2b11 5a39
000002b0: 2aaa 71ba 82f7 20bb 9e6d 31bb 8d5d d5ba
000002c0: 8b45 28bb f81a e9ba 7dce 25bb b1b8 04bb
000002d0: 9907 d4ba c872 81ba 5081 17bb 0e85 daba
000002e0: 4020 39bb 57dc 0bbb 054a a3ba 0215 a9ba
000002f0: 3e3b 78ba e76c 1bbb 63b9 1bbb f5c9 25bb
00000300: d742 f1ba 0c98 c3ba f4a3 75ba 9dbe 36ba
00000310: 9048 01ba d298 30ba baf2 043a 662b 183b
00000320: 8bda 043b d7c4 d7b9 ab62 c1ba f688 f6ba
00000330: f734 c9ba 4621 3cbb 585c 3ebb 0bc2 88ba
00000340: 8098 3ebb a2a1 25bb 980b 04bb 6262 d4b9
00000350: d961 8fba a9fd b8ba 6ec2 adba 55d1 d6ba
00000360: 0857 0fbb 8de4 16ba 0528 e5ba d477 27bb
00000370: 9a8c 29bb b0ba 29bb 22c4 4eba d91a 2bb9
00000380: dc59 81b9 d817 da39 a14d 83ba 35d2 d7ba
00000390: 8c90 c4ba a694 94ba 5036 42bb 77da 29bb
000003a0: 1df0 1ebb 43c1 e6ba b03e c1ba bbc0 a9ba
000003b0: c870 04bb cb0e 6eba 3e4a a2ba 86d4 1cba
000003c0: 73af c6b9 c7b5 0dbb d662 b9ba 0b3d 57ba
000003d0: ac86 37ba b516 77ba 4202 17bb 1795 99ba
000003e0: 0cfe b2ba ce99 49bb 6eb8 d039 f181 1fba
000003f0: 24fe 3dba 37f9 b539 d7cd b6ba 8fac b2ba

fc.bias f4 [256]
-0.0403199 -0.032133624 -0.032523777 -0.063656814 -0.05981992 -2.1627913 -0.01419799 -0.06773675
-0.040096182 -0.08118227 -0.024988795 -0.06488661 -0.05131149 -0.07102991 -0.07675097 -0.026005331
-0.045130733 -0.030017084 -0.062677756 -0.008287927 -0.7601777 -0.05899393 -0.04062858 -0.08604496
-0.0530278 -0.041291233 -0.044887073 -0.029846366 -0.05087395 -0.08458445 -0.044861 -0.027574271
-0.04236156 -0.20911077 -0.024396665 -0.028533045 -0.031033305 -0.02868688 -0.095473595 -0.06929463
-0.06904911 -0.008902886 -0.04317106 -0.013367725 -0.057276934 -0.062384356 -0.029952731 -0.05537225
-0.05542618 -0.03473179 -0.06472321 -0.034643985 -0.051540013 -0.015134985 -0.050266642 -0.04413815
-0.033984646 -0.04107719 -0.09414345 -0.045608405 -0.038057208 -0.064098015 -0.038412966 -0.028905377
-0.05443587 -0.0438173 -0.52977765 -0.0830692 -0.039371442 -0.089695044 -0.053184126 -0.05792768
-0.076710954 -0.060006477 -0.02835651 -0.025364421 -0.036993578 -0.058711044 -0.035662033 -0.074766755
-0.09221066 -0.036971573 0.635437 -0.044774994 -0.067625545 -0.028504483 -0.057421662 -0.04145056
-0.03917209 -0.05397813 -0.065514475 -0.01814337 -0.031903338 -0.029451543 -0.03977143 -0.027170898
-0.05897341 -0.06782303 -0.07319937 -0.049664814 -0.015361281 -0.08956168 -0.028890068 -0.0805138
-0.057219792 -0.06605025 -0.0730102 -0.08631559 -0.027993329 -0.019814458 -0.02901121 -0.06582255
0.06425556 -0.078995764 -0.04592776 -0.070668265 -0.083881624 -0.047432337 -0.05509958 -0.060778506
-0.049394447 2.9801815 -0.8289325 -0.052104708 -0.03283583 -0.052492168 -0.07904542 -0.057051376
-0.025391055 -0.068702996 -0.05656984 -0.03385612 -0.055358414 -0.031717956 -0.006306028 -0.030682605
-0.029256513 -0.057810493 -0.048914902 -0.057590082 -0.09317766 -0.03584779 -1.0633974 -0.02278957
-0.054738518 -0.071404256 -1.7963077 -0.018126547 -0.019994197 -0.074868955 1.757829 -0.09041695
-3.6882987 -0.036120526 -0.025789542 -0.46849954 -0.026884876 -0.02978995 -0.08823961 -0.06532765
-0.04938576 -0.038251355 -0.07577989 -0.05049982 -0.052339066 -0.045209564 -0.060750592 -0.012905113
-0.05152091 -0.098864816 -0.0648114 -0.09250909 -0.05937674 -0.048339266 -0.06169689 -0.042744935
-0.06118548 -0.055507485 -0.042443264 -1.2856005 -0.09080415 -0.072993 -0.036240954 -0.020207297
-0.044928197 -0.012828152 -0.019962924 -0.04825984 -0.053189002 -0.016979244 -0.04364102 -0.06339428
-0.05063333 -0.033208065 -0.04624045 -0.06706069 -0.070934564 -0.068301566 -0.031970307 -0.080167286
-0.01825878 -0.0109726405 -0.083781995 -0.079662584 -0.035488844 -0.03265585 -0.035486046 -0.07520045
-0.06953123 -0.059985645 -0.06604949 -0.057544418 -0.08933644 -0.05588586 -0.027883243 -0.06541318
-0.030642973 -0.058855314 -0.05273781 -0.0891228 -0.019732822 -0.063357286 -0.043677125 -0.07664473
-0.10238974 -0.026136765 -0.06862008 -0.06967 -0.02387657 -0.07688912 -0.029054694 -0.071412414
-0.054066785 -0.016485952 -0.028181689 -0.081922516 -0.037300773 -0.04968755 -0.018973798 -0.025289828
-0.09973758 -0.07308651 -0.043449204 -0.027302468 -0.040397525 -0.07275305 -0.076308146 -1.1136612
0.19480792 -0.027801132 -2.8139741 -0.034588944 -0.062011033 -0.07362945 -0.1011135 -0.061900903
00000000: 7b26 25bd 8c9e 03bd a737 05bd 815e 82bd
00000010: bc05 75bd 2c6b 0ac0 b09e 68bc 91b9 8abd
00000020: e53b 24bd e442 a6bd 4db5 ccbc 45e3 84bd
00000030: ff2b 52bd 2178 91bd 9d2f 9dbd 2209 d5bc
00000040: 01db 38bd 63e6 f5bc 325d 80bd 16ca 07bc
00000050: 019b 42bf 9fa3 71bd 276a 26bd 5738 b0bd
00000060: ae33 59bd ff20 29bd 82db 37bd 5e80 f4bc
00000070: 3461 50bd 9d3a adbd 2bc0 37bd 70e3 e1bc
00000080: 5183 2dbd 2221 56be 84db c7bc 22be e9bc
00000090: 8f39 febc bf00 ebbc a987 c3bd 58ea 8dbd
000000a0: 9f69 8dbd 69dd 11bc 23d4 30bd 4d04 5bbc
000000b0: 389b 6abd bd86 7fbd 6e5f f5bc 03ce 62bd
000000c0: 9006 63bd ec42 0ebd 9a8d 84bd dae6 0dbd
000000d0: 9f1b 53bd baf8 77bc 65e4 4dbd 34ca 34bd
000000e0: 7c33 0bbd 8e40 28bd 48ce c0bd e1cf 3abd
000000f0: e0e1 1bbd d245 83bd ea56 1dbd f8ca ecbc
00000100: 26f8 5ebd c579 33bd 829f 07bf 2f20 aabd
00000110: f343 21bd 09b2 b7bd 99d7 59bd 9345 6dbd
00000120: a21a 9dbd 5ac9 75bd e94b e8bc 0cc9 cfbc
00000130: 9486 17bd fe7a 70bd 5a12 12bd 501f 99bd
00000140: f1d8 bcbd 816f 17bd 00ac 223f fc65 37bd
00000150: 437f 8abd 3c82 e9bc fa32 6bbd 10c8 29bd
00000160: ea72 20bd 2c18 5dbd 742c 86bd 68a1 94bc
00000170: 13ad 02bd 5d44 f1bc 5ee7 22bd 8195 debc
00000180: 1a8e 71bd cde6 8abd 8de9 95bd 556d 4bbd
00000190: e2ad 7bbc 1d6c b7bd ddaa ecbc 6be4 a4bd
000001a0: 4d5f 6abd 5a45 87bd 5f86 95bd 3ac6 b0bd
000001b0: 4452 e5bc ee51 a2bc eba8 edbc f9cd 86bd
000001c0: 6b98 833d 88c8 a1bd bf1e 3cbd 86ba 90bd
000001d0: 21ca abbd 6948 42bd 19b0 61bd e2f2 78bd
000001e0: d551 4abd 4bbb 3e40 ec34 54bf bf6b 55bd
000001f0: dd7e 06bd 0702 57bd 91e2 a1bd b4ae 69bd
00000200: e700 d0bc 28b4 8cbd c7b5 67bd b7ac 0abd
00000210: 81bf 62bd b0ea 01bd cca2 cebb 165a fbbc
00000220: 5bab efbc b2ca 6cbd fe5a 48bd 94e3 6bbd
00000230: eed3 bebd 22d5 12bd 681d 88bf 31b1 babc
00000240: 7f35 60bd 653c 92bd 69ed e5bf 207e 94bc
00000250: dfca a3bc e554 99bd 8a00 e13f 862c b9bd
00000260: 160d 6cc0 1ef3 13bd 9744 d3bc 2cdf efbe
00000270: ac3d dcbc 0e0a f4bc f8b6 b4bd 81ca 85bd
00000280: b948 4abd 74ad 1cbd 7d32 9bbd e6d8 4ebd
00000290: 7d61 56bd aa2d 39bd 9dd5 78bd f86f 53bc
000002a0: 9707 53bd a379 cabd d7bb 84bd 6875 bdbd
000002b0: 0635 73bd 65ff 45bd e1b5 7cbd 5015 2fbd
000002c0: a09d 7abd d15b 63bd fdd8 2dbd 8f8e a4bf
000002d0: 87f7 b9bd 5b7d 95bd 6571 14bd c689 a5bc
000002e0: a106 38bd 2b2d 52bc 4989 a3bc 1cac 45bd
000002f0: b6dc 59bd 0e18 8bbc edc0 32bd dcd4 81bd
00000300: e564 4fbd 2e05 08bd a066 3dbd 1d57 89bd
00000310: 2446 91bd b1e1 8bbd 4cf3 02bd bf2e a4bd
00000320: 7093 95bc 97c6 33bc e595 abbd 2326 a3bd
00000330: c05c 11bd 24c2 05bd d159 11bd b202 9abd
00000340: 6466 8ebd 82b3 75bd f444 87bd b2b3 6bbd
00000350: 06f6 b6bd 92e8 64bd 666b e4bc 58f7 85bd
00000360: f906 fbbc 4512 71bd 9a03 58bd 0486 b6bd
00000370: baa6 a1bc 77c1 81bd c9e6 32bd eaf7 9cbd
00000380: b6b1 d1bd c51c d6bc af88 8cbd 25af 8ebd
00000390: cc98 c3bc 0b78 9dbd 1c04 eebc ac40 92bd
000003a0: 2275 5dbd 8c0d 87bc 49dd e6bc fec6 a7bd
000003b0: b2c8 18bd 2c85 4bbd f06e 9bbc 9d2c cfbc
000003c0: 3743 ccbd 61ae 95bd cbf7 31bd 6da9 dfbc
000003d0: e077 25bd 8dff 94bd 7247 9cbd 738c 8ebf
000003e0: ba7b 473e 33bf e3bc 2718 34c0 23ad 0dbd
000003f0: 48ff 7dbd 09cb 96bd 9814 cfbd cd8b 7dbd

fc1.weight f4 [128, 256]
-0.0052245213 -0.0011617346 -0.0028864474 0.00014331478 0.004946875 -3.8418741 0.0050201407 0.0042869225
-0.004131705 0.002993798 -0.0046170237 -0.0040829442 0.0013285133 0.0017648895 -0.0073447297 -0.003311145
0.0031217567 -0.0031006737 0.004457917 -0.00013513993 -3.2162879 8.790584e-05 -0.0051602684 -0.0030087274
0.0057178605 -0.0014959438 -0.0073722247 -0.004803266 -0.0033677036 -0.00241407 -0.0005882779 0.002886306
-0.00019045213 -3.3301654 -0.0025671232 -0.0013279325 0.0068871616 0.007018278 -0.005871664 -0.0020451718
0.0011739662 -0.0016300242 -0.0012133326 0.008449613 -0.0037592028 -0.0045063216 -0.0034396513 -0.005855658
-0.0025742694 -0.0056123394 -0.0062663183 -0.0005886456 -0.001568308 -0.0027100914 -0.007008373 -0.004158732
-0.006511002 -0.0031687736 -0.004850886 0.0039288364 3.638342e-05 0.00014081925 -0.0034063472 -0.0013310243
0.0074681262 0.00029354382 -1.2153648 -0.0042535053 -0.0028259053 0.0008757845 0.0045110453 -0.001840366
-0.0033272724 -0.003539459 0.0070352843 -0.0017352259 -0.0021372358 0.0011205401 -0.00503745 -0.0050054356
0.0039004926 -0.0026337288 -1.8503569 0.0008973866 -0.0035470782 0.0058435607 -0.0019899958 -0.005974045
-0.0008737878 -0.007054446 0.005113623 -0.0019054895 -0.00227277 0.001968686 0.0018079552 0.0012880431
0.0035881416 0.0036679667 -0.0011195402 0.004464453 -0.00093840604 0.00599088 -0.006631819 0.1138406
-0.0011273779 -0.001005828 0.0038814272 -0.004360508 -0.004736192 -0.0031505825 0.0072357026 0.00034672124
-0.34614924 0.0006516096 -0.0072012837 -0.0066691753 -0.005400451 -0.0021870488 0.00012399563 -0.0031023768
-0.0012355938 -0.038130604 -1.138401 -0.0069007836 0.005463907 -0.0043952786 -0.003278148 -0.001414841
-0.007534941 -0.000100225116 -0.003286474 -0.0054342547 -0.0019846456 -0.005214886 0.00042116898 -0.001421764
-0.006123547 0.0008016222 -0.0053939917 -0.005779948 -0.0052942573 -0.001024792 -1.0971415 0.0008078969
-0.00059340213 0.004072956 -0.47367188 -0.006137487 0.0015086409 0.007611537 -2.7829158 -0.004336083
-0.37740618 -0.002345879 0.003703685 -1.3109132 -0.0012417873 -7.029625e-05 -0.0013676918 -0.0019988976
0.0015054472 -0.00023329115 -0.003787351 -0.002262325 -0.0052019274 -0.0007244636 -0.0033559937 0.0067080543
0.007448392 0.0076315086 0.0013487668 -0.004408103 0.0024763646 0.0055581364 -0.0057187798 -0.0025370389
0.004215734 -0.003002221 -0.0048217042 -3.0800862 0.0027666856 0.004659659 0.00045786513 -0.004311346
-0.004991747 -0.005806372 0.0019324789 -0.0076312777 -0.0052809156 -0.0012661809 -0.0053823236 -0.0025394463
-0.0059727873 -0.0046547237 -0.0044247834 -0.00039987592 -0.002953989 -0.004115392 -0.0016859992 -0.0068042763
-0.00012045012 0.0015601234 -0.0067871963 -0.002528061 0.00048270042 -0.0011718299 0.002439998 -0.0045367205
-0.0044559436 0.00031275954 -0.0040467065 0.0018188178 -0.008071603 0.0008464455 0.0015156326 -0.0029212893
-0.005807707 0.0016276145 -0.0031436284 -0.0033844342 -0.0026712164 -0.0014992431 -0.0026276493 -0.0006068202
-0.0052010813 -0.0019723312 0.005751031 -0.0038570662 0.00085179723 -0.007932753 0.0012913126 -0.0011945877
-0.0035333692 -0.004627322 0.0060474575 -0.003381992 -0.0019863204 -0.0069721444 -0.0004200985 -0.007216199
0.005655112 -0.0019310889 -0.0047723884 0.0024817735 -0.0020292143 -0.00028732646 0.0043205526 -1.1251951
-0.93479383 -0.0021236793 -5.315711 -0.007517967 0.004813179 -0.0029392738 -0.0068319384 -0.0062114806
00000000: 7632 abbb 5845 98ba 8d2a 3dbb c546 1639
00000010: 6519 a23b 44e1 75c0 fe7f a43b 5079 8c3b
00000020: 4163 87bb 9933 443b 674a 97bb 38ca 85bb
00000030: 8221 ae3a dd53 e73a 0fac f0bb cbff 58bb
00000040: 6396 4c3b ac34 4bbb b813 923b 59b4 0db9
00000050: a9d7 4dc0 175a b838 7817 a9bb 122e 45bb
00000060: e45c bb3b 8b13 c4ba b492 f1bb b764 9dbb
00000070: b1b4 5cbb 6035 1ebb a936 1aba 2e28 3d3b
00000080: 1bb4 47b9 6e21 55c0 2e3d 28bb 050e aeba
00000090: b3ad e13b 95f9 e53b 1667 c0bb 4a08 06bb
000000a0: c5df 993a 89a6 d5ba b008 9fba 3f70 0a3c
000000b0: f55c 76bb c4a9 93bb c66b 61bb d2e0 bfbb
000000c0: 13b5 28bb b7e7 b7bb b055 cdbb 564f 1aba
000000d0: af8f cdba ca9b 31bb 7ea6 e5bb f945 88bb
000000e0: 3e5a d5bb 33ab 4fbb 2ef4 9ebb 78bd 803b
000000f0: 669a 1838 e1a8 1339 063d 5fbb c475 aeba
00000100: 2fb7 f43b c9e6 9939 1391 9bbf fd60 8bbb
00000110: d332 39bb e794 653a 64d1 933b 7038 f1ba
00000120: 5e0e 5abb 45f6 67bb 3e88 e63b 8570 e3ba
00000130: de10 0cbb 16df 923a 3211 a5bb a304 a4bb
00000140: 689f 7f3b a39a 2cbb 7fd8 ecbf 983e 6b3a
00000150: 1976 68bb 577b bf3b 976a 02bb ecc1 c3bb
00000160: e80e 65ba fb28 e7bb 2e90 a73b 9ec1 f9ba
00000170: c1f2 14bb 1205 013b e9f8 ec3a 8ed3 a83a
00000180: 0727 6b3b 4562 703b 89bd 92ba 8c4a 923b
00000190: 5dff 75ba 254f c43b bb4f d9bb 4325 e93d
000001a0: 86c4 93ba fdd5 83ba 8b5f 7e3b 98e2 8ebb
000001b0: 0f32 9bbb 017a 4ebb 7919 ed3b 23c8 b539
000001c0: 793a b1be c8d0 2a3a bff8 ebbb 1989 dabb
000001d0: 44f6 b0bb 9754 0fbb d304 0239 3f51 4bbb
000001e0: a6f3 a1ba d62e 1cbd 20b7 91bf f81f e2bb
000001f0: 930a b33b 4506 90bb 32d6 56bb 3072 b9ba
00000200: abe7 f6bb f32f d2b8 e261 57bb d511 b2bb
00000210: d410 02bb a2e1 aabb 58d0 dc39 7c5a baba
00000220: 09a8 c8bb f523 523a 15c0 b0bb b865 bdbb
00000230: 737b adbb 5052 86ba 226f 8cbf 0bc9 533a
00000240: 8b8e 1bba 6e76 853b 1f85 f2be f91c c9bb
00000250: 97bd c53a 336a f93b 4b1b 32c0 b315 8ebb
00000260: 623b c1be 52bd 19bb 86b9 723b 01cc a7bf
00000270: 78c3 a2ba 036c 93b8 1f44 b3ba f0ff 02bb
00000280: 6d52 c53a 9e9f 74b9 3535 78bb 8443 14bb
00000290: ee74 aabb eee9 3dba 3bf0 5bbb 3dcf db3b
000002a0: a411 f43b bc11 fa3b 1bc9 b03a d971 90bb
000002b0: 814a 223b 0721 b63b 9a64 bbbb 7344 26bb
000002c0: 2424 8a3b e9c0 44bb 63ff 9dbb 2220 45c0
000002d0: 4851 353b 0eb0 983b 9e0d f039 3146 8dbb
000002e0: cf91 a3bb 6143 bebb 3b4b fd3a cc0f fabb
000002f0: 880b adbb fbf5 a5ba 345e b0bb d76c 26bb
00000300: 5fb7 c3bb a786 98bb c6fd 90bb 70a6 d1b9
00000310: b697 41bb 69da 86bb bffc dcba 68f6 debb
00000320: 2a9a fcb8 0e7d cc3a 2167 debb d3ad 25bb
00000330: f412 fd39 1698 99ba 60e8 1f3b c5a8 94bb
00000340: 2a03 92bb e0f9 a339 3c9a 84bb 6665 ee3a
00000350: c23e 04bc ffe3 5d3a 31a8 c63a 1a73 3fbb
00000360: 944e bebb ae55 d53a 5505 4ebb 62cd 5dbb
00000370: 930f 2fbb 4082 c4ba a434 2cbb 0413 1fba
00000380: d56d aabb 3a42 01bb 2573 bc3b d5c6 7cbb
00000390: 254b 5f3a 61f8 01bc 4341 a93a b693 9cba
000003a0: 1990 67bb caa0 97bb c029 c63b 69a4 5dbb
000003b0: ed2c 02bb 9676 e4bb ab40 dcb9 dd75 ecbb
000003c0: 854e b93b 971c fdba b261 9cbb 40a5 223b
000003d0: 91fc 04bb 4ea4 96b9 6c93 8d3b 6506 90bf
000003e0: a64e 6fbf 6d2d 0bbb 4e1a aac0 4759 f6bb
000003f0: dfb7 9d3b d5a0 40bb 74de dfbb ad89 cbbb

fc1.bias f4 [128]
-0.012575404 -0.050498504 -0.9067943 -0.074157216 -0.18275657 -0.024985528 -1.2527865 -0.011724442
-0.077695005 -0.2674896 -0.28049904 -0.5839685 -0.05446935 -0.14434814 -1.2067754 1.7398324
-0.031765193 -0.3322839 -0.2072117 -0.0647062 -0.72367024 -0.049936038 -0.19574477 -0.3721184
-0.17760852 -0.0009804647 -0.34362504 -0.091777295 0.6352069 -0.0024394426 0.6429302 -1.0160961
-0.08923734 -0.07506548 -0.28103253 -0.28781685 -0.030552268 -0.5940687 -0.51287764 -0.07205896
-0.3474912 -0.38269773 -0.07356048 -1.1674769 -0.101987705 -0.2602792 -0.3465027 -0.008145283
-0.6428456 -0.5813964 -0.04259752 -0.19500886 -0.33740935 -0.03236694 -0.16582263 -0.26003876
-0.09740139 -2.3080306 -2.153152 -0.038915128 -0.03816419 -0.46346843 -0.31769493 -0.20147221
-0.0484537 -0.3896552 -0.003447478 -0.616474 -0.45134023 -0.6632148 -0.31480512 -0.11944061
-2.952153 3.3339648 -0.038750287 -0.41196042 -0.02309045 -1.4138494 -0.11504296 -0.42256284
-0.11311985 -0.2409282 -0.09291343 -0.032079134 -0.075198926 -0.057452094 -0.10816771 -0.68768543
-0.13847892 -0.00866901 -0.305903 -0.583026 -2.8432088 -0.04620887 -0.6955972 -0.07985537
-0.010316992 -0.0795358 -0.0049637924 -0.08491556 -0.56493574 -0.4583798 -0.8473047 -0.050984763
-0.007313591 1.8825893 -0.5437178 -0.04308656 -0.09312081 -0.32976678 -0.69076806 -0.38281655
-0.029731203 1.0585915 -1.3662313 -0.051808875 -0.1524181 -0.034428753 -0.14226845 -0.09020068
-0.9528917 -0.12941064 -0.07018665 -0.68873906 2.0618536 -0.1575986 0.24319024 1.5633315
00000000: 1109 4ebc 85d7 4ebd ac23 68bf bddf 97bd
00000010: 8a24 3bbe 73ae ccbc 4f5b a0bf e017 40bc
00000020: 8f1e 9fbd 66f4 88be 929d 8fbe f67e 15bf
00000030: 411b 5fbd 00d0 13be 9e77 9abf d4b2 de3f
00000040: 381c 02bd 1e21 aabe 4e2f 54be af84 84bd
00000050: 7442 39bf bb89 4cbd 5171 48be 4e86 bebe
00000060: 02df 35be f082 80ba 9fef afbe bcf5 bbbd
00000070: eb9c 223f 0edf 1fbb 1397 243f 700f 82bf
00000080: 11c2 b6bd eebb 99bd 7fe3 8fbe bb5c 93be
00000090: c048 fabc e314 18bf f34b 03bf a693 93bd
000000a0: 5eea b1be f5f0 c3be e0a6 96bd e26f 95bf
000000b0: eede d0bd 5143 85be cd68 b1be cb73 05bc
000000c0: 8791 24bf 65d6 14bf bd7a 2ebd 67b0 47be
000000d0: ebc0 acbe 3293 04bd 68cd 29be cd23 85be
000000e0: 617a c7bd c6b6 13c0 3ecd 09c0 7865 1fbd
000000f0: 0e52 1cbd bc4b edbe e9a8 a2be bb4e 4ebe
00000100: 6377 46bd e380 c7be 15ef 61bb 3dd1 1dbf
00000110: 1116 e7be 72c8 29bf 232e a1be 479d f4bd
00000120: 13f0 3cc0 ae5f 5540 9fb8 1ebd 7aec d2be
00000130: 2f28 bdbc 04f9 b4bf a59b ebbd 285a d8be
00000140: 61ab e7bd e2b5 76be 6549 bebd 6965 03bd
00000150: e501 9abd e352 6bbd 0887 ddbd 270c 30bf
00000160: 6bcd 0dbe 7708 0ebc 519f 9cbe 3141 15bf
00000170: 22f7 35c0 8345 3dbd a812 32bf 368b a3bd
00000180: 9a08 29bc aae3 a2bd 4fa7 a2bb 36e8 adbd
00000190: a19f 10bf c2b0 eabe f6e8 58bf 66d5 50bd
000001a0: d9a6 efbb b0f8 f03f 1731 0bbf 887b 30bd
000001b0: 20b6 bebd 31d7 a8be 2dd6 30bf 8800 c4be
000001c0: da8e f3bc ed7f 873f abe0 aebf 8b35 54bd
000001d0: 7e13 1cbe 2a05 0dbd d2ae 11be 22bb b8bd
000001e0: b6f0 73bf 3984 04be 05be 8fbd 3451 30bf
000001f0: 69f5 0340 8761 21be dd06 793e 3f1b c83f

fc2.weight f4 [64, 128]
-0.6360983 -0.3680276 2.3451955 0.24584474 -0.8585977 -0.9901411 -1.8180572 -0.39443287
0.6078353 -0.7240287 0.040000103 -0.77720827 -1.1328441 -1.189439 2.2536879 -0.66261065
0.24999255 0.3669952 -0.055319943 -0.36377808 -1.4930549 -0.07404567 -1.3154479 -1.1018302
-0.2507759 -0.059699878 -0.7184672 -1.8354785 -0.2739308 -0.54309344 -0.30618903 -0.9478568
-0.95241004 0.045079872 -0.3072776 -1.8661072 -0.61158067 -0.6780937 -0.15593962 0.19601215
0.13330245 -0.5006509 -0.3486733 -0.062352188 0.5656743 0.4388165 -0.26659235 0.32375664
-0.1522306 -0.6196255 -0.1791079 -0.29349905 -0.7080686 0.16062805 -1.0825958 -0.24293663
-0.8085671 -0.5062717 -0.8847255 -1.0932969 0.15268393 0.06954368 -0.17375833 -0.514721
-0.20238353 -1.1516373 0.5278248 -0.67156994 0.026883 -1.1826801 -0.11738161 -0.73977286
-0.28231367 -0.20919026 -0.62461734 -1.2348619 0.21966368 -0.24136542 -0.3237115 0.20252122
-0.36192435 -0.4367652 0.5520297 0.23812705 -0.2973784 -0.508848 -0.23354669 0.34341627
-1.1164016 -0.13621381 -0.39381397 -1.0037633 -0.5901842 -0.80281365 -0.5698832 -0.30920643
-0.035977554 0.6407102 -0.9483787 0.36680678 -1.2195426 -0.86047024 -0.6692199 0.104804136
-0.092973694 -0.68955386 -0.19221133 -0.51325 -0.12932798 -0.71407515 -0.2300714 -1.6818277
-0.015295595 -0.30133685 0.28744504 -0.494824 0.3280488 -0.1303274 -0.052627087 0.7211336
0.86931217 0.070119485 -0.33457568 0.55749696 -0.73116875 0.44560513 -0.39765596 -0.647045
0.012453107 -0.041386012 -0.021435985 -0.0060453787 0.02336516 -0.015300933 -0.07775883 -0.0029894928
-0.045480788 0.10070778 0.03878841 -0.34036842 0.0077566393 -0.005597733 -0.037248246 -0.20560008
0.12265832 0.051804792 -0.048591226 0.0332754 -0.22053888 -0.042205766 0.029487701 0.07259214
-0.06705341 -0.022870932 -0.037570044 0.076670654 -0.2985592 -0.040699568 -0.3214554 -0.01608394
0.032081306 0.0045102984 0.042938102 0.102397546 0.022491116 -0.3503962 -0.016442781 -0.046412595
0.021198008 -0.004311054 0.00770304 -0.14626667 0.029871719 -0.07078443 -0.03006646 -0.009112316
-0.008124678 0.008171077 -0.007959111 0.006033032 -0.01712753 0.019506322 0.017418813 -0.0716432
-0.021893362 -0.08094316 -0.4955814 0.005402995 -0.029502286 -0.056883637 0.036386527 -0.047510155
-0.007798208 0.05910982 0.034062304 -0.11228047 -0.00035416693 0.06987062 0.03605375 -0.035618167
0.053450458 -0.19507878 0.0038764558 -0.35187754 -0.03574851 -0.00047048263 -0.14165221 -0.030120773
-0.002730389 -0.4692489 0.11374041 0.017805908 -0.028818723 0.011232845 -0.0052736527 -0.069787
0.0098851435 -0.002697519 0.03687846 -0.12473155 0.17706126 0.0072112796 0.09644988 -0.0064507914
-0.041523475 -0.031119337 -0.0054393057 -0.020192372 -0.13416028 -0.016365176 0.02009048 -0.057422917
0.0029723742 0.16102456 -0.022923453 -0.019529318 0.05105336 0.15660217 -0.091645084 0.029343838
-0.052029856 0.18207121 -0.11266129 0.057409603 0.012396748 0.042485464 0.038866993 -0.00662644
-0.16130093 0.0147304805 -0.003928148 0.049451873 -0.14569688 0.008204232 -0.59008735 0.44134885
00000000: 57d7 22bf 1d6e bcbe af17 1640 b9be 7b3e
00000010: 0fcd 5bbf e379 7dbf 19b6 e8bf 1bf3 c9be
00000020: 189b 1b3f f259 39bf 26d7 233d 1ff7 46bf
00000030: 0901 91bf 8a3f 98bf 6c3c 1040 daa0 29bf
00000040: 0cfe 7f3e cbe6 bb3e 2a97 62bd 1f41 babe
00000050: 6c1c bfbf 42a5 97bd 9960 a8bf c608 8dbf
00000060: b365 80be dc87 74bd 77ed 37bf f6f0 eabf
00000070: a840 8cbe 2c08 0bbf cfc4 9cbe bea6 72bf
00000080: 25d1 73bf aca5 383d 7d53 9dbe 9adc eebf
00000090: 8d90 1cbf 8c97 2dbf a3ae 1fbe 69b7 483e
000000a0: 7080 083e a82a 00bf 4f85 b2be 0265 7fbd
000000b0: 08d0 103f 8eac e03e cb7e 88be 6ec3 a53e
000000c0: 57e2 1bbe c79f 1ebf 1068 37be 8245 96be
000000d0: fc43 35bf ae7b 243e 8092 8abf 61c4 78be
000000e0: 41fe 4ebf 069b 01bf 5f7d 62bf 27f1 8bbf
000000f0: 2d59 1c3e eb6c 8e3d b4ed 31be c1c4 03bf
00000100: a13d 4fbe da68 93bf 871f 073f 02ec 2bbf
00000110: bd39 dc3c 1062 97bf c565 f0bd c161 3dbf
00000120: 6b8b 90be f935 56be ece6 1fbf f40f 9ebf
00000130: 84ef 603e 7f28 77be 84bd a5be b961 4f3e
00000140: 264e b9be b09f dfbe d251 0d3f 94d7 733e
00000150: fb41 98be dd43 02bf dd26 6fbe 42d4 af3e
00000160: 3fe6 8ebf a27b 0bbe fca1 c9be 517b 80bf
00000170: 5016 17bf 3285 4dbf dee3 11bf 4e50 9ebe
00000180: 335d 13bd 9505 243f f2c8 72bf 19ce bb3e
00000190: f919 9cbf c747 5cbf ff51 2bbf 8da3 d63d
000001a0: fe68 bebd 9a86 30bf 0cd3 44be 5a64 03bf
000001b0: 8e6e 04be a1cd 36bf d697 6bbe 2146 d7bf
000001c0: 609a 7abc d348 9abe ff2b 933e 9259 fdbe
000001d0: 03f6 a73e 8c74 05be 808f 57bd 369c 383f
000001e0: 3e8b 5e3f ce9a 8f3d 814d abbe 1fb8 0e3f
000001f0: e02d 3bbf 5b26 e43e 9099 cbbe bea4 25bf
00000200: 1e08 4c3c 6184 29bd 859a afbc 5018 c6bb
00000210: 4b68 bf3c c4b0 7abc 0540 9fbd 5eeb 43bb
00000220: 104a 3abd e13f ce3d 99e0 1e3d c544 aebe
00000230: 682b fe3b 306d b7bb 9e91 18bd d488 52be
00000240: 4934 fb3d 4331 543d 9807 47bd c94b 083d
00000250: f2d4 61be f4df 2cbd 3190 f13c 30ab 943d
00000260: 4c53 89bd d25b bbbc 0ce3 19bd 8105 9d3d
00000270: c0dc 98be 97b4 26bd cd95 a4be 78c2 83bc
00000280: b067 033d 20cb 933b dddf 2f3d ceb5 d13d
00000290: 4a3f b83c 2167 b3be 03b3 86bc 221b 3ebd
000002a0: 72a7 ad3c be43 8dbb c869 fc3b eec6 15be
000002b0: 89b5 f43c 6df7 90bd f04d f6bc d34b 15bc
000002c0: 5f1d 05bc fbdf 053c ee66 02bc beb0 c53b
000002d0: 094f 8cbc b9cb 9f3c e6b1 8e3c acb9 92bd
000002e0: b559 b3bc 87c5 a5bd d8bc fdbe 9b0b b13b
000002f0: c7ae f1bc d1fe 68bd 0a0a 153d 029a 42bd
00000300: 1c88 ffbb 231d 723d ea84 0b3d 4ef3 e5bd
00000310: 7baf b9b9 5418 8f3d 19ad 133d 5be4 11bd
00000320: deee 5a3d bbc2 47be 230c 7e3b 4b29 b4be
00000330: 086d 12bd 1cab f6b9 470d 11be d7bf f6bc
00000340: 53f0 32bb 6441 f0be bbf0 e83d b2dd 913c
00000350: 3e15 ecbc f709 383c 9bce acbb 7dec 8ebd
00000360: 4cf5 213c dcc8 30bb de0d 173d 4173 ffbd
00000370: 8c4f 353e 994c ec3b 8487 c53d 2961 d3bb
00000380: 8514 2abd fbed febc 343c b2bb 796a a5bc
00000390: 5061 09be 4310 86bc ca94 a43c 4b34 6bbd
000003a0: 2acc 423b 9fe3 243e f7c9 bbbc f3fb 9fbc
000003b0: 541d 513d 525c 203e 6bb0 bbbd 7d62 f03c
000003c0: 421d 55bd e070 3a3e f6ba e6bd 5526 6b3d
000003d0: bb1b 4b3c 3d05 2e3d ff32 1f3d 9c22 d9bb
000003e0: 122c 25be 1d58 713c b2b7 80bb 0c8e 4a3d
000003f0: 9031 15be 0b6b 063c f70f 17bf 7af8 e13e

fc2.bias f4 [64]
-0.8025263 0.5535663 -0.026495317 -0.07687986 -0.3462201 -0.039470635 -0.03651427 -0.09168173
-0.7430228 -0.3963482 -0.522675 -0.013235148 -0.48188344 -0.22667009 -0.672538 -0.8673097
-0.01747281 -0.49777374 -0.13554965 -0.32349056 0.16818136 -0.3464117 -0.04137817 -0.4440915
-0.25947383 0.71011484 -0.17406565 0.39944807 -0.44274142 -0.108520545 -0.502942 -0.69802827
0.07099138 0.7851311 -0.38848522 0.76377296 0.111169 -0.13277711 0.09117326 -0.3648185
-0.029813962 -0.013837239 -0.30494815 0.44255796 -0.014334685 -0.5239508 -0.012906454 -0.41282398
-0.72457975 0.59968126 0.43076456 -0.006016586 0.7962533 -0.5012777 -0.44396535 -0.025986694
-0.012439942 -0.38192183 -0.09282775 -0.24294293 -0.021285601 -0.12127597 -0.43582845 -0.1916283
00000000: 5d72 4dbf 85b6 0d3f b50c d9bc 3073 9dbd
00000010: c343 b1be f6ab 21bd fd8f 15bd a1c3 bbbd
00000020: be36 3ebf 27ee cabe 07ce 05bf 3cd8 58bc
00000030: 6db9 f6be 341c 68be 732b 2cbf 0208 5ebf
00000040: 2323 8fbc 33dc febe 87cd 0abe 8ea0 a5be
00000050: bc37 2c3e e05c b1be 287c 29bd f65f e3be
00000060: c1d9 84be 16ca 353f 443e 32be 7584 cc3e
00000070: 01af e2be 0540 debd cfc0 00bf fbb1 32bf
00000080: ee63 913d 5afe 483f 89e7 c6be a086 433f
00000090: 93ac e33d b9f6 07be 0cb9 ba3d 7ec9 babe
000000a0: 693c f4bc 96b5 62bc 2a22 9cbe f596 e23e
000000b0: 07dc 6abc a421 06bf 9775 53bc aa5d d3be
000000c0: 0f7e 39bf b684 193f 2c8d dc3e c826 c5bb
000000d0: 42d7 4b3f bc53 00bf 6d4f e3be 0ce2 d4bc
000000e0: e6d0 4bbc 428b c3be 7a1c bebd 08c6 78be
000000f0: 245f aebc 895f f8bd e824 dfbe 363a 44be

out.weight f4 [10, 64]
0.54593986 0.15763302 -3.0794444 -0.7861252 8.650657 2.5267386 -1.0582619 8.392404
1.2091953 -1.1881893 -4.9655232 0.3858394 -3.2705781 -3.6081517 0.656311 2.8128355
-2.2320108 -0.11502226 0.023364913 2.6470108 0.040427834 -6.4816594 3.6454685 4.3591523
-3.2296066 -0.12303221 -0.085433744 -0.1195933 -7.6037965 0.058924723 -4.4444814 -0.5849539
1.4655783 -0.0005963105 3.3919318 -0.04827189 -0.36510777 -0.31365675 -0.1767246 -0.16470304
-2.3754807 -0.20404108 -0.026073283 0.09850832 -0.5469197 -7.138086 0.011609592 -0.73723835
2.3482668 -0.12730122 -0.021825666 0.030226855 -0.050167274 0.37667584 2.972468 2.624761
0.047169972 1.8900087 -0.0072134538 2.316446 -0.49524117 5.911208 -0.11922476 -0.3837169
-0.023563787 -0.578851 1.2310729 2.2126024 4.802039 -6.4256797 -3.7376218 4.918744
1.3340075 0.9154234 2.1993291 0.012671473 0.8675061 -0.19762388 10.728367 1.9816164
-1.9236056 -1.7758511 -1.1762034 -7.9639463 0.30435172 5.568786 3.2460837 -4.7042484
-3.577126 0.34331542 -5.7818456 0.07909896 -1.6449014 -0.04807938 2.1381922 -0.37997267
-0.12746906 0.6926979 1.02626 -0.39790276 0.7733512 -2.7477727 -0.117379256 -4.3543105
-7.4235373 -0.118091926 0.99995416 -0.013554671 -2.8162625 -1.8667861 10.194748 4.773702
-1.8409402 0.6015052 -0.23596817 0.12070287 -0.45305523 -4.337169 -0.58824253 8.798342
0.41896495 0.5687498 8.098856 0.28864402 2.139235 2.3470457 -0.0956043 0.5287832
2.8191915 0.47737977 -1.5014919 6.8887773 -0.009604003 5.5388713 -0.9581568 0.92009395
0.40910825 1.4976162 0.015544258 -4.3605704 0.82686055 -1.1963773 -0.5087258 3.1970706
3.6578891 5.1423407 0.9265703 2.1113164 -2.2007442 1.8872566 2.6236749 0.088709876
6.428252 -0.49564552 -1.8203583 0.067456484 8.88013 1.322238 1.0359241 -2.7927058
-0.12984379 0.32897845 -3.8475194 0.3313663 3.5328918 -1.4154376 -0.09417568 -3.345585
-1.9248067 -0.1203138 4.212846 -0.25860775 0.25839138 -2.1959178 0.67353404 -3.8292553
-0.36118507 -0.618448 -0.2523529 1.8051732 0.4847545 -2.314439 -3.7034566 -4.3872743
-1.6248713 -2.6058307 1.1402137 6.2322145 -0.5038755 -1.7871034 -0.12861742 0.21681385
0.27756202 -0.21620002 1.1913635 0.6229521 2.0726483 -0.3024489 2.4201436 1.7586383
0.84507984 2.0230803 3.954503 -1.8338461 -6.081928 -5.6405363 -1.9459072 -0.20071627
3.8138344 -8.123296 0.17303808 3.9707394 -1.4382215 1.4269776 -0.75211 -1.1146803
4.0916147 0.36641988 7.512426 0.068836115 -6.8688364 -4.2986884 -1.9302256 1.2640039
-0.13341942 0.072730534 2.1750448 -0.43548876 -0.09388696 2.398365 -0.10750585 -6.7559457
-7.008403 -0.12823583 -2.0989068 1.1790166 3.9439185 -3.1033285 -1.0177037 -1.0038773
1.1121387 -0.2687216 -0.23108688 2.6923707 0.21888813 -0.34595543 0.7640326 -1.5823342
-1.8489872 -4.4341397 -5.1621213 -0.11188571 1.3693871 2.7855155 -0.100194216 0.014389489
00000000: b7c2 0b3f 8d6a 213e 9e15 45c0 803f 49bf
00000010: 1769 0a41 16b6 2140 2075 87bf 4947 0641
00000020: e9c6 9a3f 9616 98bf 91e5 9ec0 be8c c53e
00000030: 2751 51c0 f5eb 66c0 ff03 283f 7f05 3440
00000040: 44d9 0ec0 ca90 ebbd c667 bf3c a068 2940
00000050: a897 253d c169 cfc0 5b4f 6940 2d7e 8b40
00000060: e0b1 4ec0 50f8 fbbd e3f7 aebd 55ed f4bd
00000070: 4d52 f3c0 0d5b 713d 3139 8ec0 8abf 15bf
00000080: 1298 bb3f b851 1cba 6915 5940 bfb8 45bd
00000090: 68ef babe 9e97 a0be 4bf7 34be eaa7 28be
000000a0: e007 18c0 25f0 50be a397 d5bc bbbe c93d
000000b0: ee02 0cbf 336b e4c0 2836 3e3c a7bb 3cbf
000000c0: 014a 1640 405b 02be bdcb b2bc 4f9e f73c
000000d0: 337c 4dbd a8db c03e ea3c 3e40 16fc 2740
000000e0: 4d35 413d ceeb f13f d65e ecbb a740 1440
000000f0: 4090 fdbe 9e28 bd40 1c2c f4bd 8b76 c4be
00000100: d808 c1bc 942f 14bf cc93 9d3f 479b 0d40
00000110: 4eaa 9940 2b9f cdc0 3235 6fc0 5a66 9d40
00000120: c2c0 aa3f 3059 6a3f cfc1 0c40 039c 4f3c
00000130: e114 5e3f ea5d 4abe 64a7 2b41 9ba5 fd3f
00000140: b538 f6bf 174f e3bf d58d 96bf a6d8 fec0
00000150: fdd3 9b3e 7f33 b240 d6bf 4f40 3489 96c0
00000160: a2ef 64c0 0ac7 af3e e104 b9c0 a3fe a13d
00000170: 218c d2bf e2ee 44bd 24d8 0840 c78b c2be
00000180: 4087 02be a654 313f 7d5c 833f e9b9 cbbe
00000190: 58fa 453f 82db 2fc0 8964 f0bd 8356 8bc0
000001a0: 9e8d edc0 2eda f1bd fffc 7f3f 6914 5ebc
000001b0: a53d 34c0 d9f2 eebf b01d 2341 2bc2 9840
000001c0: eea3 ebbf 3ffc 193f a4a1 71be 1133 f73d
000001d0: dbf6 e7be 17ca 8ac0 1097 16bf 02c6 0c41
000001e0: 9382 d63e 9699 113f ea94 0141 26c9 933e
000001f0: 3ae9 0840 ff35 1640 30cc c3bd 565e 073f
00000200: a26d 3440 1f6b f43e e330 c0bf dd70 dc40
00000210: 1c5a 1dbc 6f3e b140 c449 75bf 478b 6b3f
00000220: a376 d13e e3b1 bf3f 58ad 7e3c cb89 8bc0
00000230: 22ad 533f e422 99bf db3b 02bf ce9c 4c40
00000240: db1a 6a40 0e8e a440 b633 6d3f cf1f 0740
00000250: fed8 0cc0 a091 f13f 4aea 2740 86ad b53d
00000260: 3eb4 cd40 40c5 fdbe 8001 e9bf a026 8a3d
00000270: 0315 0e41 183f a93f 2999 843f b1bb 32c0
00000280: c5f5 04be dd6f a83e c23d 76c0 d8a8 a93e
00000290: e61a 6240 0f2d b5bf 2edf c0bd 111e 56c0
000002a0: 1160 f6bf 1567 f6bd a2cf 8640 3c68 84be
000002b0: e04b 843e eb89 0cc0 ba6c 2c3f 8512 75c0
000002c0: 40ed b8be 9c52 1ebf 6634 81be ea0f e73f
000002d0: be31 f83e c51f 14c0 6f05 6dc0 8d64 8cc0
000002e0: c8fb cfbf eec5 26c0 86f2 913f 4d6e c740
000002f0: fcfd 00bf cebf e4bf 49b4 03be 7304 5e3e
00000300: 9c1c 8e3e 8a63 5dbe 997e 983f ca79 1f3f
00000310: 45a6 0440 95da 9abe a2e3 1a40 0f1b e13f
00000320: 2757 583f 267a 0140 9416 7d40 78bb eabf
00000330: 279f c2c0 467f b4c0 7d13 f9bf 9188 4dbe
00000340: dd15 7440 05f9 01c1 e530 313e 9820 7e40
00000350: a417 b8bf 34a7 b63f 488a 40bf d8ad 8ebf
00000360: 82ee 8240 639b bb3e cb65 f040 f3f9 8c3d
00000370: 82cd dbc0 db8e 89c0 a211 f7bf e1ca a13f
00000380: 1a9f 08be bff3 943d ef33 0b40 62f8 debe
00000390: ce47 c0bd d07e 1940 072c dcbd b530 d8c0
000003a0: d644 e0c0 4150 03be 7d54 06c0 04ea 963f
000003b0: 2969 7c40 ef9c 46c0 1d44 82bf 0d7f 80bf
000003c0: 905a 8e3f e195 89be 0aa2 6cbe cd4f 2c40
000003d0: 3624 603e 1221 b1be a497 433f ed89 cabf
000003e0: 9dab ecbf 79e4 8dc0 1930 a5c0 5624 e5bd
000003f0: 1448 af3f e345 3240 a032 cdbd e4c1 6b3c

out.bias f4 [10]
0.119054615 0.0747858 0.078874424 0.083183244 0.08644992 0.07970086 0.05794446 0.15846838
0.111371815 0.050909974
00000000: e8d2 f33d 4c29 993d ea88 a13d fa5b aa3d
00000010: a80c b13d 343a a33d 2c57 6d3d 8945 223e
00000020: e816 e43d fa86 503d
