exps/regularModelExperiments/pretrainedmodels/neuralBalanceModel0.pt (torch, 973831 bytes, 8 tensors)

fc.weight f4 [256, 784]
000000 a7 f9 5d 39 f7 fc 53 ba 44 52 63 3a f4 54 46 ba
       0.00021169205 -0.0008086706 0.00086716213 -0.00075657596
000010 e6 b8 e6 39 3a b2 47 3a a0 c7 31 ba c1 65 68 39
       0.0004400678 0.00076178054 -0.00067817606 0.0002216315
000020 96 08 3c ba 85 a9 b2 39 d0 50 d3 b9 94 b9 86 ba
       -0.000717291 0.00034077108 -0.00040305266 -0.0010278695
000030 07 bc 65 b9 35 e2 f6 39 95 1d 4f 3a 47 8b 20 3a
       -0.00021909187 0.00047089314 0.00079008314 0.00061242696
000040 43 a5 1b ba bd e6 7d 3a a2 9e 14 ba 84 7a 8f 38
       -0.00059374067 0.0009685567 -0.000566939 6.841592e-05
000050 d3 0a 83 3a 2a b9 81 3a c3 9b 75 39 12 7e 87 39
       0.0009997733 0.0009897102 0.00023423047 0.00025843136
000060 f6 6d 18 39 4f 02 ef 39 c1 c6 74 37 a6 9f fb 39
       0.00014536813 0.00045587352 1.4589809e-05 0.00047993398
000070 13 80 f5 b8 8d 5f de b8 02 02 21 3a 09 d9 23 ba
       -0.00011706366 -0.000106035826 0.0006141962 -0.00062502973
000080 60 38 a3 39 ed 59 27 ba 8a 88 62 ba 96 67 0b 3a
       0.00031131785 -0.00063839444 -0.0008641562 0.00053178647
000090 83 2f ac b9 9d 5c 5b 3a 1e 02 2d 3a 99 ed 59 39
       -0.00032841795 0.00083679875 0.0006599742 0.00020783245
0000a0 06 22 5f 3a cd 2f 88 3a 3f 81 42 ba 22 28 fa ba
       0.0008511845 0.0010390222 -0.0007419772 -0.0019085447
0000b0 50 1c e2 ba fe 41 1a bb 23 14 24 3a b6 96 0d ba
       -0.001725087 -0.002353787 0.0006259104 -0.0005401181
0000c0 0c b6 72 ba 74 99 03 3a dd c5 41 ba ac e6 55 ba
       -0.00092586945 0.000502012 -0.00073918496 -0.0008159678
0000d0 64 a0 1f 38 67 47 ee b9 3b 4f 3b 3a ab 76 79 3a
       3.805793e-05 -0.00045448096 0.000714529 0.0009516279
0000e0 59 35 1e ba ab 8f 2e ba 02 76 87 b9 c0 5c 59 ba
       -0.0006035171 -0.00066589814 -0.0002583713 -0.0008291714
0000f0 12 19 82 ba 5e 98 3f 3a 92 75 c6 39 9d b0 3b ba
       -0.0009925684 0.0007308776 0.000378531 -0.00071598013
000100 07 24 9c b9 5a 8f 26 ba 90 92 23 ba 93 1a f8 ba
       -0.0002978148 -0.00063537585 -0.0006239796 -0.0018928818
000110 d2 2b 12 bb 24 50 23 bb 01 35 8e ba 30 fe fd ba
       -0.002230395 -0.0024919594 -0.0010849537 -0.0019378122
000120 1a 60 dd ba 41 cf 5c ba 66 1c f7 ba 9f 3d a5 ba
       -0.0016889602 -0.0008423217 -0.0018853068 -0.0012606865
000130 d6 36 93 ba c0 e0 cc ba 8d b3 e8 ba 1e 50 16 3a
       -0.0011231552 -0.0015630946 -0.0017753706 0.0005733984
000140 8c d6 70 3a ae 78 70 ba 7f 22 81 ba ed 48 a4 b8
       0.00091872434 -0.0009173256 -0.00098522 -7.833713e-05
000150 f1 3c 27 3a 52 6e 46 3a 9a 6a c2 39 40 dc 1f 3a
       0.00063796254 0.00075695396 0.00037081988 0.00060981885
000160 6d 5d 04 39 0d 44 35 38 fe 13 03 ba cf db 7b ba
       0.00012623305 4.321714e-05 -0.00050002325 -0.0009607644
000170 3c bd d0 38 2f bd a9 ba 0a 18 12 bb 64 dc 0a bb
       9.9534605e-05 -0.0012950058 -0.002229216 -0.0021188492
000180 a3 94 2a bb 66 65 02 bb 4b 4c 16 bb 4e e7 0f bb
       -0.0026028536 -0.0019896864 -0.0022933658 -0.0021957937
000190 bf b7 08 bb 2c fe a6 ba db b2 55 ba 63 8f e3 ba
       -0.0020861474 -0.0012740544 -0.0008151957 -0.0017361458
0001a0 dd d6 3f ba b9 25 5d ba ef 22 b6 ba da fe dc ba
       -0.0007318089 -0.0008436102 -0.0013895909 -0.001686062
0001b0 bf fc 18 bb 71 71 3c b9 c2 d2 6d 39 82 e8 80 39
       -0.0023344008 -0.00017971337 0.00022680595 0.00024587294
0001c0 81 0f ca b9 c1 8e e6 b8 8c 1e 6e ba fa 27 71 b9
       -0.00038539994 -0.000109938446 -0.00090835313 -0.00022998443
0001d0 aa 64 26 bb 63 ee d9 ba bb 8e 0b bb 00 6c a3 3a
       -0.002538959 -0.0016626831 -0.002129479 0.00124681
0001e0 81 3c 33 3a a2 9b 10 bb 94 09 27 bb 25 f0 a4 3a
       0.0006837324 -0.002206542 -0.0025487887 0.0012583776
0001f0 a3 96 12 bb f8 0e 1f bb 79 37 d8 ba 6f 24 0d bb
       -0.0022367619 -0.0024270397 -0.0016496024 -0.0021536609
000200 47 35 11 bb b3 0b 25 bb 1e 7e 1d bb 86 8c 2b bb
       -0.0022157 -0.0025183975 -0.002403147 -0.0026176288
000210 f6 8e 25 3b 4d db 30 3b e6 96 0d 3b 1a a5 e6 3a
       0.0025262213 0.0026986182 0.0021604835 0.0017596812
000220 3d 3e 91 3a 80 12 da 3a 94 7b 0a b9 94 02 3c ba
       0.001108117 0.0016637594 -0.00013206742 -0.0007172015
000230 f1 ec 65 ba d2 c5 3e 39 f7 ef 68 3a 77 c0 3b ba
       -0.0008770964 0.00018193506 0.0008885855 -0.00071621634
000240 9b 33 5a ba 6a 09 a7 ba eb b6 2c bb dd 64 fc 3a
       -0.000832373 -0.0012743894 -0.0026354145 0.0019256134
000250 c5 eb 8c 3a 24 3b e9 3a b1 40 24 3b 82 7d 21 3b
       0.0010751417 0.0017794115 0.0025062973 0.002464146
000260 8f 51 83 ba 88 42 06 bb 1b 6b 0e bb 5b 58 f5 ba
       -0.0010018813 -0.0020486433 -0.002173132 -0.0018718349
000270 42 42 f2 3a c6 6c 92 ba 2d 5f 9e ba d1 7e 6b ba
       0.0018482881 -0.0011171333 -0.0012082808 -0.00089834357
000280 39 63 b3 3a d4 59 fc 3a 6b 12 07 3b 3d d8 1c 3b
       0.0013686187 0.0019252845 0.0020610343 0.00239326
000290 95 c3 cd 3a 2f b8 a9 3a ea 41 15 bb ff c4 84 ba
       0.0015698547 0.0012948568 -0.0022774884 -0.001012951
0002a0 25 31 1f 39 d8 68 74 3a 2d a6 76 ba 13 ea 9b ba
       0.0001518173 0.0009323484 -0.00094089174 -0.0011895321
0002b0 22 a0 08 bb 89 e4 2b bb 78 c7 9e ba d0 1b 81 3a
       -0.00208474 -0.0026228747 -0.001211389 0.0009850208
0002c0 52 85 54 3a b5 fc 9a ba fd 5e 32 3b 97 fc eb ba
       0.00081070245 -0.001182458 0.0027217262 -0.0018004355
0002d0 ec 9a d7 ba 41 18 3e ba 2d 31 1b bb a1 b5 e2 ba
       -0.0016449369 -0.0007251539 -0.0023680434 -0.0017296561
0002e0 72 84 13 bb 77 62 0a bb 1a fe 58 3a db 89 16 3b
       -0.0022509363 -0.0021115819 0.000827761 0.0022970352
0002f0 3f ac f1 3a 1a da f0 3a 8e 4c 33 3b ff d8 19 3b
       0.0018438174 0.0018375546 0.0027358863 0.0023475287
000300 1d 3e 2a 3b f4 4f b3 3a dd f4 e8 ba 7f 41 0a bb
       0.0025976964 0.0013680444 -0.001777317 -0.0021096168
000310 a7 68 11 bb 81 a3 00 bb f4 01 b3 ba b1 1e 55 ba
       -0.0022187622 -0.0019628706 -0.0013657198 -0.00081298786
000320 ad 0c 01 bb dd 9e 9a ba 4c 91 d3 ba ef 27 ac ba
       -0.0019691393 -0.0011796613 -0.0016141324 -0.001313446
000330 22 c7 c1 ba 72 a3 59 ba 51 44 41 ba f5 7b 10 bb
       -0.0014784078 -0.00083022483 -0.00073725457 -0.002204654
000340 f7 21 c4 ba 44 17 30 bb 47 56 10 bb 3c a7 8a ba
       -0.0014963736 -0.0026869336 -0.0022024082 -0.0010578404
000350 71 41 94 ba 08 df d8 ba d0 c2 39 ba c0 28 30 3b
       -0.0011311007 -0.0016545961 -0.0007086219 0.0026879758
000360 d5 5f b2 3a 9b bb 1d 3b 81 6f 11 3b 61 b3 02 3b
       0.0013608882 0.002406812 0.0022191706 0.0019943344
000370 b2 cc 41 3a 42 be c5 3a b6 04 27 3b 05 a3 b4 ba
       0.00073928677 0.0015086608 0.0025484986 -0.0013781494
000380 07 7e 11 bb 41 7d 80 ba e2 60 0d bb fe 8b 84 ba
       -0.0022200362 -0.0009802954 -0.002157264 -0.0010112522
000390 c4 3a 82 ba 16 2a 34 bb 00 54 de ba 9e 99 d1 ba
       -0.0009935726 -0.0027490905 -0.001696229 -0.0015991216
0003a0 21 7a a1 ba 48 14 91 ba d3 9e 35 bb 0e 9b 54 ba
       -0.0012319722 -0.0011068666 -0.0027713075 -0.0008110263
0003b0 55 b6 43 ba 9d 0f b8 ba 4c 26 53 ba 8f 4b d6 ba
       -0.0007465829 -0.0014042739 -0.0008054718 -0.0016349423
0003c0 6b 29 c1 ba 9a 98 a2 ba 96 f5 f3 ba e8 02 28 bb
       -0.0014737075 -0.0012405098 -0.0018612619 -0.0025636498
0003d0 17 63 96 3a 5c f7 44 3a 79 ad e3 3a 49 de 98 3a
       0.0011473623 0.0007513666 0.0017370424 0.0011662926
0003e0 de bd d5 3a 0e fe ed 3a 1c 8e d6 3a 27 b6 76 ba
       0.0016307195 0.0018157379 0.0016369256 -0.0009411298
0003f0 b3 57 3b ba 87 df 58 ba 5f d2 17 bb c1 4c 35 bb
       -0.0007146552 -0.0008273054 -0.0023166162 -0.0027664157

fc.bias f4 [256]
000000 95 81 71 bd 89 01 b3 bf 6a 75 20 bd 98 50 fc bc
       -0.05896147 -1.3984843 -0.039174475 -0.030800149
000010 e2 40 98 bd 4c ac d4 bc 36 4d 0b bd cf 0e 43 bd
       -0.074342504 -0.025961064 -0.03400918 -0.047621544
000020 e6 f7 45 bd 9b 21 89 bd 52 34 6c bc 39 ef 83 bd
       -0.048332117 -0.06695863 -0.014416771 -0.064421125
000030 6b 42 7e bf b9 d1 57 bd a8 9a 9e bd c6 4b 8e bd
       -0.99320096 -0.05269024 -0.07744342 -0.069480464
000040 66 14 45 bd 31 b4 64 bd 50 bc 5f bc c4 d2 f8 3e
       -0.048115157 -0.055835906 -0.013655737 0.485983
000050 d5 26 03 bd 25 a0 a9 bd 3e 33 36 bd 0a ec 84 bd
       -0.032019455 -0.08282498 -0.044482462 -0.064903334
000060 33 b8 ac 3e ae 6c 4b bd 75 73 be bd 67 10 5e bd
       0.33734283 -0.049664192 -0.092993654 -0.05421486
000070 06 49 ca bc 6f 43 eb bd b7 63 bf bd 0f dd bb bd
       -0.024693023 -0.11487471 -0.09345191 -0.09173023
000080 ad 49 61 bd ab 97 82 bd 87 d8 a4 bd 37 e5 99 bd
       -0.055001903 -0.063765846 -0.08049112 -0.075144224
000090 64 51 f0 bd 2c 41 75 bd de 9a a1 bc 40 9e 03 bd
       -0.11734274 -0.059876606 -0.019727167 -0.03213334
0000a0 bc 9b a7 bc 1c d1 92 bd 27 e0 99 bc a5 14 1d bd
       -0.020460002 -0.07168791 -0.018783642 -0.038349766
0000b0 5d c6 9e bd 12 d9 f8 bc a9 9c 18 bd 20 a2 2e bd
       -0.077526785 -0.030376945 -0.037258778 -0.042635083
0000c0 90 20 f2 bf ed 00 d6 bd fa 08 30 bd af f2 b0 bc
       -1.8916187 -0.10449395 -0.04297731 -0.021600096
0000d0 29 2b 9c bd bd 41 c1 3f 3f 78 ca bd 52 65 d9 bc
       -0.0762542 1.5098187 -0.09886216 -0.026537571
0000e0 3d d5 7a bd 20 3c db bc 82 f2 38 bd ad c7 3d bd
       -0.061238516 -0.026762068 -0.04515315 -0.046333004
0000f0 2b 09 8c bc 13 cc 2b 3f 21 2d a3 bd a4 b0 90 bd
       -0.017094215 0.6710827 -0.07967592 -0.070649415
000100 25 dd 89 bc ef a4 f3 bc 6b 92 ef bc e1 cc ae bc
       -0.016829083 -0.029741732 -0.029244622 -0.021337928
000110 ff c1 7e bd 65 8f 38 be 17 0d e3 bd c0 40 b6 bd
       -0.062196728 -0.1802345 -0.11086481 -0.08899069
000120 64 aa 8e be 83 98 26 bf 3f 44 49 bd 13 d8 3a bd
       -0.27864373 -0.65076464 -0.04913735 -0.04561622
000130 15 a3 18 bd 94 cc ab bd 05 16 20 bc e5 8f 25 bd
       -0.037264902 -0.083886296 -0.009770875 -0.04042043
000140 7f 98 25 bd e5 4b 9e bd 8f e3 94 bd 7a 50 0d bf
       -0.040428635 -0.077293195 -0.07269966 -0.5520092
000150 9a f1 5f bd 16 4a 02 bf fc 1d 5e bd 77 5a 85 bd
       -0.05467377 -0.50894296 -0.054227814 -0.065113954
000160 e4 38 b7 bd c5 25 a4 3d 47 8a ba bf 88 a0 2f bd
       -0.08946398 0.080150165 -1.4573449 -0.042877704
000170 c9 f1 b0 bd d1 53 86 bd 51 0c 91 bd 24 ae 89 bd
       -0.08639867 -0.065589555 -0.07082427 -0.06722668
000180 68 75 07 bd 46 ca 22 bd 51 78 b4 bc b4 4e be bd
       -0.03307095 -0.039743684 -0.022030028 -0.09292355
000190 82 5c 37 bf a8 17 22 bd 57 44 2e bd 58 bb 94 bd
       -0.7162553 -0.03957334 -0.042545643 -0.072622955
0001a0 08 45 19 bd 1b b4 7e bd 50 30 c4 bc a8 64 59 bd
       -0.03741935 -0.06218348 -0.023948818 -0.05307451
0001b0 11 e2 a5 bd 2c 7b 88 be 15 43 0f bc 61 03 f3 bd
       -0.08099759 -0.26656473 -0.008744021 -0.11865879
0001c0 f5 b7 a5 bd d6 52 a3 bd eb 72 bb bd 2c 53 01 bd
       -0.08091728 -0.07974784 -0.09152778 -0.03157346
0001d0 a4 ec 85 bd 7d 68 80 bd f0 cf 36 bd 88 ab c3 bd
       -0.06539276 -0.062699296 -0.0446319 -0.09554201
0001e0 0e 16 b6 bd 7c a4 a1 bc 47 82 57 bd 14 d6 cf bc
       -0.08890925 -0.019731753 -0.052614477 -0.025370635
0001f0 b2 d0 d6 bc ec 6f 4f bc 9f 0a 30 bc 26 52 ec bf
       -0.02622256 -0.012660962 -0.01074472 -1.846257
000200 c5 dd c6 bd f2 ed 62 bd 19 fa 48 bd ff 7d e0 bd
       -0.09710268 -0.055402704 -0.049066637 -0.10961532
000210 cb 32 04 bd 75 01 06 bd be e9 bd bd 58 d4 97 bc
       -0.032275002 -0.032716233 -0.092730984 -0.01853387
000220 ab 7d 3d bd a2 b4 31 bd 0c 4b 38 bc 7d 47 47 be
       -0.046262424 -0.043385155 -0.011248361 -0.19460864
000230 3c 2d 1a bd e2 ae 01 bd f9 68 9c bd 43 e2 81 bd
       -0.037640795 -0.031660922 -0.076372094 -0.06341984
000240 e7 e6 bb bc c6 70 a6 bd 66 29 1d bd 5a 88 ad bc
       -0.022937251 -0.081269786 -0.03836956 -0.021183182
000250 de 7f 2e bc d8 d9 5f bc c8 1b 19 bd cf 85 85 bd
       -0.010650603 -0.013662778 -0.03738001 -0.065196626
000260 d0 d6 2e bd 6f 6f b4 bd a1 6d 03 bd 16 75 8a bd
       -0.04268533 -0.08810317 -0.032086972 -0.067606136
000270 2d 78 33 be 32 df af bd 87 ef 81 bd b7 9b 42 bd
       -0.17526312 -0.08587493 -0.06344514 -0.047511782
000280 a4 a8 80 bd be 9c f8 bc 62 f0 b0 bd 64 c7 ea bc
       -0.06282166 -0.030348178 -0.086395994 -0.02865953
000290 cb 77 68 bd 3c 80 d0 bf e4 af 64 bd a1 c9 84 3f
       -0.05675487 -1.6289134 -0.055831805 1.0374032
0002a0 e1 ce 24 bd a2 b4 62 bd cc 11 af bd b0 f7 a4 bd
       -0.040236358 -0.055348046 -0.08548316 -0.08055055
0002b0 55 30 49 bd 4d 87 8c bd 9f 3e 30 bd b6 ac c2 bd
       -0.04911836 -0.06861744 -0.04302847 -0.09505598
0002c0 33 0c 82 bc 0d 71 88 bd 94 e9 db bc 40 31 46 3d
       -0.015874958 -0.06662188 -0.026844777 0.048386812
0002d0 85 46 6d 3e 3d a1 2b bd 70 86 69 bd 69 c9 65 bd
       0.23171432 -0.041901816 -0.057012975 -0.056100283
0002e0 a8 98 2a bd de 9f 65 bd 26 8a 4a bd 65 69 7f bf
       -0.04164949 -0.056060664 -0.049448155 -0.99770194
0002f0 ab 5e e3 bd e3 89 8e bd 3a 66 97 bd 43 7f b3 bd
       -0.11102041 -0.069598936 -0.07392545 -0.087645076
000300 56 0f cd be cb 47 08 bd df cc 7f bd a4 f6 5f bd
       -0.40050763 -0.033271592 -0.06245124 -0.054678574
000310 ca bf 37 bd e6 2f 93 bd 21 3a ba bd 5b e0 3a bc
       -0.04486064 -0.0718687 -0.090931185 -0.01140603
000320 dc d3 e9 bc 24 9b 13 bd 36 84 44 bc 5f e2 e5 bc
       -0.028543405 -0.036036626 -0.011994412 -0.028062044
000330 dd 8c ed 3f fb a1 4a bd bc a7 54 bc 7a 69 8e bd
       1.8558613 -0.049470883 -0.012979444 -0.06953712
000340 52 f2 98 bd a4 2f 09 3e 19 f0 3a bf 4d cf d9 bc
       -0.07468094 0.1339708 -0.7302261 -0.026588107
000350 37 de 07 bd 51 1e f6 bf 02 80 17 bd 28 0b a0 bd
       -0.033170905 -1.9228002 -0.036987312 -0.07814628
000360 93 6e ed bf 1b ad c1 bc 9f c6 ee bc 9d f1 22 bd
       -1.854937 -0.023642113 -0.029147444 -0.0397812
000370 5c 69 ad bf 73 a7 58 bd 1a 99 a5 bd a7 32 d0 3f
       -1.3547778 -0.052894067 -0.080858424 1.6265458
000380 22 ae 8d bf fd 5b a6 bd 15 fa 4a bd c6 97 3e bd
       -1.1068766 -0.08123014 -0.049554903 -0.04653146
000390 5b 60 a2 bd 17 db 86 bc 0c 4a 44 bd 3a bb 42 bd
       -0.079285346 -0.016461892 -0.04792218 -0.047541834
0003a0 3a 12 3a bf a0 41 88 bd 0e d8 93 bd fc b3 ad bd
       -0.7268406 -0.06653142 -0.072189435 -0.08481595
0003b0 60 02 c7 bd bf 26 18 bd c2 01 9b bd 5c 98 26 bc
       -0.0971725 -0.037146326 -0.07568695 -0.010168161
0003c0 05 8a 3e bd 2f 5a 67 bc f0 46 e1 bc 8c 8d 92 bc
       -0.046518344 -0.014120623 -0.027499646 -0.01788976
0003d0 19 6e 97 bd e1 4c 32 bd 1f ab 9e bd f9 87 47 bd
       -0.07394046 -0.04353035 -0.077474825 -0.048713658
0003e0 3c 96 3e 3e cb dc 41 bd 76 8f a1 bd 73 fb 5d bd
       0.18611997 -0.047329705 -0.07888691 -0.05419488
0003f0 3b d8 37 bd 64 b8 9e bd 2b f6 39 bd 9a fc 31 bd
       -0.044883948 -0.077500135 -0.04540078 -0.04345379

fc1.weight f4 [128, 256]
000000 df 58 5b 3b be 19 bb bf 61 6f 1d ba 0f 81 df 3a
       0.003346972 -1.4617231 -0.00060056715 0.0017052012
000010 22 fd 33 bb e3 12 25 ba 99 87 b5 ba 48 9b d2 ba
       -0.0027464111 -0.0006297065 -0.0013849615 -0.0016068006
000020 d1 ec fb 39 db 9b 6d b9 65 f8 12 bb 6f d3 7f ba
       0.00048050893 -0.00022660142 -0.0022425887 -0.0009758984
000030 b7 aa a3 bf 7c cb 2a 3a 34 9f c9 3a 2e 3e 4b ba
       -1.2786473 0.0006515307 0.0015382529 -0.0007753101
000040 82 32 c8 b9 b7 c1 33 3a 9d 11 49 ba e7 ad d3 bf
       -0.00038184604 0.0006857174 -0.0007670166 -1.6537446
000050 86 de 86 bb 32 c9 44 bb 5f 66 8d b8 88 68 67 bb
       -0.0041158823 -0.0030027148 -6.742472e-05 -0.0035310108
000060 06 74 05 bf 70 ce 93 3b 81 e6 42 ba 69 24 31 ba
       -0.5213016 0.0045106933 -0.00074348605 -0.00067574397
000070 29 bb 40 bb 17 98 fc 3a 28 64 0d 3b 57 fe 6a 3b
       -0.002940843 0.00192714 0.002157459 0.0035857165
000080 d6 40 5d bb 5e 37 b4 bb d3 ab 79 b8 4d 56 35 bb
       -0.003376057 -0.0054997643 -5.952625e-05 -0.0027669847
000090 02 8a 83 bf 3b aa 1a bb 0c b2 06 ba 9e 7e 7d bb
       -1.0276492 -0.00236 -0.00051382254 -0.0038680206
0000a0 7a e7 e1 b9 f9 df b2 37 ed e8 7f bb 1d f7 b0 b9
       -0.00043087808 2.1323549e-05 -0.0039048747 -0.0003375345
0000b0 1d b1 a2 ba 8e a9 9c b8 9b af 7f b9 07 19 f1 b7
       -0.0012412403 -7.470242e-05 -0.00024384113 -2.8741093e-05
0000c0 4c a0 a1 bf 7e 3e 5d ba b2 a3 9d ba 42 f5 1d bb
       -1.2627044 -0.0008439793 -0.0012026934 -0.0024102484
0000d0 92 e2 24 ba ba 08 18 bd 69 ce a9 ba 9d da 99 bb
       -0.0006289865 -0.037117697 -0.0012955192 -0.00469525
0000e0 01 db d7 39 4a 90 14 b7 8f 2e 72 bb 26 54 7a bb
       0.00041171166 -8.855082e-06 -0.003695402 -0.003819713
0000f0 61 24 c6 b9 bf 2f 85 bf ef 4b 4b bb e0 c7 37 3b
       -0.00037792607 -1.0405196 -0.0031020602 0.0028042719
000100 0e fd 91 39 f5 80 67 bb 1c 72 6a b9 4d be e5 ba
       0.00027845096 -0.0035324667 -0.00022358488 -0.0017528028
000110 7c e8 4b 36 f1 3a 1e bf 52 a7 ae bb 0a 97 1d 3b
       3.038468e-06 -0.6180869 -0.0053300047 0.0024046325
000120 7d f5 1f be a5 39 46 bd 1d 5e 46 3a 93 64 4f 3a
       -0.1562099 -0.048394818 0.00075671246 0.000791141
000130 ae b2 19 3b 2e d6 0a bb 57 04 b5 39 8c ca 40 3b
       0.0023452449 -0.002118479 0.00034526244 0.0029417602
000140 69 e0 8b ba 71 82 d8 bb 5b 7d 54 3b 36 f3 03 be
       -0.0010671738 -0.0066073467 0.003242335 -0.12885746
000150 77 e8 b4 bb c4 13 c6 bf bf 9b a7 3b d0 91 3a bb
       -0.005520876 -1.5474782 0.005115002 -0.0028468259
000160 11 d2 7a ba 67 05 d6 bd 03 fc 8a bf 16 02 1c bb
       -0.00095680455 -0.10450249 -1.0858158 -0.0023804954
000170 14 53 dc b9 36 10 84 ba 0d 2e f3 ba d5 e8 3a bb
       -0.00042023568 -0.0010075632 -0.0018553153 -0.0028520126
000180 6b 01 c2 bc 4e 25 eb ba a6 07 59 bb 11 99 46 3b
       -0.023682317 -0.0017940195 -0.003311613 0.0030303637
000190 3f 60 7a bf a2 34 80 ba 0d 43 0f 3a 2d 33 ba bb
       -0.9780311 -0.0009781311 0.00054650084 -0.00568237
0001a0 53 af 1e bb 5e be 4f ba eb bb 12 bb 05 1d 03 3a
       -0.0024213388 -0.000792479 -0.002238984 0.00050015777
0001b0 10 75 e1 ba 38 b2 01 3c 5a 69 6a bb 60 a6 e8 3a
       -0.0017201025 0.007916026 -0.003576836 0.0017749779
0001c0 92 7c 15 3a 82 cf 86 3b 5d 8e be 39 73 11 0b 3b
       0.00057024613 0.0041140923 0.00036345693 0.0021220117
0001d0 9d af 8a bb a0 b7 18 3a 33 d1 87 bb e3 ad a5 3a
       -0.0042323605 0.0005825702 -0.0041448115 0.0012640323
0001e0 d5 df 0b bb 93 a2 18 ba bc ff 7c 3b 07 04 8b 39
       -0.002134313 -0.0005822565 0.0038604578 0.00026515147
0001f0 66 74 aa ba 9c c8 03 bb ae 54 75 ba 4f 91 cd bf
       -0.001300466 -0.0020108586 -0.00093586266 -1.605997
000200 99 21 61 3a d2 e4 b8 ba 50 28 78 bb de 16 40 bb
       0.0008588075 -0.001410628 -0.0037865825 -0.0029310505
000210 a5 62 7c ba c7 54 0f 3a 54 21 00 3b 51 ef a6 ba
       -0.0009627736 0.000546765 0.0019551115 -0.0012736117
000220 bc ba fe ba 2f 56 9d bb 94 80 e6 ba 22 6e 94 bf
       -0.0019434313 -0.0048015337 -0.0017585927 -1.159611
000230 bd f4 7d 3a cb e6 d9 b9 d4 95 14 bb 90 48 66 3b
       0.0009687653 -0.0004156142 -0.0022672312 0.0035138465
000240 c1 be 1c bb 35 0e 94 3b 69 b7 45 3b 63 05 97 ba
       -0.002391741 0.004518295 0.0030169135 -0.0011521991
000250 17 ae 3f ba 28 6d 61 bb e6 db fd ba d0 98 3c bb
       -0.0007312013 -0.0034397338 -0.0019367903 -0.0028777607
000260 c5 04 12 3a 2e fc 51 bb 01 14 95 ba 42 bd 57 bb
       0.0005570169 -0.003204118 -0.001137376 -0.0032919203
000270 4a 8b ff 3a 84 d4 b2 3b 8f 4b 44 ba 64 72 ca ba
       0.0019496467 0.0054574627 -0.0007488066 -0.0015445468
000280 15 7e 5c 3a c1 4e 41 39 6e 37 0f ba d8 cf ae bb
       0.00084111217 0.00018435252 -0.0005463277 -0.0053348355
000290 6f 77 83 bb 0b db be bd f4 54 29 bb f8 c1 46 bf
       -0.0040120403 -0.09319123 -0.002583799 -0.7763972
0002a0 91 08 9a 3b 33 7a 4b bb 46 bc 85 ba f9 6d 40 3a
       0.004700728 -0.0031048178 -0.0010203205 0.0007340606
0002b0 30 1a 39 bb 96 5a e5 b9 56 c0 3f 39 00 28 88 3b
       -0.0028244369 -0.00043745775 0.0001828683 0.004155159
0002c0 d0 e1 3c bb d3 e8 80 bb cf 1b 77 ba 6c 6a 8e bf
       -0.0028821118 -0.003934005 -0.0009426446 -1.1126227
0002d0 0e 9e a5 bf 66 a7 e6 b9 91 f0 31 bb 3c 89 5f bb
       -1.293886 -0.0004399374 -0.0027151445 -0.0034108898
0002e0 b3 5b c0 bb a4 83 44 ba 51 52 3d 3b 7c ed e1 bf
       -0.0058703064 -0.00074964226 0.0028888176 -1.76506
0002f0 0e 13 be bb cb c7 09 3a 19 cd 9b 39 50 64 8e ba
       -0.0058006113 0.0005255907 0.00029716713 -0.0010863636
000300 a3 2a 57 bf 0a 78 24 3b 83 4f 8e bb da 14 7e b9
       -0.84049433 0.0025095963 -0.0043429746 -0.00024231095
000310 17 0c 67 39 14 57 a9 3b 4c d8 e9 ba 7b d2 05 bb
       0.0002203438 0.005167851 -0.0017840951 -0.0020419646
000320 e5 02 75 3b 25 5c 0c b9 19 44 24 bb 9a 41 2b bb
       0.0037385758 -0.00013385767 -0.0025065003 -0.002613163
000330 af 6f 71 bf 37 b2 96 bb 68 43 82 bb 6f 74 b1 3b
       -0.9431104 -0.0045988816 -0.0039753206 0.0054154913
000340 49 0f dd bd 36 20 7a be 56 96 75 bf 0a b8 15 bb
       -0.10793931 -0.2442635 -0.9593252 -0.0022845292
000350 42 fe 14 3a 2a 38 5a bf f0 a7 bf 3b fc 28 58 bb
       0.00056836393 -0.8524195 0.005848877 -0.0032983413
000360 da 9c bc bf a3 f9 76 bb cd c8 9d 3b 9f 2e 2d 3b
       -1.4735367 -0.0037685416 0.004815197 0.0026425493
000370 48 f1 72 be 3d 3e 0d 3a fc 8d 9c 3b 0f 7e 74 bf
       -0.23724854 0.00053879974 0.004777668 -0.9550485
000380 09 21 bb be e1 b2 b8 3a e8 ac 7c 39 26 d8 31 bb
       -0.3654864 0.0014091396 0.00024097005 -0.002713689
000390 74 63 f2 3a 93 dd ca b8 2d 5a a6 bb 81 bb 78 3a
       0.0018492774 -9.673382e-05 -0.0050766678 0.00094883895
0003a0 7b 5e 07 c0 85 4d ec ba 03 31 32 bb 17 9f 86 3b
       -2.1151416 -0.0018028474 -0.0027189858 0.0041083205
0003b0 42 e2 25 3b c4 72 3b 3a 29 74 a4 bb b1 6e 5a 37
       0.0025311862 0.00071505853 -0.00501873 1.3019585e-05
0003c0 27 a6 15 bb eb be 58 b9 cb 31 71 b9 47 66 6f bb
       -0.002283463 -0.00020670488 -0.000230021 -0.0036529468
0003d0 28 9a b1 39 81 b4 13 3a 4d f0 3c 3b a1 e0 86 bb
       0.00033874926 0.0005634502 0.0028829754 -0.0041161333
0003e0 6b 5f a4 bf b3 ef 51 bb 16 b5 7b b9 6f 7d b2 3a
       -1.2841619 -0.003203374 -0.00024004685 0.0013617704
0003f0 a4 bc fc 39 61 07 9e 3b a4 89 90 ba 1d e2 46 3b
       0.00048205734 0.004822657 -0.0011027348 0.0030347176

fc1.bias f4 [128]
000000 a3 fd de bd 32 1b 22 be 47 03 0b bf 63 ac b0 be
       -0.10888221 -0.15830687 -0.54301876 -0.3450652
000010 bd 12 0b bf d9 80 f2 be 6d 3e 18 bf ec d8 2a be
       -0.5432547 -0.47363928 -0.59470254 -0.16684312
000020 a0 79 d5 be c1 d1 71 bf e5 31 52 bf 23 7d 1e bf
       -0.41694355 -0.94460684 -0.82107383 -0.61909693
000030 18 f6 11 be 27 cf 63 bd ca 8f 57 bf 5a e0 b1 3e
       -0.14254034 -0.055617478 -0.8420378 0.3474148
000040 a4 91 de bc e4 3c 19 bf 07 57 35 be fe 69 e5 be
       -0.027169056 -0.59858537 -0.1770898 -0.44807428
000050 ec 01 51 bd 18 d5 87 bd ce 77 92 bf e2 6b 52 bf
       -0.051027223 -0.06632441 -1.1442811 -0.82195866
000060 eb dc 4c be f4 c6 95 be 6b 35 06 bf 96 70 5c be
       -0.20006149 -0.29253352 -0.5242526 -0.21527323
000070 b8 12 8b bc 9a bd 83 be a3 e7 99 be 4e 60 0c bf
       -0.0169767 -0.25730592 -0.30059537 -0.5483445
000080 1c 55 bc 3f a5 d0 ba bd ed 4e b3 be 9e 73 ef bd
       1.4713473 -0.09121827 -0.35021153 -0.11691974
000090 33 b9 cd be ed 19 bc be 1d ef 3f bd ec dc 9e be
       -0.40180358 -0.3673853 -0.046858896 -0.31027925
0000a0 f1 ef 02 bd b2 15 71 bc db 03 d6 be 7d 04 49 bf
       -0.031967107 -0.014714645 -0.41799816 -0.78522474
0000b0 f3 35 4c bc ab 5d 21 bd 0a ee 7b bf 55 6a b8 bf
       -0.012464034 -0.03939597 -0.98410094 -1.440745
0000c0 7a 47 8e be 7f 02 14 bf 40 89 c6 be 97 eb 28 bf
       -0.27788907 -0.5781631 -0.38776588 -0.6598448
0000d0 73 98 c9 be 8a f1 c7 be c3 0e 57 bc 29 d7 04 bf
       -0.39374122 -0.39051467 -0.013126078 -0.5189081
0000e0 51 2f cc be bc d1 25 bf 0e 3e 44 40 0a 7d 97 be
       -0.3987985 -0.64773154 3.0662875 -0.29587585
0000f0 3a 83 e1 bf e6 f0 23 bf 1f 71 3f 3f bb 46 61 be
       -1.7618172 -0.64039457 0.74781984 -0.21999638
000100 f3 10 c8 be 7b eb 83 3e 5b df 15 bf 25 ae 98 3e
       -0.3907543 0.25765595 -0.5854394 0.29820362
000110 cc 50 81 bf 52 90 89 bf 05 9f ef be 55 6b f8 be
       -1.0102782 -1.0747168 -0.4680101 -0.48519388
000120 85 37 9c bf 08 1b 36 be d5 08 25 bf 24 7d 1c be
       -1.2204443 -0.17783749 -0.644666 -0.15282112
000130 7d a2 2d be 9d c5 27 bf 0d da 2a bf 5a 77 b5 bd
       -0.16956516 -0.6553591 -0.6673897 -0.08860655
000140 32 23 07 bf 4e 6a 00 bf 66 fd de be 50 6c ce be
       -0.5278808 -0.5016221 -0.43552703 -0.4031701
000150 a3 58 c6 be f8 15 56 b9 d5 65 f8 bd bd b0 1a be
       -0.387395 -0.00020416814 -0.12128798 -0.15106483
000160 ae 47 aa be c0 e6 bc bd 14 9f 1c bf 8b 17 a4 be
       -0.33257812 -0.092236996 -0.61180234 -0.32049212
000170 35 25 2a bf 04 3d d6 be 9d ed 14 bc b5 7d 12 bf
       -0.66463023 -0.41843426 -0.009089855 -0.57223064
000180 f8 2e a3 bf 4b 16 b9 be 51 be 84 be 5b 42 af c0
       -1.2748709 -0.3614982 -0.2592645 -5.47685
000190 4f a5 0b bf 87 ee 3b bd d6 30 65 bf 2a 09 2c bf
       -0.54549116 -0.045881774 -0.8952764 -0.67201483
0001a0 e2 25 b8 bf 94 4e b9 bb b7 22 3c bf f1 3b 75 3f
       -1.4386561 -0.005655119 -0.7349047 0.9579459
0001b0 04 f4 34 bf 68 c3 49 bf 65 cf 5e bf a0 35 6b bf
       -0.7068484 -0.7881379 -0.8703521 -0.918787
0001c0 ec a7 77 bf 98 bd ab be e3 27 29 be c8 a0 ac be
       -0.96740603 -0.33543086 -0.16519122 -0.33716416
0001d0 a1 2f 1a be f7 89 15 bf 41 2b ca bf 3a 19 05 be
       -0.15057231 -0.5841364 -1.579445 -0.12997904
0001e0 9c 87 2b be f5 50 01 bf f8 b1 87 bf 92 e7 ca 3f
       -0.1675095 -0.50514156 -1.0601187 1.585192
0001f0 bd 81 6e bc 16 a8 ba bd 67 09 6c be ed 51 1b bf
       -0.014557299 -0.09114091 -0.23050462 -0.60671884

fc2.weight f4 [64, 128]
000000 ca 94 87 be 71 79 7f 3e b7 06 f1 bf 97 91 03 40
       -0.26480705 0.2494867 -1.8830174 2.055761
000010 01 97 e2 bd d9 b9 76 3e 1a 29 33 bf fc e7 a3 bf
       -0.11063958 0.24094333 -0.6998459 -1.2805171
000020 23 45 6d bf 79 32 f3 bf 5a 10 cb bf b8 2d c5 be
       -0.9268362 -1.8999778 -1.5864365 -0.38511443
000030 8a 11 22 c0 9b 3e 32 be ac 84 4e 3e ae 99 8f bf
       -2.5323205 -0.17406695 0.20167798 -1.1218774
000040 31 2d df 3f b5 92 39 3f 15 12 e1 bf 1f 60 23 bf
       1.7435666 0.7248948 -1.7583643 -0.63818544
000050 62 5b 26 be bc d3 00 c0 ba bd e8 3f 43 d4 87 bf
       -0.16245797 -2.0129232 1.81829 -1.0611652
000060 78 22 bd be b3 79 bb 3e 05 52 50 bf a2 f0 39 3f
       -0.3694036 0.36616287 -0.8137515 0.726328
000070 55 9c 0c bf c0 a5 e4 be a6 21 cf 3e cf 8b e0 bf
       -0.54926044 -0.44657707 0.4045536 -1.7542666
000080 16 45 9f bd f4 af 7f 3e 9b e2 c0 3e b6 7d db be
       -0.07776849 0.24969465 0.37672886 -0.42869347
000090 c2 26 56 bf d1 bb 15 c0 96 3e de bf 36 4b 77 be
       -0.8365289 -2.3395884 -1.736285 -0.24149784
0000a0 95 fd de bf 41 28 f9 3e 58 d5 0e bf eb 60 07 c0
       -1.7421137 0.48663524 -0.55794287 -2.1152904
0000b0 a1 15 90 bd 98 6a 13 3f 05 90 33 3e ce fa f9 be
       -0.070353754 0.57584524 0.17535408 -0.4882416
0000c0 45 fe 1f 3f 25 ea e0 bf f2 a3 44 bf ed 8a 16 c0
       0.6249736 -1.7571455 -0.7681266 -2.3522294
0000d0 d6 3c c5 bf 02 3d 18 40 75 d0 e2 bf b6 c6 f9 3f
       -1.5409191 2.3787236 -1.7719866 1.9513767
0000e0 5c 24 5a bf f4 03 a4 3f 79 26 85 bd fd 0a 0a bf
       -0.8521173 1.2813706 -0.06501479 -0.53923017
0000f0 5c bf d3 be 5b c4 bf bf 6b 3f ba bf 19 cf 27 bf
       -0.41356933 -1.4981798 -1.4550604 -0.6555038
000100 d2 61 2b 3f 21 9a 7c be b3 6a 7b 3d 17 b1 05 be
       0.66946137 -0.2466817 0.061381053 -0.13055836
000110 31 d9 c9 bf 66 8b 24 bf cd ba 05 c0 17 12 89 bd
       -1.5769407 -0.64275205 -2.0895264 -0.066929035
000120 73 c7 4d 3f a6 ae bb 3f fb 1f 40 40 da c5 03 3e
       0.8038246 1.4662673 3.001952 0.12868443
000130 01 4b bc bf e0 90 18 bd 4d 63 c3 be 53 e0 7d be
       -1.4710389 -0.03724754 -0.38161698 -0.24792604
000140 f3 b7 22 3e 07 92 6d bd 28 e0 8f 3e d4 02 15 c0
       0.15890484 -0.05800059 0.28100705 -2.3282976
000150 5d d0 0e 40 c6 06 82 be 0a e9 42 bf 0c 44 92 bf
       2.2314675 -0.25395793 -0.7613684 -1.1427016
000160 fe e1 e2 3f 7b b5 b6 3e 9e 85 95 bc b8 b0 87 bf
       1.7725217 0.35685334 -0.01825219 -1.0600805
000170 fa 6e f4 3f 97 fb 58 bf 60 32 d5 3e 44 72 fd be
       1.9096367 -0.84758896 0.41639996 -0.4950124
000180 f3 7a 99 bf de 96 ab bd 61 70 0f bf 8a d2 c2 be
       -1.1990646 -0.08378385 -0.5603085 -0.38051254
000190 b9 86 90 3f f5 2b d4 be 2b c9 97 40 04 bd 92 bf
       1.1291114 -0.41439787 4.7433066 -1.1463933
0001a0 18 55 88 bf dc 4f b4 bf 48 0b 76 3f 27 ae 8e bf
       -1.0650969 -1.4086871 0.96110964 -1.1146897
0001b0 28 07 11 bf 73 91 b4 bf e3 09 be bf 16 9e b4 bf
       -0.56651545 -1.4106888 -1.4846767 -1.4110744
0001c0 b0 b1 93 bf da 25 43 be 35 20 dc bf ef ea d7 3f
       -1.1538601 -0.19057408 -1.7197329 1.6868571
0001d0 44 fb d8 bb c8 b4 9f bf 2a 17 54 be 73 6a 38 bf
       -0.00662175 -1.2477045 -0.20711961 -0.7203743
0001e0 d5 b3 0f 40 c9 36 ea bf 42 f6 91 3e 91 d4 87 bf
       2.245351 -1.8297969 0.28508192 -1.0611745
0001f0 bb 46 5d be f4 dc ef bf 72 e8 45 bf 41 1d a0 bf
       -0.21609013 -1.8739305 -0.7730781 -1.2508928
000200 da f0 40 b8 57 35 56 b9 87 6f 0d 39 c3 c8 d3 39
       -4.6000678e-05 -0.00020428501 0.00013488355 0.00040394635
000210 d8 37 75 38 af 0d 4e 3a 32 a4 ff b8 d2 1e 54 bc
       5.846456e-05 0.00078603154 -0.00012189931 -0.012946801
000220 08 05 ad 3b d1 ea 1c ba 9c 06 a2 39 91 66 80 b9
       0.005280141 -0.0005985918 0.00030903972 -0.0002449048
000230 3b 88 2c 39 ea f2 0d 39 8e 68 0d b9 86 60 a5 3d
       0.00016453948 0.000135373 -0.00013485758 0.08075051
000240 a3 9b cd 39 33 c3 f2 38 7b 81 88 39 0d 47 86 39
       0.00039216605 0.00011575818 0.00026036412 0.0002561141
000250 4b d7 a2 39 2f 3f a9 bd 0b 34 3d 3a 9c 18 36 b9
       0.00031059454 -0.082640044 0.0007217533 -0.0001736604
000260 92 47 31 be d4 09 9f b8 1e 07 9e 39 f1 c6 a4 38
       -0.17312458 -7.5835414e-05 0.0003014141 7.857185e-05
000270 d0 35 6e 39 f9 73 75 39 ef 52 c9 39 af e4 b8 b9
       0.00022717495 0.00023408224 0.00038399498 -0.00035265597
000280 7e 38 89 be 5d bb 19 39 0c 55 1b 39 02 38 3a 38
       -0.26800913 0.00014661015 0.00014813634 4.4398017e-05
000290 0a 9d b6 3b fc 51 ea 38 9e 9c 9a b8 be ef 28 3a
       0.0055729197 0.0001117326 -7.3724645e-05 0.0006444416
0002a0 c2 08 2c b8 89 22 a2 be 25 4a fd 39 d5 db 74 b9
       -4.1016152e-05 -0.31666973 0.00048311162 -0.00023351547
0002b0 57 27 3a 39 11 5d c4 39 25 9b ac 3a e9 f7 1c b9
       0.00017752998 0.00037453373 0.0013168795 -0.00014969673
0002c0 c2 5a c9 39 e8 d9 3f b9 ca 1b 02 37 3d 87 82 ba
       0.00038405327 -0.00018296356 7.755074e-06 -0.0009958517
0002d0 69 2d 4a 36 7a 4a 08 b8 9f 45 63 39 2e 56 eb 3a
       3.0126778e-06 -3.249429e-05 0.00021674343 0.0017954761
0002e0 1d 80 d8 39 ff 54 4c 3a fb 8d 83 be ef 86 af b9
       0.00041294182 0.0007794648 -0.2569426 -0.00033479134
0002f0 b1 9a 63 3b e9 c7 02 3b 7d 94 fe 3b 9b a6 35 3a
       0.0034729654 0.0019955582 0.007769166 0.0006929428
000300 39 87 c6 39 dd f5 e4 39 95 4a 9d b9 90 43 c4 3b
       0.00037866252 0.0004367073 -0.00030000941 0.0059894994
000310 65 14 97 bd 11 fa a4 ba 40 b8 8c b9 e7 28 84 37
       -0.07376937 -0.0012586733 -0.00026840158 1.5754673e-05
000320 76 08 a9 3c 32 f5 2d 37 ef 43 31 b9 1b 5d 18 38
       0.020633917 1.03686925e-05 -0.00016905343 3.6326335e-05
000330 46 06 ee bc 9c f6 42 ba e1 7d ff 37 df bd 4d b8
       -0.029055726 -0.00074372604 3.0456986e-05 -4.905264e-05
000340 af ff fa b9 b3 49 dd 38 be f1 e1 3b 40 27 1c 3e
       -0.00047874215 0.00010551829 0.006895273 0.15249348
000350 70 af ae 3a eb 69 c1 bd 46 1e 18 3a 2e 45 f5 38
       0.0013327431 -0.094440304 0.0005802851 0.00011695396
000360 c4 64 52 39 a5 fc de b9 d6 56 4a bc c1 0d 73 b8
       0.00020064699 -0.00042531374 -0.012349805 -5.7948524e-05
000370 7b ce 9d 38 41 47 80 39 0a 4a 96 39 20 8d 01 39
       7.5248034e-05 0.0002446715 0.00028665393 0.00012354972
000380 00 cc 26 3a 04 8d d0 39 be eb 46 b9 e8 49 15 be
       0.0006362796 0.00039777916 -0.00018970572 -0.14578974
000390 22 60 33 ba 8a f8 b3 b9 01 1e 1c 3b 6e b3 e3 b9
       -0.0006842633 -0.00034326717 0.0023821595 -0.000434305
0003a0 12 6f 88 39 2b 67 f5 b7 b4 2a a9 ba 1a e6 75 be
       0.00026022695 -2.9254317e-05 -0.0012906403 -0.24013558
0003b0 d6 81 ee 38 29 89 1e ba 8e 2a 5a b9 22 20 7d b9
       0.00011372908 -0.000604766 -0.00020805953 -0.0002413993
0003c0 be 1c 4c 3b 1d 76 90 37 8f ef 42 be de 47 99 b8
       0.0031145061 1.7221138e-05 -0.19036697 -7.308995e-05
0003d0 d9 95 d2 38 c8 8a 92 ba a0 6b 75 be 90 e9 cf 37
       0.000100414916 -0.0011180276 -0.23966837 2.4785084e-05
0003e0 6a 71 dc 39 2e 2f 02 39 93 9b 13 3b 42 57 10 be
       0.0004204617 0.00012415342 0.002252315 -0.14095786
0003f0 ab 73 c6 b9 1b 10 ba 39 e0 e0 9d b8 46 6c 63 3a
       -0.00037851682 0.00035488684 -7.5282296e-05 0.0008675497

fc2.bias f4 [64]
000000 fc 8b b3 be 96 80 6b 3f 36 0e 00 be 68 03 a8 be
       -0.35067737 0.9199308 -0.12505421 -0.328151
000010 1d 82 90 3f 93 d1 9b bb 3b 65 b3 be 3d 08 4c bf
       1.1289707 -0.004755208 -0.3503817 -0.7970007
000020 b2 74 4c be 9e 48 86 bc 74 8b 79 3f b8 f5 c8 be
       -0.1996639 -0.016392048 0.97478414 -0.3924997
000030 d2 b4 b8 bb 11 52 a8 be c9 ab a3 be 0b ba 1b bd
       -0.00563679 -0.32875112 -0.31967 -0.03801922
000040 3d 3d 5e bc 3d d3 c8 bd b0 26 36 be fa f0 7e 3f
       -0.013564405 -0.098059155 -0.17788196 0.9958645
000050 4f 1e a9 be 37 07 ec bd 6f 75 81 3f f4 b8 a2 be
       -0.33030936 -0.115248136 1.0113963 -0.31781733
000060 49 43 c2 be 41 45 0f bd 59 8e 46 bf 16 56 c0 bc
       -0.3794196 -0.034978155 -0.77560955 -0.023478549
000070 a7 bc a4 be 07 bd f6 bc 6b c7 a3 be 3c 98 29 3e
       -0.3217518 -0.030119432 -0.3198808 0.16561979
000080 30 cb e3 bd ed 7e 76 3f 69 ea 80 3f c5 83 2f bf
       -0.11122739 0.96287423 1.0071536 -0.6856044
000090 3a 71 4b 3f 0a 8b 01 bf 51 68 52 be 2e 02 8b be
       0.79469645 -0.5060278 -0.20547606 -0.271501
0000a0 29 ba 84 3f a7 7a ed bd 84 c0 3b be 7f 3f a4 be
       1.0369312 -0.1159566 -0.18335158 -0.32079694
0000b0 ea 87 22 3f a9 cf 00 be dc 62 e9 bd 01 ac e9 be
       0.6348864 -0.12579216 -0.11395809 -0.4563904
0000c0 14 62 e8 be b9 3c e3 bc 8d e9 81 3d f5 58 4d be
       -0.45387328 -0.027738916 0.063433744 -0.20053466
0000d0 55 e1 10 be 6d 5a c0 bc 0e 75 b4 be f1 cb df be
       -0.14148457 -0.023480618 -0.35245556 -0.43710282
0000e0 5e 9b 8b 3d e4 c6 ea 3b 09 52 36 bf d4 b4 f0 be
       0.06816743 0.007164823 -0.71218926 -0.4701296
0000f0 86 7a 31 bd ac 98 a7 be 6d f2 c3 be 38 fa c9 be
       -0.043329738 -0.32733667 -0.38270894 -0.39448714

out.weight f4 [10, 64]
000000 ea 4d 99 c0 00 9a 13 be ea 2f 5e c0 4a 80 31 bf
       -4.790761 -0.14414215 -3.4716744 -0.6933638
000010 57 50 78 3d 50 cc 44 c0 f0 d1 98 3f d5 b4 98 40
       0.060623493 -3.0749702 1.1939068 4.772074
000020 b4 7f 31 41 15 2a 10 40 ba 06 71 be 7e b8 14 3e
       11.0936775 2.2525685 -0.23537722 0.14523503
000030 2b 69 2b c0 3a df 8c 3e 7e 60 c5 3e fb a9 06 be
       -2.678294 0.27514058 0.3855018 -0.1315078
000040 c0 41 c7 3f 10 08 9e 40 41 58 a3 c0 f3 a2 40 3e
       1.556694 4.938484 -5.104523 0.1881216
000050 86 f6 ed c0 69 f1 9f c0 73 17 bb be 6e 92 22 41
       -7.436343 -4.998219 -0.36541328 10.160749
000060 2a 85 f5 3e f2 53 b8 bf c6 cd fb 3f c9 c5 ea be
       0.4795316 -1.4400618 1.9672172 -0.45854023
000070 6d 39 54 3e 3f ed 7a 3f b7 43 56 3d 7e 62 13 be
       0.20725031 0.9801826 0.05231067 -0.1439304
000080 ed f7 08 c1 19 5d 11 3e 63 7a 99 3e d0 59 b6 bf
       -8.560529 0.1419567 0.29976186 -1.4246159
000090 94 5f 90 be f2 b9 21 c0 9c f6 98 40 bb 1e 19 c0
       -0.2819792 -2.5269742 4.7801037 -2.3925006
0000a0 1a 2c 85 3e c1 5a c8 40 88 5d ba c0 7a b4 ca 40
       0.2601021 6.2610784 -5.8239174 6.334531
0000b0 f1 6a a6 bd 8d f4 94 c0 91 bf b6 3f 27 d9 25 40
       -0.08125866 -4.6548524 1.4277211 2.591379
0000c0 30 2c 0e 3e 0d f1 95 c0 7d 2c 45 c0 71 29 69 bf
       0.13884044 -4.685675 -3.0808403 -0.9107886
0000d0 e9 53 f0 3d ea cb e3 3f 8b ed da 40 55 ab 21 3f
       0.117347546 1.7796605 6.841497 0.63152057
0000e0 a8 f8 18 40 80 48 f1 3f a2 bd 33 3f e9 2e 3d c0
       2.3901768 1.885025 0.7021123 -2.9559882
0000f0 0b 8d a4 be 90 48 2c bf 28 55 24 40 89 2e 0a 40
       -0.32138857 -0.6729822 2.5676975 2.1590903
000100 0c 95 6c 40 35 d1 e9 bd f4 1f 5d bf 7e 4e 1d 40
       3.696597 -0.11416856 -0.8637688 2.4579158
000110 f4 dc 8c be 6a b7 96 40 89 c9 b3 c0 5d 90 95 c0
       -0.27512324 4.7098894 -5.6183515 -4.6738725
000120 5b 0d c4 bf 7f 33 b8 3f 7a 9b dc 39 39 e9 0d 41
       -1.5316576 1.4390715 0.0004207751 8.869439
000130 18 9e 07 41 e2 e2 b0 c0 e9 1e 28 40 91 a7 3e c1
       8.476097 -5.5276957 2.6268866 -11.91591
000140 74 7a ba bf 7a 53 2d c0 16 6e 9f c0 50 a2 ce 3e
       -1.456862 -2.70822 -4.982188 0.4035821
000150 22 91 51 40 54 56 80 be b7 98 e7 3e a3 99 82 40
       3.2744832 -0.25065863 0.452337 4.0812545
000160 50 8a be c0 e3 b3 43 40 9b c2 12 bf 41 fa 80 c0
       -5.954384 3.0578544 -0.57328194 -4.0305486
000170 8a 2c 21 40 58 1f 41 40 9f f6 87 c0 ec 34 b7 bd
       2.5183434 3.017538 -4.248855 -0.08945641
000180 2c 87 f5 3e f0 1e 04 be 15 70 84 be 38 e2 e4 3f
       0.4795469 -0.12902427 -0.25866762 1.7881536
000190 0f b6 8c be e5 9f d2 40 a4 1d e2 c0 c0 a5 68 c0
       -0.2748265 6.5820184 -7.0661182 -3.6351166
0001a0 5b c1 4c be 17 a2 33 c0 9a 7f 9a bf 0a e5 d6 bd
       -0.19995634 -2.8067682 -1.2070191 -0.104929045
0001b0 28 42 b4 3e c6 13 c6 3e 93 fb 80 3f 94 0d f3 3f
       0.35206723 0.3868696 1.0076774 1.8988519
0001c0 e9 97 05 41 33 54 04 c1 22 0f 74 3d 65 ff fd c0
       8.349587 -8.270556 0.059584744 -7.937426
0001d0 a4 a4 cb 3f fe 79 c9 c0 aa 2b 08 c0 c6 ac 50 40
       1.5909619 -6.2961416 -2.127665 3.2605453
0001e0 0b 60 2e bf a5 9d 40 3e ff 9e 8c c0 77 5d 27 c0
       -0.681153 0.18810137 -4.3944087 -2.6150796
0001f0 63 2f 93 c0 10 2f 26 40 d9 77 56 41 c6 ec a5 c0
       -4.5995345 2.5966225 13.40426 -5.185153
000200 c6 1a 07 40 32 c5 34 bd 88 d0 9c be d3 36 bd 3f
       2.1110091 -0.044133373 -0.30627847 1.4782356
000210 c8 41 8b 3d b5 36 16 41 29 d7 7a 3f 87 d4 d3 c0
       0.06799656 9.388356 0.9798456 -6.6196933
000220 a7 48 fd bf 6e 84 19 3f 0e 78 05 be c8 05 0c 3f
       -1.9787797 0.59967697 -0.13034078 0.5469632
000230 2b ed 45 c0 f6 64 93 40 4c 24 a8 40 03 4b 4d 40
       -3.0926006 4.6060743 5.254431 3.2077034
000240 c9 28 74 40 31 34 fd 40 6e f7 c9 bf 5a 18 8e 3d
       3.8149893 7.912621 -1.5778635 0.069382384
000250 a6 f1 3f c0 3b de ad 40 81 32 d1 bc b8 81 f5 40
       -2.999124 5.4333777 -0.025536777 7.672085
000260 31 cf 59 bf b8 11 df 40 dd 40 9c 40 7d 5d aa 40
       -0.85081774 6.970913 4.882918 5.323912
000270 c2 a3 eb bf ae 9d 2d 41 44 1a 04 3f b5 28 15 3d
       -1.840935 10.850996 0.5160258 0.036415774
000280 39 91 0d 3f 29 2a cf 3d 00 23 13 be 41 eb b3 bf
       0.5529972 0.10115463 -0.1436882 -1.4056169
000290 98 76 1e 3e 2c 05 09 41 08 a3 8c c0 91 e2 fe 40
       0.15474927 8.563763 -4.3949013 7.965157
0002a0 21 25 4b 3d c4 a7 39 c0 d8 c1 48 40 6e 49 80 40
       0.049595956 -2.9008646 3.1368313 4.0089636
0002b0 89 e9 e9 3e ae 82 f7 3f a8 af 92 3f a0 d4 b7 c0
       0.45685986 1.9336755 1.1459856 -5.744705
0002c0 3c 99 b5 c0 74 27 6b 40 22 f9 26 41 1b 2c d7 40
       -5.6749554 3.674283 10.435823 6.724134
0002d0 a4 d3 6b 3e fd 6d cb bf 2c 7a 7c 3f ad 44 3e 40
       0.23029953 -1.5892941 0.9862392 2.9729416
0002e0 17 10 c8 3f 6c 78 4a c1 d4 56 76 40 ac aa b6 40
       1.562991 -12.6544 3.8490496 5.708334
0002f0 09 63 14 c0 1f 23 83 be b1 3a 52 3e 99 5b 07 41
       -2.3185446 -0.25612733 0.20530201 8.459863
000300 20 2b 04 c1 07 d2 89 3e f5 33 a8 c0 6a ab f1 40
       -8.260529 0.2691805 -5.2563424 7.5521746
000310 fd 81 87 be fa 44 b0 3f a4 53 81 c0 e3 64 2a 40
       -0.2646636 1.377105 -4.04146 2.6624076
000320 7d 10 8a 40 71 d9 17 3f 4b 42 86 3e 25 76 1a 40
       4.3145127 0.59316164 0.26222453 2.413461
000330 df 76 19 c0 27 80 32 40 6b 47 d0 40 87 38 43 40
       -2.3978803 2.7890718 6.508718 3.0503252
000340 c3 57 f6 bd 88 04 b3 3e ce 53 1c bf 7c 43 3d 3c
       -0.12028458 0.34964395 -0.61065376 0.011551734
000350 bd e9 59 c0 2b db c4 c0 eb 1c 29 be 5d 14 84 40
       -3.4048913 -6.151754 -0.16514938 4.1274858
000360 7a 7f bf 40 bf 23 f0 c0 1c eb 0c 40 93 13 2b c0
       5.984311 -7.5043635 2.20185 -2.6730697
000370 3f 6d f2 40 ff b7 43 40 88 00 c9 c0 b0 6f fd bd
       7.5758357 3.0581052 -6.281315 -0.12374818
000380 37 6f db 3e 2b 98 0c bd a1 3d 58 be bf 1d 0e 41
       0.42858288 -0.034324806 -0.2111726 8.882262
000390 dd fa 91 3e f5 1a 52 3f ce 27 c1 bf 85 21 e9 c0
       0.28511706 0.82072383 -1.5090272 -7.2853417
0003a0 cd 3b 8f 3d 0d 8b e4 bf ce a2 0b 40 fc 5c a4 c0
       0.06993828 -1.7854935 2.1818118 -5.1363506
0003b0 8a fb 0f be be f5 e7 bc e7 f8 00 c1 61 6b ac c0
       -0.14060798 -0.028315421 -8.060767 -5.388108
0003c0 75 ae bc 40 82 51 d2 be 5b 6c 41 3d a4 5c eb 40
       5.896296 -0.4107781 0.047222476 7.3550587
0003d0 af c8 b9 3f 9b 62 72 40 8e 64 aa c0 e7 f1 e3 c0
       1.4514369 3.7872684 -5.3247747 -7.123279
0003e0 2d 45 20 c0 65 bc d0 3f c4 64 c2 bf d7 84 51 3f
       -2.5042222 1.6307493 -1.5187001 0.8184332
0003f0 92 4d 53 c0 08 31 dd be e3 4f 8f c0 bc 70 00 40
       -3.3016095 -0.4320147 -4.478502 2.0068808

out.bias f4 [10]
000000 87 f7 3f 3e a1 1c ea 3d 8a bf 3f bd b4 67 21 3e
       0.18746768 0.11431242 -0.046813525 0.15762216
000010 0d 65 86 3d c9 c6 c9 3d f5 f8 ca 3d 22 5a 4a 3e
       0.06562243 0.098523684 0.09910766 0.19760945
000020 66 16 7e 3d 56 cc 0e 3d
       0.06203308 0.03486284
