exps/regularModelExperiments/pretrainedmodels/neuralBalanceModel3.pt (torch, 973831 bytes, 8 tensors)

fc.weight f4 [256, 784]
0	0xb6784bde	-3.699904e-06
1	0xb5daca88	-1.630121e-06
2	0xb537e0ce	-6.8499946e-07
3	0xb4a880ae	-3.1386065e-07
4	0x36be135c	5.664695e-06
5	0x35bad32d	1.391954e-06
6	0x3650ea32	3.1130735e-06
7	0x36bfe7f9	5.7192487e-06
8	0xb6bf9ae4	-5.710275e-06
9	0xb59d4102	-1.1716331e-06
10	0x35fcdbf0	1.8839473e-06
11	0x3614339e	2.2083764e-06
12	0x3e52bd95	0.20580132
13	0x3e5d306c	0.21600503
14	0x3b48ba2d	0.0030628548
15	0xb9adf6dc	-0.00033181056
16	0x3589e150	1.027287e-06
17	0x362467a7	2.4498238e-06
18	0xb645c648	-2.9470702e-06
19	0x35aaa093	1.271272e-06
20	0xb6646391	-3.4032603e-06
21	0x36939508	4.398291e-06
22	0x3688a530	4.072346e-06
23	0xb6a2bc30	-4.849884e-06
24	0xb48ec4cb	-2.6592747e-07
25	0xb6af8f2f	-5.232075e-06
26	0xb6aa989d	-5.0841613e-06
27	0xb6420d42	-2.891597e-06
28	0xb6857e3e	-3.9784054e-06
29	0x3617e8ab	2.2636184e-06
30	0x36bebc6b	5.684376e-06
31	0xb591eb02	-1.0871738e-06
32	0x3c188e07	0.009311206
33	0x3d0f8227	0.035036232
34	0x3e99df37	0.30053112
35	0x3f431550	0.76204395
36	0x3f66a07f	0.9008865
37	0x3f89b308	1.0757761
38	0x3f82ce45	1.0219198
39	0xbe9b9ae9	-0.30391625
40	0x3d03151e	0.03200256
41	0x3f3f99eb	0.74844235
42	0xbf546368	-0.8296418
43	0xbf8d73cf	-1.1050967
44	0xbf43ec74	-0.76532674
45	0xbbd1198b	-0.006381219
46	0xbe11996b	-0.1421868
47	0xbc8eac08	-0.017416015
48	0x3ed8448a	0.4223979
49	0x3e3b7f72	0.18310335
50	0xbecfab3a	-0.40560323
51	0xbf176f27	-0.5915398
52	0xb61117c8	-2.1620526e-06
53	0xb6809f7c	-3.8332637e-06
54	0x355e4607	8.280335e-07
55	0xb55a9d3d	-8.144014e-07
56	0x3680086f	3.815679e-06
57	0xb517558f	-5.637639e-07
58	0xbc4dfc1b	-0.012572314
59	0x3ed9b93d	0.42524138
60	0x3ed32ea9	0.41246536
61	0xbdc560fa	-0.096376374
62	0x3f5765cd	0.8413971
63	0x3fa66885	1.3000647
64	0x3f95a4ad	1.169088
65	0x3f69697c	0.9117658
66	0x3e97d74d	0.2965645
67	0xbed80c97	-0.42197105
68	0xbf895873	-1.0730118
69	0xbeef1053	-0.46692142
70	0xbefcb4fd	-0.49356833
71	0xbf8e9668	-1.113965
72	0xbf5eca00	-0.8702698
73	0xbeb809bd	-0.3594493
74	0x3f29ed13	0.6637737
75	0x3e020c73	0.12700062
76	0x3f4b6245	0.7944682
77	0x3f0d5d73	0.5522072
78	0x3f1b2ddc	0.6061685
79	0x3e9e5de9	0.30931023
80	0x3eaa9c9c	0.33322608
81	0x3e66a361	0.22523262
82	0xb6bd9059	-5.649443e-06
83	0xb6a669e8	-4.9595146e-06
84	0xb66f18b5	-3.5628157e-06
85	0xb60c5f6c	-2.0917169e-06
86	0xbcdfcfd5	-0.027320782
87	0x3eb452f4	0.35219538
88	0xbe257f86	-0.16161928
89	0xbee92149	-0.45533207
90	0xbf22d7e7	-0.6361069
91	0x3f96a334	1.1768556
92	0x3f226046	0.6342815
93	0xbed35247	-0.4127371
94	0xbff658b5	-1.9245821
95	0xc020fba5	-2.5153592
96	0xc00488a4	-2.07084
97	0xbeb85c5f	-0.36007974
98	0xbe8af8ea	-0.2714303
99	0xbf0c6dc3	-0.54854983
100	0xbf4ca87a	-0.79944575
101	0x3ec1e639	0.37870958
102	0x3f218aeb	0.63102597
103	0xbf16aa8c	-0.58853984
104	0xbf11fd9f	-0.5702762
105	0xbf8c8607	-1.0978402
106	0xbe86b7eb	-0.26312193
107	0x3e555829	0.20834412
108	0xbf5c25ba	-0.85995066
109	0x3e245b43	0.16050439
110	0xbec9786d	-0.3934969
111	0x363945b5	2.7607723e-06
112	0xb65d1166	-3.2941693e-06
113	0x3ccb3cb8	0.024809226
114	0x3db72b93	0.08943858
115	0x3f432606	0.76229894
116	0xbf489beb	-0.7836291
117	0xbe733c28	-0.23753417
118	0xbe8a34b0	-0.26993322
119	0x3f1beb83	0.6090624
120	0x3f12005b	0.5703179
121	0x3cba2306	0.022721779
122	0x3e4c4646	0.19948682
123	0x3ead6e9b	0.33873448
124	0x3ece6efe	0.40319055
125	0x3ddbfea9	0.10741932
126	0x3f2f6754	0.6851704
127	0xbe0e989d	-0.13925405
128	0xbe8f2c34	-0.27963412
129	0x3f333a6e	0.7001103
130	0xbe1dcde9	-0.1541058
131	0xbef21797	-0.47283623
132	0x3efbfa51	0.49214414
133	0xbf68a0cd	-0.9087036
134	0x3f179b9a	0.59221804
135	0xbe733cd5	-0.23753674
136	0xbda359bf	-0.07976102
137	0x3d9dd4db	0.077066146
138	0x3f40b144	0.75270486
139	0x3e15a4d3	0.14613657
140	0xb675c7b9	-3.6624099e-06
141	0xb6347706	-2.689137e-06
142	0xbe332bbc	-0.17497152
143	0x3d27ad96	0.04093703
144	0xbf83e821	-1.0305215
145	0xbe372749	-0.1788608
146	0xbfa2290c	-1.2668777
147	0xbf41c631	-0.7569304
148	0xbe8d8085	-0.27637115
149	0xbe90bfd2	-0.28271347
150	0xbeb45daa	-0.3522771
151	0x3e134393	0.14381246
152	0x3e7d6c60	0.24748373
153	0x3ed0e891	0.40802434
154	0x3e5daddd	0.21648355
155	0x3dd1aa40	0.10237551
156	0xbcb62c57	-0.02223794
157	0xbead00a0	-0.3378954
158	0xbd6caf8c	-0.057784602
159	0xbea1f257	-0.31630203
160	0x3f5b2176	0.8559793
161	0x3d813c8e	0.06310378
162	0xbde4bfe6	-0.11169414
163	0xbee6b2d2	-0.45058304
164	0x3e407a61	0.18796684
165	0x3e609fa8	0.21935904
166	0x3ed484f7	0.41507694
167	0xbe36c143	-0.17847161
168	0xb524a28e	-6.133131e-07
169	0x3e01baf2	0.1266897
170	0xbedd5eef	-0.4323649
171	0xbe91b00e	-0.28454632
172	0x3f1469bf	0.57973856
173	0xbf2da701	-0.6783295
174	0xbf669ce0	-0.9008312
175	0x3dccac1e	0.09993766
176	0xbd117618	-0.035513014
177	0xbeaf48e6	-0.34235305
178	0xbdbbac2d	-0.09163699
179	0x3e6731f1	0.22577645
180	0x3dd03b64	0.10167578
181	0x3f394190	0.72365665
182	0x3e92b479	0.28653315
183	0x3f16ddfd	0.5893248
184	0x3e924749	0.2857001
185	0x3ee600b4	0.4492241
186	0x3eca5b0c	0.39522588
187	0xbe7e3c93	-0.24827795
188	0xbbf4e4be	-0.0074735573
189	0x3d9f9b78	0.07793325
190	0xbd5af8c0	-0.053459883
191	0x3ef15c5b	0.47140774
192	0xbf600ae4	-0.8751662
193	0x3dba7c92	0.09105791
194	0x3efb9f03	0.49144754
195	0x3e8af290	0.27138186
196	0x3ec7cda1	0.3902407
197	0x3e690321	0.227551
198	0x3e841f54	0.2580515
199	0x3ef2c045	0.47412315
200	0x3fc55417	1.5416287
201	0x3ea7d4e4	0.3277961
202	0x3c354478	0.0110636875
203	0x3e18f539	0.14937295
204	0xbcfc1ade	-0.03077453
205	0xbdd0166c	-0.10160527
206	0xbe817fc9	-0.25292805
207	0xbed2e20b	-0.41188082
208	0x3c43f810	0.011960998
209	0x3ecc9768	0.39959264
210	0x3e528331	0.20557858
211	0x3ec3f2c6	0.3827116
212	0x3e436014	0.1907962
213	0x3e580a06	0.21097574
214	0x3e6af657	0.22945534
215	0x3d74a397	0.059726324
216	0x3e3a2e84	0.18181807
217	0x3d757f7d	0.059936035
218	0xbd1a8ba8	-0.037730843
219	0x3cf87c4b	0.030332705
220	0xbe1d25b2	-0.15346411
221	0xbf862007	-1.0478524
222	0xbea722d6	-0.32643765
223	0x3f1096e3	0.56480235
224	0xbfbb1b19	-1.4617645
225	0xbe3a4d88	-0.18193638
226	0x3f24dd28	0.6439996
227	0xbbf7b931	-0.0075599183
228	0x3f8a201f	1.0791053
229	0x3f1c1d12	0.6098186
230	0x3f11c74e	0.5694474
231	0x3c94c319	0.018159436
232	0x3ec42507	0.383095
233	0xbd09b8a3	-0.03362335
234	0xbdd1cdb2	-0.102443114
235	0xbe578d0c	-0.21049899
236	0xbe5a3e81	-0.21312906
237	0x3e0687c9	0.13137735
238	0x3e657eb6	0.22411618
239	0xbe819258	-0.25306964
240	0x3e2ab92d	0.16672201
241	0x3e4767d0	0.19473195
242	0x3e740419	0.23829688
243	0x3dceb5af	0.10093247
244	0xbe7f774c	-0.24947852
245	0x3e8fb94b	0.28071055
246	0x3ef1a573	0.4719654
247	0xbe115777	-0.14193521
248	0xbf716e2c	-0.94308734
249	0xbf6b5190	-0.9192133
250	0x3fec76f4	1.8473802
251	0x4017aaeb	2.369807
252	0x3de6100e	0.11233531
253	0xbf8c3829	-1.0954639
254	0xbeba6d8b	-0.364117
255	0xbdaeb35d	-0.085303046

fc.bias f4 [256]
0	0xbfb2c2eb	-1.3965734
1	0xbccc1e39	-0.024916755
2	0xbd973aab	-0.07384237
3	0xbd9938df	-0.074815504
4	0xbdceef5a	-0.101042464
5	0xbd8b50c4	-0.06802514
6	0xbd5bdea5	-0.053679127
7	0xbd7c285a	-0.06156192
8	0xbd09542b	-0.033527534
9	0xbf513b8d	-0.8173149
10	0x3f3cdab1	0.73771197
11	0xbd12229b	-0.035677534
12	0xbda45dab	-0.08025678
13	0xbd76e487	-0.060276534
14	0xbd034261	-0.032045726
15	0xbd6f0dfb	-0.058362942
16	0xbd768d46	-0.060193323
17	0xbd0b9e44	-0.03408648
18	0xbd9f02d2	-0.0776421
19	0xbd158738	-0.036505908
20	0xbd554cad	-0.052075077
21	0xbd2ca7fd	-0.042152394
22	0xbd20e467	-0.03928032
23	0xbd53654c	-0.051610276
24	0xbd9aca09	-0.075580664
25	0xbd88d54e	-0.0668131
26	0xbd85ff15	-0.06542794
27	0x4011a586	2.2757277
28	0xbd436438	-0.047702998
29	0xbd81f3d9	-0.063453384
30	0xbddd706b	-0.10812458
31	0xbf5afacc	-0.85538936
32	0xbd630a8b	-0.055429976
33	0xbd84bb2a	-0.06481011
34	0xbc28f05b	-0.010311211
35	0xbc9f43de	-0.019441541
36	0xbd4f219e	-0.05056917
37	0xbd9f5b95	-0.0778114
38	0xbe229878	-0.15878475
39	0xbd97ec6d	-0.074181415
40	0xbcd7f104	-0.026360042
41	0xbd030b74	-0.031993344
42	0xc0188d61	-2.383629
43	0xbd92a8ea	-0.07161124
44	0xbd276f14	-0.040877417
45	0xbdb83225	-0.08993939
46	0xbd187a22	-0.03722585
47	0xbd37a001	-0.044830326
48	0xbd983576	-0.07432072
49	0xbc959869	-0.018261151
50	0xbd9551dd	-0.07291005
51	0xbd59120a	-0.05299572
52	0xbdad2d51	-0.08455909
53	0xbd92727e	-0.07150744
54	0xbd0b1e56	-0.033964477
55	0xbda96616	-0.082714245
56	0xbd35d6c8	-0.044394284
57	0xbd47c4be	-0.048771612
58	0xbd9b9d52	-0.07598366
59	0xbd43765f	-0.04772031
60	0xbd63698a	-0.05552057
61	0xbda73fab	-0.081664406
62	0xbc367369	-0.011135914
63	0xbd50532f	-0.05086058
64	0xbde0f342	-0.10983898
65	0xbd854935	-0.06508104
66	0xbdd08e3e	-0.101833805
67	0xbd9a2d7d	-0.075282075
68	0xbda42f5a	-0.08016844
69	0xbd829aac	-0.063771576
70	0xbd9ff656	-0.07810657
71	0xbd330d7c	-0.04371403
72	0xbd5c56ae	-0.0537936
73	0xbdac61b0	-0.0841707
74	0xbda160b6	-0.07879774
75	0xbc900ede	-0.017585214
76	0xbd9742cb	-0.073857866
77	0xbd9a9c57	-0.07549351
78	0xbdcb486a	-0.09925921
79	0xbc40ca29	-0.011766949
80	0xbd99794c	-0.07493839
81	0xbda8280f	-0.082107656
82	0x3e82321c	0.25428855
83	0xbde633d0	-0.11240351
84	0xbdc87b8f	-0.09789192
85	0xbd61110c	-0.054947898
86	0xbd123556	-0.035695396
87	0xbcda2577	-0.026629193
88	0xbce9e380	-0.028550863
89	0xbc5da9ee	-0.013529284
90	0xbce8665b	-0.02836912
91	0xbdb92db3	-0.090419196
92	0xbd91f1bd	-0.07126186
93	0xbca48f98	-0.020088002
94	0xbd27b80d	-0.04094701
95	0xbd881730	-0.06645048
96	0xbd1fb77b	-0.03899334
97	0xbd3205a7	-0.04346242
98	0xbd3caa43	-0.04606081
99	0xbd4e9913	-0.05043895
100	0xbd115846	-0.035484575
101	0xbc62a726	-0.013833797
102	0xbd131b43	-0.03591467
103	0xbd834379	-0.06409354
104	0xbdd80909	-0.10548598
105	0xbdb625b0	-0.08893907
106	0xbd891b60	-0.066946745
107	0xbd469660	-0.048483253
108	0xbd475eb4	-0.0486743
109	0xbd6be6e8	-0.057593256
110	0xbdb37742	-0.08762981
111	0xbd2ee788	-0.042701274
112	0xbd9e6359	-0.07733793
113	0xbc921325	-0.017831394
114	0xbd98ca9b	-0.07460519
115	0xbccd99ed	-0.025097812
116	0xbcfa33f5	-0.030542353
117	0xbd9c9a0c	-0.076465696
118	0xbdbaf8fc	-0.09129521
119	0xbd38d4d6	-0.04512485
120	0xbdcb0e6e	-0.099148616
121	0xbdcf056a	-0.101084545
122	0xbd73f96e	-0.059564047
123	0xbd90f8df	-0.070787184
124	0xbce8c3ff	-0.02841377
125	0xbda78b78	-0.081808984
126	0xbd82081e	-0.063492045
127	0xbd21f08c	-0.039536044
128	0xbda00b2c	-0.07814631
129	0xbd7db024	-0.06193556
130	0xbc3c4a86	-0.011492377
131	0xbd9b5779	-0.075850435
132	0xbdbde236	-0.09271662
133	0xbd36923b	-0.04457305
134	0xbdaf4343	-0.08557751
135	0xbcff452a	-0.03116091
136	0xbd6178df	-0.055046912
137	0xbca06d39	-0.019583331
138	0xbcc0d9a9	-0.023541288
139	0xbd43e97f	-0.0478301
140	0xbd68fd8b	-0.056882422
141	0xbc7d1d28	-0.015448846
142	0xbd93f245	-0.072239436
143	0xbd05a723	-0.032630097
144	0xbc983031	-0.018577667
145	0xbc75a257	-0.014992318
146	0xbd6bd46e	-0.057575636
147	0xbd8cbb64	-0.068716794
148	0xbda2a70c	-0.07942018
149	0x3f8fa4a8	1.1222124
150	0xbd89beaf	-0.06725823
151	0xbd50435e	-0.050845496
152	0xbd1028a7	-0.03519502
153	0xbdbe26ed	-0.09284768
154	0x3f461273	0.773719
155	0xbd73a444	-0.059482828
156	0xbd186dc8	-0.03721407
157	0xbd766c80	-0.060162067
158	0xbd939f15	-0.07208077
159	0xbd2d602e	-0.042328052
160	0xbd0573b2	-0.03258104
161	0xbdc2502e	-0.09487949
162	0xbd9c0f06	-0.07620053
163	0xbd9edd26	-0.077570245
164	0xbd243056	-0.04008516
165	0xbda3db59	-0.080008216
166	0xbcf6abd6	-0.030111235
167	0xbda9bdfb	-0.08288189
168	0xbd0d870d	-0.034552623
169	0xbcc71616	-0.024302524
170	0xbd282c90	-0.041058123
171	0xbf08064c	-0.5313461
172	0x3f40a6ef	0.7525472
173	0xbda06946	-0.07832579
174	0xbe83c67b	-0.25737366
175	0xbceec920	-0.029148638
176	0xbd99f935	-0.075182356
177	0xbd0424f3	-0.0322618
178	0xbd597c01	-0.053096775
179	0xbd149637	-0.03627607
180	0xbdadb58b	-0.08481892
181	0xbd6506f3	-0.05591483
182	0xbd579276	-0.05262991
183	0xbd584ffa	-0.052810647
184	0xbd6e66b0	-0.0582034
185	0xbd03271a	-0.032019712
186	0xbd08369d	-0.03325521
187	0xbd3f5f34	-0.046721652
188	0xbd0c79e2	-0.034295924
189	0xbcfa03de	-0.030519422
190	0xbd82f7af	-0.06394898
191	0xbd3556a1	-0.04427207
192	0xbd62ab4c	-0.055339143
193	0xbd3a8f5b	-0.04554687
194	0xbd057ce6	-0.032589816
195	0xbd799e5d	-0.060942043
196	0xbd8f9767	-0.070112996
197	0xbdbf8705	-0.09351925
198	0xbcc8a42f	-0.024492351
199	0xbd19a80b	-0.037513774
200	0xbda45003	-0.080230735
201	0xbd9fc679	-0.078015275
202	0xbc61e506	-0.013787514
203	0xbdc3842c	-0.09546694
204	0xbd1a049f	-0.037602063
205	0xbd9146fa	-0.07093616
206	0xbd3422b9	-0.043978427
207	0xbd514b53	-0.051097225
208	0xbda15acf	-0.078786485
209	0xbda35fc7	-0.079772525
210	0xbd719d81	-0.058988098
211	0xbbf6c497	-0.0075307596
212	0xbf63cd7e	-0.8898543
213	0xbdb949d5	-0.090472855
214	0xbc3d6db1	-0.011561797
215	0xbd81208b	-0.06305035
216	0xbce78787	-0.028262867
217	0xbcebeadb	-0.028798511
218	0xbcca986b	-0.024730882
219	0xbda5188f	-0.08061325
220	0xbd58a3c3	-0.05289055
221	0xbd86d830	-0.06584203
222	0xbd2e3d30	-0.04253882
223	0xbd61ec6a	-0.055157103
224	0xbc0eddd2	-0.008719878
225	0xbd91fd62	-0.07128407
226	0xbcb5baa3	-0.022183722
227	0xbd97afd1	-0.07406581
228	0xbd9c8408	-0.076423705
229	0xbd99be58	-0.07507008
230	0xbf235a1b	-0.63809365
231	0xbd85eb31	-0.06539
232	0xbc8ada0f	-0.016949682
233	0xbc2f566d	-0.010701758
234	0xbce74963	-0.028233236
235	0xbd3654ac	-0.044514343
236	0xbc0ab78d	-0.0084666135
237	0xbd56d032	-0.052444644
238	0xbd0e4cb9	-0.034741137
239	0xbd8e9ba0	-0.06963277
240	0xbd57ddd7	-0.052701797
241	0xbd5ff4cc	-0.054676816
242	0xbdb6e140	-0.08929682
243	0xbd9adf11	-0.07562078
244	0xbdc465cd	-0.095897295
245	0xbda3497c	-0.079730004
246	0xbcccf277	-0.02501796
247	0xbcc84987	-0.024449123
248	0xbd01f606	-0.031728767
249	0xbd238eac	-0.039930984
250	0xbdb394e1	-0.08768631
251	0xbcedd4f1	-0.029032202
252	0xbca49086	-0.020088445
253	0xbd46f9c1	-0.048578028
254	0xbd6ca190	-0.057771266
255	0xbd3231f9	-0.04350469

fc1.weight f4 [128, 256]
0	0xbd714d41	-0.058911566
1	0xbb9c9e94	-0.004779646
2	0xbb59c6ac	-0.003322999
3	0xb9cf8c07	-0.00039586445
4	0xbb1ffa5c	-0.00244107
5	0xb97ee4bb	-0.00024308536
6	0x3b9a69b8	0.0047123097
7	0xba8864f3	-0.0010406062
8	0xbb9c05cd	-0.0047614337
9	0xbf452375	-0.7700723
10	0xbf4a9147	-0.79127926
11	0xbb8d89f0	-0.004319422
12	0xbafdcf78	-0.0019364199
13	0xb9724e71	-0.0002310814
14	0xbac80f24	-0.0015263301
15	0xbb8b7076	-0.0042553497
16	0xbb0aee93	-0.002119933
17	0xbb4554c3	-0.0030110336
18	0xba709d63	-0.0009178726
19	0xbb8c9f08	-0.004291419
20	0xbb820efd	-0.003969072
21	0xba5f84a2	-0.0008526539
22	0x3a0a29c1	0.0005270504
23	0x3b96c1cb	0.0046007386
24	0xbb6f6757	-0.0036530101
25	0xbb8e0caf	-0.004335008
26	0xbb9deb4f	-0.0048193107
27	0xbfe74495	-1.8067805
28	0xbb533ab7	-0.0032231042
29	0xbae39625	-0.0017363472
30	0xb9a462df	-0.00031354182
31	0xc020edbf	-2.5145109
32	0x3b4baaff	0.0031077263
33	0xb9f75d1a	-0.00047180877
34	0xbb98ba1e	-0.004660859
35	0xbb971131	-0.0046102037
36	0xbb2702bb	-0.0025483805
37	0x3b4c36b0	0.0031160526
38	0xbff0249e	-1.8761175
39	0xb983c0cd	-0.00025129915
40	0xbb24d31c	-0.0025150245
41	0xbad10a7b	-0.0015948558
42	0xbf3b86a5	-0.73252326
43	0xbb1c17ef	-0.0023817976
44	0xbb975f6a	-0.0046195285
45	0xbac0759b	-0.0014683487
46	0xba60bf63	-0.0008573441
47	0xba5adb3f	-0.000834871
48	0x3b001279	0.001954226
49	0xbb0e1b4f	-0.0021683758
50	0x3b0ef030	0.0021810643
51	0xba8ce42e	-0.0010749155
52	0xbb6292ef	-0.0034572443
53	0xbb49c910	-0.0030790009
54	0xbb036453	-0.0020048812
55	0x371d5493	9.377621e-06
56	0xb92fc34d	-0.00016762056
57	0xbaddfc21	-0.0016936102
58	0xbb155d16	-0.002279108
59	0xbb860bb7	-0.004090752
60	0xbb1bb68b	-0.0023759927
61	0xbb86bd6e	-0.0041119372
62	0xbb14264c	-0.0022605835
63	0xba8133e9	-0.0009857389
64	0xbb8603e6	-0.00408982
65	0xbaab4ed4	-0.0013069757
66	0xbb73c5ff	-0.0037196872
67	0xbb829b01	-0.003985763
68	0xbb69c28c	-0.0035668937
69	0x3b307342	0.0026924168
70	0x3b6cbd23	0.0036123476
71	0xb9a9df1c	-0.0003240042
72	0xba49abf1	-0.0007693163
73	0xbb8c4c9a	-0.0042815926
74	0xbb763ae2	-0.0037571718
75	0xba79e389	-0.00095325016
76	0xbb8ce179	-0.0042993394
77	0xbb7b4cfb	-0.0038345444
78	0xbb874a1f	-0.004128709
79	0xbb29ea3e	-0.0025926973
80	0xba9fad28	-0.0012182342
81	0xbb2d70dd	-0.0026464977
82	0xbfb7d09d	-1.4360539
83	0xbb06af10	-0.0020551123
84	0xba4b92ea	-0.00077657274
85	0xbb88c413	-0.0041737645
86	0xbac74fde	-0.0015206297
87	0x3a2e0a25	0.0006639085
88	0xba47d519	-0.00076230016
89	0xbafd93ec	-0.0019346452
90	0xbb824cc7	-0.0039764377
91	0xbb0c4dfe	-0.0021408792
92	0xbb9ea370	-0.0048412606
93	0xbad89785	-0.0016524649
94	0xba151aa6	-0.000568787
95	0xb9a930ba	-0.00032270496
96	0xbac4c6de	-0.001501288
97	0xbb937e61	-0.0045011495
98	0xb932ab49	-0.00017039212
99	0xbb999324	-0.00468673
100	0x3b43d9ec	0.002988453
101	0xbae02a18	-0.0017102389
102	0xbb957e4e	-0.004562176
103	0xbb1fb310	-0.0024368204
104	0x3a86f087	0.0010295071
105	0xba95693e	-0.0011399162
106	0xbb552ad8	-0.0032526758
107	0xbb0c1807	-0.0021376626
108	0xbb3eb4e8	-0.0029099528
109	0xb9a94485	-0.00032285243
110	0xbb77ca15	-0.003780966
111	0xbb2ed4c9	-0.0026677123
112	0xbbaa5c3b	-0.005198983
113	0x3a5f10b1	0.0008509262
114	0xbb82b83c	-0.0039892476
115	0xb85c0e08	-5.2465155e-05
116	0xbb3c5934	-0.0028739693
117	0xba3476f9	-0.00068841834
118	0xba238697	-0.0006238012
119	0xbb7ec8c1	-0.0038876983
120	0xba08677c	-0.00052034087
121	0xbb33053a	-0.0027316348
122	0xbaf9b2dd	-0.0019050498
123	0xba838015	-0.0010032678
124	0xbb253a5e	-0.0025211792
125	0xb94dae58	-0.00019615272
126	0xbb2d673f	-0.0026459245
127	0xba27a217	-0.00063946977
128	0xb99fbfe1	-0.00030469804
129	0xba98e891	-0.001166599
130	0x3b18bcc5	0.0023305875
131	0xba528cbc	-0.00080318353
132	0xbafe3fd3	-0.0019397683
133	0xbab47055	-0.0013766388
134	0xba417ec6	-0.00073812564
135	0xbf927b22	-1.1443827
136	0xbb947694	-0.004530737
137	0xbac620dc	-0.0015115994
138	0xbb1633d9	-0.0022919087
139	0xbb1abd9f	-0.0023611558
140	0xbaf6eeab	-0.0018839439
141	0xb7fb073d	-2.9924902e-05
142	0xbaefb183	-0.0018287156
143	0xbb956bd0	-0.0045599714
144	0xbb4cf5e7	-0.00312745
145	0xbb7844eb	-0.0037882875
146	0xbb28e831	-0.0025773162
147	0xbb808e2e	-0.003923199
148	0xbb894386	-0.0041889576
149	0xbfff9bab	-1.9969381
150	0xbb900465	-0.004395055
151	0xbaa9f292	-0.0012965968
152	0xba5bc658	-0.00083837425
153	0xbaad493a	-0.0013220676
154	0xbde18b4d	-0.11012898
155	0xbb86ccfe	-0.0041137924
156	0xbb24ed25	-0.0025165763
157	0xba21b036	-0.000616792
158	0xbb1ec5b2	-0.0024226722
159	0xb6b4a1ce	-5.3832546e-06
160	0xbb836007	-0.00400925
161	0xbb47da01	-0.003049493
162	0xbb7be065	-0.003843331
163	0xbada0441	-0.0016633348
164	0xbb413890	-0.0029483177
165	0xbba0d3ae	-0.0049080467
166	0xbb88b42b	-0.0041718683
167	0xbb785b2b	-0.0037896137
168	0xbb11127d	-0.0022136264
169	0xba0154dd	-0.0004933605
170	0xbb921921	-0.004458562
171	0xbfa4f544	-1.2887349
172	0xbfd33c2e	-1.650274
173	0xbb9759b7	-0.004618849
174	0xbf9660a1	-1.1748239
175	0xbb53f5dc	-0.0032342589
176	0xbb9cf20b	-0.004789596
177	0xbac8fb25	-0.0015333636
178	0xba267f68	-0.00063513825
179	0xbb4b40b6	-0.0031013913
180	0x3823160f	3.8882772e-05
181	0xb824aaff	-3.92599e-05
182	0xbb7d54d1	-0.003865529
183	0xb96c6fe3	-0.00022548395
184	0xbba58ea5	-0.005052405
185	0xbb037687	-0.0020059661
186	0xbb2b2367	-0.002611363
187	0xba673b04	-0.00088207447
188	0xba4f446a	-0.0007906618
189	0xbb9c1b3a	-0.004763988
190	0xbb8cd810	-0.0042982176
191	0xbb5de0c3	-0.0033855892
192	0xbb881e33	-0.0041539907
193	0xb9e09286	-0.00042833778
194	0xbb71de8c	-0.003690633
195	0xbaa8a775	-0.0012867289
196	0xbace322f	-0.0015731509
197	0xbbbb2842	-0.005711586
198	0xba16dc8e	-0.0005754911
199	0xbb374cfe	-0.0027969475
200	0xbae25bc5	-0.0017269781
201	0xba58df39	-0.0008273009
202	0xba724531	-0.00092418777
203	0xba8f7009	-0.0010943423
204	0xbb7a7b8f	-0.003822062
205	0xba1d4401	-0.0005999208
206	0xbb3c0024	-0.0028686607
207	0xbaa68dc1	-0.0012707041
208	0xbb8c7850	-0.0042868033
209	0x3a051fcf	0.0005078287
210	0xba0d34db	-0.0005386599
211	0xbb773f59	-0.0037726967
212	0xbfaedbc8	-1.3660822
213	0xbb1d88a1	-0.0024037736
214	0x3b083f29	0.00207896
215	0xbb263467	-0.0025360824
216	0xba238039	-0.0006237063
217	0xbaa2d415	-0.0012422825
218	0xbb855327	-0.0040687504
219	0xbb536963	-0.003225886
220	0x3b4e71ea	0.0031501004
221	0xbb68a9f9	-0.0035501702
222	0xba72420d	-0.000924141
223	0x3863e8ba	5.433776e-05
224	0xbb5720c4	-0.0032825926
225	0xb934b89f	-0.00017234914
226	0xbba63221	-0.005071894
227	0x3a4df759	0.0007856987
228	0xbb1b3434	-0.0023682239
229	0x3b0c0f73	0.0021371513
230	0xbe1edb59	-0.15513362
231	0x39d99fa1	0.00041508398
232	0xbb7c5663	-0.003850364
233	0xb86ea40d	-5.6896406e-05
234	0xb91e446f	-0.00015093548
235	0xbb822507	-0.003971699
236	0xbb8c90ad	-0.0042897076
237	0xbabb5ad0	-0.0014294032
238	0xbb7dd574	-0.0038731964
239	0xbb4c6ce3	-0.0031192831
240	0xb993a6ef	-0.000281624
241	0xbaf3afb9	-0.0018591798
242	0xbadce214	-0.0016852045
243	0xbacc16fb	-0.0015570814
244	0xb91c6eca	-0.00014918591
245	0xbb813252	-0.003942766
246	0xb9b7951f	-0.00035015584
247	0xba1194f7	-0.00055535085
248	0xbba09306	-0.004900339
249	0xbb066cd0	-0.0020511635
250	0xbb4e6927	-0.003149578
251	0xbb767d23	-0.0037611208
252	0xbb16ad13	-0.0022991344
253	0xbaf0d08c	-0.0018372699
254	0x3a866e91	0.001025634
255	0xbb8e4b76	-0.0043424917

fc1.bias f4 [128]
0	0xbe6996a3	-0.2281137
1	0xbea54502	-0.3227921
2	0xbf318ad2	-0.6935245
3	0xbef0c1d4	-0.4702288
4	0x3fb7a4ae	1.4347131
5	0xbf9a0708	-1.2033396
6	0xc0018134	-2.023511
7	0x3f0d11d6	0.5510534
8	0xbe08b07d	-0.13348575
9	0xc02d06ce	-2.7035403
10	0xbf307ea5	-0.68943244
11	0xbe9e61f9	-0.30934122
12	0xbca203ea	-0.019777257
13	0xbeac2e4c	-0.33629072
14	0xbe931887	-0.2872965
15	0xbed2233a	-0.410425
16	0xbdaaef30	-0.08346403
17	0xbfa9e1f5	-1.3272082
18	0xbda49482	-0.08036138
19	0xbede0a65	-0.43367305
20	0xbe6c26a8	-0.23061621
21	0xbd263595	-0.040578444
22	0xbcfaa61d	-0.030596787
23	0xbe49369f	-0.19649743
24	0xbc448bb0	-0.011996195
25	0xbf8f1ff5	-1.1181628
26	0xbf51289b	-0.81702584
27	0xbf30e50a	-0.69099486
28	0xbc82313e	-0.015892621
29	0xbdedcc88	-0.11611277
30	0xbd50ea7c	-0.05100487
31	0xbe23f8b1	-0.16012837
32	0xbe8fc249	-0.28077915
33	0xbd277a97	-0.040888395
34	0xbf40b572	-0.75276864
35	0xbe122daf	-0.1427524
36	0x3eee91ab	0.4659551
37	0xbcd290a7	-0.025703741
38	0xbdd46b93	-0.10372081
39	0xbfd42ea5	-1.6576735
40	0xbda8ca1f	-0.082416765
41	0xbc7fdfdc	-0.015617337
42	0xbdfe35bf	-0.12412595
43	0xbdeaf3a5	-0.11472253
44	0x40a97180	5.295105
45	0xbf26d7b9	-0.65172917
46	0xbdc0c4a2	-0.09412505
47	0xbe2b5a3c	-0.1673364
48	0xc007501a	-2.114264
49	0xbe262032	-0.16223219
50	0xbcef6a29	-0.029225426
51	0xbea69f6c	-0.32543504
52	0xbf0c2f0b	-0.5475928
53	0xbdd8c5c2	-0.10584594
54	0xbe9ce2b0	-0.306417
55	0xbd5d2291	-0.053988043
56	0xbeb2519e	-0.34827894
57	0xbf98a6aa	-1.1925862
58	0xbf0dd883	-0.55408496
59	0xbe5e0577	-0.21681772
60	0xbd6d707b	-0.057968598
61	0xbdcab64e	-0.09898053
62	0xbecd47d4	-0.40093863
63	0xbe8204ae	-0.25394195
64	0xbd83324e	-0.06406079
65	0x3f4ef1df	0.80837816
66	0xbe33d709	-0.17562498
67	0xbd846ec9	-0.06466443
68	0xbe1cff9b	-0.15331881
69	0xbed33d30	-0.4125762
70	0x4006a8b6	2.1040473
71	0xbdf96fdf	-0.12179541
72	0xbca6a246	-0.02034105
73	0xbfc3b7b2	-1.5290434
74	0xbd29d3ec	-0.04146187
75	0xbcaeaf0a	-0.0213237
76	0xbdb825c5	-0.08991579
77	0xbf104f42	-0.5637094
78	0xbcde8fd1	-0.027168186
79	0xbf0601ca	-0.5234648
80	0xbd1a6aba	-0.03769944
81	0xbdc4afea	-0.096038654
82	0x3f49c37e	0.7881392
83	0xbdbc19df	-0.09184622
84	0xbdd1cb79	-0.102438875
85	0xbb4eef23	-0.0031575642
86	0xbe20a6d4	-0.1568864
87	0xbd1496fe	-0.03627681
88	0xbe0eb126	-0.13934764
89	0xbe1ec265	-0.15503843
90	0xbd12730e	-0.035754256
91	0xbe00aa34	-0.12564927
92	0xba950161	-0.0011368209
93	0xbf17ba55	-0.59268695
94	0x40b9384f	5.7881236
95	0xbd92bc56	-0.071648285
96	0xbead2edd	-0.33824816
97	0xbd490bd8	-0.04908356
98	0xbf0d9f30	-0.55321026
99	0xbaea9033	-0.0017895758
100	0xbef83d5c	-0.48484313
101	0xbda4bfea	-0.08044417
102	0xbf8956b4	-1.0729585
103	0xbecac83c	-0.39605892
104	0xbf2541c1	-0.6455346
105	0xbe0444bc	-0.12916845
106	0xbe13170e	-0.14364263
107	0xbf888050	-1.0664158
108	0xbe08b465	-0.13350065
109	0xbecd1094	-0.4005171
110	0xbd8b19b7	-0.06792014
111	0xbc0c5394	-0.008564848
112	0xbc18b726	-0.00932101
113	0xbf2a0ab2	-0.6642257
114	0xbef9945e	-0.48746008
115	0xbd871e3b	-0.06597563
116	0x3f3c63b1	0.73589617
117	0xbddca454	-0.107735306
118	0xbcf5d88d	-0.030010486
119	0xbdc5717a	-0.096407846
120	0xbcd51cf3	-0.02601478
121	0xbed2a58f	-0.41141936
122	0xbe9e3b9a	-0.30904847
123	0xbdd9f5c0	-0.10642576
124	0xbec67ec5	-0.38768592
125	0x3f5769cf	0.84145826
126	0xc0ce096d	-6.4386506
127	0xbd922331	-0.071356185

fc2.weight f4 [64, 128]
0	0xbd721d1e	-0.0591098
1	0xbfea53ba	-1.8306801
2	0xbd62377d	-0.0552287
3	0xbf8c8167	-1.097699
4	0xbf9aafb2	-1.2084868
5	0xc0265dde	-2.5994792
6	0xc02ee6fd	-2.7328484
7	0xbf37fcb2	-0.7186996
8	0xbdea695c	-0.11445877
9	0xbe1dcb51	-0.1540959
10	0xbf4c1796	-0.7972349
11	0xbf4f1c74	-0.8090279
12	0xbfbc5cc2	-1.4715807
13	0x3e31be92	0.17357853
14	0x3d9e1cee	0.07720362
15	0xbfa82888	-1.3137369
16	0x3d1079b5	0.03527232
17	0xc01aa9f1	-2.4166224
18	0xbf31e930	-0.6949644
19	0xbedafd17	-0.42771217
20	0xc05ed536	-3.4817634
21	0x3c630ac5	0.013857548
22	0xbf808f98	-1.0043821
23	0xbf1343c6	-0.5752529
24	0xbcdec60e	-0.02719405
25	0xbde8159f	-0.11332249
26	0xbf06a4cf	-0.5259523
27	0xbf0d130a	-0.55107176
28	0xbf9d41c7	-1.2285699
29	0x3e01db42	0.12681296
30	0xbfc810ee	-1.5630167
31	0xbe676488	-0.22596943
32	0xbf262609	-0.6490179
33	0xbd357f25	-0.044310708
34	0xbfd9d0f5	-1.7016894
35	0x3f735cce	0.95063484
36	0xbfa144bf	-1.2599105
37	0xbeea0d50	-0.45713282
38	0xbf46b55e	-0.77620494
39	0xbf06eeba	-0.5270802
40	0xbd2a7100	-0.04161167
41	0xc09a2b88	-4.817814
42	0xbeca9025	-0.395631
43	0xbf06bb63	-0.5262968
44	0xbebf894b	-0.37409434
45	0xbf797427	-0.9744286
46	0xbf4305b5	-0.76180583
47	0xbf952a97	-1.1653622
48	0xbf595bd4	-0.84905744
49	0xbd46147f	-0.04835939
50	0xbfad6d1b	-1.3548921
51	0xbf0d20e3	-0.55128306
52	0xbf0019aa	-0.5003916
53	0xbe2653a1	-0.1624284
54	0x3f28a27f	0.6587295
55	0xbf4542af	-0.77054876
56	0xbfb831d1	-1.4390203
57	0xbf31bea9	-0.6943155
58	0xbf8cfa65	-1.1013914
59	0xbf93738b	-1.1519636
60	0xbfada0cc	-1.3564696
61	0xbf245227	-0.64187855
62	0x3e51d73d	0.20492263
63	0xbe846980	-0.2586174
64	0xbedd1f5c	-0.43187988
65	0xc07d5d5f	-3.958824
66	0xbf069341	-0.5256844
67	0xbeb41d7a	-0.3517874
68	0xbfb08aa4	-1.379231
69	0xbed66cf5	-0.41880003
70	0xbe9a0d74	-0.3008839
71	0xbf6676d3	-0.9002506
72	0xbd25070a	-0.040289916
73	0xbf5babd6	-0.85809076
74	0xbf2f7cd6	-0.6854986
75	0x3c1d526e	0.009602172
76	0xbf967c88	-1.1756754
77	0xc0569486	-3.3528152
78	0xbf3de1f8	-0.74172926
79	0xbef50e2d	-0.47862378
80	0xbf90ae5b	-1.1303209
81	0xbf036294	-0.51322293
82	0xc053dbc7	-3.3102891
83	0x3e3a3b31	0.18186642
84	0xbf1c083b	-0.6095006
85	0xbe5e256b	-0.21693961
86	0x3e89de9c	0.2692765
87	0xbde930a0	-0.113862276
88	0xbfbe611a	-1.4873383
89	0x3e87b485	0.26504913
90	0xbf7b8d36	-0.98262346
91	0xbf35e9d1	-0.710599
92	0xbf17df9b	-0.5932557
93	0xc01a4a5b	-2.4107883
94	0xbdd23433	-0.102638625
95	0xbfc9f0d5	-1.5776621
96	0xbe9c831b	-0.30568776
97	0x3e00caea	0.12577406
98	0xbfb26f5c	-1.3940234
99	0xbf4448ee	-0.7667378
100	0xbfa9bdf1	-1.326109
101	0xbf4e8126	-0.80665815
102	0xbeeeca8d	-0.4663891
103	0xbf8ce2c0	-1.1006699
104	0xbfb65b5e	-1.4246633
105	0xbea6d178	-0.32581687
106	0xbf3c019e	-0.7343997
107	0xbfc57955	-1.5427653
108	0xbd8ed5a7	-0.06974345
109	0xbf11cbf5	-0.5695184
110	0xbed004b7	-0.40628597
111	0xbf0ec804	-0.5577395
112	0xbf3f472a	-0.7471796
113	0xbea631ca	-0.3245986
114	0x3ea5aa9a	0.3235672
115	0xbf7e7e47	-0.99411434
116	0xbff4c4e5	-1.9122587
117	0x3b9b6728	0.004742522
118	0xbf935cc1	-1.1512681
119	0x3faa714a	1.3315823
120	0xbf9012e4	-1.1255765
121	0xc00dac8f	-2.2136571
122	0xc072ce22	-3.7938313
123	0xbed1f62b	-0.41008124
124	0xbf0ba1f7	-0.54544014
125	0xbd831b31	-0.06401671
126	0xbef4a547	-0.47782347
127	0xbf64df67	-0.89403385
128	0x3e919b83	0.2843896
129	0xbece0d60	-0.4024458
130	0xbe715b8d	-0.2357008
131	0x3df0f23e	0.11764954
132	0xbe8dbdd5	-0.27683893
133	0x3d6eeaeb	0.058329504
134	0xbe0cc805	-0.13748176
135	0xbea0be65	-0.3139526
136	0x3e0a486a	0.13504186
137	0xbed892d7	-0.4229953
138	0xbf214278	-0.6299205
139	0xbdb63075	-0.08895961
140	0x3dea18d3	0.11430516
141	0xbb13cf2a	-0.00225539
142	0xbda86486	-0.08222298
143	0xbeb3f74d	-0.35149613
144	0x3e917bec	0.28414857
145	0xbd8ddb57	-0.069266014
146	0xbcec8b83	-0.028875118
147	0xbef4bd81	-0.4780083
148	0xbeafa9ca	-0.34309226
149	0x3e42db62	0.19029
150	0xbe0a1223	-0.13483481
151	0xbe4c8af9	-0.19974889
152	0xbdb837a5	-0.08994988
153	0xbf639259	-0.88895184
154	0xbf279ee3	-0.65476817
155	0x3de4f214	0.11178985
156	0x3c5b29d1	0.013376669
157	0x3e68d8da	0.22738972
158	0x3d81c91a	0.06337185
159	0x3f0d1985	0.55117065
160	0xbd2d8891	-0.042366568
161	0x3ddb8a65	0.10719756
162	0xbe2225d5	-0.15834744
163	0xbe3e2d4a	-0.18571964
164	0xb99e9d46	-0.00030253286
165	0xbf23be66	-0.639624
166	0x3dcd989a	0.10038872
167	0xbd4ac3f1	-0.04950327
168	0x3e45bed1	0.19311072
169	0xbdc811b9	-0.09769005
170	0x3db51691	0.08842195
171	0x3cff11b5	0.031136373
172	0xbe43aa36	-0.19107899
173	0x3b43f0b2	0.0029898104
174	0x3db43b2e	0.0880035
175	0xbe7b9c4d	-0.24571343
176	0xbe11afb4	-0.14227182
177	0xba8dd8f0	-0.0010822099
178	0x3e006d7f	0.1254177
179	0xbe17b1e5	-0.14813955
180	0x3f4986db	0.787214
181	0xbdc6631a	-0.09686871
182	0xbe7a993b	-0.24472515
183	0xbe395621	-0.18099262
184	0xbecf481e	-0.4048471
185	0xbdcb1656	-0.099163696
186	0x3de4025b	0.11133262
187	0x3eca757c	0.39542758
188	0xbd1622f6	-0.036654435
189	0xbe6c273f	-0.23061846
190	0x3cda7bae	0.026670303
191	0xbc1484a8	-0.009064831
192	0x3e261a16	0.16220888
193	0xbeae9b4e	-0.34102863
194	0xbe880351	-0.2656503
195	0xbd061d1f	-0.032742616
196	0x3d5784cf	0.05261689
197	0xbdbe8258	-0.09302205
198	0xbf1c143a	-0.60968363
199	0x3e1c35a2	0.15254834
200	0xbca55051	-0.0201799
201	0xbf2a6628	-0.6656213
202	0x3e01f7fd	0.12692256
203	0x3e58bf23	0.21166663
204	0x3d6b38ae	0.0574271
205	0xbea6aa10	-0.32551622
206	0x3cc903a8	0.024537876
207	0xbcd52b49	-0.026021617
208	0x3e047920	0.1293683
209	0x3e274091	0.16333224
210	0xbe841baf	-0.2580237
211	0xbc6a149b	-0.014287139
212	0xbe7e26d9	-0.24819507
213	0xbcf5ad90	-0.029989988
214	0xbd1cc4e3	-0.038273703
215	0x3df7c407	0.12097936
216	0xbe802e47	-0.25035307
217	0x3eb5a22d	0.35475293
218	0xbcb342f6	-0.021882515
219	0x3e1362b7	0.14393125
220	0xbe3a8fbd	-0.18218894
221	0xbe323be3	-0.17405657
222	0xbe47139c	-0.19441074
223	0xbee14438	-0.4399736
224	0xbcd6cd56	-0.026220959
225	0xbd843e15	-0.06457154
226	0xbe03b588	-0.12862217
227	0x3e3c2cf0	0.18376517
228	0xbe88f6aa	-0.2675069
229	0x3d6ef58d	0.058339644
230	0xbef08059	-0.46972921
231	0xbc9bf792	-0.01903895
232	0x3d1e7a85	0.038691062
233	0x3e15b253	0.14618807
234	0xbe347422	-0.17622426
235	0xbe4d1f16	-0.2003139
236	0x3eb26114	0.3483969
237	0x3e059c86	0.1304799
238	0xbdc65cec	-0.09685692
239	0xbe9cdd8c	-0.30637777
240	0x3c8bfec0	0.017089248
241	0x3d5bb36c	0.053637907
242	0xbebe377e	-0.37151712
243	0xbd755371	-0.05989403
244	0xbe8d4f85	-0.2759973
245	0x3e1f1477	0.1553515
246	0x3c48f451	0.012265281
247	0x3cbd639f	0.023118792
248	0xbd384b18	-0.04499349
249	0xbf153021	-0.58276564
250	0xbf2bfe7d	-0.67185193
251	0xbccfffe5	-0.025390575
252	0xbe58de01	-0.21178438
253	0xbe6189ae	-0.22025177
254	0xbe4cc542	-0.19997123
255	0x3dda16f8	0.10648912

fc2.bias f4 [64]
0	0xbeaf7850	-0.3427148
1	0x3eaa4553	0.33256015
2	0xbe8b4bf1	-0.27206376
3	0xbe41becc	-0.1892044
4	0x3d91c0fa	0.071168855
5	0xbf599355	-0.84990436
6	0xbef2e718	-0.47441936
7	0x3ee443a6	0.44582862
8	0xbd78151f	-0.060567018
9	0xbef4c472	-0.47806126
10	0xbf2f9090	-0.6857996
11	0x3d2401b0	0.04004067
12	0xbe54e7bb	-0.20791523
13	0x3f00c0ee	0.5029439
14	0xbf5cbf1f	-0.8622913
15	0x3e33be5e	0.17553088
16	0x3ecd4465	0.40091243
17	0xbeeac0b5	-0.4585015
18	0x3f0d5acd	0.55216676
19	0xbd798f8e	-0.06092792
20	0x3ee5f6f0	0.4491496
21	0xbe2dcdcd	-0.16973038
22	0xbb495a6b	-0.003072406
23	0xbf3ebba2	-0.74505055
24	0x3eb1d096	0.3472945
25	0xbc191e5a	-0.009345615
26	0xbee79886	-0.45233554
27	0xbf4f7f30	-0.8105345
28	0xbef0aa11	-0.4700475
29	0x3f0adae9	0.5424028
30	0x3e8b2dcc	0.27183378
31	0x3f028db2	0.5099746
32	0xbe1af2ec	-0.1513173
33	0xbe21285c	-0.15738052
34	0xbeacb9a1	-0.33735374
35	0xbf703534	-0.9383118
36	0xbee81dda	-0.45335275
37	0x3efdda35	0.4958054
38	0xbf19aaf4	-0.6002648
39	0xbf0ed0f5	-0.55787593
40	0xbecec366	-0.40383452
41	0xbea89e59	-0.3293331
42	0x3e1cebe6	0.15324363
43	0x3dec94bc	0.11551806
44	0xbf0ebd51	-0.55757624
45	0xbf1f2a5a	-0.62174
46	0xbe2224ec	-0.15834397
47	0x3ddfd60d	0.10929499
48	0xbebb9911	-0.36640218
49	0xbeaf795d	-0.3427228
50	0xbed1348e	-0.4086041
51	0xbc42e3b0	-0.011895105
52	0x3eb01b40	0.3439579
53	0xbeaf6aa0	-0.34261036
54	0xbeccebc4	-0.40023625
55	0xbe7551ab	-0.23956935
56	0x3e7f9cd3	0.24962167
57	0xbeea323e	-0.45741457
58	0xbee05521	-0.43814948
59	0xbd623722	-0.05522836
60	0xbd8c7143	-0.068575405
61	0xbdbc9bf8	-0.09209436
62	0xbededa2f	-0.43525836
63	0xbf129f44	-0.5727427

out.weight f4 [10, 64]
0	0xbfd47250	-1.6597385
1	0x3d782e12	0.06059081
2	0xc0892382	-4.2855844
3	0xc064a6e1	-3.5726855
4	0xbd2ab9bb	-0.041681033
5	0xbc26107f	-0.010135769
6	0x3fcb830b	1.5899366
7	0xbea2a78e	-0.3176846
8	0xc0464c58	-3.0984097
9	0x3d90e6df	0.07075285
10	0xbf65105b	-0.8947808
11	0xbd23b058	-0.039963096
12	0x40d2db65	6.5892816
13	0xbcfea0c1	-0.031082513
14	0xc01cb9a7	-2.4488313
15	0xbd84d823	-0.06486537
16	0xbedca4a4	-0.4309436
17	0x401453bd	2.317611
18	0xbe40e024	-0.18835503
19	0xc01d2242	-2.455216
20	0x3d105ac5	0.035242815
21	0x40bf55b1	5.9792104
22	0xbfa7d0ec	-1.3110633
23	0xbf499a91	-0.78751475
24	0xbd3d23de	-0.046176784
25	0x4022d1ec	2.5440626
26	0x40a5d470	5.1821823
27	0x3f1b4488	0.60651445
28	0x4020a1cd	2.5098755
29	0xbde90770	-0.11378372
30	0x3ed147b9	0.40875033
31	0xbee8b245	-0.4544851
32	0x3fe7a862	1.8098261
33	0x400f0119	2.234442
34	0x402cbb91	2.6989481
35	0xbf280477	-0.6563181
36	0xc06fdcaa	-3.7478433
37	0x3eb5bc5a	0.35495263
38	0x3ff01734	1.8757081
39	0x3fa8e3d9	1.3194534
40	0xc0cb3755	-6.3505044
41	0xbf8376b7	-1.0270604
42	0x3e4f51b4	0.20246011
43	0xbd91c786	-0.07118134
44	0x40b02102	5.5040293
45	0xbf9b994d	-1.2156159
46	0x40671f2c	3.6112776
47	0x3cc5e9b4	0.02415929
48	0x3cb07b93	0.0215433
49	0x4091712b	4.5450644
50	0xbf62986b	-0.8851382
51	0x3fdbc796	1.7170284
52	0x3f58a3dc	0.8462503
53	0x4066eeb8	3.6083202
54	0xc003e340	-2.0607452
55	0x40acd447	5.400913
56	0x3ec39263	0.38197622
57	0x400d74ea	2.2102609
58	0x4047ab37	3.1198251
59	0x40961636	4.6902113
60	0x40cda8dc	6.4268627
61	0x402f580a	2.7397485
62	0xc042e3c7	-3.0451524
63	0x40b41da8	5.62862
64	0x3fa3bb5c	1.2791553
65	0xbd81b4bb	-0.063333
66	0xbf9a1682	-1.2038119
67	0xbf0e8dbe	-0.5568503
68	0xbc28c99a	-0.010301972
69	0x3d642ad9	0.055704925
70	0xbf6042b5	-0.87601787
71	0xbf5479dd	-0.8299845
72	0xc023f0a4	-2.5615625
73	0x3e78cc2e	0.24296638
74	0xbd931432	-0.07181586
75	0xbcce636a	-0.025193889
76	0x3f679a81	0.9047013
77	0xbf0d0542	-0.5508615
78	0x40e5a021	7.175797
79	0xbd277b2d	-0.040888954
80	0xbda4ae02	-0.08041002
81	0xc01350e9	-2.3018134
82	0x3f5fb5d0	0.873868
83	0xbeedbfee	-0.46435493
84	0x3f329c66	0.69769895
85	0x3fa3cad9	1.2796279
86	0x40e52ddf	7.1618495
87	0x4079e25c	3.9044409
88	0x3d6896ca	0.05678443
89	0xc0858244	-4.1721516
90	0x4031aaf0	2.7760582
91	0xbf210b0c	-0.6290748
92	0xc0cd647a	-6.418515
93	0xbd8b9236	-0.06814997
94	0xbec2d552	-0.38053375
95	0x3e8bc095	0.27295366
96	0xc0236a5a	-2.5533662
97	0xc0c88d99	-6.267285
98	0xc049a599	-3.1507323
99	0xbe0b5947	-0.13608275
100	0xc102f4be	-8.1847515
101	0xbea64b2f	-0.32479236
102	0x3fd180c8	1.6367426
103	0xc0348d99	-2.8211424
104	0x3f30420d	0.68850785
105	0xbdfd9f89	-0.123839445
106	0xbe3109cb	-0.17288892
107	0xbd0c1154	-0.034196213
108	0xc0cb5c9d	-6.3550553
109	0xbfc4286d	-1.5324837
110	0x3fca5975	1.580855
111	0x3f928fb8	1.145011
112	0x3cc384de	0.023867067
113	0x401b9a9a	2.4313111
114	0xbff62b42	-1.9231951
115	0xbf678778	-0.90441084
116	0x3e4eafa5	0.2018419
117	0xbfd7b26d	-1.6851326
118	0x3faad8bb	1.3347391
119	0xc06b6157	-3.6778162
120	0xbdacc2ae	-0.0843557
121	0x40d60fa0	6.6894073
122	0x3fd0fba0	1.632679
123	0x3f36be77	0.71384376
124	0xbeddc990	-0.43317842
125	0xc09fa7e9	-4.989247
126	0xbcdc93ca	-0.02692594
127	0x4014058c	2.3128386
128	0xc0388d1b	-2.8836124
129	0x3e45ad99	0.19304504
130	0x3ff39b09	1.9031688
131	0x408b6a20	4.3567047
132	0xbd83bfcc	-0.06433067
133	0xbeef79a9	-0.46772507
134	0x407e8e49	3.9774344
135	0x3f0b8fc9	0.54516274
136	0x4106f0cf	8.433791
137	0xbbbb0561	-0.0057074283
138	0x40687858	3.6323452
139	0xbdb3d737	-0.08781283
140	0x40d59fde	6.675765
141	0x3edb5e5b	0.42845425
142	0x401b9490	2.4309425
143	0xbdf65706	-0.12028317
144	0xbfcc6887	-1.5969399
145	0xbcdbdaae	-0.026837673
146	0x3f78c0ee	0.9716939
147	0x40a2d972	5.0890436
148	0xbf12f9ce	-0.5741242
149	0xbfa1a02c	-1.2627006
150	0x3dded62b	0.10880693
151	0x3e830f98	0.25597835
152	0xbe139537	-0.1441239
153	0xbfc22e57	-1.5170392
154	0xbfd5eb85	-1.67125
155	0x3feb545e	1.8385122
156	0xbc193d69	-0.00935302
157	0xbe5313e4	-0.20613056
158	0x3e4b7ae2	0.19871095
159	0xbeeae7de	-0.45880026
160	0xc0ca67d2	-6.3251734
161	0x3f7b8fd5	0.98266345
162	0xbf500b36	-0.81267107
163	0xc07cede5	-3.95202
164	0xbfccb789	-1.599351
165	0x3e8989e1	0.26863006
166	0xc00a375c	-2.1596289
167	0xbf011799	-0.5042663
168	0x400d9b36	2.2125983
169	0xbf181aeb	-0.59416074
170	0x3f109dd0	0.564908
171	0xbdfa8479	-0.122322984
172	0xbfaa2bac	-1.3294578
173	0x3f5bf81b	0.85925454
174	0xbc77ee85	-0.015132551
175	0x400819d9	2.1265776
176	0x3d830f94	0.06399456
177	0x40852c53	4.1616607
178	0x40b4d269	5.650685
179	0x3fc14de4	1.5101895
180	0xbead45ee	-0.33842415
181	0xc0c478ee	-6.139762
182	0x3f30f46e	0.6912297
183	0x40b56003	5.66797
184	0x3f334ae8	0.7003617
185	0x3fe89d89	1.8173076
186	0xc09452dd	-4.635115
187	0x3fa66d8f	1.3002185
188	0x40052f44	2.0810099
189	0x3fc717e1	1.5554162
190	0xc0a78c87	-5.235904
191	0xbfa2a7cb	-1.2707456
192	0x40caf4c1	6.342377
193	0x3d134398	0.035953134
194	0x3fe03f21	1.7519265
195	0x40295630	2.6458855
196	0xbd8d9c66	-0.06914596
197	0x3fe34a02	1.775696
198	0xc09830bf	-4.7559505
199	0x3e4a6005	0.19763191
200	0x3f9fb959	1.2478439
201	0xbdcda531	-0.100412734
202	0x40777b82	3.8669133
203	0xbddb51fb	-0.10708996
204	0xbfe9f434	-1.827765
205	0x3dee167e	0.11625384
206	0xbfca4e59	-1.580516
207	0x3f463f00	0.7743988
208	0x3e1e7d66	0.15477523
209	0xbf101362	-0.56279576
210	0xbe8a65fd	-0.27030936
211	0x3d504d81	0.050855163
212	0xbe02234d	-0.12708779
213	0xbf5ed87d	-0.87049085
214	0xc0526dc6	-3.28795
215	0xbf337f3f	-0.7011604
216	0xbcc1af00	-0.023643017
217	0xc0563b14	-3.3473558
218	0xbe989391	-0.29800084
219	0xbf31b1c5	-0.6941188
220	0x4023f76f	2.5619771
221	0xbe8e1e50	-0.27757502
222	0x3f8b384b	1.0876554
223	0xbdc4ca8b	-0.096089445
224	0x3eed2ce9	0.46323326
225	0xbf9c9219	-1.2232085
226	0x408831f3	4.2560973
227	0xc09cca9e	-4.8997335
228	0xc030017c	-2.7500906
229	0xbe3f21e0	-0.18665266
230	0xbfc9ebb9	-1.5775062
231	0x400062c9	2.0060294
232	0x3f774741	0.965931
233	0xc01e5317	-2.4738214
234	0xbfc22197	-1.5166501
235	0xbe328b90	-0.17436051
236	0x3f13d847	0.5775189
237	0xc0c64241	-6.1955876
238	0x408de845	4.434603
239	0xbf2de98e	-0.679345
240	0x3d53e8f1	0.051735822
241	0x4094ff32	4.656152
242	0x3f136298	0.5757232
243	0xc063dd47	-3.5603807
244	0xbd5ba8cc	-0.053627774
245	0xc11577e4	-9.34177
246	0x406926c5	3.6429913
247	0xbf46d3ec	-0.7766712
248	0x3e7bd276	0.24592003
249	0xc00bcafb	-2.184264
250	0x4042badb	3.0426548
251	0xbf8d2be1	-1.1029016
252	0xc0a71403	-5.221193
253	0x3ff98c01	1.9495851
254	0xbea29b3d	-0.31759062
255	0x3faf0d33	1.3675903

out.bias f4 [10]
0	0x3d7bec25	0.0615045
1	0x3d282fda	0.04106126
2	0x3ddfb3fb	0.109230004
3	0x3e15811d	0.14600034
4	0x3d82abd6	0.06380431
5	0x3dd6e658	0.10493153
6	0x3def840e	0.11695109
7	0x3d327c33	0.043575477
8	0x3e07697f	0.13223837
9	0x3da2ff4e	0.07958852
