exps/regularModelExperiments/pretrainedmodels/neuralBalanceModel2.pt (torch, 973831 bytes, 8 tensors)

fc.weight f4 [256, 784]
000000 c5 e1 ef b9 84 ef 98 3a 47 14 cf b9 06 9d 82 ba
       -0.00045753844 0.0011668061 -0.00039497224 -0.000996501
000010 fc c8 27 ba b0 61 e8 b9 e5 55 8d 3a b8 30 43 ba
       -0.00064004934 -0.0004432327 0.0010783045 -0.00074459193
000020 de 6e 90 ba 23 de 89 38 4f a7 7b ba a4 7a fa b9
       -0.0011019369 6.574045e-05 -0.0009599821 -0.0004777509
000030 55 80 2f ba 21 5d 51 ba 47 6e 91 b9 a9 cc c2 39
       -0.0006694843 -0.00079865946 -0.00027738718 0.00037155047
000040 5d b4 a3 ba c3 3a 4c 3a 26 ec 46 3a 6f 93 48 b8
       -0.0012489666 0.00077907386 0.00075882894 -4.7821024e-05
000050 b5 78 7f 3a 29 d2 dd 38 99 97 9e ba 8f 75 91 3a
       0.0009745465 0.000105772466 -0.0012099623 0.0011097657
000060 22 7e 97 ba 5a 63 77 ba c1 d7 07 3a 44 8c 95 3a
       -0.0011557976 -0.0009437107 0.0005181991 0.00114096
000070 6f 34 97 ba 13 50 63 3a 73 3c 19 36 43 93 0a 3a
       -0.0011536012 0.0008671295 2.2833963e-06 0.0005286226
000080 d5 e2 89 ba ce 4a 6d b9 72 3e 75 ba 6f f5 98 3a
       -0.0010519872 -0.00022629948 -0.00093553134 0.0011669825
000090 e2 9c 3e ba af ec 6a 3a 4b 99 72 3a f9 d3 fe b9
       -0.0007271302 0.000896166 0.000925441 -0.00048604587
0000a0 ab 96 46 ba 12 d0 f6 39 8d 23 8c 38 29 13 f6 39
       -0.0007575552 0.000470758 6.682342e-05 0.00046935052
0000b0 7b ef 14 3a fc f9 9e ba 59 21 a2 b9 0f db 45 ba
       0.00056814373 -0.0012128945 -0.00030923894 -0.0007547596
0000c0 c6 e7 8a ba 0a 60 be 38 64 ee 9b 3a 8d 14 68 ba
       -0.0010597638 9.077795e-05 0.0011896607 -0.000885316
0000d0 10 29 02 39 03 12 70 ba d9 0f 99 ba d3 f7 00 ba
       0.00012413063 -0.00091579574 -0.0011677697 -0.0004919741
0000e0 cb 68 fa 39 77 ef 58 ba c4 06 07 ba b7 0f 0b 39
       0.00047761793 -0.0008275429 -0.00051508495 0.00013261927
0000f0 63 13 a3 3a f4 0c 91 ba 0b 65 87 3a da 05 80 ba
       0.0012441691 -0.0011066482 0.0010329796 -0.0009767369
000100 b3 1f 27 3a c3 ca 58 39 fe d0 0d bb 06 1f 25 bb
       0.0006375268 0.000206749 -0.0021639462 -0.0025195493
000110 72 90 0f bb e1 3b b0 ba 2c 93 b4 ba 85 12 08 bb
       -0.0021906164 -0.001344558 -0.0013776771 -0.0020762992
000120 55 da 53 bb 28 7e 17 bb 04 f7 44 bb 45 00 47 bb
       -0.003232618 -0.0023115966 -0.003005446 -0.003036515
000130 e7 3c 36 bb a0 f9 99 ba ef 67 87 ba fe 06 41 bb
       -0.0027807297 -0.0011747368 -0.0010330657 -0.002945363
000140 cd 68 c2 ba 79 fc 26 bb 2a 7a 78 39 d9 59 c5 37
       -0.0014832258 -0.0025480075 0.00023696633 2.3526069e-05
000150 af 08 1b ba f7 9a 57 ba 7b 00 49 3b e1 54 04 3b
       -0.0005914075 -0.00082246907 0.0030670452 0.0020192193
000160 ea bb 2e 3a 40 c1 42 39 59 6d 26 38 37 ed 10 3a
       0.00066655746 0.00018573273 3.9679322e-05 0.0005528512
000170 34 07 38 bb 4b 7a ab ba a8 09 9c ba 7a 09 7c ba
       -0.0028080465 -0.0013082711 -0.0011904733 -0.0009614449
000180 41 70 25 bb e1 85 70 ba d3 f8 4b bb f8 49 2f bb
       -0.002524391 -0.0009175223 -0.0031123653 -0.002674697
000190 a8 42 10 bb f3 1a 06 bb 18 33 31 bb be e3 b4 ba
       -0.0022012386 -0.002046284 -0.002703851 -0.0013800783
0001a0 5f bc 2e bb 49 76 3f bb 82 54 38 bb b4 47 72 ba
       -0.002666257 -0.002921479 -0.0028126542 -0.0009242252
0001b0 42 7e 0d bb 7d 8b 28 ba ce be 9e 3a 13 c1 8d b9
       -0.0021590148 -0.0006429477 0.0012111308 -0.00027037467
0001c0 d8 34 9f 3a f7 2c 5c ba 0d ba 34 3b 22 75 02 3b
       0.0012146486 -0.0008399034 0.0027576715 0.0019906242
0001d0 a4 39 94 ba c9 14 2d 3b 5e 0a af 3a d7 6b d9 ba
       -0.0011308682 0.0026410094 0.001335453 -0.0016587925
0001e0 07 08 ee ba 81 de 95 ba 2a 0e d0 ba 72 05 18 bb
       -0.0018160351 -0.0011434109 -0.0015873362 -0.0023196605
0001f0 71 77 11 bb ab a4 08 bb 5f 61 4d bb 75 4e a4 ba
       -0.0022196437 -0.0020850103 -0.0031338555 -0.0012535589
000200 8c 98 43 bb 2a 89 88 ba f4 eb f3 ba c8 48 f6 ba
       -0.0029845564 -0.0010416855 -0.0018609748 -0.0018790001
000210 70 ba ea ba db f9 e2 ba 95 dd 05 bb 29 e8 7f ba
       -0.0017908346 -0.0017316894 -0.0020426263 -0.00097620726
000220 b0 8b fb ba 1d 19 ed ba 77 21 f0 ba d0 73 b9 38
       -0.001919141 -0.0018089149 -0.001832052 8.843059e-05
000230 74 4e 7e b9 e6 86 1c 39 97 9e 0b 3b f9 25 89 b9
       -0.00024252554 0.00014927573 0.0021304244 -0.00026158968
000240 bb 6c 8d ba 66 74 57 bb 4f f3 83 ba 79 2f e4 ba
       -0.001078985 -0.0032875775 -0.0010067018 -0.0017409167
000250 de 08 07 bb 53 ce 9e ba a2 48 fd ba d3 90 31 bb
       -0.002060465 -0.0012115933 -0.0019324014 -0.0027094379
000260 3a 1f da ba 09 f7 fa ba 15 36 2a bb 61 03 13 bb
       -0.0016641386 -0.0019147109 -0.0025972177 -0.0022432434
000270 6e b9 4e bb 14 c4 be ba e8 c3 3f bb c3 64 18 bb
       -0.003154363 -0.0014554285 -0.0029261056 -0.0023253418
000280 77 19 2b bb dc 14 b7 ba bb 95 50 bb 08 63 57 bb
       -0.0026107708 -0.0013968009 -0.0031827528 -0.0032865424
000290 41 2c 46 bb e6 3c 89 ba 06 cd ca ba 36 ef 22 3a
       -0.003023878 -0.001047042 -0.0015472479 0.0006215455
0002a0 b5 74 7c 3a a6 65 0d ba 21 69 8d 3a ea 65 99 3a
       0.0009630428 -0.000539387 0.0010788777 0.0011703346
0002b0 58 42 a6 ba a1 bf b0 ba 87 b0 21 bb 25 42 45 bb
       -0.0012684567 -0.0013484844 -0.002467187 -0.003009924
0002c0 44 50 ef ba 82 22 30 bb 34 c4 06 bb 59 68 f2 ba
       -0.0018258174 -0.0026876037 -0.0020563724 -0.0018494233
0002d0 3d 8b 50 bb fb 38 0d bb 5c c8 4c bb 8d 66 1d bb
       -0.0031821274 -0.0021548856 -0.0031247353 -0.0024017424
0002e0 10 83 2f bb 3b 61 95 ba a9 78 9d ba 34 18 7c ba
       -0.0026781 -0.0011396775 -0.0012014109 -0.00096166437
0002f0 df f4 87 ba eb 81 bf ba ff e3 35 bb 86 a3 0a bb
       -0.001037266 -0.0014610862 -0.0027754304 -0.0021154596
000300 de 24 33 bb 56 aa 41 bb 26 3f a4 ba ed c1 d6 38
       -0.0027335207 -0.002955099 -0.0012531027 0.00010240437
000310 3e 1e dd 39 02 fe 6b 3a 0d ea dd 39 e5 2c 85 3a
       0.00042174937 0.00090023887 0.00042326786 0.0010160474
000320 ab 19 c6 ba 29 64 be ba a9 da f6 ba 87 c8 49 bb
       -0.0015113851 -0.00145257 -0.0018833476 -0.003078969
000330 f5 2b f7 ba af 8e 37 bb 15 7c b8 ba a1 3c b6 ba
       -0.0018857705 -0.002800863 -0.0014075065 -0.0013903567
000340 c1 b1 0d bb bd 14 d3 ba 58 e7 f3 ba 6f 9f ab ba
       -0.0021620842 -0.0016104203 -0.0018608375 -0.001309378
000350 6b 05 9b ba 5c b7 36 bb 1a 00 49 bb 6b e5 20 bb
       -0.0011827176 -0.0027880287 -0.0030670227 -0.0024550806
000360 cb f1 25 bb 53 69 42 bb 89 bc 44 bb bf 7f 90 ba
       -0.0025321122 -0.002966483 -0.0030019602 -0.00110244
000370 db a1 b0 ba cf 9d 97 ba a5 c2 7d ba ca 8f 9a 3a
       -0.0013475971 -0.0011567416 -0.00096801884 0.001179212
000380 ee 57 5c 39 27 99 64 ba c3 ba 51 ba f9 74 2e ba
       0.00021013591 -0.0008720331 -0.0008000547 -0.00066550035
000390 ca 68 39 3b 15 e8 15 3b 3e 63 47 bb a8 d2 a0 ba
       0.002829122 0.0022873927 -0.0030424143 -0.0012269812
0003a0 37 b1 57 bb 04 48 58 bb 44 27 58 bb 33 76 50 bb
       -0.0032912025 -0.003300191 -0.0032982389 -0.0031808733
0003b0 35 fc a3 ba 4d 35 50 bb 59 2a 23 bb 63 2b 63 bb
       -0.0012511077 -0.003177005 -0.0024897067 -0.0034663312
0003c0 b6 1c 28 bb 65 cc 4d bb d1 7e c5 ba 30 53 16 bb
       -0.0025651879 -0.0031402346 -0.0015067701 -0.0022937767
0003d0 c1 c8 74 ba 90 85 e9 ba 3c c2 48 bb 4f cb 22 bb
       -0.0009337776 -0.0017816294 -0.003063335 -0.002484042
0003e0 b0 e2 4b bb d8 00 87 ba 6a c1 13 bb f7 bb 26 ba
       -0.0031110458 -0.0010299934 -0.0022545704 -0.00063604064
0003f0 e6 10 94 b9 0b fe 27 ba 91 41 6c b9 5f ef 97 b9
       -0.0002824135 -0.00064084 -0.00022531139 -0.0002897931

fc.bias f4 [256]
000000 9e be 94 bd 51 b6 55 bd e9 93 b9 bd 99 ca 7d bf
       -0.0726292 -0.052175824 -0.09061415 -0.99137264
000010 9d 29 2f bc 98 4d ac bc 41 07 36 bc 26 4d 95 bd
       -0.010691074 -0.021033093 -0.011110128 -0.072901055
000020 94 b7 3d bd a8 fa 5d bd f7 96 65 bd d0 b7 60 bd
       -0.046317652 -0.054194123 -0.056052174 -0.054862797
000030 16 89 3f bd c7 a9 8f bd 46 ca 12 bd ec c6 23 bd
       -0.046761595 -0.07014804 -0.035837434 -0.03998463
000040 e5 9b 32 bd 0f 16 34 bd ca d7 de bd 10 b4 8c be
       -0.043605704 -0.04396635 -0.10881002 -0.27481127
000050 a2 04 32 bd eb ac c9 bf da 0b 2b bd ee c9 86 bd
       -0.04346145 -1.5755895 -0.04175935 -0.06581484
000060 59 ca a0 bd 2c 2a 99 bd 4b 7d 57 bd 43 ed 98 bd
       -0.07851095 -0.07478747 -0.052609723 -0.07467129
000070 c3 8e 5e bd cf 35 e8 3d 38 c6 09 bd ae bc 3c bd
       -0.054335367 0.11338388 -0.0336363 -0.046078376
000080 2b 46 10 bd 4e 2c 15 bd ff 9e 97 bd d4 d0 8e bc
       -0.035223167 -0.036419205 -0.07403373 -0.017433561
000090 a8 7a ba bd 2b b6 96 bd 04 50 0a bd 7f 3c c4 bd
       -0.09105426 -0.073589645 -0.033767715 -0.09581851
0000a0 1e 29 a3 bd dc 9c b9 bd 03 8b 52 bd 2a bb a9 bd
       -0.07966827 -0.09063122 -0.051402103 -0.08287652
0000b0 89 8a 31 bd 9f c2 ac bd 43 f7 d7 be 17 1d ac bd
       -0.043345008 -0.084355585 -0.42180833 -0.08403986
0000c0 a4 33 c9 bd 5d 54 8c bd 37 12 bb bd 8b ca 5f bc
       -0.09824303 -0.068520285 -0.091343336 -0.01365913
0000d0 24 49 c3 bd 53 83 43 bd 00 dc 85 bd 7a fe 46 bd
       -0.09535435 -0.047732662 -0.06536102 -0.04858253
0000e0 b2 02 39 bd c5 b3 54 bd 77 80 4d bd b5 30 92 bd
       -0.045168586 -0.051929254 -0.05017134 -0.071381964
0000f0 e3 c0 5c bd b3 7c 32 bd 84 d9 11 bd fa 94 68 bc
       -0.05389489 -0.043575954 -0.03560783 -0.014195675
000100 25 48 59 bd 18 84 4e bd c2 58 55 bd e4 3f 5c bd
       -0.053047318 -0.050418943 -0.0520866 -0.05377187
000110 ad 10 39 bd 36 1a 7b 3f 7c 1e 86 bd d3 5e 39 bc
       -0.04518192 0.9808687 -0.06548783 -0.011314112
000120 14 28 96 bd 4f 00 25 bf c2 be a8 bd 84 60 c1 bc
       -0.07331863 -0.64453596 -0.08239509 -0.023605593
000130 06 41 e8 bc c7 cf 78 be 47 7b b3 3f 18 32 28 bd
       -0.028351318 -0.24298011 1.4021996 -0.041063398
000140 be 1d 4b be f8 a3 85 bd d7 23 a5 bd f9 46 c9 bc
       -0.19835564 -0.06525415 -0.080634765 -0.024569975
000150 82 8d 31 bd 85 87 46 bd 38 b4 40 bd 65 41 3b bd
       -0.043347843 -0.048469085 -0.04704687 -0.045716662
000160 01 f3 40 bd 2a 73 dd bc 64 6f 1f bd 09 92 b0 bc
       -0.047106747 -0.027032454 -0.03892459 -0.02155401
000170 9e c8 6a bd 15 ec ac bc f7 68 8f bd 1f f8 16 bd
       -0.05732023 -0.021108666 -0.07002442 -0.03685772
000180 b2 8d a2 bd 30 0a 50 bd fb 55 77 bd 6c be 3e bd
       -0.079371825 -0.050790966 -0.06038473 -0.04656832
000190 e9 9a 22 bd 99 85 9d bd e6 ac ff bc 9a 52 15 bd
       -0.039698515 -0.07691497 -0.031210374 -0.036455728
0001a0 35 84 0d be 2a 6d 5b bd 51 89 b9 bd 1f 29 a7 bd
       -0.13819964 -0.053570904 -0.09059394 -0.0816214
0001b0 87 0f 58 bd 72 ba 11 bd 18 a5 50 bd b1 b2 1d bd
       -0.052749183 -0.0355782 -0.050938696 -0.03850049
0001c0 d9 dd 74 bd db 1b 25 bd 24 55 1a bd 52 fc ce bc
       -0.059781883 -0.04030977 -0.037678853 -0.0252668
0001d0 fa 71 af bd 29 00 08 bd b2 b0 9c bd 0d 39 22 bd
       -0.08566661 -0.033203278 -0.076508895 -0.03960519
0001e0 58 a1 63 bd 0b 82 44 bd 89 d6 9f bc c0 6b 1c bd
       -0.05557379 -0.04797558 -0.019511478 -0.038188696
0001f0 37 2c ba bd 04 dc 3e bd 33 a7 9c bd 12 8a 40 bd
       -0.090904646 -0.046596542 -0.07649078 -0.047006674
000200 ec 08 a2 bd a3 8e 9a bd 35 9f e2 bc e0 3c 74 bd
       -0.07911858 -0.07546737 -0.027663806 -0.059628367
000210 af da d5 bc c0 35 96 bc 7d fe 92 bd 26 b2 88 bd
       -0.026105253 -0.018336177 -0.07177446 -0.06674604
000220 f5 b2 a6 bd a9 dc e5 bf 45 dd 55 bd 4e d4 79 bd
       -0.08139602 -1.7957965 -0.052212972 -0.060993485
000230 78 69 c6 bc e8 55 9e bf 83 e5 8c bd 99 0d 90 bd
       -0.024220213 -1.2369967 -0.068797134 -0.070338435
000240 2b aa b9 bd 40 ec 1d bd b7 16 2a bd 3a fc 70 bd
       -0.0906566 -0.038555384 -0.04152557 -0.058834292
000250 af ad 90 bd 85 a5 a9 bd ad b1 45 bd 30 6a 61 bc
       -0.070643775 -0.082835235 -0.048265148 -0.013758227
000260 e2 65 73 bd df 41 2d bd 61 d7 8f bd f0 2a 96 bc
       -0.059423335 -0.042299148 -0.07023502 -0.018331021
000270 6a 8a 99 bd 36 86 3a bd b9 0d 0c bd d8 70 f2 bb
       -0.074971035 -0.04553815 -0.034192774 -0.007398706
000280 dc 75 00 bd 18 0e 66 3f 1d 13 cb bd b6 81 3e bd
       -0.0313624 0.89865255 -0.09915755 -0.04651042
000290 87 cc 91 bf ea 10 59 bd 11 b3 8e bd 66 6f 0f bd
       -1.1390542 -0.052994646 -0.06967748 -0.035018347
0002a0 2b 4c eb bc 05 5d b6 bd 80 a5 68 bd c0 1f ab bd
       -0.028722843 -0.08904461 -0.056798458 -0.08355665
0002b0 2e 4c 7c be 3a 6e 96 bd e1 71 b2 bd 7b a0 87 bd
       -0.24638435 -0.07345243 -0.08713127 -0.06622406
0002c0 70 2e 92 bd 3e de c6 bd 34 f8 12 bd 08 37 57 bd
       -0.071377635 -0.09710358 -0.035881236 -0.052542716
0002d0 00 21 4d bd c7 db 13 bd f7 56 bb bd 0d 97 c1 bd
       -0.0500803 -0.036098268 -0.091474466 -0.09452639
0002e0 de 2c fb bc a7 82 88 bd 64 a6 a0 bd c4 d0 2a bd
       -0.030661043 -0.06665545 -0.078442365 -0.041703
0002f0 a6 f6 06 bd d5 60 47 bd f3 75 ce bc 91 9c 65 bd
       -0.032950066 -0.04867633 -0.025202727 -0.056057516
000300 1d c8 9b bd 2c b4 52 bc e7 62 4f bd b5 39 a9 bd
       -0.07606528 -0.012860339 -0.05063143 -0.0826296
000310 c7 c9 91 bc 6f 30 c3 3f 4b cf 70 bd eb fe 06 bc
       -0.01779641 1.5249156 -0.05879144 -0.008239488
000320 48 fc 0c bd 52 da c3 bd d4 8d e3 bd 05 41 89 bd
       -0.03442028 -0.09563126 -0.11111036 -0.067018546
000330 5a 89 96 bd 1a 4d 67 bd 80 28 19 bd 09 61 84 bd
       -0.073504165 -0.056470014 -0.03739214 -0.064638205
000340 e0 56 be bd 39 04 e6 bd 12 ef 03 c0 9c 76 b5 bd
       -0.09293914 -0.11231274 -2.0614667 -0.088605136
000350 a7 40 9c bd 94 d4 ff bc a7 e9 14 be db bf ae bd
       -0.07629519 -0.031229295 -0.14542256 -0.08532687
000360 1f 5e 76 bc 11 6a 4a bd 2e 8d b1 bd 10 fe 99 bd
       -0.015037089 -0.04941756 -0.08669506 -0.07519162
000370 f0 1b 14 bd 6c 49 2f bd 3c cb 24 bd 19 53 f8 bc
       -0.036159456 -0.04279463 -0.040232882 -0.030313062
000380 88 56 35 bd 5d 89 27 bd 8b 69 81 bd 8f ef 8e bd
       -0.044271976 -0.040902484 -0.06318959 -0.06979286
000390 6b 4f aa bd d3 19 67 bd b4 f3 00 be 4d d0 8c bd
       -0.08315929 -0.056421112 -0.12592965 -0.06875668
0003a0 f8 d5 ba bd 56 43 a0 bd 78 4f 12 bd 49 df 75 bd
       -0.091228426 -0.07825343 -0.03572032 -0.060027394
0003b0 e2 c9 4c bd d9 cf d9 bc fb 31 5e bd 41 7d 73 bd
       -0.049997218 -0.026588367 -0.054246884 -0.059445623
0003c0 48 28 32 bd e8 88 22 40 ea f1 95 bd e6 90 42 bd
       -0.043495446 2.539606 -0.07321532 -0.047501467
0003d0 15 d4 79 bd ec e7 89 bd df 34 5f bc 3b 10 0c bd
       -0.060993273 -0.06733689 -0.013623445 -0.034195166
0003e0 4d ff 5b bc 2a 4c 5e bd f1 dd bb bc e2 e2 99 bd
       -0.013427568 -0.054271854 -0.022932978 -0.075139776
0003f0 45 2a 51 bd d4 16 07 bd 44 ff 79 bd cc cd 56 bd
       -0.051065702 -0.032980755 -0.061034456 -0.052442357

fc1.weight f4 [128, 256]
000000 21 87 10 b9 aa f1 1e b9 d7 61 2b 3b ad c6 55 bf
       -0.0001378325 -0.00015158081 0.0026150846 -0.8350628
000010 b8 e2 45 bb 9d b3 d1 b9 aa 36 d5 ba ad bd 63 bb
       -0.003019495 -0.0003999741 -0.0016266902 -0.0034750507
000020 36 72 aa 39 fc ef ad ba 0c 90 b3 ba 51 52 03 3b
       0.0003251002 -0.0013270373 -0.0013699546 0.0020038078
000030 8d 9a 14 bb f0 eb 35 bb e6 62 7b bb 54 f0 9c 3a
       -0.0022675127 -0.0027759038 -0.0038358509 0.0011973479
000040 c2 2f 82 bb 11 da 7b 3b 07 0d e4 3a 11 cb 6e bf
       -0.0039729783 0.0038429538 0.0017398902 -0.93278605
000050 8b eb 66 bb 16 f3 b6 bf 23 8b dd ba 97 d5 64 bb
       -0.003523561 -1.4292934 -0.0016902428 -0.0034917349
000060 65 de 28 3a a0 3a 8f 37 8c b4 d5 b9 d6 7d d4 ba
       0.0006441831 1.7074228e-05 -0.00040761044 -0.0016211818
000070 29 db 17 bb 01 87 23 c0 e6 a2 72 bb 8e 86 19 3b
       -0.00231714 -2.555115 -0.0037023365 0.0023426148
000080 5b 54 4a bb 7b e7 a0 ba fb 4e 82 bb 32 2f b3 39
       -0.0030873034 -0.0012276018 -0.0039767004 0.00034176704
000090 df 62 4f bb 3c 43 06 ba 70 f1 14 ba f6 05 a2 b9
       -0.0031644625 -0.0005121713 -0.0005681729 -0.0003090349
0000a0 eb d3 06 bb 20 a3 70 3b 24 b4 07 bb 1b 90 09 bb
       -0.002057309 0.0036718324 -0.0020706737 -0.0020990435
0000b0 c8 e0 6c 3b a5 82 01 b9 fc 0d 19 c0 8c ca 66 3a
       0.0036144722 -0.00012351068 -2.3914785 0.00088039855
0000c0 9b 26 67 3b 0c ea 2e bb c5 37 2c bb f9 63 62 bb
       0.0035270813 -0.0026689796 -0.0026278358 -0.0034544452
0000d0 7b 8e f2 3a f5 09 6d bb 07 29 4a bb 1b 79 03 bb
       0.0018505597 -0.0036169265 -0.0030847208 -0.0020061198
0000e0 7f 9f 20 bb 40 df d0 b8 24 b9 9f b9 5b 6d 04 bb
       -0.002450913 -9.9597964e-05 -0.00030464784 -0.0020206783
0000f0 f1 ad e5 3a e5 72 61 ba 94 8e f6 ba 3d 78 08 bb
       0.0017523152 -0.00086001895 -0.0018810802 -0.002082362
000100 34 85 17 bb 83 26 3a bb 1c 03 9d ba a1 80 91 bb
       -0.0023120167 -0.0028404302 -0.0011979076 -0.0044403826
000110 37 09 6a bb 98 ae a9 bf 98 a3 49 bb 7c fc b8 39
       -0.003571106 -1.3256407 -0.0030767675 0.0003528333
000120 8b f9 e8 ba 14 23 52 bf d1 aa f5 39 a5 dc 08 bb
       -0.0017774565 -0.82084775 0.0004685731 -0.0020883468
000130 28 bb 2f ba f0 4f 74 3a 59 6c 00 bf e5 7f f4 ba
       -0.00067036087 0.0009319773 -0.50165325 -0.0018653838
000140 3d 3f a2 be ce bd b5 3a 58 31 0b bb 09 9c a7 ba
       -0.31688872 0.001386577 -0.0021239128 -0.0012787591
000150 a5 aa 5f ba 23 69 76 ba 1c 76 84 ba 66 0f 72 3a
       -0.0008532203 -0.0009399822 -0.0010106 0.0009233862
000160 5a 9b 94 3b 5b 40 31 bb 39 5c 54 bb a6 f2 23 bb
       0.004535121 -0.0027046415 -0.0032403602 -0.0025016456
000170 e5 df f9 39 d8 f9 5c bb 4d 94 27 ba c1 ce 05 3a
       0.00047659795 -0.0033718254 -0.0006392643 0.0005104356
000180 fe 6d 37 bb 04 c1 ba ba 18 c9 cc ba 71 ce 5e bb
       -0.0027989144 -0.0014248197 -0.0015623895 -0.003399756
000190 2d f9 82 b9 f9 07 70 bb e6 f0 1a bb ff 98 8e 3a
       -0.00024981183 -0.0036625846 -0.0023642122 0.0010879337
0001a0 0a fa 0c bc 79 69 03 3a ae 1d 1c 3b fe 81 37 bb
       -0.008604536 0.000501297 0.0023821401 -0.0028001065
0001b0 23 05 ab 39 6c 33 87 ba 92 85 f2 3a 56 dd 9c ba
       0.0003261949 -0.0010315008 0.0018502942 -0.0011967819
0001c0 d6 b3 2b ba 86 a7 08 bb 5c 78 43 bb 45 94 18 3b
       -0.000654993 -0.0020851805 -0.0029826378 0.0023281735
0001d0 d2 7e 9e bb e2 69 92 ba 68 3f 54 bb 07 3d bb 38
       -0.0048368955 -0.0011170472 -0.0032386426 8.928222e-05
0001e0 81 24 41 ba 7a f1 12 bb 79 ee 8d ba d6 a8 02 bb
       -0.0007367805 -0.0022421763 -0.0010828517 -0.001993706
0001f0 0f 2a 40 bb 8d 1d 44 bb ea ef 8d 39 1e a9 17 39
       -0.0029321944 -0.002992484 0.00027072366 0.00014463483
000200 17 56 3a bb 6c 27 06 3b f9 5c 90 3b 30 01 bd ba
       -0.0028432661 0.0020470275 0.0044056145 -0.001441991
000210 18 3b 74 3a 4f 51 13 ba 40 67 68 bb cc 48 05 bb
       0.0009316667 -0.0005619721 -0.0035461932 -0.002033758
000220 f1 09 1d ba 40 63 a6 bf 3b 6a cd ba f0 6a 95 bb
       -0.0005990556 -1.2999039 -0.0015671918 -0.004559867
000230 ad 63 f7 ba 83 72 4d c0 68 0a 97 3a db fc 58 3a
       -0.001887431 -3.2101142 0.0011523487 0.00082774245
000240 3c 29 9c ba b4 d5 5d bb f3 d6 bd ba e2 99 57 ba
       -0.0011914144 -0.00338493 -0.0014483616 -0.00082245294
000250 64 d1 4a bb e9 85 1c 3b 2b b5 2a 3b a5 01 eb 39
       -0.003094756 0.0023883528 0.0026047926 0.00044823918
000260 c9 fd 46 bb e3 46 24 3b 41 23 d6 39 2c 3a ca 38
       -0.003036367 0.0025066666 0.00040843527 9.642946e-05
000270 ab d1 80 bb b2 3d de ba e2 c0 cb ba 6f 36 44 bb
       -0.0039312444 -0.0016955642 -0.0015545154 -0.0029939672
000280 e2 c3 20 b9 ea b8 05 c0 6b fe 9a bb 49 c4 a6 39
       -0.00015331761 -2.0894113 -0.004730036 0.0003180823
000290 1c e3 0c 3d 09 8b 52 bb 30 03 8f bb 99 27 0a bb
       0.034396276 -0.0032126328 -0.0043643937 -0.002108073
0002a0 ae 7f 1a bb 65 79 54 3b 41 3e c7 39 1c 53 eb 3a
       -0.0023574638 0.003242099 0.0003800262 0.0017953846
0002b0 8a ec 29 c0 53 4c ce 3a cd 76 7f 3a 6c 50 d7 ba
       -2.6550622 0.0015739299 0.0009745181 -0.0016427166
0002c0 99 c4 19 bb 10 25 1b bb 23 ce 2a bb c8 c1 52 bb
       -0.0023463129 -0.0023673214 -0.0026062808 -0.003215896
0002d0 bd 12 7e 3b 7f 4f 07 3b fc 33 bb 3a 51 aa 34 3b
       0.0038768493 0.0020646749 0.001428246 0.0027567337
0002e0 7b a0 1f 3a e5 c4 01 bb bd e4 38 bb c3 a6 47 bb
       0.0006089282 -0.0019801196 -0.002821251 -0.0030464388
0002f0 3d 6f 9c bb 4a d9 66 b9 ae 2b 98 ba 2b 8f 57 bb
       -0.004774003 -0.00022015456 -0.0011609697 -0.0032891731
000300 23 e7 7a ba c7 80 6a bb e1 d8 ac b9 b8 d4 63 bb
       -0.0009571185 -0.0035782324 -0.00032967984 -0.0034764241
000310 40 2e 0e bb d6 4a 0d c0 be b2 d8 ba 24 45 c5 ba
       -0.0021695048 -2.2076926 -0.0016532762 -0.0015050513
000320 bc 87 12 bb d5 fe 3f b9 da b9 94 bb d3 9a 10 ba
       -0.0022358736 -0.00018310112 -0.004538757 -0.00055162347
000330 37 b7 4f 3b b6 b0 6f 39 9e ed 31 39 57 0e a0 38
       0.0031694898 0.00022858646 0.00016968555 7.6320655e-05
000340 ed 62 c6 ba cb 94 93 bb 9d 38 90 bf 4b 92 5c 3b
       -0.0015135683 -0.0045038215 -1.1267277 0.0033656533
000350 d5 69 9e 39 cc 85 90 ba c2 4d b1 ba 40 31 c4 39
       0.0003021496 -0.0011026203 -0.0013527202 0.00037420727
000360 be 0a 12 bb ee 7b 8f bb 33 bc 17 ba b9 26 66 bb
       -0.0022284235 -0.0043787872 -0.0005788237 -0.0035118295
000370 30 e9 25 3b 43 84 40 bb fd ba 8c 3a 46 50 32 bb
       0.0025315993 -0.002937571 0.0010736879 -0.0027208491
000380 96 b3 72 bb 00 f2 34 3b f5 60 5a 39 d3 d1 8f ba
       -0.003703331 0.0027610064 0.0002082622 -0.0010972567
000390 2e a3 1b 3b ec be 8d ba 4b 95 68 bb c1 de 4e 3b
       0.0023748386 -0.0010814345 -0.0035489376 0.0031565877
0003a0 6f 70 61 bb 01 0b 94 3a ed b9 c1 38 84 64 8b ba
       -0.003439929 0.0011294783 9.2375885e-05 -0.0010634814
0003b0 36 18 f7 ba d8 f5 7b ba e1 ad 88 ba 96 67 ec ba
       -0.001885182 -0.0009611524 -0.0010427797 -0.0018036242
0003c0 cf 3d f2 ba 12 e9 3e bf 11 ec 6c ba 0d ff 80 bb
       -0.0018481555 -0.7457439 -0.0009037862 -0.0039366544
0003d0 34 11 53 bb cb 33 ba ba a1 89 ce b9 d3 6a c7 39
       -0.0032206299 -0.0014206109 -0.00039393923 0.00038035828
0003e0 58 08 09 bb 86 72 2e ba 9c bb 9e ba 67 98 e6 38
       -0.0020909514 -0.00066546386 -0.0012110355 0.00010995642
0003f0 db 22 e1 ba 34 c6 31 3a fc 87 bb ba eb 2f 97 bb
       -0.0017176525 0.0006781549 -0.0014307494 -0.0046138666

fc1.bias f4 [128]
000000 1a 56 e3 be b8 9a 08 bd 0d 19 a7 bd 67 3a 56 bc
       -0.44401628 -0.033350676 -0.08159075 -0.013075448
000010 fb e7 26 bd aa fd 7a bd ee 4c 00 be ce 0e df bf
       -0.040748578 -0.06127707 -0.12529346 -1.7426393
000020 39 47 6a bd 76 25 4f bc 1e 66 c0 be 2c d5 a7 be
       -0.05719683 -0.012643209 -0.3757791 -0.32779825
000030 25 62 03 bf 60 8f 8b bb 5d 9d 83 bf a5 18 ab bd
       -0.5132163 -0.004259035 -1.0282398 -0.0835431
000040 22 04 25 bf 41 1a 0a bd f9 29 5d bf 1f a5 a3 bf
       -0.6445943 -0.033716444 -0.8639217 -1.2784766
000050 75 d3 0d be 80 2d 15 bf f7 b9 ae bd 06 19 e9 3f
       -0.13850196 -0.5827255 -0.08531564 1.8210762
000060 9a 25 82 bf d5 5e 13 bd dd d6 8b ba 6e 6b e3 bd
       -1.0167725 -0.03597911 -0.0010668893 -0.11104475
000070 e6 9a ec bd 46 81 b2 bd 2e 42 49 bf f4 a1 a9 be
       -0.11552982 -0.08716063 -0.7861661 -0.33131373
000080 70 8e 67 bd fa 74 b4 bd 25 fe 34 c0 c8 e9 30 bb
       -0.056532323 -0.08811374 -2.8280118 -0.0026994813
000090 1c 38 4a bf f4 fb e4 bc a9 ab 3d bd d9 1a 54 bd
       -0.78991866 -0.027952172 -0.046306286 -0.051783416
0000a0 9c 5e 80 be 2c 46 7e bc 70 2b 16 3f d9 1b 87 be
       -0.2507218 -0.01551966 0.5866003 -0.26388434
0000b0 25 dc 02 be df c2 22 bc f8 cd 38 be ce be 82 be
       -0.12779291 -0.009934156 -0.18047321 -0.25536197
0000c0 17 eb da bd 82 e3 64 bb 47 c7 f8 bd 51 76 df bb
       -0.10689371 -0.0034925644 -0.12147384 -0.0068195243
0000d0 fe 93 21 bd 1a 46 84 bb 01 75 20 3f 82 74 26 bf
       -0.039447777 -0.004036677 0.62678534 -0.65021527
0000e0 5e fd 09 be f3 69 02 be 12 69 2c bd 5b df 21 be
       -0.13475558 -0.12735729 -0.04209239 -0.1580786
0000f0 c7 47 dc be 90 ef b3 be 85 57 9f bd 5d c3 54 bc
       -0.43023512 -0.3514371 -0.07780365 -0.012986031
000100 59 4b ed be c8 18 3e bd 3e e8 8b 3f 95 bb 3c bd
       -0.46346548 -0.046410352 1.093025 -0.04607733
000110 ff 36 e9 be c5 f5 74 bf 8c aa 88 bf 57 1a 21 be
       -0.4554977 -0.95687515 -1.0677047 -0.15732704
000120 91 44 08 bf dc 93 41 bd ec b3 20 38 53 cf ab bf
       -0.53229624 -0.04726015 3.8314538e-05 -1.3422645
000130 7d 19 11 be 07 5b 63 be 25 af bc bd ec 7d 39 bf
       -0.1416988 -0.22202693 -0.09213094 -0.72457767
000140 af 09 37 bf f0 51 42 3f e4 4f da bd bc 2c da 3d
       -0.7149915 0.75906277 -0.10659769 0.10653064
000150 3a 62 33 bf 77 f2 43 3f ec 69 4f bd 60 26 3a 3f
       -0.70071757 0.76541847 -0.050638124 0.72714806
000160 a5 67 fd bb 5e 48 53 be bd 31 de bd ed c1 95 3f
       -0.0077333027 -0.20633075 -0.108493306 1.1699806
000170 d6 a8 1d bf 1d de 3d bd 22 89 cd be 0d 3f 6b be
       -0.6158575 -0.0463544 -0.40143687 -0.2297327
000180 5e a7 41 bf 95 55 97 bd f0 d4 05 bf 75 9c 58 bc
       -0.7564601 -0.0738937 -0.5227804 -0.013220896
000190 18 a2 6f bb ec 2b b2 bd 86 5f 33 bd 53 ef 06 bf
       -0.0036565121 -0.08699784 -0.04379227 -0.5270893
0001a0 67 4f 17 bd 09 f4 86 be 6c fd dc bc 55 34 c2 bd
       -0.03694096 -0.2635806 -0.02697631 -0.09482638
0001b0 b5 8b 5d be 0c 0b 3c 3d 13 87 58 bb d2 64 96 bf
       -0.21635325 0.045908973 -0.0033039495 -1.1749518
0001c0 05 0c 6f bc b5 56 2d bc de bc 0d bd f0 3d 28 bd
       -0.014590268 -0.010579755 -0.034603946 -0.041074693
0001d0 f6 d3 f3 be 25 11 8f be 44 bb 81 c0 3d 8a 06 bf
       -0.4762265 -0.27942768 -4.0541096 -0.52554685
0001e0 f9 33 da bd 06 46 b9 bd 89 69 50 c0 ea aa 17 bf
       -0.10654444 -0.09046559 -3.2564414 -0.5924517
0001f0 f4 c7 5e bd 97 16 25 bf 62 18 27 bf 90 f4 ab be
       -0.05438991 -0.64487594 -0.6527158 -0.33585024

fc2.weight f4 [64, 128]
000000 38 8d 7f bf de 56 d5 3c 34 99 67 be f0 5d 81 3e
       -0.9982486 0.026042398 -0.22617036 0.2526698
000010 81 df 77 be f3 2e f4 3d 73 03 18 3f e7 92 c3 bc
       -0.24206354 0.11923017 0.59380263 -0.02387376
000020 93 fb 89 3e 99 af 32 bf 0e 10 bb be d2 25 69 bf
       0.26949748 -0.6979919 -0.36535686 -0.91073334
000030 b0 6c 31 bf ff 6f 8a bf d2 50 e9 3e d4 e5 d8 be
       -0.6930647 -1.0815428 0.45569474 -0.42362845
000040 7f 26 00 be b1 49 7b be 1c 39 1c bf 05 99 9e bf
       -0.12514685 -0.2453983 -0.6102464 -1.2390448
000050 9c f7 46 be dc f4 72 3e 35 a7 83 3f 02 e1 61 bf
       -0.19430393 0.23726219 1.0285403 -0.8823396
000060 fa a3 ad be ce 35 47 bf f5 75 75 be 1f 13 45 bf
       -0.33914167 -0.77816474 -0.23970778 -0.769823
000070 65 60 3b be b9 66 47 3c 88 37 13 bf 4a 24 1a 3e
       -0.1829849 0.012170487 -0.5750661 0.15052906
000080 65 c0 61 be d3 28 2e bf 2a 8b c0 bc 9a 01 e5 3e
       -0.22046049 -0.6803104 -0.023503859 0.44727784
000090 81 ef 06 3c 8b 1c 58 bf 08 93 3b 3e fd 67 f1 be
       0.008235813 -0.84418553 0.18317807 -0.4714965
0000a0 a3 46 4c 3d c4 ba 80 3f e3 e4 80 bf cb 7e 09 bf
       0.049872052 1.0056996 -1.0069851 -0.53709096
0000b0 81 31 1a 3e 8d af 11 3e c4 72 09 3d 31 52 44 bf
       0.15057947 0.14227124 0.033556715 -0.76687914
0000c0 dc 26 e8 3e c8 36 c6 be 13 f5 c1 bd 0a f5 f2 3d
       0.45342147 -0.3871367 -0.09470572 0.11863144
0000d0 bf 04 92 3e 15 ad 2b bf 00 49 49 bf cc 8b cf bf
       0.28519246 -0.6706098 -0.78627014 -1.6214538
0000e0 26 d6 1c 3e a8 19 92 be 06 48 bb bb 4d 3f a5 bf
       0.15316066 -0.285352 -0.005715373 -1.2909943
0000f0 f2 2b 55 3f 71 73 ab bf 52 06 37 bf 9b c4 2f 3d
       0.8327018 -1.3394605 -0.7149402 0.042912107
000100 2b 74 76 3d b3 9d 0f 3f d8 d6 cc be f4 a4 8f 3e
       0.06016938 0.56100005 -0.40007663 0.28055537
000110 8a c2 51 bf 27 d5 24 c0 62 58 f7 bd 26 39 43 bf
       -0.8193747 -2.5755098 -0.120774046 -0.76259077
000120 60 fb 08 be 9c 50 57 be cf dc a6 bf af da 51 c0
       -0.13377142 -0.21026844 -1.3036135 -3.2789724
000130 52 8c a4 3e 9d dc 15 3e 78 56 a1 be 81 a1 62 bf
       0.32138306 0.14634939 -0.31511283 -0.88527685
000140 72 01 b3 3c b0 83 2e bf b9 04 73 bf a8 6a 61 bf
       0.021851275 -0.6816969 -0.9492908 -0.8805337
000150 c0 23 2c 3d a3 c1 31 bf 9d 1f b7 be 21 b4 7b 3f
       0.04202628 -0.6943609 -0.35766307 0.9832173
000160 49 92 5a be 14 b6 c5 3e c8 84 c0 bf 59 dd 2a bf
       -0.21344866 0.38615477 -1.5040522 -0.66744
000170 1c 55 b7 3e 99 63 1a bf 85 d2 b3 3e f6 28 f9 bf
       0.3580712 -0.60308224 0.3512155 -1.9465625
000180 dc ae 5c bf 38 5a f3 be d6 d7 a3 bf 24 ad 8e 3c
       -0.86204314 -0.4752977 -1.2800243 0.017416544
000190 65 44 b0 be 70 8f 95 be 6c e7 35 bf c8 e7 29 3f
       -0.3442718 -0.29210997 -0.71056247 0.66369295
0001a0 7b e8 8f 3c 4f f4 49 c0 f6 d3 02 bf 79 0d 8d bd
       0.01756691 -3.1555364 -0.51104677 -0.06887335
0001b0 05 90 db 3e c4 79 90 bf fe 9a e3 be 1e 15 32 bd
       0.42883316 -1.128716 -0.44454187 -0.04347717
0001c0 33 16 28 bf 22 85 b0 bd 81 d9 9c bd 3a 6d 59 3e
       -0.65658873 -0.08619143 -0.07658673 0.21233073
0001d0 9b f1 80 bf 07 65 3e be 61 d9 4b bf 48 76 68 3f
       -1.0073732 -0.18593226 -0.7962857 0.9080548
0001e0 b2 f5 25 bf 53 e4 97 3e f2 7b 21 bd 5c 97 07 3f
       -0.64828026 0.29666385 -0.039424844 0.5296533
0001f0 e4 07 81 bf 92 69 c1 3f 39 f0 55 bf f8 ae dc 3e
       -1.0080533 1.5110343 -0.83569676 0.4310224
000200 0c 6c 00 bd 91 b0 f3 3d 8f cb 14 bd ed ac a7 3d
       -0.03135304 0.11898912 -0.03632694 0.0818728
000210 06 3e 57 bd 52 ac 0b 3d 3f a9 0b be 59 54 97 be
       -0.052549385 0.034099884 -0.13638781 -0.2955654
000220 7a 51 9a bd 1f f3 e3 3e 4e f2 71 be 0a 6d a6 3d
       -0.07535072 0.44521424 -0.23627588 0.08126266
000230 15 33 11 bd ea ef 46 bf 63 13 10 bd 3d 0c a8 3d
       -0.035449106 -0.7770983 -0.03517474 0.08205459
000240 71 05 0d be ed 8f e7 3d 0c 01 bb 3d cd f2 03 3f
       -0.13771607 0.113067485 0.09131059 0.5154236
000250 f2 0b 88 3d 2b 74 fa bd bc 98 84 bd ae 14 ff bd
       0.066429034 -0.122291885 -0.06474444 -0.12455116
000260 a8 ed 02 bd 8f 0f 34 3e a7 84 c3 3c 9b e8 dc 3d
       -0.031964928 0.1758406 0.023866965 0.107865535
000270 b8 3e 4a be eb 85 37 be 11 65 06 3c f5 5d 29 3d
       -0.19750488 -0.1792218 0.008202807 0.04134937
000280 10 e6 05 3e 84 4b 2b 3e 04 ba 65 be a9 d7 82 be
       0.13076043 0.16728026 -0.2243424 -0.2555516
000290 b2 07 ea bd 01 47 21 3e b2 f2 0b bd 1a 4d 00 3e
       -0.11427249 0.15749742 -0.034167 0.12529412
0002a0 e9 71 c9 3e 67 8e c4 3d 32 c6 03 bf a6 02 07 bf
       0.3934472 0.095974736 -0.514743 -0.52738416
0002b0 48 63 17 bd cc c1 4f be 44 16 56 3e 29 8a c2 3e
       -0.036959916 -0.20288771 0.20906931 0.37996033
0002c0 a2 e1 53 be 1e 23 01 3d f0 f6 3c 3d 55 16 cf 3d
       -0.20691541 0.03152763 0.046133935 0.10111681
0002d0 7e 1f a4 3d ab ce 0d bf 80 00 60 be ab f3 30 bd
       0.08013819 -0.55393475 -0.2187519 -0.04320113
0002e0 6e d7 e4 3d 28 96 d9 ba 72 1e 54 3d bd 91 28 3e
       0.111739025 -0.0016600536 0.051786847 0.16461845
0002f0 79 f8 8e be 98 c2 03 bf fc 49 3d bd 72 5b 9e bd
       -0.27923945 -0.514688 -0.046213135 -0.077322856
000300 fd 44 7f bd 85 b8 c1 bd c4 7a 3d bf d7 5b f2 3d
       -0.06232165 -0.094590224 -0.7401545 0.11833923
000310 a5 a9 ea 3d c3 99 3b be 52 23 cc 3d ca 40 10 3d
       0.114581384 -0.18320374 0.09967674 0.035218038
000320 e7 1b e7 bb 1d 37 43 3d 04 c3 7e bd 0e de ba be
       -0.0070528868 0.047659982 -0.0621977 -0.3649754
000330 09 66 3b be ca 45 6e bd 20 78 68 3e 79 6e ee bd
       -0.18300642 -0.058172025 0.22702074 -0.11642165
000340 b8 2a de be 12 cd 07 be 39 9b 2b bd 1b f5 7f be
       -0.43391967 -0.13261822 -0.04189608 -0.24995844
000350 0b f1 d0 3d 7f 43 b0 bf 65 40 27 bd 64 de b4 be
       0.10202225 -1.3770598 -0.040832896 -0.3532592
000360 f5 67 84 bc fc 64 f5 3c 39 eb 89 be 3a dd 9e be
       -0.016162852 0.02995538 -0.26937273 -0.31028157
000370 27 d5 65 be db 0f 1d 3e 69 da b3 bc 37 3c 44 bd
       -0.22444592 0.1533808 -0.021954732 -0.047908988
000380 0a 2e c2 bd 9e 7e 06 3e e6 9a 9f bd 8d bb f5 3d
       -0.094814375 0.13134238 -0.077932164 0.11998663
000390 41 86 00 3c 0b cb f0 3c 7f 54 91 3c 01 96 ba 3d
       0.007844509 0.029393693 0.017740486 0.09110642
0003a0 2d 27 00 be 75 17 26 bf 48 28 f0 3d 43 1a 34 3e
       -0.12514944 -0.6487954 0.11726433 0.17588143
0003b0 9c 15 90 be 49 aa 07 3e 45 db 1b 3e 2f 4c 69 3c
       -0.28141487 0.13248552 0.15220363 0.014239355
0003c0 d2 0e 1b 3d cd 9e 4a 3d 3b 96 80 be 55 78 ca ba
       0.03785593 0.04946785 -0.25114617 -0.0015447239
0003d0 a8 1c 10 3d 0c 1d d0 be 85 d3 24 bd 30 74 03 3e
       0.03518358 -0.4064716 -0.040240783 0.12837291
0003e0 ca c7 02 bd 4a 21 82 3e 8c 4b 8c be 30 ab dc be
       -0.031928815 0.25416023 -0.27401388 -0.43099356
0003f0 f8 ab 72 3e f0 e7 a3 3e 2d 93 f8 bd 09 49 c9 bd
       0.23698413 0.32012892 -0.121374466 -0.098283835

fc2.bias f4 [64]
000000 21 6d 10 bf 48 e0 af be f5 9d 62 bf 1d 91 8f be
       -0.5641652 -0.343508 -0.88522273 -0.280404
000010 61 a9 8c bd 6f ea c9 3e d2 ab 16 bf 58 0a af 3e
       -0.06868244 0.3943667 -0.58855927 0.3418758
000020 13 48 8a bf f4 ba bf be 25 f6 af 3e 09 ae b6 be
       -1.0803245 -0.3744732 0.3436748 -0.35679653
000030 66 1b 57 3e 68 ff 2e bf 67 78 0e bf 01 ca 63 be
       0.21006545 -0.6835847 -0.5565247 -0.22245027
000040 c5 08 3a 3e ff e2 94 bd 0c b7 e8 be d4 75 9d 3e
       0.18167408 -0.072698586 -0.45452154 0.30753958
000050 90 6c 69 bd 37 0a 8e bf 56 31 ed bc b0 bd 66 bf
       -0.0569883 -1.1096867 -0.02895419 -0.9013319
000060 e4 45 11 3e 0e 06 82 bf 5a 60 7d be 13 28 e5 bd
       0.14186817 -1.0158098 -0.24743786 -0.11189284
000070 60 ee 35 bf 47 a4 56 bf ba d9 37 3e 91 5d 8b 3d
       -0.71066856 -0.8384442 0.1795415 0.06804956
000080 c2 d9 69 be e5 e8 06 bc 38 7f 15 3e 3f c3 6b bd
       -0.22836974 -0.008234237 0.14599311 -0.057559248
000090 11 4b c6 bd e7 ae 94 be 61 a3 0c bf 2b 42 e1 3d
       -0.096822865 -0.2903969 -0.54936796 0.10998949
0000a0 63 98 4f be a7 f6 26 bf 36 a4 7e be 73 dc 44 be
       -0.20272975 -0.6522011 -0.24867329 -0.1922472
0000b0 aa 4e 6e bf 60 2e 13 bf 52 ac 9d be f4 a8 07 be
       -0.9308878 -0.5749264 -0.30795532 -0.13248044
0000c0 8c 31 c9 3e 04 06 da 3d 5b 45 14 3e 80 33 b5 be
       0.39295614 0.10645679 0.14479582 -0.35390854
0000d0 bc ae f9 3e 1f c0 da bc 1c b6 47 3e 85 d6 45 bd
       0.48766124 -0.026702939 0.19503063 -0.048300285
0000e0 07 86 cc 3e 13 df b6 be 83 91 66 3e 98 15 10 be
       0.39946005 -0.35717067 0.22516446 -0.14070737
0000f0 8b 39 d0 be 2c 8f bc 3e a1 28 05 bf 36 bd 29 be
       -0.40668902 0.3682798 -0.5201512 -0.16576084

out.weight f4 [10, 64]
000000 54 6b 2b 40 82 41 78 bf f2 96 95 c0 df 5b 9a be
       2.6784258 -0.96974957 -4.674676 -0.30148217
000010 02 de 0a c0 cd fd 18 bd ad 78 de c0 ce ee 9a bc
       -2.1698003 -0.03735142 -6.952231 -0.0189127
000020 18 c4 be c0 2f 8a 8b 40 d6 f2 19 bd c5 a2 ad 40
       -5.961437 4.360618 -0.037585102 5.4261193
000030 1f 47 97 3f 0f 21 d5 40 78 09 bb 3e 4e 04 ab 3f
       1.181858 6.6602855 0.36530662 1.3360689
000040 e7 fa d0 bd 34 96 50 40 18 56 21 40 67 b8 2d 3e
       -0.10204106 3.2591677 2.5208797 0.16964875
000050 83 2e 69 3b a3 fa d9 3f af 0d e8 3e 15 1d 74 bf
       0.0035580702 1.7029613 0.4532294 -0.95356876
000060 b7 14 36 c0 c7 65 3a 40 37 d5 08 40 74 1d 73 40
       -2.8450143 2.912462 2.1380136 3.7986727
000070 e1 5f 8f 3e 5c 45 09 3f 95 4a fa 3c 20 9d 5f be
       0.28002837 0.5362146 0.030553142 -0.21837282
000080 8b df 8f 3c af e9 b9 40 54 c7 7f be ad 39 8f c0
       0.017562648 5.809776 -0.24978381 -4.4757905
000090 18 80 e0 40 be 9b 86 40 83 c6 92 3f cc 5c ca 3b
       7.0156364 4.2065115 1.1466831 0.006175613
0000a0 20 98 83 bf 2e 9c 5a 40 70 cf a2 be 49 e6 b0 3e
       -1.02808 3.4157825 -0.31798887 0.34550694
0000b0 15 41 6b 40 af e5 0a bf df 9a a4 40 22 a7 b2 be
       3.6758473 -0.5425672 5.143905 -0.34893137
0000c0 ff e1 6d bd 12 b0 1e 40 58 3d 09 be ba dc 92 40
       -0.058076855 2.4794965 -0.13402307 4.589444
0000d0 0d d8 19 bd cc ad 89 3f 21 9b d1 be e2 13 77 3f
       -0.037559558 1.0756164 -0.40938666 0.96514714
0000e0 41 9c 18 be 1f 7a 02 c0 a6 18 89 bc c9 ee ff bf
       -0.14903356 -2.0387037 -0.016735386 -1.9994746
0000f0 69 a0 11 3f 42 18 b5 3e 3a cf 45 c0 51 1d fb bf
       0.5688539 0.3537007 -3.090773 -1.9618322
000100 f9 d6 98 bf fa e4 24 3e 18 59 72 3f c9 43 c9 3f
       -1.1940604 0.16102973 0.94667196 1.5723811
000110 48 31 f5 40 96 e9 40 bd 97 e2 23 c0 9c 4c 56 3d
       7.662266 -0.047097765 -2.560705 0.052319154
000120 5a 08 0d 3f 34 ae 15 c0 f2 95 21 bd 2b f0 9f bf
       0.5509087 -2.3387575 -0.03944964 -1.2495168
000130 03 e6 3b bd 73 b8 6d 40 ef eb 5a be 4c c7 2d 40
       -0.045873653 3.714383 -0.21379064 2.715289
000140 d0 fd bb bf fc bc eb c0 1f 67 ec 3f fc 15 fd 3e
       -1.4686832 -7.3668194 1.846897 0.49430835
000150 1e ad a7 bd 4c f1 35 40 fa 52 4e bf 7b 56 d8 40
       -0.08187316 2.8428526 -0.8059536 6.7605567
000160 dc 2c ff be d7 bb b4 c0 78 ca cd bf 32 65 41 bd
       -0.49838912 -5.6479297 -1.6077414 -0.047215648
000170 41 a1 bc bf 31 b6 9d bf 81 52 af 38 57 bb 48 c0
       -1.4736711 -1.2321225 8.360018e-05 -3.1364343
000180 94 52 5d 3d c9 42 a6 c0 aa 93 32 40 49 76 85 bf
       0.05403383 -5.1956525 2.7902627 -1.0426723
000190 80 05 33 bf 72 d8 ea bf 46 d2 48 40 d7 a9 bd be
       -0.6993027 -1.8347304 3.137834 -0.3704364
0001a0 b8 3c f6 3f 04 22 3d bf d4 19 0d 3f f6 7c ef c0
       1.923728 -0.7388003 0.55117536 -7.484004
0001b0 fd 7f 83 bf 20 55 ea c0 9b 90 96 40 fa 16 49 3e
       -1.0273434 -7.322891 4.705152 0.19637671
0001c0 c3 48 34 be 5b de 7d bf b8 0a 2a 40 ad 61 1d 3e
       -0.17605881 -0.9916741 2.6569042 0.15369292
0001d0 05 66 08 bd d9 45 7e bf 73 f4 15 3d 9c 08 38 c0
       -0.03330042 -0.9932533 0.036610078 -2.8755255
0001e0 99 5c 22 3e 92 bc 2b c0 d9 99 07 bd 3c fe fc c0
       0.15855636 -2.6833844 -0.033105705 -7.9060345
0001f0 63 33 4b 3f d1 7f ac bd 57 42 65 c0 1e cb ea bf
       0.79375285 -0.084228165 -3.582174 -1.8343236
000200 60 67 92 c0 8e 37 e3 be 8a c8 85 3f d2 ca e6 bf
       -4.575119 -0.44378322 1.0451825 -1.8030646
000210 a3 9f 2d 40 eb db 92 3f 81 95 01 c0 c5 b5 ef bd
       2.7128685 1.1473364 -2.02475 -0.11704592
000220 33 5b f8 40 10 41 c9 40 c5 bd 9a be 5d 41 78 3f
       7.7611327 6.289192 -0.30222908 0.96974736
000230 43 dc 77 be b3 60 ae be 0b d3 20 40 0a f4 1d c0
       -0.24205117 -0.3405815 2.512881 -2.46802
000240 a6 0f b8 bd fe 44 39 c0 23 7a 54 c0 30 d8 21 be
       -0.0898736 -2.894836 -3.3199546 -0.15805125
000250 22 55 33 be 9c c9 89 40 ea bf ff be 3f 8a 81 c0
       -0.17512944 4.3058605 -0.49951106 -4.0481257
000260 e2 09 96 3f 6f ee d6 c0 68 3f c9 c0 47 4f a9 bf
       1.1721766 -6.7166057 -6.28899 -1.3227319
000270 f4 d5 2c 40 9d c3 d2 40 5e c0 4b 3e 60 80 43 3e
       2.7005587 6.5863786 0.19897601 0.1909194
000280 9c 53 9c 3c 39 be 96 40 36 62 a7 be 81 95 8d 3f
       0.019082837 4.7107205 -0.32692116 1.106125
000290 52 99 8a 3f 4c 18 1c be a8 c3 90 40 86 86 ac 3e
       1.082804 -0.15243644 4.523884 0.33696383
0002a0 e8 53 81 bf ef 68 31 3f e7 d4 a7 3f 0f 99 d1 3f
       -1.0103731 0.6930074 1.3111848 1.6374835
0002b0 7c df e4 40 39 ff bb 40 9e 0c e8 bf 19 bf aa be
       7.152281 5.874905 -1.812885 -0.3334892
0002c0 8e 73 a6 be ba 05 02 bf fa 5d c8 bd d7 7d c6 3f
       -0.32510036 -0.5078999 -0.097835496 1.5507153
0002d0 70 ba a1 be 57 2c 6e 3f eb b6 23 3e c6 7c 43 40
       -0.31587553 0.9303641 0.15987746 3.0544906
0002e0 fd 5c fa 3d 88 d8 8c c0 16 15 5f be 23 2f c9 40
       0.12224767 -4.401432 -0.21785387 6.287004
0002f0 9e a2 7a 3f 4b 0b d7 be 5f ba a0 c0 35 ab 41 40
       0.97904384 -0.42000803 -5.0227504 3.0260746
000300 79 04 48 c0 26 02 49 3e ce 45 57 c0 ff 48 21 40
       -3.125273 0.19629726 -3.3636355 2.5200803
000310 a6 bb ad 40 0b 26 93 be 6b cb 32 40 d9 fb 87 bd
       5.4291563 -0.28739962 2.7936656 -0.06639833
000320 e7 24 37 40 25 18 8f 3e da f1 ad be 49 03 ed c0
       2.8616273 0.27948108 -0.3397358 -7.406651
000330 4f cd 86 be bb 4c 43 bf ed 00 62 40 5e cf 85 be
       -0.26328513 -0.76288956 3.5313065 -0.2613477
000340 4b f5 6c 3d fa 04 49 40 69 ad ed bf 46 b3 59 be
       0.057851117 3.1409287 -1.8568546 -0.21259794
000350 02 be 1b be f8 87 1b 40 65 e3 92 bf 7a 74 ab 3e
       -0.15209201 2.4301739 -1.1475645 0.33487302
000360 73 2a 8a bf f9 9c cb 40 38 df ad 40 7a 82 dd be
       -1.0794204 6.3629117 5.4334984 -0.43263608
000370 ba 01 74 c0 03 7b 5c be dc c3 17 3e 69 62 93 3f
       -3.8126054 -0.215313 0.14820808 1.1514407
000380 d1 23 15 bf b0 d3 ff bf 3b d1 58 3d f9 9c be 40
       -0.58257776 -1.9986477 0.052933913 5.9566617
000390 39 c2 6b bf ac 51 23 40 26 d0 93 bf 00 71 c4 3f
       -0.92093235 2.5518599 -1.1547897 1.5346985
0003a0 cd 46 8a 40 65 23 f5 bf a6 71 d1 bf 47 e2 fa bf
       4.3211427 -1.9151427 -1.6362808 -1.9600304
0003b0 8f 19 9c c0 7a f1 8f 40 81 2d b1 c0 89 68 6b 3f
       -4.87812 4.498227 -5.5368047 0.91956383
0003c0 87 b7 ef be 64 a0 4e 3e 3f 0c d6 be 99 3e 02 3e
       -0.46819708 0.20178372 -0.41806218 0.12719192
0003d0 53 85 43 3f 22 60 84 bf ea 02 2e bf 3b 57 d1 bf
       0.7637531 -1.0341837 -0.67973197 -1.6354746
0003e0 89 08 c0 be 10 ef a3 be 84 d7 6a be c8 ab 25 40
       -0.37506512 -0.32018328 -0.22933775 2.5886097
0003f0 57 e6 ab c0 3c f9 28 3f a5 81 7a bf 19 45 85 40
       -5.3718677 0.660053 -0.9785407 4.164685

out.bias f4 [10]
000000 c0 0b d7 3c 2c 36 1f 3d fa 79 47 3e 80 e6 56 3e
       0.02625072 0.03887002 0.19480124 0.20986366
000010 95 fd ba 3c 92 d6 f0 3d ea e2 24 3d 14 68 97 3d
       0.022825995 0.11759676 0.040255465 0.07392898
000020 e3 d7 c4 3d 50 2f b8 3d
       0.096114896 0.08993399
