exps/regularModelExperiments/pretrainedmodels/neuralBalanceModel1.pt (torch, 973831 bytes, 8 tensors)

fc.weight f4 [256, 784]
0	0x3a067920	0.00051297434
1	0xba83df5a	-0.0010061071
2	0x3a856e24	0.0010179919
3	0xb948cc33	-0.00019149556
4	0xba5d4f52	-0.00084423006
5	0xba6bd035	-0.0008995564
6	0xb9a24329	-0.00030949086
7	0x3a850e10	0.0010151286
8	0xba15d933	-0.0005716264
9	0x39238a00	0.000155963
10	0xb95356f3	-0.00020154919
11	0xb9f78fbe	-0.00047218608
12	0xba88fa6b	-0.0010450607
13	0x3a05aa35	0.000509891
14	0xba5d8628	-0.0008450472
15	0xb95391f0	-0.00020176894
16	0x39ebfc6f	0.0004501077
17	0x3801aeee	3.0918913e-05
18	0xba6b193b	-0.0008968298
19	0xba2d8603	-0.00066193956
20	0x3a3c6c5b	0.0007187777
21	0x3a3f4b26	0.000729727
22	0x3a64578a	0.0008710554
23	0xb9024774	-0.00012424384
24	0xb9f57c3b	-0.000468226
25	0x3953aff2	0.00020188073
26	0x3a65423b	0.0008745526
27	0xb8dba596	-0.000104735765
28	0x394b2809	0.00019374503
29	0xba822113	-0.000992807
30	0x3a875d32	0.0010327457
31	0xba3910b3	-0.00070596783
32	0xba80c33a	-0.0009823807
33	0x3a9ba23b	0.001187391
34	0x3b1d3ffd	0.0023994439
35	0x3a3a13c9	0.0007098285
36	0xb936df9e	-0.00017440176
37	0xba7350de	-0.00092817645
38	0xba45c5e8	-0.0007544444
39	0x3b6ae45a	0.0035841675
40	0x3b0bdaeb	0.0021340202
41	0x3affd95f	0.0019519738
42	0x3a738f85	0.00092911004
43	0x38d1d6c4	0.000100059
44	0x3aa92291	0.0012903978
45	0x3a84fa61	0.001014542
46	0x3b23b123	0.0024977408
47	0x3ab0e34b	0.0013495473
48	0x3a8e4855	0.0010855297
49	0xba252887	-0.00063002895
50	0x3998cf11	0.00029145976
51	0xba5b00f9	-0.0008354332
52	0xb984e69d	-0.00025348822
53	0xb986fe12	-0.0002574777
54	0x3a85ea62	0.0010216946
55	0x366fdef5	3.5743553e-06
56	0xba765ae3	-0.00093976984
57	0x3a29c24d	0.00064757915
58	0xb9f1c179	-0.0004611125
59	0x3a7de198	0.00096848
60	0x398c9f48	0.00026821555
61	0x3a38a2e5	0.0007043316
62	0x3a8c403a	0.0010700293
63	0x390b2e17	0.00013273243
64	0xba54c2ef	-0.00081162056
65	0x3a1c90ae	0.00059724867
66	0x3ad0be45	0.0015925845
67	0x3b509f1d	0.003183312
68	0x3b257295	0.0025245298
69	0x3a6a8d44	0.0008947442
70	0x3927c854	0.00016000989
71	0x3abfba84	0.001462773
72	0x3a8ca47a	0.001073017
73	0x3a8631f7	0.0010238279
74	0xba3eda8a	-0.00072804897
75	0x38709965	5.736332e-05
76	0x39bd8cee	0.0003615389
77	0x3a923e66	0.0011157512
78	0x3aa064c0	0.0012237057
79	0xba519a46	-0.0007995706
80	0xba112dc5	-0.0005538131
81	0x39868baf	0.00025662544
82	0xba0598a8	-0.0005096295
83	0xba7bca47	-0.0009605032
84	0xba336a5e	-0.0006844158
85	0xba586b5c	-0.0008255744
86	0x39bce61a	0.00036029593
87	0x3a3f6945	0.0007301758
88	0xba7a0bfc	-0.0009538529
89	0xbab5b278	-0.0013862392
90	0xbab15e46	-0.0013532124
91	0xbb1e3f23	-0.002414652
92	0x3a04cbab	0.0005065749
93	0x3a8c99c0	0.0010726973
94	0x3b422fae	0.002963047
95	0x3b89bc6c	0.00420337
96	0x3b5a69ad	0.0033327148
97	0x3abc1295	0.00143488
98	0x3ab975a9	0.0014149445
99	0x3b028f73	0.0019921928
100	0x3a5f9828	0.0008529448
101	0x3afcb7fe	0.0019280908
102	0x3ae64dae	0.0017570758
103	0x39c5133e	0.00037589105
104	0x3ab474de	0.0013767739
105	0x3ae4d46c	0.0017458326
106	0xb93f5a9d	-0.00018248936
107	0xbacea2d4	-0.0015765079
108	0xbb051ea3	-0.002031245
109	0x396a68d5	0.00022355032
110	0xb9c50140	-0.000375757
111	0x39840d19	0.0002518676
112	0x38ddf608	0.00010583928
113	0x39b6fda2	0.00034902716
114	0xba242838	-0.00062620966
115	0x399764d5	0.0002887609
116	0x3acc1ec6	0.0015573136
117	0xbae91a85	-0.0017784393
118	0x3a605986	0.0008558262
119	0xb9926a49	-0.0002792648
120	0x3849d02e	4.8116017e-05
121	0xb9cbd3ec	-0.0003887707
122	0xb8dab9f1	-0.00010429684
123	0x3ad2b904	0.0016076867
124	0xb9e5d582	-0.0004383736
125	0xb82d50ac	-4.1321546e-05
126	0xb88d5cdb	-6.7406996e-05
127	0xba961cfb	-0.0011452729
128	0xba6e3e79	-0.00090882886
129	0xb9be2d9a	-0.000362736
130	0x3870cdec	5.741224e-05
131	0x398d417d	0.00026942408
132	0x3802d6a2	3.1194308e-05
133	0x38a89809	8.039183e-05
134	0xbaead4d2	-0.0017916209
135	0xba8aa719	-0.0010578363
136	0xbb4c387a	-0.0031161592
137	0xbab6d37c	-0.0013948525
138	0xba6ef4dd	-0.0009115467
139	0xba89fe9d	-0.0010528151
140	0x3907ca5c	0.00012949988
141	0x376b89fc	1.40392185e-05
142	0xbafa5c1a	-0.0019100935
143	0xbb0904bd	-0.0020907365
144	0xbb10c220	-0.0022088364
145	0xbb49d357	-0.0030796134
146	0xbb1ce468	-0.0023939852
147	0xbb2b06f2	-0.002609667
148	0xbaba584f	-0.0014216992
149	0xbaba0191	-0.0014191141
150	0xba8c745b	-0.0010715829
151	0xba80cb2f	-0.0009826178
152	0xb98c34ac	-0.00026742124
153	0xb94bf686	-0.00019451426
154	0xba88c5ab	-0.0010434886
155	0xbb017e0a	-0.0019758963
156	0xba6369f1	-0.00086751493
157	0xbadbede1	-0.0016779267
158	0xba2ca9d4	-0.00065865857
159	0xb906be15	-0.00012850047
160	0xba9c01dc	-0.001190241
161	0xbabcd8bc	-0.0014407854
162	0xba234827	-0.0006228708
163	0xb93634c4	-0.0001737653
164	0x38bdd748	9.0523215e-05
165	0xbaf97722	-0.0019032697
166	0xbb2a2ffb	-0.002596854
167	0xbb0b8499	-0.002128875
168	0x3a49fc1f	0.00077051105
169	0x3a7b260c	0.00095805596
170	0xbab734f2	-0.0013977571
171	0xbb27e6b2	-0.0025619683
172	0xbb48d48c	-0.0030644266
173	0xbb10b289	-0.0022079071
174	0xbaacd925	-0.0013187273
175	0xbb0fb773	-0.0021929413
176	0xba5728ab	-0.0008207659
177	0xb9e9d480	-0.00044599548
178	0xb9f06ac6	-0.0004585592
179	0xbade607e	-0.0016966013
180	0xb9b91149	-0.00035298828
181	0xbad7573c	-0.0016429196
182	0xbafba464	-0.0019198772
183	0xba9558d3	-0.001139427
184	0xbab83ae7	-0.001405564
185	0xba90c94d	-0.001104632
186	0xba972e30	-0.0011534151
187	0xb894ba4c	-7.0918904e-05
188	0xbb0227e3	-0.00198602
189	0xbb0700ac	-0.0020599766
190	0xbb083fc2	-0.0020789956
191	0xbad8887e	-0.001652017
192	0xbae4bac7	-0.0017450684
193	0xbaf9b44e	-0.0019050927
194	0xbb28dae3	-0.0025765232
195	0xba7f2c00	-0.00097340345
196	0xb908d07f	-0.00013047642
197	0x389565ee	7.1238595e-05
198	0xba4e532c	-0.000787067
199	0xbae85e48	-0.0017728293
200	0xba9d7573	-0.0012013152
201	0xbb1bf1c2	-0.0023795222
202	0xba337a0f	-0.0006846496
203	0xba8c96df	-0.0010726115
204	0xbaec4881	-0.0018026979
205	0xb83a6a5a	-4.4444903e-05
206	0x39a573bb	0.00031557478
207	0xba888520	-0.0010415651
208	0xb88e8db4	-6.797482e-05
209	0xbaf62c5f	-0.0018781534
210	0xba65f7c3	-0.0008772576
211	0xba84c58f	-0.0010129678
212	0xba679865	-0.0008834659
213	0xb9be3391	-0.00036278044
214	0xba20cedf	-0.0006134342
215	0xbae2681f	-0.0017273462
216	0xba4db014	-0.0007846367
217	0xba210e21	-0.0006143768
218	0xbaf33a31	-0.0018556771
219	0xb9f62053	-0.0004694486
220	0xbb23cd10	-0.0024994053
221	0xbabdde8b	-0.0014485879
222	0xbb5582c7	-0.003257917
223	0x3984759b	0.00025264625
224	0xba4f4ce1	-0.0007907879
225	0x39792203	0.00023759161
226	0xbabf1fc3	-0.0014581609
227	0xbb0ba3a3	-0.0021307252
228	0xbb15e43f	-0.002287164
229	0xbb0cceea	-0.0021485635
230	0xba0fea55	-0.0005489935
231	0x3a15480a	0.00056946336
232	0xbac5f948	-0.0015104199
233	0xbace4db8	-0.0015739715
234	0xba90177f	-0.001099333
235	0xb907091f	-0.00012878001
236	0x391eef28	0.00015157147
237	0xbadc6ce4	-0.001681712
238	0xbaf7f58e	-0.0018917785
239	0xbb187561	-0.0023263323
240	0xba8fd895	-0.0010974581
241	0xbb100768	-0.002197707
242	0x379db172	1.8798488e-05
243	0xba2b4f15	-0.00065349165
244	0xba020d11	-0.00049610535
245	0xb99ea207	-0.00030256828
246	0xbab1ab23	-0.0013555031
247	0xba8c4be3	-0.0010703768
248	0xbb4076da	-0.0029367716
249	0xba6b1120	-0.00089670904
250	0xba7ffe4b	-0.00097653706
251	0xba7db845	-0.00096786424
252	0x3a5252e8	0.0008023218
253	0xb8934042	-7.021475e-05
254	0x38a614fc	7.9194055e-05
255	0xbb0ea834	-0.0021767737

fc.bias f4 [256]
0	0xbb890493	-0.0041814535
1	0xbd5b7ae1	-0.053583983
2	0xbd8c3345	-0.068457164
3	0xbd78218b	-0.060578864
4	0xbd30c96f	-0.043160852
5	0xbcfda576	-0.030962687
6	0xbd0038b5	-0.03130408
7	0xbd388665	-0.045050044
8	0xbd82097d	-0.06349466
9	0xbd173855	-0.036918957
10	0xbdb12dd3	-0.086513184
11	0xbd292ff2	-0.04130549
12	0xbd6beff0	-0.05760187
13	0xbdc133c0	-0.09433699
14	0xbcc15a50	-0.023602635
15	0xbc918b98	-0.017766759
16	0xbcd3581d	-0.025798852
17	0xbf6a708a	-0.9157797
18	0xbd7767f0	-0.060401857
19	0xbcc870ee	-0.024467912
20	0xbd5d96fa	-0.05409906
21	0xbd898203	-0.06714251
22	0xbd913999	-0.07091064
23	0xbede8791	-0.43462804
24	0xbd1b8d55	-0.03797658
25	0xbd798040	-0.060913324
26	0xbd68a57d	-0.056798447
27	0xbd8f67a6	-0.07002191
28	0xbd297a4a	-0.04137639
29	0xbdb9af82	-0.090666786
30	0xbd70f224	-0.058824673
31	0xbdca32b1	-0.0987295
32	0xbd456fe0	-0.048202395
33	0xbcfe1845	-0.031017432
34	0xbd953ae6	-0.072866246
35	0xbdbbce8e	-0.091702566
36	0xbd9568a9	-0.07295353
37	0xbd2e6030	-0.0425722
38	0xbd9aa483	-0.07550909
39	0xbdaf8733	-0.08570709
40	0xbd821614	-0.06351867
41	0xbd751416	-0.05983361
42	0xbd9bc371	-0.07605637
43	0xbf7fdd00	-0.99946594
44	0xbdb6f29a	-0.08932991
45	0xbc881ddb	-0.016615799
46	0xbdbf52e0	-0.09341979
47	0xc02133fa	-2.5187974
48	0x3f9ff45a	1.2496445
49	0xbed5d2f3	-0.41762504
50	0xbd9e2900	-0.07722664
51	0xbe01af02	-0.12664416
52	0xbd41aaa1	-0.047281865
53	0xbd8f7e65	-0.0700653
54	0xbd0410a2	-0.032242425
55	0xbd836391	-0.06415475
56	0xbd368200	-0.04455757
57	0xbdc12a73	-0.09431925
58	0xbce80555	-0.028322855
59	0xbd506af2	-0.05088324
60	0xbd98e2f7	-0.07465165
61	0xbd2605aa	-0.040532745
62	0xbd6672dd	-0.056261886
63	0xbf3b30f7	-0.7312159
64	0xbd0b3d0e	-0.033993773
65	0xbdafd1f8	-0.0858497
66	0xbcf04975	-0.029331902
67	0xbda76b80	-0.08174801
68	0xbd4e82ec	-0.050417826
69	0xbd7d5722	-0.061850674
70	0xbdbf3639	-0.09336514
71	0xbd0a7d6b	-0.033811014
72	0xbd2a6b1a	-0.041606046
73	0xbc56d383	-0.013111952
74	0xbcc8964d	-0.024485731
75	0xbd30f745	-0.043204565
76	0xbd3040dc	-0.043030605
77	0xbd7a75f6	-0.061147653
78	0xbcd1aa6a	-0.025593955
79	0xbe8580db	-0.2607487
80	0x3ec031e7	0.37538072
81	0xbd8c387e	-0.068467125
82	0xbd80eb58	-0.06294888
83	0xbce19649	-0.027537482
84	0xbdc3fbdf	-0.09569525
85	0xbd4271e1	-0.047471885
86	0xbd6d2976	-0.05790087
87	0xbcd4c7b9	-0.025974141
88	0xbd959d66	-0.07305412
89	0xbcf2e122	-0.029648367
90	0xbd719e86	-0.05898907
91	0xbda0666e	-0.07832037
92	0xbd08d435	-0.0334055
93	0xbfbd6cfb	-1.4798883
94	0xbc0390c6	-0.008030122
95	0xbd0ad03a	-0.033889987
96	0xbd9aff96	-0.075682804
97	0xbdbb8eab	-0.09158071
98	0xbd825ed5	-0.06365744
99	0xbd4fa74f	-0.050696667
100	0x3dd13631	0.10215414
101	0xbd792b90	-0.06083256
102	0xbd8de236	-0.06927912
103	0xbd403c7b	-0.04693268
104	0xbd624533	-0.055241775
105	0xbd8f6f7a	-0.07003684
106	0xbcf48010	-0.029846221
107	0xbdb15775	-0.08659259
108	0xbd0ec924	-0.03485979
109	0xbd55c7e0	-0.05219257
110	0xbdc757bc	-0.09733531
111	0xbd1844b6	-0.037174903
112	0xbd8ae3f0	-0.06781757
113	0xbdba344d	-0.09092007
114	0xbd668472	-0.056278653
115	0xbe30cb25	-0.17264993
116	0xbe0aa2bf	-0.13538645
117	0xbd45765d	-0.048208583
118	0xbc234bbf	-0.00996679
119	0xbd68ff11	-0.056883875
120	0xbd25c9bb	-0.04047559
121	0xbd79b5fe	-0.060964577
122	0xbd9ab3fb	-0.0755386
123	0xbd93c1c8	-0.07214695
124	0xbdaedd7b	-0.08538338
125	0x3ff33afd	1.9002377
126	0xbcefcf39	-0.029273616
127	0xbd6150e3	-0.05500878
128	0xbd7ee6e2	-0.062231906
129	0xbe924cf7	-0.28574345
130	0xbd8b6831	-0.06806982
131	0xbdd4f9e1	-0.10399223
132	0xbd3e2a0e	-0.046426825
133	0xbdb7d639	-0.089764066
134	0xbd5817b4	-0.05275698
135	0xbd92df1b	-0.0717146
136	0x3cb281f3	0.02179048
137	0xbd36ae3a	-0.04459975
138	0xbd89bb0e	-0.06725131
139	0xbcc12442	-0.02357686
140	0xbcdf8f9c	-0.027290158
141	0xbd1e0064	-0.03857459
142	0x3ed0b383	0.40761957
143	0xbd217fe5	-0.03942861
144	0xbf9ceeec	-1.2260413
145	0xbd755180	-0.059892178
146	0xbce1e8b6	-0.027576786
147	0xbc07aab1	-0.008280442
148	0xbd401c83	-0.04690219
149	0xbd086529	-0.0332996
150	0xbe1eaec6	-0.15496358
151	0xbd40284e	-0.046913438
152	0xbc336d04	-0.010951284
153	0xbda9393b	-0.08262869
154	0xbcf6f939	-0.030148135
155	0xbda51214	-0.08060089
156	0xbd62f69f	-0.055410977
157	0xbd5d59a5	-0.05404057
158	0xbd9868fa	-0.07441898
159	0xbda75309	-0.081701346
160	0xbd94a2fc	-0.07257649
161	0xbbb79626	-0.005602616
162	0xbd25bdd8	-0.040464252
163	0xbd5a2da7	-0.053266194
164	0xbd91a5cb	-0.071117006
165	0xbe110fca	-0.1416618
166	0xbd924d58	-0.071436584
167	0xbd851325	-0.06497792
168	0xbd6e148e	-0.05812507
169	0xbccac68d	-0.02475288
170	0xbd06c164	-0.032899275
171	0xbf95be97	-1.1698788
172	0xbd08e3e6	-0.033420466
173	0xbd376e8f	-0.04478317
174	0xbdb31661	-0.08744503
175	0xbd99fca6	-0.07518892
176	0xbd22061b	-0.039556604
177	0xbd42ac28	-0.047527462
178	0xbc8e4138	-0.017365083
179	0xbc8024e2	-0.015642587
180	0xbca50867	-0.020145608
181	0xbd9f9342	-0.07791759
182	0xbce81c49	-0.0283338
183	0xbd9ea23e	-0.07745789
184	0xbd3f950c	-0.046773
185	0xbd54848b	-0.051884215
186	0xbdb3ee32	-0.087856665
187	0xbd94ed73	-0.07271852
188	0xbc66f3c3	-0.014096203
189	0xbd30fe0c	-0.043211028
190	0xbda28d17	-0.07937067
191	0xbd297064	-0.04136695
192	0xbd4fae43	-0.0507033
193	0xbd4161f9	-0.047212575
194	0xbd8d4102	-0.06897165
195	0xbe771f3a	-0.24133006
196	0xbd82dd5a	-0.06389876
197	0xbd83f2e1	-0.0644281
198	0xbccd5e42	-0.02506936
199	0xbd9674f5	-0.073465265
200	0xbd554f1a	-0.05207739
201	0x3ed45b94	0.4147612
202	0xbda61abc	-0.08110568
203	0xbd8f195b	-0.06987258
204	0xbd9dd08c	-0.07705793
205	0xc0551059	-3.3291228
206	0xbea5ea6e	-0.32405418
207	0xbccec7de	-0.025241788
208	0xbcc2aefd	-0.023765082
209	0xbe93ee69	-0.2889283
210	0xbda04a68	-0.07826692
211	0xbf9d7b09	-1.2303172
212	0xbdbdd10d	-0.09268389
213	0xbd5410f8	-0.051773995
214	0xbd52ea83	-0.05149318
215	0xbd387ba6	-0.045039795
216	0xbd661e39	-0.056181166
217	0xbd334198	-0.043763727
218	0xbdbe56cf	-0.09293901
219	0xbd68ed30	-0.056866825
220	0xbd810b1c	-0.06300947
221	0xbd7e2252	-0.06204445
222	0x3f82f924	1.0232282
223	0xbdc94334	-0.09827271
224	0xbd69955a	-0.0570272
225	0xbd1a3c87	-0.03765538
226	0xbd303e9a	-0.04302845
227	0xbd5fb398	-0.054614633
228	0xbd5b8b8c	-0.05359988
229	0xbd563d94	-0.05230482
230	0xbd03faaa	-0.032221474
231	0xbd26f5df	-0.040761825
232	0xbf1cd26a	-0.61258566
233	0xbd6d78e2	-0.05797661
234	0xbd7b6ed2	-0.061384983
235	0xbd7b3ee1	-0.061339263
236	0xbdd99003	-0.10623171
237	0xbc809014	-0.015693702
238	0x3ec44a4a	0.38337928
239	0xbd91664b	-0.07099589
240	0xbd85f6bf	-0.06541204
241	0xc0114660	-2.2699203
242	0xbd252228	-0.040315777
243	0xbc9e8fb0	-0.019355625
244	0xbdc2c433	-0.09510078
245	0x3f0da306	0.5532688
246	0xbf1a7d23	-0.60347193
247	0xbd8370c3	-0.06417992
248	0xbd938f53	-0.07205071
249	0xbe9c0301	-0.30471042
250	0xbd58e48d	-0.052952338
251	0xc0509215	-3.2589161
252	0xbf4af768	-0.7928376
253	0xbc277a5a	-0.010222042
254	0xbce3cf3e	-0.027808782
255	0xbd08c327	-0.033389237

fc1.weight f4 [128, 256]
0	0x3a337d83	0.0006847011
1	0x3ae1f7e1	0.0017240011
2	0xbb8d71a9	-0.004316528
3	0xbbc5dfba	-0.006038633
4	0x39ca5ec6	0.00038599054
5	0x38ac0c8a	8.203935e-05
6	0x3a086142	0.0005202481
7	0xbb38ba8e	-0.0028187367
8	0x3b9c1cd5	0.0047641792
9	0x3b8a7ab9	0.0042260555
10	0x3b415b4e	0.0029503885
11	0xb98f55c6	-0.00027338992
12	0xbb587972	-0.0033031371
13	0x3a8b8002	0.0010643008
14	0xba32ea9f	-0.00068251224
15	0xbb80613e	-0.003917842
16	0x3baa59b3	0.0051986813
17	0xbd23514f	-0.039872464
18	0xbb17ec92	-0.0023181778
19	0x3bad9e76	0.005298431
20	0xb9c3d636	-0.00037352898
21	0xba26032b	-0.00063328695
22	0x3a61fefe	0.00086210656
23	0xbfa4ba2b	-1.2869314
24	0xba942888	-0.0011303583
25	0xb982c095	-0.00024939017
26	0xbb0f95b3	-0.0021909296
27	0x3a3ec6f3	0.00072775705
28	0x3adda4b1	0.0016910044
29	0xbac89e97	-0.0015306053
30	0x3b9cca96	0.0047848923
31	0xbb980587	-0.004639331
32	0xbb8327a9	-0.0040025306
33	0x3b90c8ba	0.0044184597
34	0x3a2b4967	0.000653407
35	0x3988a323	0.00026061488
36	0xbb36c368	-0.0027887467
37	0xbb693555	-0.0035584767
38	0xbb7a9576	-0.0038236058
39	0x3b2c72d1	0.0026313553
40	0x3af9764c	0.0019032448
41	0x3afe66bf	0.0019409283
42	0x3aeb9d72	0.0017976
43	0xbe2b65a0	-0.16737986
44	0x3b1be5c2	0.002378807
45	0xb9e72924	-0.00044090406
46	0x3b3a86e1	0.0028461742
47	0xbf4386fd	-0.7637785
48	0xbf3e037b	-0.7422406
49	0xbf3ec10d	-0.7451332
50	0xba27e9a4	-0.00064053596
51	0xba0214d7	-0.0004962212
52	0xb922ed77	-0.00015537986
53	0xb944a3ac	-0.00018752989
54	0x39ff63fe	0.0004871189
55	0x3a7bca53	0.0009605039
56	0xbb010f48	-0.0019692946
57	0x3b49e913	0.003080909
58	0xbb7af67e	-0.0038293893
59	0x39f6082e	0.0004692687
60	0xbb356d48	-0.0027683545
61	0xba233964	-0.00062265084
62	0x3b1a0755	0.0023502905
63	0xbf138ad8	-0.57633734
64	0xbb14f2b9	-0.0022727682
65	0x3ba7980d	0.0051145614
66	0x3b07a55f	0.0020697934
67	0x3b69a86d	0.0035653368
68	0x3b2f4be7	0.0026748122
69	0xbb606dcf	-0.0034245139
70	0x3b45b45b	0.0030167315
71	0xb9660225	-0.00021935308
72	0x3b8a1a11	0.004214533
73	0xbb376b5d	-0.0027987577
74	0x3a2860e1	0.00064231275
75	0xb9d3443b	-0.00040295892
76	0x39e00d22	0.00042734394
77	0x390953a9	0.00013096504
78	0x3b012e4f	0.001971144
79	0xc01f1c8f	-2.486118
80	0xbf2de75c	-0.6793115
81	0x3aa35b03	0.0012463037
82	0x39afc9f8	0.0003352908
83	0xbb1c44be	-0.0023844684
84	0x3b9d1a72	0.0047944123
85	0xb8f578ff	-0.00011705048
86	0xbadacbe7	-0.0016692848
87	0xbb0c50e4	-0.002141052
88	0x3ace6f56	0.0015749733
89	0xbb157ca2	-0.0022809883
90	0xbac55c1f	-0.0015057361
91	0x3b7fb57e	0.003901809
92	0x39f4673d	0.00046616225
93	0xbfc949c8	-1.5725641
94	0xbb537753	-0.0032267168
95	0xba628223	-0.00086406077
96	0x391000a5	0.0001373315
97	0x3a934812	0.0011236689
98	0xbb92c1aa	-0.004478653
99	0xbb75d340	-0.0037509948
100	0xbd038396	-0.032107912
101	0xba00a401	-0.0004907251
102	0xba076ddf	-0.00051662134
103	0x3ba2f552	0.004973092
104	0xbb5451cf	-0.0032397395
105	0x3aad2b55	0.0013211766
106	0xb8551aa2	-5.080796e-05
107	0x3bacfd0b	0.0052791885
108	0x3a2fb2ec	0.00067023817
109	0x3a253a14	0.0006302905
110	0xb6adb46a	-5.1768047e-06
111	0x3b2b471a	0.002613491
112	0x3acd4ba1	0.0015662798
113	0x3bc06c77	0.005872305
114	0xba5f7ad8	-0.000852508
115	0xbb5d9fb3	-0.0033817112
116	0xbf53fc21	-0.82806593
117	0xbb38388c	-0.0028109876
118	0x3a2ee86d	0.00066722074
119	0x3b8602ce	0.00408969
120	0x3b9e1f67	0.004825521
121	0xb9c96f84	-0.00038420793
122	0xbb72995d	-0.0037017681
123	0x3b32d697	0.002728855
124	0x3b0bc6e7	0.0021328272
125	0xbf9f5f66	-1.2450988
126	0xbb650d88	-0.0034950692
127	0x3aedb85f	0.0018136612
128	0xbb20b11f	-0.0024519635
129	0x3bc63233	0.0060484647
130	0xbb119203	-0.0022212274
131	0x3b862f27	0.0040949765
132	0xba0ed2b6	-0.00054482685
133	0x3b8a3b4b	0.004218494
134	0x3b0738fd	0.0020633333
135	0x3bb0e5ce	0.0053984886
136	0xbc303fb1	-0.010757373
137	0x37b50384	2.1578518e-05
138	0x3ad073e8	0.0015903683
139	0xba22946b	-0.00062019256
140	0x39ad8cb2	0.00033101958
141	0xbb18194b	-0.0023208435
142	0xbf2e9277	-0.6819224
143	0x3b909975	0.0044128248
144	0x3c011c0e	0.007880224
145	0xbaa657dc	-0.0012690979
146	0xbb817639	-0.003950861
147	0x398d90e9	0.00027001582
148	0xba5495b2	-0.00081094645
149	0x3b666cad	0.003515999
150	0x3b0e0184	0.0021668384
151	0xbb3d43a2	-0.0028879424
152	0xb9229637	-0.00015505483
153	0xb913b6ef	-0.0001408716
154	0xbb1ed9a4	-0.002423861
155	0xbad9d450	-0.001661906
156	0xbaa2adde	-0.0012411436
157	0xbb8d78ec	-0.0043173935
158	0xbb1e89c1	-0.0024190994
159	0x3a11dbdc	0.00055640726
160	0xbad0d1ca	-0.0015931663
161	0xba50c713	-0.00079642347
162	0x3a4026ad	0.0007329982
163	0x3a562a09	0.0008169716
164	0xb981b167	-0.00024736972
165	0x3b974661	0.004616544
166	0x3995e587	0.00028590506
167	0xba4cadad	-0.0007807862
168	0x39a5d087	0.00031626617
169	0x3b76a309	0.0037633798
170	0x3a82106b	0.0009923106
171	0xbe96d18a	-0.2945674
172	0xbb081aab	-0.0020767848
173	0x3ab08463	0.0013467189
174	0x3b2b5ab4	0.0026146593
175	0xbadbe851	-0.001677761
176	0x3b392e4b	0.0028256353
177	0x362c5be4	2.5683485e-06
178	0x399f69dc	0.00030405715
179	0xba640d1b	-0.00086994626
180	0xb8e5f1b7	-0.00010964594
181	0xbb9ecff1	-0.004846566
182	0xbb3c18a3	-0.0028701208
183	0x399518be	0.0002843793
184	0x3b32ff0a	0.002731266
185	0x3a9c4ef2	0.0011925383
186	0x3b6457eb	0.0034842442
187	0x3998a771	0.00029116453
188	0xbb90288a	-0.004399364
189	0xbb434077	-0.0029793063
190	0x3a71554e	0.0009206132
191	0x390de64f	0.00013532604
192	0xbb2e5e68	-0.0026606563
193	0xbb5345cf	-0.0032237654
194	0xbb4a5a34	-0.003087652
195	0xbfd28539	-1.6446906
196	0x3a4a3c63	0.0007714687
197	0x39cb2411	0.0003874605
198	0xbac4d8cd	-0.0015018225
199	0x3a9570e7	0.0011401445
200	0x39e1b487	0.00043049848
201	0xc0160a9e	-2.344398
202	0x3b497bc1	0.003074393
203	0x3b763a7d	0.0037571483
204	0x3b15341c	0.0022766655
205	0xc02feb4b	-2.7487361
206	0xbf0ffbe8	-0.56243753
207	0xb9852945	-0.00025398485
208	0x396e1a75	0.00022707305
209	0xc003fca9	-2.0622962
210	0xba9a6970	-0.001178069
211	0xbf84012d	-1.0312859
212	0x3a4e16f1	0.0007861695
213	0xbae3d935	-0.0017383458
214	0xbb1fc923	-0.0024381361
215	0x3b84ec7d	0.004056512
216	0xb9d96e64	-0.00041471713
217	0x3aac1889	0.0013129871
218	0x3b1b7387	0.0023719983
219	0xbab8a374	-0.0014086799
220	0x3ab401fc	0.0013733502
221	0x3b925fe1	0.004466996
222	0xc0056de5	-2.0848324
223	0xb91933a9	-0.00014610462
224	0x39ee642f	0.0004546954
225	0x3a3cc8b6	0.0007201539
226	0xba3a1d16	-0.0007099671
227	0xba24a006	-0.0006279949
228	0xbaab859c	-0.0013086083
229	0x3b0d3dcf	0.0021551733
230	0x3adf7683	0.0017048869
231	0xb9bc3d0d	-0.0003590364
232	0xc01041cc	-2.254016
233	0xba8ead13	-0.001088532
234	0x3b215541	0.0024617466
235	0xbb4c8a4e	-0.0031210366
236	0xba2e292e	-0.00066437095
237	0xbb117db9	-0.002220018
238	0xbf331f01	-0.69969183
239	0x3b4967cb	0.0030732031
240	0xbb5ca900	-0.0033670068
241	0xbff682e9	-1.9258701
242	0xbb8d0b7c	-0.0043043476
243	0xbb2779fb	-0.0025554884
244	0x3ade2f02	0.0016951265
245	0xbf28077f	-0.6563644
246	0xbfb648ca	-1.4240963
247	0x39f1f79e	0.0004615159
248	0x39bc1040	0.00035870261
249	0xbc2d66dc	-0.010583606
250	0xb945d173	-0.0001886541
251	0xbed148a3	-0.4087573
252	0xbf474918	-0.7784591
253	0xbb6032af	-0.0034209897
254	0x3a819891	0.0009887387
255	0x3b61be7c	0.0034445813

fc1.bias f4 [128]
0	0xbec243bb	-0.379423
1	0xbf20c190	-0.6279535
2	0xbf00b3e5	-0.502745
3	0xbe88f830	-0.26751852
4	0xbfcc262b	-1.5949148
5	0xbbbd4727	-0.0057763043
6	0xbe8bc618	-0.2729957
7	0xbdc65795	-0.09684674
8	0x3f081705	0.53160125
9	0xbde03079	-0.109467454
10	0xbea40ae3	-0.32039556
11	0xbeb3f94e	-0.35151142
12	0xbf57537c	-0.8411176
13	0xbd4549da	-0.048166133
14	0xbec2e747	-0.38067076
15	0xbfc29270	-1.5200939
16	0xbe77e312	-0.24207714
17	0xbf4e5192	-0.80593216
18	0xbeecf046	-0.46277064
19	0xbe1d71d6	-0.15375456
20	0xbd45a1fc	-0.048250183
21	0xbda08292	-0.07837404
22	0xbdbdd8f9	-0.092699
23	0xbfc384ec	-1.527494
24	0xc005fd1c	-2.0935736
25	0xbe0c372b	-0.1369292
26	0xc0bba66a	-5.864064
27	0xbf746fd9	-0.95483166
28	0xbdc6404e	-0.09680234
29	0xbc24a608	-0.010049351
30	0xbecf8f79	-0.40539148
31	0xbda99eaf	-0.082822196
32	0xbfb83f7a	-1.4394372
33	0xbf1c6615	-0.61093265
34	0xbfae3a26	-1.3611495
35	0xbf318f56	-0.6935934
36	0xbe5ed4bf	-0.21760844
37	0xbfafcc40	-1.3734207
38	0xbd2cf5d0	-0.042226613
39	0xbd9177e7	-0.07102948
40	0xbe38f81c	-0.18063396
41	0xbd067274	-0.032823995
42	0x3da8124e	0.08206616
43	0xbda1088a	-0.07862957
44	0xbfabebba	-1.3431313
45	0xbd37d21d	-0.044878114
46	0xbd1595c0	-0.036519766
47	0xbda94d88	-0.08266741
48	0xbd1c2cdc	-0.03812872
49	0xbd37c205	-0.044862766
50	0x401331b3	2.2999084
51	0xbf09c8b9	-0.53821903
52	0xbf0ccb07	-0.54997295
53	0xbe59e90e	-0.2128031
54	0xbf023a66	-0.5087036
55	0xbd9ea4f3	-0.07746305
56	0xbf37d880	-0.7181473
57	0xbf2476c7	-0.6424374
58	0xbf1cd85c	-0.6126764
59	0xbf24fd91	-0.6444941
60	0xbfd493cd	-1.6607605
61	0xbf7c4d41	-0.9855538
62	0xbc35d50a	-0.011098156
63	0xbf5df39d	-0.8669985
64	0xbe515ffc	-0.20446771
65	0xbf152ebf	-0.58274454
66	0xbd5d5ced	-0.0540437
67	0xbf5e63d5	-0.8687108
68	0xbe466ab5	-0.19376643
69	0xbdedae16	-0.1160547
70	0xbe990452	-0.2988611
71	0xbeb31e02	-0.34983832
72	0xbdf4c703	-0.11952021
73	0xbd9910de	-0.0747392
74	0xbec8b09d	-0.39197245
75	0xbd4b20f9	-0.049591992
76	0xbdf614b9	-0.12015671
77	0xbf22d869	-0.63611466
78	0xbdad1eab	-0.08453115
79	0xbd97b75e	-0.074080214
80	0xbdb07924	-0.08616856
81	0xbed00506	-0.40628833
82	0xbf0de5b7	-0.5542864
83	0xbf5d5ef6	-0.86473024
84	0xbeb4fd5a	-0.35349542
85	0xbcdcd73d	-0.026958102
86	0xbeb52e21	-0.35386756
87	0xbec6abd7	-0.38802978
88	0xbf22564c	-0.6341293
89	0xbee57c82	-0.44821554
90	0xbd964e13	-0.0733911
91	0xbe88b982	-0.2670403
92	0xbf266dab	-0.6501109
93	0x4063f207	3.5616472
94	0xbe5036e0	-0.20333433
95	0xbf3e8917	-0.7442793
96	0xbf1aa523	-0.6040823
97	0xbb832849	-0.004002605
98	0xbf805e23	-1.0028728
99	0xbe2d7e3f	-0.1694269
100	0xbf378e8e	-0.71701896
101	0xbda5df72	-0.080992594
102	0xbed2667f	-0.41093823
103	0xbeb74cc8	-0.35800767
104	0xbddfa577	-0.10920232
105	0xbecaede3	-0.39634618
106	0xbeb3a451	-0.350863
107	0xbcc13ac5	-0.023587594
108	0xbddf8816	-0.10914628
109	0xbf43a125	-0.7641776
110	0xbfc6b40e	-1.5523698
111	0xbef622fd	-0.4807357
112	0xbf8d0e6a	-1.1020024
113	0xbf0ca6b3	-0.5494186
114	0xbd35f200	-0.044420242
115	0xbeb30664	-0.34965813
116	0xbf03f441	-0.51544577
117	0xbf10f210	-0.5661936
118	0xbc05b4e3	-0.008160803
119	0xbf0a34cd	-0.5398682
120	0xbd96cf41	-0.07363749
121	0xbd1a641a	-0.03769312
122	0xbe980b3a	-0.29696065
123	0xbe6aaebf	-0.22918223
124	0xbd0cd413	-0.034381937
125	0xbc7b540b	-0.015339862
126	0xbf819477	-1.0123433
127	0x3f04eda5	0.51925117

fc2.weight f4 [64, 128]
0	0xbf8a386e	-1.0798471
1	0xc00ec923	-2.2310264
2	0x3f14e592	0.58162796
3	0x3c487a13	0.012236136
4	0xbf7ad638	-0.9798312
5	0xbfe926ad	-1.8214928
6	0xbfbcc06b	-1.4746221
7	0xbf85dd06	-1.0458076
8	0xbf36d919	-0.71425015
9	0xbdcb6996	-0.09932248
10	0x3eca155e	0.39469427
11	0x3f620c79	0.8830028
12	0xbfd4c290	-1.6621876
13	0xbece1654	-0.4025141
14	0x3ef203e1	0.47268584
15	0xbf923b49	-1.1424342
16	0x3ea35030	0.31897116
17	0x3ed9c4f7	0.42533085
18	0x3eb74af7	0.3579938
19	0x3f643b80	0.8915329
20	0x3f00c92f	0.5030698
21	0xbdada153	-0.08478036
22	0xbee8bb35	-0.45455328
23	0xbf88a1f1	-1.067442
24	0xbf735bb5	-0.9506181
25	0xbfadcfe2	-1.3579066
26	0xbf6eef2a	-0.93333685
27	0xbf706442	-0.9390298
28	0xbf80b1cd	-1.005426
29	0xbf49810f	-0.7871255
30	0x3f387850	0.7205858
31	0xbfcfbdd9	-1.6229812
32	0xc047489a	-3.1138062
33	0x3f4df5bb	0.8045308
34	0xbe9f84a4	-0.31155884
35	0xbfe61d4e	-1.7977693
36	0xbfbe438d	-1.4864365
37	0xbfee6db9	-1.8627235
38	0xbeeb55f8	-0.45964026
39	0xbfee447a	-1.8614647
40	0xc02e6321	-2.7248003
41	0x3eeed6c3	0.46648225
42	0xbfea425c	-1.8301501
43	0xbf0cb020	-0.54956245
44	0xbeb77508	-0.35831475
45	0xc01c69d7	-2.44396
46	0xbfd24f3a	-1.6430428
47	0xbf627970	-0.8846655
48	0xbfd0c7ee	-1.6311014
49	0xbec54f13	-0.3853689
50	0xbfa7fe0e	-1.3124406
51	0xc00e342d	-2.2219346
52	0xbf02991f	-0.51014894
53	0xbd8a3b43	-0.067495845
54	0xbf683983	-0.90712756
55	0x3eff9ff5	0.49926725
56	0x3f8096c3	1.0046009
57	0xbfbe1b21	-1.4852029
58	0xbfdbe5bc	-1.7179484
59	0x3e7dc899	0.24783553
60	0xbf480bb3	-0.7814285
61	0xc03967c1	-2.8969576
62	0xbf8eca3a	-1.1155465
63	0xbe69e3b5	-0.2284077
64	0xbfc0229e	-1.5010564
65	0xbeba72d3	-0.3641573
66	0xbe584fce	-0.21124193
67	0xbf5158fe	-0.81776416
68	0xbf185e68	-0.5951905
69	0xbeb80a65	-0.3594543
70	0xbfcfc990	-1.6233387
71	0x3f0e862b	0.55673474
72	0xbe4c6412	-0.19960049
73	0xbf3abc2e	-0.7294339
74	0x3dab6b5c	0.083700866
75	0x3e5ff33a	0.21870127
76	0x3f08b89e	0.53406703
77	0xbf20b8bf	-0.627819
78	0xbfde2e68	-1.7357912
79	0x3d4519be	0.048120253
80	0x3f74722d	0.9548672
81	0x3e6f33a9	0.2335955
82	0xbf9e1ab3	-1.2351898
83	0xc00f4e01	-2.239136
84	0xbf23c860	-0.63977623
85	0xbfc8e624	-1.5695233
86	0xbfd810f5	-1.6880175
87	0x3fb992d9	1.4497939
88	0xbf82bda1	-1.021412
89	0xc020d9c9	-2.5132926
90	0xbdaf7644	-0.08567479
91	0xbfca2dfa	-1.5795281
92	0xbfe56261	-1.7920648
93	0xbeb3a8c4	-0.35089695
94	0x3dbab432	0.09116401
95	0x3f09c655	0.53818256
96	0xc02505d5	-2.578481
97	0xc0b31572	-5.596368
98	0xbc1fb0e3	-0.009746763
99	0xbeae56b8	-0.34050536
100	0xbf8b9b7b	-1.0906824
101	0x3f8681ea	1.0508397
102	0xbfa99e9d	-1.325153
103	0xbebdddc6	-0.37083262
104	0x3f68dc80	0.90961456
105	0xc0002b08	-2.0026264
106	0xbf86216e	-1.0478952
107	0xbfc5b7cb	-1.5446714
108	0xbfb58d85	-1.4183813
109	0xbf5073ae	-0.81426513
110	0xbe742e29	-0.23845734
111	0xc02359a9	-2.5523474
112	0x3f8e88ed	1.1135536
113	0xbf6c017f	-0.9218978
114	0xbfa0cd9b	-1.2562746
115	0x3e350324	0.1767698
116	0x3f11f56d	0.57015115
117	0x3ebec7a5	0.37261692
118	0xbeeac566	-0.45853728
119	0xbf999c07	-1.2000741
120	0x3e55d394	0.20881492
121	0xc00392f6	-2.0558448
122	0xbee570d7	-0.44812652
123	0xbfcc4452	-1.595835
124	0xc0035166	-2.0518432
125	0xbf6261af	-0.88430303
126	0xbe9b7df2	-0.30369526
127	0xbf15f1e8	-0.58572245
128	0xbf9f63b3	-1.2452301
129	0x3b2ea6ff	0.002664983
130	0xbf1bb7fb	-0.60827607
131	0xbf68b893	-0.9090664
132	0xbf060d4e	-0.5236405
133	0xbf3d445a	-0.7393242
134	0xbfe008f2	-1.750273
135	0xbfdd3fef	-1.7285136
136	0xbfa0b64f	-1.2555636
137	0xbf7e30eb	-0.9929339
138	0xbf32de6e	-0.6987065
139	0xbf8e42c4	-1.1114125
140	0xbfbd9d6f	-1.481367
141	0x3e296baa	0.16544977
142	0x3fac42e3	1.3457912
143	0xbf9251ac	-1.1431174
144	0xbfc7921d	-1.5591465
145	0xbeee5a77	-0.46553394
146	0xbef57c57	-0.47946426
147	0xbf6b7c74	-0.91986775
148	0x3e44ae93	0.1920722
149	0x3de47cfb	0.11156651
150	0xbf603ee6	-0.87595975
151	0xbf70ff47	-0.9413952
152	0xc032322c	-2.7843122
153	0xbf3cb499	-0.7371307
154	0xbf665fa8	-0.8998971
155	0xbfdb56c4	-1.7135854
156	0xbf46e434	-0.7769196
157	0xbe87bb29	-0.2650998
158	0xbf130e6c	-0.5744388
159	0xbf2320af	-0.63721746
160	0xbe455596	-0.1927093
161	0xbf3cc48c	-0.73737407
162	0xbf458adf	-0.77165025
163	0xbf626e31	-0.8844939
164	0xbb93a45c	-0.004505677
165	0xc01456e8	-2.3178043
166	0xbeaa7af1	-0.33296922
167	0xbfb1f882	-1.3903964
168	0xc0044a79	-2.0670455
169	0xbf17e562	-0.59334385
170	0xbf4df583	-0.80452746
171	0xbf2c2656	-0.67245996
172	0xc003212f	-2.0489004
173	0xc00caf60	-2.198204
174	0x3d5c13a3	0.053729665
175	0xbf982a78	-1.188796
176	0xbf893d63	-1.0721859
177	0xbe1145ec	-0.1418683
178	0xbf090e23	-0.53537196
179	0xbfd4004b	-1.656259
180	0x3d05c719	0.032660577
181	0xbf8d84dc	-1.105617
182	0xbfa90096	-1.3203304
183	0xbd508e9e	-0.05091726
184	0xbf437c53	-0.7636158
185	0xbf2a1336	-0.66435564
186	0xc0788455	-3.883077
187	0xbf672110	-0.90284824
188	0xbfd30c47	-1.6488122
189	0xbe38ee28	-0.180596
190	0xbf21c052	-0.6318408
191	0xbfb1c4f3	-1.3888229
192	0xbfc726e3	-1.5558742
193	0x3d505dda	0.050870754
194	0xbf606fe9	-0.8767076
195	0xbf3dfe74	-0.7421639
196	0xbff87217	-1.9409817
197	0x3db237ff	0.08702087
198	0xbf44551a	-0.76692355
199	0x3be94a73	0.0071194707
200	0xbf1b0264	-0.6055052
201	0xbf7d13e8	-0.988585
202	0x3d8bc183	0.06824019
203	0xc008d868	-2.1382084
204	0xbf7d04a8	-0.9883523
205	0xbf1f3b08	-0.6219945
206	0xbf6794db	-0.9046151
207	0xbf78cfd1	-0.971921
208	0xbf01b0f1	-0.50660616
209	0x3dd75e04	0.10515979
210	0xbf98fd52	-1.1952307
211	0xbf38a8a5	-0.7213233
212	0x3e6173f6	0.22016892
213	0xbf06d0ed	-0.52662545
214	0x3e958935	0.29206243
215	0x3c69bed4	0.014266688
216	0xbf877bc4	-1.0584645
217	0x3dbe601c	0.09295675
218	0xbf91ade5	-1.1381193
219	0xbfc82ec2	-1.5639269
220	0xbfb4041b	-1.4063753
221	0xbf66ee6c	-0.9020755
222	0xbf87ad0a	-1.0599682
223	0xbc33c76d	-0.01097284
224	0xbfb63c81	-1.4237214
225	0xbfd3de92	-1.6552298
226	0x3f1a1bd7	0.6019873
227	0xbf718ef3	-0.9435875
228	0xbf9ff1d1	-1.2495672
229	0xbe89c0b7	-0.26904842
230	0xbfa40807	-1.281495
231	0xbf8d335e	-1.1031301
232	0xbf267b6f	-0.65032095
233	0xbe8993be	-0.2687053
234	0x3f587520	0.8455372
235	0x3dcde668	0.10053712
236	0xbf894aa7	-1.0725907
237	0xbf9a597d	-1.205856
238	0xbf5445c9	-0.82918984
239	0xbfa2971e	-1.2702367
240	0xbdcdf3e7	-0.10056286
241	0x3fc70ed3	1.5551399
242	0xbfa1a7da	-1.2629349
243	0xbe9b6e48	-0.30357575
244	0x3f50e843	0.81604403
245	0xbfd346ba	-1.6505959
246	0xc00d10db	-2.2041538
247	0xbfbcd515	-1.4752527
248	0xbf8f696e	-1.120405
249	0xbf2a3bcb	-0.66497487
250	0xbf86a592	-1.0519278
251	0xbf21c39e	-0.63189113
252	0x3dbd7efd	0.09252737
253	0xbd5d6bac	-0.054057762
254	0xbef1b653	-0.47209415
255	0xbf0503c7	-0.5195889

fc2.bias f4 [64]
0	0xbf31d979	-0.6947246
1	0xbf1a241f	-0.60211366
2	0xbc37b1ad	-0.011211795
3	0xbee2260c	-0.44169652
4	0xbdb0986b	-0.086228214
5	0x3f2de0c1	0.6792107
6	0xbf0f8852	-0.56067383
7	0xbdc6e374	-0.09711352
8	0xbd3fb6a4	-0.04680504
9	0x3e47873b	0.1948518
10	0xbddf43a9	-0.10901577
11	0xbef0fd78	-0.4706838
12	0xbb9f8c1b	-0.004868997
13	0xbeb8826c	-0.36037004
14	0xbe217b90	-0.15769792
15	0xbeb4976f	-0.35271785
16	0x3f135489	0.57550865
17	0x3f2825e3	0.6568281
18	0xbf0ed9bd	-0.5580099
19	0xbd92d5b0	-0.07169664
20	0xbe7712db	-0.24128287
21	0xbf0c8dea	-0.54904044
22	0xbe622dfd	-0.22087856
23	0x3f38d2ba	0.72196543
24	0xbea802ed	-0.32814732
25	0xbeeb7c09	-0.4599307
26	0xbdb67ce0	-0.08910537
27	0x3f416a52	0.75552857
28	0x3f3abfcb	0.729489
29	0xbf1eadbe	-0.6198386
30	0xbe282deb	-0.16423766
31	0xbf8cbfdb	-1.099605
32	0xbe6dea81	-0.23233987
33	0xbf0caafb	-0.54948395
34	0x3f4468bc	0.7672231
35	0xbeeb7c91	-0.45993474
36	0xbe228ce9	-0.15874065
37	0xbf0fb119	-0.56129605
38	0xbe4157c8	-0.18881142
39	0xbe61f70d	-0.22066899
40	0x3f6c581b	0.9232194
41	0xbdf2d357	-0.11856716
42	0x3f3db016	0.7409681
43	0x3e2ec0d4	0.17065746
44	0xbdd15b1b	-0.10222455
45	0xbdfc9d87	-0.123347335
46	0x3eeb4e06	0.45957965
47	0xbeeb1947	-0.45917723
48	0xbeda67a0	-0.42657185
49	0xbe7e844e	-0.24855158
50	0xbee990e6	-0.4561836
51	0xbf19c195	-0.6006101
52	0xbdaa5080	-0.083161354
53	0x3e7bd032	0.24591139
54	0xbdb74fd0	-0.0895077
55	0xbde0128a	-0.10941036
56	0xbef82ef3	-0.4847332
57	0xbd400a9f	-0.04688513
58	0xbbe28db2	-0.006913864
59	0xbec171bd	-0.37782088
60	0xbeefe9cc	-0.4685806
61	0xbe52f28d	-0.20600338
62	0xbe8f796b	-0.28022322
63	0x3f5f9133	0.8733093

out.weight f4 [10, 64]
0	0x400c3eba	2.1913285
1	0x4067e0b7	3.6230905
2	0xc017c04d	-2.371112
3	0x3ef3ab5e	0.4759168
4	0xc100366c	-8.013287
5	0xbdbbb7e4	-0.09165934
6	0x3fdd1483	1.7271885
7	0x4074a6d2	3.822682
8	0x3f8c9a09	1.0984508
9	0xbee89ab1	-0.4543052
10	0x405eebfa	3.4831529
11	0xbe11f10b	-0.14252107
12	0x3e6c0680	0.23049355
13	0xc0119e9c	-2.2753057
14	0x3e9f0b4f	0.31063315
15	0x3ee33a61	0.44380477
16	0xbd0f333a	-0.034960963
17	0xbe910c42	-0.28329664
18	0xbf5d2d68	-0.8639741
19	0x3f8f6d67	1.1205262
20	0x40451467	3.0793703
21	0x406928d3	3.6431167
22	0x3f454457	0.77057403
23	0xbe9c383a	-0.30511647
24	0xc0dbc536	-6.8678236
25	0x40496eb7	3.1473825
26	0x3fcb2c6b	1.587293
27	0xbe49a06d	-0.19690104
28	0x3ec4c2f0	0.38429976
29	0x40a2fa44	5.09305
30	0x410ab41c	8.668972
31	0xc1432dcc	-12.198681
32	0xbf4078c7	-0.7518429
33	0x40736e38	3.8036022
34	0x3e795805	0.24349983
35	0xc082e711	-4.0907063
36	0xbf6498db	-0.8929574
37	0x3e4eb4a2	0.20186093
38	0xbf262f32	-0.64915764
39	0xbe0ad204	-0.13556677
40	0x3e61eb1e	0.22062346
41	0x40196259	2.3966277
42	0x3e23e1a1	0.1600404
43	0x3fbae7bc	1.460197
44	0xbf03917b	-0.5139386
45	0x3fdb8d42	1.7152483
46	0xbf5153b9	-0.81768376
47	0xc0ffca12	-7.993417
48	0xc0483761	-3.12838
49	0x4011acb9	2.2761672
50	0xbf04191c	-0.51600814
51	0xbf964102	-1.1738589
52	0xbedc6212	-0.43043572
53	0xbedd5ff9	-0.43237284
54	0xbfa27aee	-1.2693765
55	0xbe117964	-0.14206463
56	0x4054019f	3.312599
57	0x40496673	3.146878
58	0x40555c08	3.3337421
59	0x3f810d67	1.0082215
60	0x40821850	4.065468
61	0x402ddd07	2.7166154
62	0x3fb0324a	1.3765347
63	0x3da7036a	0.08154948
64	0xc0da5bff	-6.82373
65	0xc021d7d3	-2.5287979
66	0x41077098	8.464989
67	0x3f1e8efe	0.6193694
68	0xc00e5d1b	-2.2244327
69	0xbb005a99	-0.001958525
70	0x40603ccb	3.5037105
71	0x40f4a633	7.645288
72	0x4100eb53	8.057452
73	0x406f0440	3.7346344
74	0xc0968466	-4.703662
75	0x3fe337be	1.7751386
76	0x4081f1f3	4.060785
77	0xbf7077c7	-0.93932766
78	0xc0b2bddf	-5.5856776
79	0x3d876c43	0.06612446
80	0x3e37a1d0	0.1793282
81	0x3ce90066	0.028442573
82	0xc0c07e77	-6.0154376
83	0x40c29e4a	6.0818224
84	0x403e6b3a	2.9752946
85	0xc0d36006	-6.6054716
86	0xc072d093	-3.7939804
87	0xbb9789e7	-0.0046245935
88	0x3f111ea5	0.56687385
89	0xc10321c1	-8.195741
90	0xc026afc8	-2.6044788
91	0xbb714cd7	-0.0036819482
92	0xbce9f6eb	-0.028560122
93	0xc0758d46	-3.8367476
94	0x40336871	2.8032496
95	0xbf10b3c3	-0.56524295
96	0xc0ca82de	-6.328475
97	0xc02376d5	-2.554128
98	0x3e11928f	0.14216064
99	0xc0a54b4d	-5.165442
100	0xc0dd0573	-6.906915
101	0xbfea30dc	-1.8296161
102	0xbde5c086	-0.112183616
103	0x3ddc7948	0.1076532
104	0xbdbd739b	-0.092505656
105	0xbf92dc47	-1.1473473
106	0x3d88cdf5	0.06679908
107	0xc0928e80	-4.579895
108	0xc064c213	-3.5743454
109	0x4022a586	2.5413527
110	0xbdf033e1	-0.11728645
111	0x4045ee42	3.092667
112	0xc114e7d5	-9.3066
113	0xbfbcc419	-1.4747344
114	0xc00c6569	-2.1936896
115	0xc05aaae4	-3.4166803
116	0xbfff3ddd	-1.9940754
117	0x3b75861f	0.0037463976
118	0xc0eeb6c6	-7.459811
119	0xbdf248eb	-0.11830314
120	0xc0c0bd46	-6.0231047
121	0xbf44788b	-0.76746434
122	0x40da3193	6.8185515
123	0xc012e7aa	-2.2953897
124	0x404083b4	3.0080385
125	0x4049006c	3.1406507
126	0xc05cb932	-3.4488034
127	0xbd52a820	-0.051429868
128	0x40c8ebf5	6.2788033
129	0x4106c566	8.423193
130	0xc036447f	-2.8479307
131	0xc0cdd236	-6.4319105
132	0x3ffb4dac	1.9633079
133	0xbd00df67	-0.031463053
134	0x3e73e6aa	0.2381846
135	0xc02258ca	-2.5366693
136	0xbf1a801e	-0.6035174
137	0xc01401bc	-2.3126059
138	0x40c13887	6.0381503
139	0xbeaf03ca	-0.34182578
140	0xc037e53d	-2.8733666
141	0xc0be6e61	-5.950974
142	0x3fdd4fff	1.7290038
143	0x3f2c6c23	0.67352504
144	0x3f9c4947	1.2209862
145	0xbd29382c	-0.041313335
146	0xbf80ac62	-1.0052607
147	0x40b5180c	5.6591854
148	0x40525981	3.286713
149	0xc0f26015	-7.574229
150	0xbe29bdc4	-0.16576296
151	0x3cf6f14c	0.030144356
152	0xc0a43618	-5.1316032
153	0xc02387df	-2.555168
154	0xc1134228	-9.203651
155	0xbcf45665	-0.029826352
156	0x3d42f920	0.047600865
157	0x40087161	2.13192
158	0xbf645ede	-0.89207256
159	0x3f5498ec	0.8304584
160	0xbf19e396	-0.60112894
161	0x405ecf08	3.4813862
162	0xbe987eee	-0.2978434
163	0x3f7b2a28	0.981112
164	0x3ff55d37	1.9169072
165	0xc000538f	-2.0051
166	0xbf92d0fb	-1.1470026
167	0xbe894f0e	-0.26818126
168	0x3e48a166	0.19592819
169	0xc0cfd7ca	-6.4950914
170	0xbe449b08	-0.19199765
171	0x3ff1d1a4	1.8892102
172	0xbf68ce44	-0.90939736
173	0x3fb8333c	1.4390635
174	0x3e24a9c7	0.1608039
175	0x3f6f0286	0.93363225
176	0x4059b897	3.4018915
177	0xc10ae2c1	-8.68036
178	0x40e9fef5	7.3123727
179	0xc104ef44	-8.308414
180	0x3fd12031	1.6337949
181	0x3d449017	0.047988977
182	0x3f3d2d0a	0.7389685
183	0xbcfe29e9	-0.031025844
184	0x3f97c44d	1.1856781
185	0x3fe8213f	1.8135146
186	0xbfec1692	-1.8444388
187	0x40ac71b0	5.388878
188	0xbf1650b4	-0.58716893
189	0xbff31181	-1.8989717
190	0x40a17634	5.045679
191	0x3ddd9a8c	0.10820493
192	0x4006e681	2.1078188
193	0xc080d781	-4.0263066
194	0xbe30edb6	-0.1727818
195	0xc0bd14a0	-5.9087677
196	0x402b6747	2.6781785
197	0xbe0620a7	-0.13098393
198	0xc115da2d	-9.365766
199	0xc0949359	-4.642987
200	0xc0da426d	-6.8206086
201	0xbec80839	-0.39068773
202	0xbce246e3	-0.027621692
203	0xbf123a92	-0.5712062
204	0xc000c22e	-2.0118518
205	0xc0708db7	-3.7586496
206	0xc0fb77ed	-7.8583894
207	0x3fc9c611	1.576357
208	0xbebc0091	-0.36719182
209	0x3e92be1c	0.28660667
210	0xc0cbcd6b	-6.3688254
211	0xc0b01f25	-5.503802
212	0x3fdceb04	1.7259221
213	0xc092bbd7	-4.5854297
214	0xc0e04dd6	-7.0095015
215	0xbd05a8dd	-0.032631744
216	0xbfc71a9f	-1.5554999
217	0x404f399e	3.2378917
218	0xc0c819a2	-6.253129
219	0x3d14c7c6	0.03632333
220	0x3e88a3b1	0.26687387
221	0x3f331512	0.69954026
222	0xbf845069	-1.0337039
223	0x408870ce	4.26377
224	0xc0ca269f	-6.3172145
225	0x3fc594e4	1.5436063
226	0xbe32771d	-0.1742825
227	0xbf502845	-0.81311446
228	0xc0166431	-2.3498652
229	0xc0c79bc8	-6.2377663
230	0xc02a7d9d	-2.6639168
231	0x3ee226d5	0.4417025
232	0xbd75a3c3	-0.05997063
233	0xc03ee519	-2.982733
234	0xbe0779c4	-0.13230044
235	0x3fcab203	1.5835575
236	0x40473fe5	3.1132748
237	0x40b28443	5.578645
238	0x3e088d25	0.13335092
239	0x40bc446d	5.8833528
240	0xbea48421	-0.32132056
241	0xbfe92dff	-1.8217162
242	0x3e882475	0.26590315
243	0xc05526c0	-3.33049
244	0xc09baed4	-4.8650913
245	0xbedae810	-0.42755175
246	0xbec0e537	-0.37674877
247	0x3e4d7407	0.20063792
248	0xc02d8e7b	-2.7118213
249	0xbf064aa7	-0.5245766
250	0xc0ba87e6	-5.829089
251	0xc08d5ddd	-4.417708
252	0xc0a5e42b	-5.1841025
253	0x41060c53	8.378009
254	0xbf45968e	-0.77182853
255	0xbe20fb27	-0.15720807

out.bias f4 [10]
0	0x3e0b7de1	0.13622238
1	0xb8542fc0	-5.058921e-05
2	0x3d1de121	0.038544778
3	0x3e58b965	0.21164472
4	0x3e1cf3d0	0.15327382
5	0x3e50274e	0.20327494
6	0x3e800bb4	0.2500893
7	0x3cc0d7ef	0.023540465
8	0xbdaae564	-0.08344534
9	0x3d8ba556	0.06818645
