exps/regularModelExperiments/pretrainedmodels/neuralBalanceModel4.pt (torch, 973831 bytes, 8 tensors)

fc.weight f4 [256, 784]
-0.0010236475 0.001669347 0.0011180706 -0.0017415255 0.0012479569 0.0013072202 0.0014801777 0.0006178801
-0.0016227094 -8.268426e-05 -0.0018745738 -0.0008680836 0.00014108128 -0.0011664956 2.2363878e-05 -0.0013772312
0.0011199412 0.0012589856 -3.1604675e-06 -0.0017701811 -0.0014747983 0.0013909007 0.0013177997 -0.00017206943
-0.00058924867 -0.000956842 -0.0017087837 9.439481e-05 -0.00031918875 -0.00019610791 0.0016231 0.0013358601
-0.00047869553 -0.0010770308 -0.0008637741 -0.001602193 0.00066618796 0.000101529506 -0.00015420064 -0.0038026804
-0.004150454 -0.0017549358 -0.0040845927 -0.0034527308 -0.0015066669 0.00023137503 8.480967e-05 0.00090357853
0.00034811872 0.00013722583 -0.0017457898 0.0012330017 -0.0007071724 0.0006923476 0.00040441914 -0.0014873057
-0.00073460955 -0.0014062363 -0.00031671367 0.0008730224 0.001589944 -0.0018531157 -0.0017172559 -0.0017943889
0.002404264 -0.0038635202 -0.00093206216 -0.004952789 -0.0038676888 -0.0028841102 -0.0027281179 -0.0054723676
-0.0027509576 -0.004943231 -0.0030210346 -0.0026806272 -0.0056657353 -0.005617591 -0.0058983113 -0.00061859115
-0.001553906 0.00015792502 -0.0017189658 0.00026204964 -0.0008083594 0.0017390196 0.001605784 0.0005977024
-0.0012961809 -0.0044524404 -0.0037374767 -0.0002872141 -0.0017036496 -0.0030054464 -0.0039458936 -0.0016382587
-0.0035038483 -0.0033850407 -0.0045013693 -0.004988568 -0.002435684 -0.0045748674 -0.0051436825 -0.0031500398
-0.0048706764 -0.0032564942 -0.0043787253 -0.0016174599 -0.0023746549 -0.0007398627 -0.0015717581 0.00054497144
-0.0005609365 0.00025518038 -0.00082911825 0.00089445617 -0.0011035936 -0.002989417 -0.0037186 -0.003195515
-0.002865919 -0.0027757967 -0.0032608316 -0.0008572249 -0.0021981234 -0.0041568945 -0.0025179335 -0.00052976666
-0.0026197513 -0.0035740787 -0.0017701602 -0.0030081195 -0.0020837507 -0.0026628422 -0.0036843116 -0.0030121766
-0.0015341359 0.001862522 -0.0013558372 0.0013117018 0.00080686604 0.0011986098 -0.0012113573 -0.0005243825
-0.0033272612 -0.003052457 -0.001835497 -0.003627464 -0.0042754146 -0.004845896 -0.0037233576 -0.0027038418
-0.0031828342 -0.002020412 -0.0033798877 -0.0019847075 -0.00094934256 -0.0005678358 -0.002531201 -0.00052831834
-0.0009372437 -0.0011166036 -0.00062783074 -0.0024264525 -0.0016699559 0.002126136 0.0016102645 -0.0011653996
0.0009632448 -0.0018330626 0.0013909776 -0.0014623223 -0.0022868542 -0.0017869527 -0.002545354 -0.0025088142
-0.0047809854 -0.0016466068 -0.0008290392 -0.003985615 -0.0039080256 -0.0018982388 -0.0033658314 -0.0005425655
-0.0037832456 -0.0016195293 -0.003757562 -0.0036805577 -0.0016305783 -0.0018000889 -0.0019168656 -0.003861223
-0.0023100264 -0.0033557652 0.0038242731 -0.00028997628 -0.0015893454 -0.000996854 0.0007932012 -0.0045128553
-0.00065496407 -0.0032525973 -0.004663152 -0.005180674 -0.0047022966 -0.0032861019 -0.0038185618 -0.0007276497
-0.0032561298 -0.00082377513 -0.0026186758 -0.0010242877 -0.0024047154 -0.0022235368 -0.0018368642 -0.0004355069
-0.0024145066 -0.0017255411 -0.00038592351 -0.0013777507 -0.002432184 -0.0024267358 0.005246505 -0.0013902319
0.0005293183 0.00093582936 0.0034435112 -0.0023726677 -0.0031397273 -0.0051350924 -0.0017683422 -0.0027715962
-0.0029708894 -0.0024178603 -0.0021450883 -0.00067249854 -0.00052952976 -0.0032774154 -0.0030809871 -0.0036313417
-0.0017203435 -0.0031839842 -0.0030542468 -0.0032952044 -0.0042194584 -0.0018926811 -0.0010299541 -0.00035950923
-0.0018259556 -0.0011609669 -0.0017041115 0.0012791957 -0.00064014795 -0.0047286917 -0.0028483758 -0.0027154735
00000000: e92b 86ba fecd da3a 398c 923a e643 e4ba
00000010: 7c92 a33a 0857 ab3a 8602 c23a 3bf9 213a
00000020: 18b1 d4ba c666 adb8 42b4 f5ba 1b90 63ba
00000030: 38ef 1339 19e5 98ba 109a bb37 3684 b4ba
00000040: feca 923a 8c04 a53a 6b18 54b6 6c05 e8ba
00000050: 054e c1ba e24e b63a 05ba ac3a 896d 34b9
00000060: cf77 1aba 94d4 7aba 44f9 dfba d4f5 c538
00000070: ca58 a7b9 51a2 4db9 33be d43a 0718 af3a
00000080: 6df9 fab9 282b 8dba e66e 62ba ad00 d2ba
00000090: 1ea3 2e3a 3dec d438 ebb0 21b9 6436 79bb
000000a0: 8800 88bb e005 e6ba 0cd8 85bb 3647 62bb
000000b0: 5a7b c5ba 439d 7239 d8db b138 21de 6c3a
000000c0: b483 b639 47e4 0f39 fcd2 e4ba ac9c a13a
000000d0: 8961 39ba a97e 353a 3808 d439 b3f1 c2ba
000000e0: d092 40ba 7651 b8ba 970c a6b9 8bdb 643a
000000f0: ab65 d03a 3fe4 f2ba 8c15 e1ba b331 ebba
00000100: db90 1d3b 1d33 7dbb a255 74ba 014b a2bb
00000110: 0d79 7dbb 5703 3dbb 39ca 32bb 8c51 b3bb
00000120: 6949 34bb d4fa a1bb 8dfc 45bb 76ad 2fbb
00000130: a2a7 b9bb c513 b8bb 9f46 c1bb f328 22ba
00000140: 6fac cbba ad98 2539 ec4e e1ba b563 8939
00000150: 15e8 53ba d1ef e33a 2c79 d23a 21af 1c3a
00000160: 9de4 a9ba c7e5 91bb 74f0 74bb 3995 96b9
00000170: ff4c dfba 06f7 44bb 8e4c 81bb d7ba d6ba
00000180: d2a0 65bb 8fd7 5dbb 3980 93bb 2477 a3bb
00000190: ff9f 1fbb c5e8 95bb 568c a8bb e670 4ebb
000001a0: 329a 9fbb e86a 55bb 697b 8fbb f300 d4ba
000001b0: 19a0 1bbb 58f3 41ba 7303 ceba 6adc 0e3a
000001c0: d00b 13ba bbc9 8539 2f59 59ba f079 6a3a
000001d0: 75a6 90ba 18ea 43bb c1b3 73bb d86b 51bb
000001e0: 24d2 3bbb 24ea 35bb adb3 55bb 64b7 60ba
000001f0: 640e 10bb 8f36 88bb ea03 25bb 0ae0 0aba
00000200: 22b0 2bbb 173b 6abb b804 e8ba df23 45bb
00000210: 898f 08bb 1483 2ebb 7e74 71bb f067 45bb
00000220: 0f15 c9ba de1f f43a 59b6 b1ba 69ed ab3a
00000230: dd83 533a ac1a 9d3a 68c6 9eba b776 09ba
00000240: 2e0e 5abb bb0b 48bb 0f95 f0ba bfba 6dbb
00000250: c718 8cbb 52ca 9ebb 9303 74bb f032 31bb
00000260: 1997 50bb e368 04bb 1b81 5dbb de11 02bb
00000270: 4ddd 78ba d1da 14ba 82e2 25bb d87e 0aba
00000280: 5cb1 75ba 005b 92ba 0295 24ba 1e05 1fbb
00000290: 6ce2 daba a556 0b3b 830f d33a 52c0 98ba
000002a0: 4482 7c3a 6043 f0ba 7751 b63a 65ab bfba
000002b0: 0cdf 15bb 2f38 eaba f4cf 26bb eb6a 24bb
000002c0: d0a9 9cbb f5d2 d7ba e153 59ba c399 82bb
000002d0: e50e 80bb 53ce f8ba 4895 5cbb f43a 0eba
000002e0: 54f0 77bb 6346 d4ba 6e41 76bb 8335 71bb
000002f0: 21b9 d5ba f6f0 ebba 563f fbba 930c 7dbb
00000300: d063 17bb 66ec 5bbb a8a0 7a3b f507 98b9
00000310: 9551 d0ba dfa8 82ba d5ee 4f3a 93e0 93bb
00000320: e5b1 2bba 8729 55bb 5bcd 98bb a5c2 a9bb
00000330: b915 9abb a45b 57bb d640 7abb bfbf 3eba
00000340: cb64 55bb 9df2 57ba 179e 2bbb 6441 86ba
00000350: 6e98 1dbb c2b8 11bb efc2 f0ba bf54 e4b9
00000360: b33c 1ebb 8d2b e2ba c755 cab9 a495 b4ba
00000370: 4765 1fbb df09 1fbb e0ea ab3b 7138 b6ba
00000380: f3c1 0a3a 7252 753a 88ac 613b c27e 1bbb
00000390: e2c3 4dbb 4744 a8bb b8c7 e7ba aba3 35bb
000003a0: 41b3 42bb f774 1ebb 9c94 0cbb 9d4a 30ba
000003b0: 24d0 0aba e8c9 56bb 63ea 49bb cefb 6dbb
000003c0: 267d e1ba 64aa 50bb c229 48bb 5bf4 57bb
000003d0: 6243 8abb d713 f8ba 86ff 86ba 837c bcb9
000003e0: e754 efba 962b 98ba 7e5c dfba afaa a73a
000003f0: 9acf 27ba 24f3 9abb d1ab 3abb 16f6 31bb

fc.bias f4 [256]
-0.030908862 -0.035503756 2.0660164 -0.09292488 -0.08048533 -0.05265182 -0.06339463 -0.08012182
-0.04300355 -0.04470437 -0.033033475 -0.072440974 -0.085954584 -0.04441302 -0.055294476 -0.01701238
-0.06725986 -0.032515675 -0.06771337 -0.030184159 -0.06451049 -0.07100829 -0.016208677 -0.05838821
-0.074464396 -0.057431612 -0.03821893 -0.052813098 -0.016359976 -0.056794357 -0.047346264 -0.0671894
-0.0424149 -0.036810376 -0.07744765 -0.04461738 -0.06672656 -0.0520279 -0.0073658135 -0.043811403
-0.01951729 -0.043001693 -0.070066154 -0.0426527 -0.03723405 -0.0029344584 -0.047468316 -0.048228182
-0.100413606 -0.06630442 -0.06367529 -0.089451894 -0.085644014 -0.079412036 -0.057194583 -0.038651306
-0.069675475 0.86470056 -0.067459315 0.93869287 -0.049632333 -0.050638556 -0.07297214 -0.078023136
-0.08292765 -0.012113878 -0.063612975 -0.03435741 -0.032000795 -0.0868616 1.4823389 -0.056465264
-0.015718773 -0.072980486 -0.019414218 -0.057967655 -0.051286496 -0.04458887 -0.0357426 -0.078788094
-0.09541489 -0.0777886 -0.017021032 -0.6690861 -0.022508694 -0.01738056 -0.06704447 -0.057133812
-0.025026541 -0.017846942 -0.07888716 -0.026637424 -0.041032657 -0.040616617 -0.02887483 -0.03583405
-0.04253095 -0.050230842 -0.042828463 -0.07611003 -0.09234974 -0.0748913 -0.1120719 -0.07696802
-0.0732348 -0.07723455 -0.06674249 -0.0729244 -0.0301089 -0.02579148 -0.016455151 -1.0306422
-0.012190125 -0.048043795 -0.0130071575 -0.04962176 -0.026840847 -0.06036065 -0.09590306 -0.046972763
-0.038424544 -0.07469346 -0.054942794 1.6418433 -0.019275788 -0.08278645 -0.26973265 -0.090963304
-0.060816728 -0.026461754 -0.027729662 -0.042701323 -0.04789991 -0.0660397 -0.027232371 -0.077442564
-0.03834644 -0.03941759 -0.044073608 -0.056313235 -0.055665486 -0.04312159 -0.052994702 -0.048099738
-0.079617456 -0.042497057 -0.07290607 -0.028861992 -0.046074815 -0.022231411 -0.044764522 -0.035884917
-0.061154176 -0.032549776 -0.018918483 -0.02901494 -0.07946187 -0.023711989 -0.08749731 -0.04006879
-0.07170513 -0.08347292 -0.05763536 -0.095038146 -0.022346785 -0.012266372 -0.065959364 -0.040780813
-0.08886478 -0.0588973 -0.07713283 -0.0836341 -0.010773159 -0.028873404 -0.050794706 -0.09481479
-0.049347013 -0.08735099 -0.07835361 -0.09863277 -0.042603254 -0.058618624 -0.053798474 -0.12922668
-0.07745661 -0.04710144 -0.05573408 -0.049855344 -0.07226653 -0.036049243 -0.053321507 -0.026556462
-0.064880416 -0.054352835 -0.031414844 -0.01060261 -0.05397296 -0.058273554 0.9911352 -0.06911817
-0.029760184 -0.08543244 -0.053687822 -0.074016206 -0.07048827 0.0405993 -0.08665514 -2.1058557
-0.0851509 -0.01762379 -0.055807304 -0.06252599 -0.04096037 -0.04893682 -0.023747366 -0.058315486
-1.4473448 -0.050621055 -0.041101955 -0.5118741 -0.07162635 -0.10638751 -0.033460803 -0.06000698
-0.030570194 -0.016389186 -0.074058115 -0.06217601 -0.11699006 -0.007812321 -0.07170215 -0.07013384
-0.08517959 -0.030381074 -0.088184096 -0.03189014 -0.013329169 -0.010670132 -0.060363322 -0.08325119
-0.06308977 -0.050469466 -0.062099896 -0.03947442 -0.037375916 -0.014915734 -0.02697858 -0.048050568
-0.025233528 -0.07442375 -0.059842087 -0.109337546 -0.06859526 -0.070415206 -0.09009563 -0.073346674
00000000: 9534 fdbc 636c 11bd 9d39 0440 664f bebd
00000010: 7ed5 a4bd 6fa9 57bd 0bd5 81bd e916 a4bd
00000020: 7e24 30bd ee1b 37bd 1c4e 07bd ef5b 94bd
00000030: f508 b0bd 6dea 35bd 767c 62bd 8c5d 8bbc
00000040: 8abf 89bd 282f 05bd 4fad 8abd c544 f7bc
00000050: 131e 84bd cb6c 91bd 0fc8 84bc 7a28 6fbd
00000060: ca80 98bd 693d 6bbd 748b 1cbd 8c52 58bd
00000070: 5b05 86bc 33a1 68bd 28ee 41bd 999a 89bd
00000080: 3fbb 2dbd 7ac6 16bd e09c 9ebd b7c0 36bd
00000090: efa7 88bd 351b 55bd ec5c f1bb 9673 33bd
000000a0: b9e2 9fbc 8b22 30bd d87e 8fbd 99b4 2ebd
000000b0: bb82 18bd 0b50 40bb 236e 42bd ea8a 45bd
000000c0: a6a5 cdbd 9dca 87bd 3168 82bd 8e32 b7bd
000000d0: 2166 afbd c7a2 a2bd de44 6abd d550 1ebd
000000e0: 04b2 8ebd 045d 5d3f 1c28 8abd 2d4e 703f
000000f0: 464b 4bbd 606a 4fbd 6b72 95bd 98ca 9fbd
00000100: f9d5 a9bd 4979 46bc 8547 82bd 5bba 0cbd
00000110: 4413 03bd 7fe4 b1bd 48bd bd3f 1f48 67bd
00000120: a8c4 80bc cb76 95bd 910a 9fbc 7e6f 6dbd
00000130: ca11 52bd d2a2 36bd d566 12bd a75b a1bd
00000140: e268 c3bd a14f 9fbd b16f 8bbc 3a49 2bbf
00000150: 2764 b8bc ad61 8ebc 9c4e 89bd 2505 6abd
00000160: 7604 cdbc c033 92bc 978f a1bd ba36 dabc
00000170: dc11 28bd 9c5d 26bd e88a ecbc bac6 12bd
00000180: ef34 2ebd dbbe 4dbd e66c 2fbd 93df 9bbd
00000190: dc21 bdbd 9c60 99bd f485 e5bd 69a1 9dbd
000001a0: 20fc 95bd 262d 9ebd 49b0 88bd 6359 95bd
000001b0: f1a6 f6bc a748 d3bc f4cc 86bc 15ec 83bf
000001c0: 17b9 47bc 92c9 44bd f91b 55bc 3040 4bbd
000001d0: 56e1 dbbc bb3c 77bd d368 c4bd 8366 40bd
000001e0: 0e63 1dbd e2f8 98bd b20b 61bd ec27 d23f
000001f0: 42e8 9dbc f18b a9bd 661a 8abe f84a babd
00000200: f61a 79bd 52c6 d8bc 5129 e3bc 95e7 2ebd
00000210: b232 44bd d23f 87bd 6c16 dfbc 359a 9ebd
00000220: 2811 1dbd 5774 21bd 8786 34bd b5a8 66bd
00000230: 7e01 64bd 44a0 30bd f910 59bd 3b04 45bd
00000240: 7a0e a3bd 6511 2ebd c74f 95bd fc6f ecbc
00000250: f2b8 3cbd a61e b6bc 015b 37bd 10fc 12bd
00000260: cd7c 7abd ea52 05bd effa 9abc bdb0 edbc
00000270: e8bc a2bd a53f c2bc ca31 b3bd 2c1f 24bd
00000280: 24da 92bd daf3 aabd 0e13 6cbd 5ca3 c2bd
00000290: 9b10 b7bc e5f8 48bc b415 87bd c809 27bd
000002a0: bdfe b5bd 4c3e 71bd d1f7 9dbd 5b48 abbd
000002b0: e781 30bc eb87 ecbc 1c0e 50bd 422e c2bd
000002c0: 1820 4abd 13e5 b2bd dc77 a0bd faff c9bd
000002d0: c080 2ebd 151a 70bd ca5b 5cbd 0054 04be
000002e0: 92a1 9ebd 71ed 40bd 6b49 64bd 1e35 4cbd
000002f0: 7900 94bd 5fa8 13bd a767 5abd f08c d9bc
00000300: 06e0 84bd 14a1 5ebd daac 00bd 92b6 2dbc
00000310: c012 5dbd 40b0 6ebd 09bb 7d3f d48d 8dbd
00000320: a1cb f3bc 34f7 aebd c3e7 5bbd cf95 97bd
00000330: 275c 90bd 744b 263d 4078 b1bd 57c6 06c0
00000340: 9863 aebd c45f 90bc 3396 64bd a00d 80bd
00000350: 10c6 27bd fa71 48bd d689 c2bc 38dc 6ebd
00000360: 9842 b9bf 0658 4fbd 865a 28bd 2e0a 03bf
00000370: d6b0 92bd b2e1 d9bd 320e 09bd e1c9 75bd
00000380: 586e fabc 9d42 86bc c8ab 97bd 46ac 7ebd
00000390: 7c98 efbd 80fe ffbb 94d8 92bd 55a2 8fbd
000003a0: a372 aebd bbe1 f8bc dd99 b4bd 3c9f 02bd
000003b0: 9662 5abc c7d1 2ebc 883f 77bd 9a7f aabd
000003c0: 3635 81bd 12b9 4ebd 765c 7ebd eeaf 21bd
000003d0: 7d17 19bd 1f61 74bc 2f02 ddbc acd0 44bd
000003e0: 8bb6 cebc 7b6b 98bd fa1c 75bd 5dec dfbd
000003f0: ac7b 8cbd d935 90bd 0f84 b8bd c836 96bd

fc1.weight f4 [128, 256]
-0.00058220973 -0.0030829858 -0.3771118 0.00053854956 -0.0021849752 0.0017404143 -0.00046295195 -0.0047429507
0.00022259122 -0.002597937 -0.0028081439 -0.0031720311 0.004325868 -0.0010550142 -0.003108492 -0.0005402005
-0.0052095037 8.402509e-05 0.0017323733 0.00016905057 0.0017142077 -0.0017172976 -0.0008263253 -0.0032600923
-0.0026237282 -0.0010780857 0.0048064007 -0.0008931179 -0.0024121448 -0.00067429396 0.001212304 -0.001791346
-0.0017416251 -0.0012056704 0.0011737549 0.0009250514 -0.0016749827 -0.001481815 -0.001167523 -0.0039937766
-0.0005910029 0.0010952369 0.0030778663 -0.002347862 0.0015428466 -0.0007381341 -0.0039056158 -0.0007072538
-0.0029168397 0.0018935312 -0.002508477 -0.002046395 0.00010881456 -0.0033664156 -0.0001690803 -0.0012025894
0.0006083382 -0.77158 -0.00047372835 -1.3999764 -0.0020662 -0.0033452366 0.0008446998 -0.000587903
0.0040815696 0.00026350885 0.0025513784 -0.0034977451 -0.0026125794 -0.0022554456 -1.0279138 -0.002675122
0.0004773695 -0.0045231725 -0.0026491291 -0.000146038 -0.0017786205 -0.0020924823 -0.00088805024 -0.001101696
-0.00051138224 0.0003712945 -0.0010255367 -1.637827 -0.0015507138 -0.0022041781 -0.00097171025 0.0018583684
-0.0020003566 -0.00075651536 0.00074849295 0.0036782124 -0.0019526685 -0.0003388572 -0.0027561036 -0.0026048706
0.0025204585 -0.0020950788 -0.001848309 0.0009310906 -0.00057771045 0.00045492902 0.00306116 -0.0029076706
-0.00044818438 -0.002079014 -0.0005212023 0.0022849962 0.00028439442 0.00015624201 -0.004846075 -0.9790388
-0.0015965141 0.0022579252 0.0007845407 -0.0025666442 0.0039123935 0.00057264033 0.0034422304 -0.00020998078
-0.00067881 -0.00086963095 -5.447021e-05 -1.583892 0.00022702236 0.004003682 -0.81796503 0.004849909
-0.00081730034 0.00045808923 -0.0005661008 -0.00038918847 0.00034878388 -0.0035600422 -0.0029277396 0.00020224474
-2.8067363e-05 -0.0027926827 -0.003731729 -0.0008063845 -0.0014309726 -0.0020642497 -0.0039767656 -0.002944152
0.0002846414 -0.0035461884 -0.004320364 -0.0011280098 -0.00028947578 -0.0006404179 -0.00060668396 0.00048084668
-0.0030178428 -0.0027807832 -0.0017159414 0.0030082103 0.002800576 0.00015962144 0.0030121878 0.0004522613
-0.0015208409 0.0008653942 0.0006542889 0.0004711147 -0.0016793032 0.00010519347 -0.00011199763 0.0037958366
0.003753081 0.00025830208 -0.0004466758 0.0042348495 -0.002621324 0.005691809 -0.0007369099 0.0050218822
-0.0012823688 0.0016926326 0.0006502951 0.0010175634 -0.00051995704 0.0009209213 -0.0011139957 -0.0011961673
-0.0040165414 0.00015695213 -0.00016829027 -0.0007890127 -0.0011949933 -0.0010113154 -0.00080830476 0.00075464806
-0.0014112968 -0.003587872 0.0005220338 -0.00085972465 0.002629593 -0.00047168924 -0.14402558 0.00051939214
-0.0014389021 -0.0020267274 -0.002717672 -0.00056049833 -0.0037060827 -1.053828 0.0024337787 -1.9315133
0.0043604323 -0.0012959819 0.004463108 -0.0034865874 -0.0022363325 -0.002730549 -0.0011488806 -0.0031410062
-0.29246125 -0.0010597497 -0.0015282339 -0.992174 -0.0021842266 -0.0029019697 0.002379357 0.0031932294
-0.002730465 -0.0045910757 0.0024038968 0.0052654403 0.0025115022 0.00038671587 0.00080451765 -0.000102597296
0.0013794953 -0.0033604775 0.00092062535 0.004585613 -0.00072922197 -0.0039643208 0.0016885222 0.003816785
-0.002815627 -0.003649977 -0.00280425 0.0033160627 -0.0034919346 -0.002441007 0.0003129664 -0.0011931781
0.0005650569 0.0019340718 0.0006307512 0.0026180234 -0.0002394334 0.0037531136 0.0046326243 -0.0028915373
00000000: 6f9f 18ba eb0b 4abb cc14 c1be 732d 0d3a
00000010: cd31 0fbb 9d1e e43a 5cb8 f2b9 c16a 9bbb
00000020: 6067 6939 2642 2abb d608 38bb dae1 4fbb
00000030: 03c0 8d3b 6748 8aba d7b7 4bbb 3e9c 0dba
00000040: 7cb4 aabb a036 b038 cd10 e33a 2b43 3139
00000050: 44af e03a f216 e1ba c19d 58ba 46a7 55bb
00000060: dbf2 2bbb 8e4e 8dba 037f 9d3b 2120 6aba
00000070: 1315 1ebb 1ac3 30ba 2ce6 9e3a 99cb eaba
00000080: 3e47 e4ba 9607 9eba aed8 993a 267f 723a
00000090: 188b dbba 7639 c2ba 9207 99ba 3ade 82bb
000000a0: 89ed 1aba 0d8e 8f3a 07b6 493b 97de 19bb
000000b0: 5739 ca3a 577f 41ba 5cf5 7fbb 0067 39ba
000000c0: 7328 3fbb 5d30 f83a 4365 24bb d01c 06bb
000000d0: 5f33 e438 159f 5cbb 264b 31b9 34a0 9dba
000000e0: e378 1f3a 4486 45bf be5e f8b9 6d32 b3bf
000000f0: 1569 07bb c23b 5bbb d86e 5d3a 811d 1aba
00000100: b0be 853b 8f27 8a39 0735 273b 6d3a 65bb
00000110: cf37 2bbb 19d0 13bb ae92 83bf 1a51 2fbb
00000120: 7347 fa39 1f37 94bb 039d 2dbb c721 19b9
00000130: 9a20 e9ba 0722 09bb 0bcc 68ba c966 90ba
00000140: 480e 06ba 4eaa c239 4d6b 86ba 51a4 d1bf
00000150: 5241 cbba f973 10bb 5fba 7eba 7f94 f33a
00000160: 6a18 03bb e350 46ba 8336 443a 2a0e 713b
00000170: aff0 ffba a5a8 b1b9 bf9f 34bb 7ab6 2abb
00000180: 472e 253b 974d 09bb f542 f2ba 6f14 743a
00000190: 7e71 17ba 8a83 ee39 be9d 483b 9e8e 3ebb
000001a0: 4afa eab9 1140 08bb 4ba1 08ba e0bf 153b
000001b0: c61a 9539 e5d4 2339 d3cb 9ebb 49a2 7abf
000001c0: 2042 d1ba b3f9 133b a3a9 4d3a 2535 28bb
000001d0: 8933 803b 3e1d 163a 0b97 613b 492e 5cb9
000001e0: 2bf2 31ba f2f7 63ba f176 64b8 f9bc cabf
000001f0: da0c 6e39 5231 833b 2866 51bf fceb 9e3b
00000200: 1940 56ba b22b f039 6266 14ba fe0b ccb9
00000210: fbdc b639 994f 69bb 52df 3fbb a911 5439
00000220: 3472 ebb7 7105 37bb 0690 74bb 8c63 53ba
00000230: 798f bbba 5d48 07bb 874f 82bb adf2 40bb
00000240: ec3b 9539 2b67 68bb d791 8dbb bad9 93ba
00000250: c8c4 97b9 b8e1 27ba df09 1fba 261a fc39
00000260: 00c7 45bb cd3d 36bb 70e9 e0ba 6525 453b
00000270: de89 373b 0e60 2739 2068 453b 7c1d ed39
00000280: f456 c7ba 9fdb 623a 9684 2b3a f2ff f639
00000290: 111c dcba 509b dc38 45e0 eab8 92c3 783b
000002a0: 40f6 753b b86c 8739 d02f eab9 7ec4 8a3b
000002b0: 85ca 2bbb 5b82 ba3b 302d 41ba 9a8e a43b
000002c0: 2815 a8ba 53db dd3a 9178 2a3a c35f 853a
000002d0: ba4d 08ba fb69 713a 7e03 92ba b7c8 9cba
000002e0: 319d 83bb 8493 2439 1377 30b9 bfd5 4eba
000002f0: 52a1 9cba 1d8e 84ba 6ae4 53ba 93d3 453a
00000300: 43fb b8ba 8122 6bbb 18d9 083a 255f 61ba
00000310: 4055 2c3b 0f4d f7b9 717b 13be d127 083a
00000320: 8b99 bcba d8d2 04bb f81a 32bb 68ee 12ba
00000330: c0e1 72bb d6e3 86bf 0880 1f3b d43b f7bf
00000340: f5e1 8e3b f0dd a9ba 433f 923b 3b7f 64bb
00000350: 6f8f 12bb 03f3 32bb 0996 96ba 57d9 4dbb
00000360: 7bbd 95be 4de7 8aba 054f c8ba 1eff 7dbf
00000370: 3e25 0fbb f92e 3ebb fdee 1b3b 8045 513b
00000380: 9af1 32bb bc70 96bb b28a 1d3b b789 ac3b
00000390: 0498 243b 20c0 ca39 44e6 523a 8129 d7b8
000003a0: 2ed0 b43a 753b 5cbb 1f56 713a e942 963b
000003b0: 4229 3fba 22e7 81bb 6751 dd3a 0723 7a3b
000003c0: 6286 38bb 7434 6fbb 82c7 37bb 4d52 593b
000003d0: f1d8 64bb 4df9 1fbb a415 a439 6a64 9cba
000003e0: 5420 143a ae80 fd3a ff58 253a 2593 2b3b
000003f0: 6a10 7bb9 ccf6 753b 45cd 973b f27f 3dbb

fc1.bias f4 [128]
-0.03129481 -0.30030456 -0.03649044 -0.027106669 -0.06907527 -0.57203245 -0.6839402 -0.0023452207
-0.22613889 -0.2143802 0.920855 -0.06525486 -0.1029971 -0.08715329 -0.031252015 0.6300374
-0.04080714 -0.16289553 1.6355666 -0.046575237 -0.25224662 -0.6377324 -0.097646825 -3.1880815
-0.10935935 -0.09251257 -0.20803663 -0.007286883 -0.0056795557 1.1319501 -0.21475056 -1.2499979
4.630889 -0.35545442 -0.09244166 -0.01725996 -0.06113718 -0.13502763 -0.008858296 0.57680035
-0.7042065 -0.05490704 -0.114926934 -0.10320587 -0.084018335 -0.090504974 -0.06395247 -0.6115496
3.235261 -3.220719 -0.8367656 -0.029939134 -0.030661983 -0.059329797 -0.105281055 -0.08281266
-0.0081933895 -0.65687686 -0.3731014 -0.10341878 -0.18188511 -0.1293791 -0.121663176 -0.10877982
-0.049163513 -0.2846399 -0.03831274 -0.05841216 -0.048538435 -0.040282473 -0.008715566 -0.2687177
-0.011423571 -0.10417545 -0.041411307 -1.1369787 -0.58347124 -0.3655289 -0.01464085 -0.053144105
-0.40048718 -0.053414494 -0.30963415 -0.026949776 -0.029334273 -0.5828304 -0.15850815 -0.024878649
-0.07917571 -0.33624783 -0.50649595 -0.36261964 -0.021617949 -0.49030572 -0.052324012 -0.026137069
-0.09860932 0.6289683 -0.124593355 -0.12240312 0.8337071 1.2595983 -0.0004370554 -0.08074623
-0.25142598 -0.10074084 -1.1401747 -0.0161884 -0.058699574 2.964397 0.17702591 -0.07678871
-0.48004195 -0.0046541863 -1.1685518 0.31588146 -0.061329078 -0.081917495 -0.080034904 -0.16813238
-0.041089807 -0.2871914 -0.05659469 -0.24687539 -0.0865092 -0.00052003365 -0.80729145 -0.04560212
00000000: fd2e 00bd 85c1 99be 0077 15bd ce0e debc
00000010: 5677 8dbd b870 12bf b416 2fbf 46b2 19bb
00000020: f490 67be 7c86 5bbe 27bd 6b3f 57a4 85bd
00000030: 25f0 d2bd 6d7d b2bd 1d02 00bd 224a 213f
00000040: 6325 27bd 16ce 26be 3f5a d13f adc5 3ebd
00000050: 7826 81be 6e42 23bf 0ffb c7bd 8709 4cc0
00000060: cbf7 dfbd 3b77 bdbd 8e07 55be cec6 eebb
00000070: 911b babb bee3 903f 92e7 5bbe eeff 9fbf
00000080: 3e30 9440 1ffe b5be 0e52 bdbd c264 8dbc
00000090: fb6a 7abd af44 0abe 6322 11bc 30a9 133f
000000a0: e146 34bf 34e6 60bd d05e ebbd 995d d3bd
000000b0: ce11 acbd ac5a b9bd 83f9 82bd 848e 1cbf
000000c0: 840e 4f40 4320 4ec0 4536 56bf ea42 f5bc
000000d0: d72e fbbc cd03 73bd 989d d7bd af99 a9bd
000000e0: 913d 06bc 1529 28bf 2607 bfbe 3acd d3bd
000000f0: 1740 3abe f47b 04be 8b2a f9bd f4c7 debd
00000100: ae5f 49bd 52bc 91be d2ed 1cbd 9741 6fbd
00000110: 3dd0 46bd 3cff 24bd bccb 0ebc 5e95 89be
00000120: ee29 3bbc f059 d5bd e79e 29bd 8588 91bf
00000130: 5f5e 15bf 9b26 bbbe 2de0 6fbc a2ad 59bd
00000140: a80c cdbe 28c9 5abd 5e88 9ebe c7c5 dcbc
00000150: 6e4e f0bc 6034 15bf f64f 22be 4fce cbbc
00000160: e026 a2bd ad28 acbe b8a9 01bf 48a9 b9be
00000170: 2018 b1bc 5a09 fbbe b451 56bd 681d d6bc
00000180: aff3 c9bd 1104 213f cd2a ffbd 7dae fabd
00000190: d46d 553f 843a a13f 9524 e5b9 485e a5bd
000001a0: e8ba 80be 3751 cebd 3ff1 91bf 899d 84bc
000001b0: f76e 70bd aeb8 3d40 4846 353e 6643 9dbd
000001c0: 0fc8 f5be 2582 98bb 1b93 95bf 37bb a13e
000001d0: 3334 7bbd 5cc4 a7bd 57e9 a3bd e52a 2cbe
000001e0: c94d 28bd c00a 93be d5cf 67bd e7cc 7cbe
000001f0: bc2b b1bd de52 08ba a7aa 4ebf 4ac9 3abd

fc2.weight f4 [64, 128]
-0.19194014 -0.7115001 -0.083954886 -0.3852698 -1.2700646 -0.5872776 -2.0362754 -0.22350755
-0.45807832 -0.118138395 -0.9672656 -0.3848507 -0.6148092 -0.4099504 0.13589461 0.7990427
-0.43085706 -0.5291641 -1.5710343 -0.6042491 -0.9420556 -0.12989473 -0.45612216 -0.9271435
-0.8475895 0.003336553 0.7388183 -0.17110139 -0.7448814 -0.1818347 0.20194046 -1.6623006
-0.7719375 -0.14617218 0.40635982 -0.053143475 -0.45033756 0.029028844 -0.0072376155 -0.84651643
0.09024739 -0.09394738 -0.57231724 0.36470935 -0.19015583 -0.6049688 -0.5185649 0.1401038
-0.48856977 -1.1164925 -1.7230778 0.47467545 1.1965206 -0.66225845 0.46602032 -0.15360947
0.035438266 0.28625235 -2.6527905 -0.37722835 1.310307 -0.5712182 -0.2829997 -0.3421132
0.10969574 -0.30650988 -0.30799705 -2.7536957 -0.018197048 -0.6865324 0.03577305 -0.4019637
-0.19899757 -0.06299001 -0.18770213 -4.9897375 -1.2449305 -0.025452381 -0.652142 -0.67412007
-0.6343269 -0.20353173 -0.27018604 -0.45245194 -0.7379866 -1.3451027 -0.2545484 -0.15557364
0.8439672 -0.9263032 -0.19963133 -0.35917735 0.048581723 1.2925141 -0.6827189 -0.9511671
1.2026365 -1.251063 -0.34248522 -0.48268923 -2.312924 -0.097723015 0.092895105 -1.1645763
-1.2606674 -0.3475713 -0.13760918 -0.30899525 -0.09085876 -1.826716 -0.9423617 -0.68800175
0.028261995 -0.87253404 -1.63315 -0.9229358 -0.4499049 -0.3355786 -0.29060146 -0.27923653
-0.38214672 -0.13527602 -0.70003873 -0.36599034 -0.2714203 -0.51448226 -0.10333078 -0.72554535
-0.00014984273 -0.0001439207 0.00024532704 -7.3769465e-05 0.00017986308 -1.1358017e-05 0.21030506 -7.322402e-05
0.00030535998 -0.0052380245 -0.006934336 -0.0002325194 -3.212427e-05 -3.1417363e-05 0.00022792928 -0.008042619
-4.4420653e-05 -0.00012131421 -0.25028226 0.00022543938 0.0002116312 -6.4131586e-05 -5.18789e-06 -0.5672927
-0.00016202965 4.1329346e-05 4.8777707e-05 -3.496559e-05 7.888886e-05 -0.35469776 0.00015741955 -0.01789486
-0.13640988 -0.0007012883 -0.00020318807 8.755138e-05 -3.1041447e-05 -0.00025051733 0.00023923205 -0.31829843
0.00029411732 1.0702918e-05 -5.676317e-05 -0.00015455598 -0.0001311894 -4.2140073e-05 2.4962925e-05 5.4781834e-05
-0.15327911 -0.16714038 -0.00506478 0.0002136808 5.107519e-05 8.075481e-05 -2.0041105e-05 0.00013226095
-9.9774625e-06 6.470996e-05 -0.00016807622 -0.00018456805 4.494482e-06 -4.0048548e-05 -2.8450648e-05 -7.865155e-05
-8.1369835e-05 0.00010248546 0.0001348576 6.263905e-05 2.685392e-05 3.63932e-05 7.244597e-05 6.915739e-06
0.0001855442 0.00011733128 7.878965e-05 -0.00029191494 -0.517164 -7.089285e-05 6.833735e-05 -1.5114531e-05
0.00022032713 -0.00019853353 -0.00029296777 8.967891e-05 7.834782e-06 -0.0005864091 -0.00027260513 0.00010929519
-0.00028025077 0.00011224024 3.873678e-05 0.0002911911 0.000121432204 -0.00029422494 -0.00013298487 -0.0007230923
5.8651167e-05 0.0881822 -9.594816e-07 2.479127e-06 -0.14343284 -0.18028398 -8.8630564e-05 -0.00022740065
0.08552959 0.00010703294 -0.0013915006 5.3295676e-05 0.00022554133 -0.09920072 -0.11139435 -6.461565e-05
0.00075556256 0.00019291186 6.913688e-05 -0.05119253 -7.720165e-05 0.00013392708 -0.0001509593 0.004239657
-0.00015994172 4.842259e-05 -7.21956e-06 0.00027370115 0.0001592978 -1.4738633e-05 -0.325016 4.911435e-06
00000000: f58b 44be df24 36bf 8af0 abbd 1542 c5be
00000010: 7a91 a2bf d357 16bf 5652 02c0 2adf 64be
00000020: 3e89 eabe 8bf2 f1bd b89e 77bf 270b c5be
00000030: 2364 1dbf 05e5 d1be f527 0b3e 108e 4c3f
00000040: 4c99 dcbe 4c77 07bf a717 c9bf 12b0 1abf
00000050: 8e2a 71bf 2003 05be d888 e9be 4759 6dbf
00000060: a0fb 58bf 12aa 5a3b 3223 3d3f 3435 2fbe
00000070: 8cb0 3ebf e032 3abe 7bc9 4e3e 44c6 d4bf
00000080: b29d 45bf 29ae 15be 650e d03e f9ac 59bd
00000090: a592 e6be e6cd ed3c 8529 edbb 4db5 58bf
000000a0: a0d3 b83d 7c67 c0bd 6283 12bf 2fbb ba3e
000000b0: 36b8 42be 3cdf 1abf abc0 04bf 5f77 0f3e
000000c0: d125 fabe 3ae9 8ebf d08d dcbf a908 f33e
000000d0: 9627 993f c589 29bf 379a ee3e cd4b 1dbe
000000e0: b727 113d ab8f 923e 52c7 29c0 1324 c1be
000000f0: 24b8 a73f 5b3b 12bf 56e5 90be 7629 afbe
00000100: 29a8 e03d ddee 9cbe cab1 9dbe 8d3c 30c0
00000110: fa11 95bc 96c0 2fbf c386 123d 30ce cdbe
00000120: 05c6 4bbe e800 81bd fd34 40be eeab 9fc0
00000130: e259 9fbf 8381 d0bc c7f2 26bf 2293 2cbf
00000140: 3f63 22bf 9f6a 50be d355 8abe c8a7 e7be
00000150: b1ec 3cbf 532c acbf 2b54 82be b24e 1fbe
00000160: 3c0e 583f 3522 6dbf 286c 4cbe 18e6 b7be
00000170: a1fd 463d 1a71 a53f aac6 2ebf b07f 73bf
00000180: feef 993f d522 a0bf 395a afbe 0b23 f7be
00000190: f206 14c0 0123 c8bd ca3f be3d d610 95bf
000001a0: 8d5d a1bf def4 b1be 6ce9 0cbe a034 9ebe
000001b0: 2814 babd d4d1 e9bf 9e3e 71bf e220 30bf
000001c0: b385 e73c 645e 5fbf 0f0b d1bf 8545 6cbf
000001d0: ef59 e6be f5d0 abbe b7c9 94be 17f8 8ebe
000001e0: bca8 c3be cc85 0abe bd35 33bf 1663 bbbe
000001f0: 9af7 8abe 1cb5 03bf 179f d3bd 57bd 39bf
00000200: 1a1f 1db9 6be9 16b9 3d9f 8039 aeb4 9ab8
00000210: a199 3c39 508e 3eb7 365a 573e d98f 99b8
00000220: b918 a039 bca3 abbb 6d39 e3bb 73d0 73b9
00000230: 2cbd 06b8 23c6 03b8 4d00 6f39 30c5 03bc
00000240: 5050 3ab8 126a feb8 ff24 80be ec63 6c39
00000250: 51e9 5d39 627e 86b8 a313 aeb6 183a 11bf
00000260: 81e6 29b9 0c59 2d38 aa96 4c38 04a8 12b8
00000270: 2271 a538 f29a b5be fd10 2539 3e98 92bc
00000280: 08af 0bbe a9d6 37ba e20e 55b9 ca9b b738
00000290: 8032 02b8 de57 83b9 5dda 7a39 03f8 a2be
000002a0: c233 9a39 af90 3337 fd14 6eb8 4e10 22b9
000002b0: e38f 09b9 8fbf 30b8 7967 d137 8cc5 6538
000002c0: 33f5 1cbe d926 2bbe 74f6 a5bb 810f 6039
000002d0: 9139 5638 e95a a938 f21d a8b7 87af 0a39
000002e0: e064 27b7 e5b4 8738 9e3d 30b9 9c88 41b9
000002f0: 4ecf 9636 cdf9 27b8 4da9 eeb7 bbf1 a4b8
00000300: 19a5 aab8 76ed d638 9068 0d39 155d 8338
00000310: 5b44 e137 e7a4 1838 22ee 9738 bf0d e836
00000320: a48e 4239 c00f f638 df3b a538 290c 99b9
00000330: dc64 04bf 4fac 94b8 5650 8f38 6b94 7db7
00000340: 9d07 6739 702d 50b9 7899 99b9 0012 bc38
00000350: 2272 0337 40b9 19ba 71ec 8eb9 6935 e538
00000360: 9fee 92b9 8562 eb38 4d79 2238 02ab 9839
00000370: 6ba9 fe38 3442 9ab9 db71 0bb9 e78d 3dba
00000380: 3600 7638 df98 b43d 89c7 80b5 145f 2636
00000390: 0fe0 12be 5d9c 38be 2cdf b9b8 6672 6eb9
000003a0: 232a af3d df76 e038 0363 b6ba cc89 5f38
000003b0: 4a7f 6c39 bf29 cbbd b922 e4bd 4382 87b8
000003c0: f210 463a 6248 4a39 94fd 9038 42af 51bd
000003d0: 52e7 a1b8 c76e 0c39 d44a 1eb9 d2ec 8a3b
000003e0: 07b6 27b9 5c19 4b38 8c3f f2b6 8c7f 8f39
000003f0: 2d09 2739 f245 77b7 7f68 a6be e8cc a436

fc2.bias f4 [64]
-0.021588402 0.36551592 -0.0075905705 -0.24105105 0.3013382 0.18992333 -0.121700354 -0.16251269
-0.022163954 -0.00742091 -0.4363007 0.677674 -0.5887715 -0.25350362 -0.009219051 0.38732696
0.19136114 -0.38071236 -0.07395024 -0.061109155 -0.49017286 -0.1913685 -0.099166 0.31137753
0.2956304 -0.4050276 0.7127801 0.07082794 0.45762572 -0.09056116 -0.17878471 0.0004502252
-0.29184335 -0.29640198 -0.35223502 -0.3788631 -0.74567086 -0.33921945 -0.8484499 0.23488718
0.4084405 -0.06546191 -0.40879285 -0.100299075 -0.09240184 -0.43740988 -0.58692867 -0.062756106
-0.32333338 0.16353758 -0.023636421 0.3140983 -0.069350034 -0.44736147 0.10283653 -0.52246726
-0.41066217 -0.37469465 -0.35185668 0.30557075 -0.13021919 -0.12888056 -0.40394312 -0.024689306
00000000: 29da b0bc e724 bb3e 52ba f8bb 16d6 76be
00000010: 0049 9a3e 437b 423e 093e f9bd ba69 26be
00000020: 2e91 b5bc 1b2b f3bb ce62 dfbe 0b7c 2d3f
00000030: bbb9 16bf 3acb 81be 810b 17bc b84f c63e
00000040: 2df4 433e bbec c2be 3973 97bd 984d 7abd
00000050: f0f7 fabe 1bf6 43be 8b17 cbbd e06c 9f3e
00000060: de5c 973e c75f cfbe c278 363f 3d0e 913d
00000070: eb4d ea3e 2178 b9bd 5713 37be 340c ec39
00000080: 7e6c 95be 00c2 97be 2658 b4be 58fa c1be
00000090: 49e4 3ebf 2cae adbe 0334 59bf 4486 703e
000000a0: 1d1f d13e e510 86bd 4c4d d1be 9a69 cdbd
000000b0: 2d3d bdbd 30f4 dfbe f540 16bf 4686 80bd
000000c0: f48b a5be 6576 273e 2ba1 c1bc 7ed1 a03e
000000d0: 6407 8ebd 900c e5be f59b d23d 6ac0 05bf
000000e0: 5042 d2be fad7 bfbe 8f26 b4be c573 9c3e
000000f0: 2e58 05be 44f9 03be a2d1 cebe 3a41 cabc

out.weight f4 [10, 64]
-0.030588014 -0.057331566 -1.2864553 5.6926036 -0.077644065 0.07073825 -4.6629176 2.1292593
-0.0064210184 -1.4949728 -3.522364 -0.05125408 -1.4015481 -8.294182 0.15823859 -0.013602384
-0.083713874 -4.0365925 -0.834964 -5.850744 -0.4202649 -7.1331563 -0.131674 -0.08203277
-0.11845354 -2.0574858 -0.09385404 -0.16604418 -0.07295736 0.4929724 -4.7829986 4.899305
5.253748 0.55394286 4.351403 -1.6066386 -5.240835 -5.6529055 -2.0536635 -0.032401226
0.012657796 4.580306 -1.2902342 1.9536282 3.607229 -3.2710927 0.79894894 3.0258677
0.81956536 -0.027228702 6.033817 0.026947545 2.5412714 -5.0416555 -0.014821639 3.6280751
-4.6717567 0.03773134 3.3807814 0.32640558 -1.2786052 0.8434266 -0.07640786 -0.46110454
1.8902082 -0.11900717 3.8884404 -1.1942523 2.808314 -0.075826876 -1.0925375 2.3769038
0.010926782 -7.4644713 0.5153908 0.09294156 4.94601 3.0878916 -2.2165062 -0.037630193
-0.14960557 1.1646833 4.6038904 1.8653587 2.4152071 2.628608 3.3166225 -0.98099804
-0.112573825 -1.5299585 0.07629146 0.012498213 -0.099368915 -4.7614884 -0.33971214 -0.11934556
-1.3519751 14.064366 0.3918135 -0.7334671 -2.604416 -2.776445 -1.655447 -0.19863169
-0.24604556 0.9910471 0.9691755 -2.8746984 -0.99890536 -0.8631495 1.0183417 0.66960436
2.3380713 -0.16188307 -1.2831166 0.71643865 -2.7242713 -1.9406563 -0.12667042 -0.23378511
-2.7054613 0.24377178 3.83914 -1.3162541 -0.9445377 -1.8791292 -0.6999362 0.0050097504
0.60769665 -0.19769013 4.3883348 -2.4217126 -0.197723 -0.17401473 -0.021746954 -1.0499945
0.008978536 -3.6851254 3.6567357 -0.49676254 2.8718257 3.6259017 -4.3969026 1.0960386
0.017692285 -6.657925 2.667711 -4.13057 -1.2063109 -4.0082073 2.83555 0.14070503
0.12910892 0.70665413 0.25401613 -0.077645935 0.29737577 2.2735124 0.6761516 -0.9158716
3.736537 2.303363 0.86290157 -0.4142635 -5.695326 2.9724748 1.1188155 -0.09617696
-0.48191562 -0.121792205 1.8295707 2.2505734 -3.0365915 3.0334737 -0.47108635 -0.044295356
-3.136894 0.6492362 -1.6372219 -0.41107383 -2.335999 0.6962766 -0.023583205 0.26576102
4.2534833 0.114204176 -2.5738294 -0.023787204 -1.1044265 -0.6094657 -0.60761744 -1.625016
7.8320103 -0.22490047 -2.6394844 3.6797557 -0.51315796 -0.09714466 2.5439942 5.1239033
-0.48396978 -4.2884536 0.8484842 -0.021578837 -0.5276819 1.4340655 1.3377408 -0.3146299
-0.118054345 1.0206168 -7.5786786 1.4133433 2.1103961 -6.550724 3.3173444 -0.10686411
0.060211264 6.7941217 0.15912254 0.007819713 0.021142235 -0.7616243 -0.18393855 -0.1990663
-0.20987444 -6.3737226 7.1216826 1.1835167 -0.20551609 0.5881468 4.918134 -0.19600336
1.9104457 0.65403634 -0.2938491 5.8992076 5.2457943 -2.7749238 -3.5668046 0.66977626
2.792455 0.8518685 3.9703987 -0.52158827 -0.80999815 -1.3991808 -0.13257465 0.5452339
0.052449822 0.22657533 6.120024 -1.1507162 5.338034 -0.688533 0.6640193 -1.785094
00000000: b793 fabc 81d4 6abd 91aa a4bf cf29 b640
00000010: da03 9fbd 37df 903d 9f36 95c0 c945 0840
00000020: 6867 d2bb 455b bfbf 696e 61c0 ccef 51bd
00000030: ee65 b3bf f8b4 04c1 4c09 223e 89dc 5ebc
00000040: 2e72 abbd c42b 81c0 33c0 55bf 4b39 bbc0
00000050: f62c d7be d142 e4c0 8dd5 06be cc00 a8bd
00000060: c597 f2bd d9ad 03c0 8c36 c0bd 7c07 2abe
00000070: ab6a 95bd e166 fc3e 530e 99c0 1bc7 9c40
00000080: b41e a840 33cf 0d3f b23e 8b40 55a6 cdbf
00000090: ecb4 a7c0 9ae4 b4c0 396f 03c0 26b7 04bd
000000a0: a562 4f3c de91 9240 6526 a5bf 7d10 fa3f
000000b0: d7dc 6640 9559 51c0 eb87 4c3f d1a7 4140
000000c0: 09cf 513f ba0e dfbc 0715 c140 19c1 dc3c
000000d0: 31a4 2240 3e55 a1c0 76d6 72bc 6232 6840
000000e0: 087f 95c0 2d8c 1a3d b95e 5840 a21e a73e
000000f0: 56a9 a3bf ceea 573f b97b 9cbd e515 ecbe
00000100: 58f2 f13f 08ba f3bd 35dc 7840 42dd 98bf
00000110: 6bbb 3340 1f4b 9bbd 45d8 8bbf 311f 1840
00000120: 3f06 333c f3dc eec0 a7f0 033f 2558 be3d
00000130: b745 9e40 04a0 4540 3ddb 0dc0 1e22 1abd
00000140: 3432 19be 5814 953f 1253 9340 13c4 ee3f
00000150: c192 1a40 1d3b 2840 8b43 5440 b022 7bbf
00000160: 1b8d e6bd aed5 c3bf b23e 9c3d 4ec5 4c3c
00000170: ee81 cbbd 1d5e 98c0 c0ee adbe 726b f4bd
00000180: 850d adbf a507 6141 c79b c83e 80c4 3bbf
00000190: c0ae 26c0 46b1 31c0 b0e5 d3bf 1b66 4bbe
000001a0: 5ef3 7bbe 43b5 7d3f e31b 783f 0ffb 37c0
000001b0: 43b8 7fbf 5ef7 5cbf 0559 823f 316b 2b3f
000001c0: f6a2 1540 adc4 25be 2a3d a4bf 8668 373f
000001d0: 765a 2ec0 6d67 f8bf e4b5 01be 5d65 6fbe
000001e0: 4726 2dc0 4f9f 793e 78b4 7540 047b a8bf
000001f0: 39cd 71bf 4e87 f0bf 052f 33bf d528 a43b
00000200: 0292 1b3f 486f 4abe 3d6d 8c40 57fd 1ac0
00000210: e677 4abe eb30 32be ab26 b2bc 3866 86bf
00000220: b61a 133c 18d9 6bc0 f507 6a40 a957 febe
00000230: fecb 3740 c60e 6840 6db3 8cc0 fe4a 8c3f
00000240: 69ef 903c b90d d5c0 c7bb 2a40 a12d 84c0
00000250: 6568 9abf 3c43 80c0 a779 3540 fb14 103e
00000260: 2135 043e 49e7 343f 670e 823e d504 9fbd
00000270: a341 983e 3a81 1140 4518 2d3f 9076 6abf
00000280: 6c23 6f40 4d6a 1340 1ee7 5c3f 581a d4be
00000290: 1c40 b6c0 073d 3e40 5935 8f3f 6df8 c4bd
000002a0: a5bd f6be 316e f9bd 5f2f ea3f 6509 1040
000002b0: 8457 42c0 6f24 4240 3b32 f1be 0c6f 35bd
000002c0: dfc2 48c0 5834 263f 7d90 d1bf 4578 d2be
000002d0: 0281 15c0 2f3f 323f 9131 c1bc d411 883e
000002e0: 891c 8840 e1e3 e93d 9fb9 24c0 62dd c2bc
000002f0: d95d 8dbf f205 1cbf d18c 1bbf 8600 d0bf
00000300: d49f fa40 4f4c 66be 50ed 28c0 1e81 6b40
00000310: 525e 03bf c8f3 c6bd cdd0 2240 04f7 a340
00000320: e3ca f7be 033b 89c0 4336 593f 1ac6 b0bc
00000330: 2916 07bf 758f b73f 173b ab3f 2c17 a1be
00000340: 7ac6 f1bd 92a3 823f 8984 f2c0 6fe8 b43f
00000350: bb10 0740 889f d1c0 5f4f 5440 92db dabd
00000360: 16a0 763d 7269 d940 05f1 223e 411e 003c
00000370: 7b32 ad3c cff9 42bf 635a 3cbe 09d8 4bbe
00000380: 53e9 56be 89f5 cbc0 d3e4 e340 7a7d 973f
00000390: cf72 52be ca90 163f 5b61 9d40 1bb5 48be
000003a0: 7c89 f43f ed6e 273f 6473 96be 4fc6 bc40
000003b0: 8cdd a740 5a98 31c0 8746 64c0 7576 2b3f
000003c0: 95b7 3240 0e14 5a3f 031b 7e40 cf86 05bf
000003d0: 0a5c 4fbf 5b18 b3bf a6c1 07be 7394 0b3f
000003e0: a0d5 563d 5d03 683e 3dd7 c340 ab4a 93bf
000003f0: 2dd1 aa40 b343 30bf 2bfd 293f f67d e4bf

out.bias f4 [10]
0.11945076 0.042123094 0.21345298 0.06295296 0.07557628 0.015805028 0.09978766 0.20184726
0.05993495 0.028464545
00000000: 9aa2 f43d 4489 2c3d 6b93 5a3e 7bed 803d
00000010: bdc7 9a3d 8c79 813c 795d cc3d 0cb1 4e3e
00000020: 5a7e 753d 7a2e e93c
