exps/regularModelExperiments/pretrainedmodels/neuralBalanceModel0.pt (torch, 973831 bytes, 8 tensors)

fc.weight f4 [256, 784]
000000 fa 68 85 3a e1 8f 6b 3a 73 34 29 ba 0d d2 06 39
       0.001017838 0.0008985978 -0.0006454654 0.00012857486
000010 1b de 0a ba 28 a0 6b 3a 5e 9a a7 38 28 ae a0 b9
       -0.00052973785 0.0008988404 7.991934e-05 -0.00030647335
000020 f4 b8 36 b8 0b cc 79 ba fe 34 62 3a c8 c0 33 ba
       -4.3564432e-05 -0.0009529001 0.0008629112 -0.0006857035
000030 5e d2 24 3a d1 d3 fd b9 90 f3 1f 3a 74 38 43 3a
       0.00062874507 -0.00048413736 0.00061016623 0.0007447072
000040 b5 5f 0f 3a ca 1a ba b8 ab 18 80 38 1f db 81 ba
       0.00054692785 -8.874161e-05 6.1081104e-05 -0.0009907222
000050 8f 7d 71 ba f8 c0 68 ba 0e 25 ce 39 dd 07 b6 38
       -0.000921213 -0.0008878852 0.0003931899 8.679901e-05
000060 10 53 35 3a 24 dd 0c 3a 9a 58 2a b9 58 28 83 ba
       0.00069169793 0.00053735287 -0.0001624547 -0.001000653
000070 79 64 e6 b9 57 3d 9b b9 45 43 1b 3a b2 30 0f 3a
       -0.00043943877 -0.00029609606 0.00059228047 0.0005462273
000080 64 82 30 ba ab 01 01 ba f6 6c 24 3a d5 cb 63 ba
       -0.0006733297 -0.0004921208 0.000627234 -0.0008689736
000090 63 28 34 ba e6 c0 cb b9 45 89 52 3a d2 38 6b ba
       -0.0006872473 -0.00038862898 0.0008031319 -0.00089730055
0000a0 28 4e 17 3a e0 d5 58 b9 c7 71 bd b7 34 50 1e ba
       0.0005771839 -0.0002067904 -2.2583537e-05 -0.0006039173
0000b0 62 74 82 39 7a 7e 6e 39 3d 3f 16 b9 14 ae 5b ba
       0.00024882244 0.00022744565 -0.00014328673 -0.00083801267
0000c0 8c fa 4d 38 c0 aa 11 ba a3 f8 63 3a 6f 46 85 3a
       4.910915e-05 -0.0005556755 0.00086964126 0.0010168086
0000d0 91 d2 1b 3a 1c 77 82 38 60 e6 36 3a 28 28 01 ba
       0.00059441576 6.221069e-05 0.00069770776 -0.0004926943
0000e0 8e 87 6c ba 32 fb d6 38 18 3d 54 ba 11 f7 0f ba
       -0.0009022885 0.00010251104 -0.0008096262 -0.0005491833
0000f0 d8 7a 8a ba 05 07 53 ba 48 20 4c 37 6c bd 93 b9
       -0.0010565175 -0.0008050057 1.2166864e-05 -0.00028179155
000100 e9 23 30 3a 7e b1 7c ba d6 00 02 3b d0 cb 69 ba
       0.0006719218 -0.00096394855 0.0019836924 -0.0008918615
000110 e9 b9 04 bb 02 6d 19 bb f6 2e 1c bb c6 8c ab ba
       -0.0020252413 -0.002341092 -0.0023831702 -0.0013088218
000120 8b 6e c9 ba ea 33 0a bb 9e a1 d8 38 2f 8f a1 ba
       -0.0015368027 -0.0021088072 0.00010329786 -0.0012325997
000130 9d 04 93 b9 ec 1d eb ba 6a ce 0d 3b 65 49 27 3a
       -0.00028041462 -0.0017937995 0.0021637925 0.0006381481
000140 1d ab 0b ba d4 10 86 ba 29 ce 63 3a 58 e2 8f 38
       -0.0005327927 -0.0010228404 0.0008690083 6.860931e-05
000150 08 f8 87 b9 09 08 4c ba 1f ff c6 38 4f 72 42 3a
       -0.00025934004 -0.000778318 9.488896e-05 0.0007417546
000160 4d 43 99 b9 a6 09 12 3a af 91 86 ba c7 db 0f bb
       -0.00029232577 0.0005570896 -0.0010266806 -0.0021951066
000170 af b7 19 bb 95 e1 20 bb ac ce 42 ba 12 9b 1f bb
       -0.0023455431 -0.002454852 -0.0007431309 -0.0024353904
000180 94 15 32 bb e0 86 9f ba 2f 26 32 bb 5a 5f 04 bb
       -0.0027173506 -0.0012170933 -0.0027183404 -0.0020198436
000190 05 8f 21 ba 83 7c 98 ba dc ab 8a ba 4a b5 a3 ba
       -0.0006162974 -0.0011633787 -0.0010579783 -0.0012489941
0001a0 30 0e d3 ba f1 5b 3b ba 51 83 fa ba bd f5 b7 3a
       -0.0016102251 -0.0007147184 -0.0019112622 0.0014035028
0001b0 d1 e1 e4 b9 63 05 72 ba e5 8b 81 3a 4f 62 36 3a
       -0.00043655795 -0.000923237 0.0009883611 0.0006957398
0001c0 34 96 1a ba 75 fa 1f ba 01 2f 5e 3a 81 1d d1 39
       -0.0005897016 -0.00061026897 0.0008475632 0.0003988557
0001d0 f0 8a 79 b9 2a 0e 35 ba 53 8e 28 bb d2 57 17 bb
       -0.00023798249 -0.00069067127 -0.0025719597 -0.0023093116
0001e0 dd 04 33 bb 4c eb 1a bb c2 ed e7 ba f1 54 83 ba
       -0.002731613 -0.0023638783 -0.0017694759 -0.0010019821
0001f0 13 23 05 bb ef ac 47 bb 16 81 44 bb 8b d0 05 bb
       -0.0020315095 -0.0030468067 -0.0029984168 -0.002041849
000200 37 fe 00 bb ee c6 3e ba 44 c6 ef ba 64 af 0d ba
       -0.0019682774 -0.00072775676 -0.0018293341 -0.00054048584
000210 41 fa 05 ba 9e 50 f3 ba 07 8e 90 ba fa 68 69 ba
       -0.0005110838 -0.0018563455 -0.0011028656 -0.00089038874
000220 fc 85 e3 ba 29 e7 1d ba df 34 5d 3a 28 6f fd 39
       -0.0017358656 -0.000602352 0.00084383594 0.00048338738
000230 c9 e8 c7 39 d1 92 7d 3a ce 46 36 ba c4 6d 9e 36
       0.00038129676 0.00096730614 -0.00069533 4.7215453e-06
000240 b0 98 fe ba 4f 67 1e ba 09 20 b4 ba b3 9e d0 ba
       -0.0019424167 -0.0006042616 -0.0013742457 -0.0015916437
000250 a2 aa b7 ba bd 49 22 bb 9d 2d 2a bb 7a 61 ef ba
       -0.0014012645 -0.002476319 -0.002596713 -0.0018263303
000260 52 8b c2 ba 6b 71 cd ba 7e 6e 87 ba 57 e0 37 bb
       -0.0014842546 -0.001567406 -0.0010332612 -0.00280573
000270 06 a2 b8 ba 6e 1c 56 ba e9 20 ab ba 3f 07 f7 ba
       -0.0014086373 -0.00081676885 -0.0013056073 -0.0018846764
000280 c9 14 b8 ba 56 c6 95 b9 b1 2a f2 b9 33 c1 09 39
       -0.001404428 -0.00028567266 -0.00046189644 0.0001313731
000290 a6 a7 40 b9 57 37 ac 3a 18 51 36 3a 29 55 4c b6
       -0.00018373001 0.0013139051 0.0006954833 -3.0447939e-06
0002a0 fc 9d 61 ba 26 53 9f ba 5e 2f 16 bb 07 f2 47 bb
       -0.00086066104 -0.0012155517 -0.0022916417 -0.003050925
0002b0 d2 16 12 ba 11 90 b1 ba b5 b6 86 ba 1d fa e0 ba
       -0.00055728585 -0.0013546963 -0.001027784 -0.0017164383
0002c0 de 32 a6 ba ac 85 38 bb 46 fe aa ba 0e 55 ef ba
       -0.0012679955 -0.0028155847 -0.001304575 -0.0018259601
0002d0 f8 02 1d bb b9 d7 f5 ba 68 4b 0c bb 67 1d c8 ba
       -0.0023958068 -0.0018756307 -0.002140725 -0.0015267552
0002e0 86 fd a2 ba e5 c3 d3 ba 7f 21 06 bb 63 23 4e ba
       -0.0012435175 -0.0016156404 -0.0020466743 -0.00078635494
0002f0 23 7b af ba 78 66 38 ba 78 00 b9 ba 97 d8 10 ba
       -0.0013388138 -0.0007034312 -0.001411452 -0.00055254385
000300 fc 00 86 38 b9 69 a8 ba 3b 11 1f bb 82 5c bc 38
       6.389801e-05 -0.0012848891 -0.0024271745 8.9817695e-05
000310 b1 a7 16 ba 46 81 d8 ba 22 c7 f0 ba 0e b0 0c ba
       -0.0005747034 -0.0016518019 -0.0018369893 -0.00053668104
000320 44 c8 75 ba e8 43 c6 ba 30 89 14 ba a5 ed 92 ba
       -0.000937585 -0.0015126439 -0.00056661945 -0.001120974
000330 db fc ac ba 88 93 c2 ba 75 c2 d3 b9 2e 7c db b9
       -0.0013197915 -0.0014844993 -0.00040389938 -0.00041863456
000340 47 eb 7e ba ca 41 c5 ba 6f 65 9b ba 9b cf 0c bb
       -0.000972439 -0.0015049514 -0.0011855791 -0.0021486047
000350 a8 a9 24 b9 19 1b 05 bb 47 0e 01 bb 11 30 75 ba
       -0.0001570346 -0.002031034 -0.0019692348 -0.0009353171
000360 89 28 10 bb 30 e4 d9 ba b6 5c ce ba ac fd fa ba
       -0.0021996817 -0.0016623791 -0.0015744183 -0.0019149086
000370 d6 2c f9 ba 04 e7 59 39 7b ca f3 ba e8 fc d5 b9
       -0.0019010555 0.00020780793 -0.0018599773 -0.00040814956
000380 a3 bb 8a 3a fb 66 76 ba 83 3a 26 bb a2 59 3b ba
       0.0010584485 -0.00093995006 -0.0025364466 -0.000714684
000390 f8 cf 5b ba 39 6e 70 ba ea 58 c5 b9 b8 0e c6 ba
       -0.0008385177 -0.0009171698 -0.00037641014 -0.0015110588
0003a0 e9 62 10 bb 4d 74 ba ba 7a 8c 99 ba 61 65 85 b9
       -0.0022031611 -0.0014225334 -0.0011714839 -0.0002544327
0003b0 45 16 32 ba 52 f7 9b ba af 46 ea ba b1 11 22 ba
       -0.00067934796 -0.0011899269 -0.0017873849 -0.0006182446
0003c0 0b 8a 59 ba 50 d1 e8 ba 72 00 c4 ba 7b 3d e1 ba
       -0.0008298463 -0.0017762575 -0.0014953746 -0.001718446
0003d0 1c 80 93 ba a5 c3 a2 b9 a6 ec 6d ba 08 64 97 ba
       -0.001125339 -0.00031044814 -0.0009076096 -0.0011550197
0003e0 49 49 ba b9 b1 25 7e ba 20 a7 18 3b 1b 2b 32 b9
       -0.00035531286 -0.00096949475 0.0023292974 -0.00016991461
0003f0 ec ca 31 b9 94 c3 5a ba 42 65 08 bb 47 cd 04 bb
       -0.0001695563 -0.00083451835 -0.0020812307 -0.0020263956

fc.bias f4 [256]
000000 66 c2 f8 bc 18 ad 33 bd b0 ad 46 bd fd 6f de bd
       -0.030366134 -0.043866247 -0.048505485 -0.10861204
000010 b4 7f 9d bd 96 78 e4 bb af da b2 bd 9a fc c0 bd
       -0.07690373 -0.006972383 -0.08733117 -0.0942318
000020 ce 51 8d bd b6 bd 87 bd b9 fa 79 bd a7 43 cb be
       -0.06900369 -0.06627981 -0.061030123 -0.39700052
000030 0b af e4 be f6 47 42 be 0f ea 31 bf 92 22 07 bb
       -0.44664797 -0.18972763 -0.6949777 -0.002061997
000040 e0 bd b5 bd f6 05 25 bd 87 62 7d bd 3b cf 34 bc
       -0.088741064 -0.040288888 -0.06186154 -0.011035736
000050 66 45 c5 bd 99 7c 7f 3b 0f de f1 bc 26 6a bc bd
       -0.09632377 0.0038984178 -0.029524831 -0.09199934
000060 6b 55 cc bc 00 05 38 bc d9 d8 a8 bc 33 b5 18 bd
       -0.024943074 -0.011231661 -0.020611214 -0.03728218
000070 89 9d dd bc a6 67 7d bd a8 93 03 bd 1a dd f8 bc
       -0.027052658 -0.061866425 -0.032123238 -0.030378867
000080 fa 17 5c bc 50 a1 08 bd 37 c7 73 bd e9 bc a3 bd
       -0.013433451 -0.033356965 -0.059516158 -0.07995016
000090 da 05 6d bd 4e 0b ca bd 62 32 b6 bc 92 f2 a5 bd
       -0.05786691 -0.098654374 -0.022240821 -0.08102907
0000a0 cf a5 2e bd 55 c9 27 bd ba 3a 67 bc 13 e6 93 bd
       -0.042638596 -0.04096349 -0.014113123 -0.072216175
0000b0 26 34 24 bd f2 12 03 bd 0a ab 09 bd 67 dc 7a bd
       -0.040088795 -0.03200049 -0.03361038 -0.06124535
0000c0 ee f8 ac bc 80 ed 49 bd f7 18 ad bd 99 81 5f bd
       -0.021114793 -0.049298763 -0.08452027 -0.054566953
0000d0 c6 23 e6 bf 9d 07 03 bd 79 aa 2d bd 4e 52 30 bd
       -1.7979667 -0.031989682 -0.042398904 -0.043047242
0000e0 b1 c7 06 bc 71 25 50 bd e8 23 7f bd 93 b2 41 bd
       -0.008226321 -0.050816957 -0.062290102 -0.047289442
0000f0 3e b1 75 bf 34 8f 7e bd 34 68 d3 be eb 67 26 bd
       -0.95973575 -0.062148288 -0.41290438 -0.040626448
000100 ca 1b 0f bd 05 6d 35 bd f5 56 bd bd 6e 49 2c bc
       -0.03493861 -0.044293422 -0.09245101 -0.010515554
000110 fe 11 48 bd 20 af 28 bd 38 c9 1b bd 3a 77 ec bd
       -0.048845284 -0.041182637 -0.038033694 -0.11546178
000120 32 7d 9e bd 9c af 66 bd 54 4c e5 bc e6 80 18 bc
       -0.07738723 -0.056319818 -0.027990498 -0.0093080755
000130 87 69 83 bd c4 00 31 bd 52 76 4f bd 65 c2 1f bd
       -0.06416612 -0.04321362 -0.05064995 -0.03900375
000140 74 cc 8a bd 6a 6b 39 bd bc e3 d8 bc 6a 86 8f bd
       -0.067772776 -0.045268454 -0.02647578 -0.07008059
000150 c0 66 44 bd a5 a1 19 bd ef 47 91 bd 77 cd 31 bd
       -0.047949553 -0.037507672 -0.07093798 -0.043408837
000160 b9 ce 43 bd 3e 52 32 bd e3 5a c1 bd 3c 82 67 bc
       -0.047804568 -0.043535464 -0.094411634 -0.014130171
000170 e0 25 b2 bd 09 6a 8e bd 56 93 91 bc 50 19 84 bd
       -0.0869863 -0.06953818 -0.01777045 -0.064501405
000180 2b 03 ba bc b1 85 48 bf 81 76 ca bd f8 39 82 bd
       -0.022706589 -0.78328997 -0.09885884 -0.06358713
000190 ac ad 68 bd 1b ff 33 bc b1 c9 05 bc be 73 52 bd
       -0.05680625 -0.010986115 -0.008165763 -0.05137991
0001a0 f5 cd 41 bd 8c 64 64 bd 04 6f 5b bd e1 cf 2e bd
       -0.047315557 -0.05575995 -0.05357267 -0.042678718
0001b0 54 47 8c bd a4 f9 e2 bd e5 67 5a bd 67 66 f5 bc
       -0.06849542 -0.110827714 -0.053321738 -0.029956056
0001c0 df 47 78 bd fe 32 58 bc 4f ca 16 bd 4c 8b c0 bd
       -0.060615417 -0.013195751 -0.03681403 -0.09401569
0001d0 de c8 1c bd 00 e5 52 bd e6 4b 91 bd fa dd 76 bd
       -0.0382775 -0.051487923 -0.070945546 -0.060270287
0001e0 96 0d c7 bc e4 a2 4b be 8b 36 53 bd 89 f3 2b bd
       -0.02429847 -0.19886357 -0.051565688 -0.0419803
0001f0 5e eb a7 bc 16 37 8e bd a1 73 6f bd e9 97 38 bd
       -0.020497974 -0.069441006 -0.05845988 -0.045066748
000200 13 72 80 bd c8 c2 32 bd 5a fa 1c bd 16 a5 f5 bc
       -0.06271758 -0.04364279 -0.03832469 -0.029985946
000210 0d 17 9f bd 1f 77 df bc 7c 81 0e bd b8 2e 7a bc
       -0.077680685 -0.027278481 -0.034791455 -0.015269928
000220 55 2a 80 bc 54 0c 42 bd b9 b6 31 bd 58 68 2b c0
       -0.015645185 -0.04737504 -0.04338715 -2.6782436
000230 9c ea 8f bd 1f 62 cb bc bf b9 bf bd a1 9f b6 be
       -0.0702717 -0.024827061 -0.093616 -0.35668662
000240 98 02 90 bc 2e c4 2f bd 75 69 2a bc bb a4 fa bd
       -0.017579362 -0.0429117 -0.0104011195 -0.12238451
000250 cb 41 a1 bf ce 14 a3 bd 42 39 33 be b1 6b ba bd
       -1.2598203 -0.079629526 -0.17502311 -0.09102572
000260 ff b3 11 bd 48 bd e3 bf 7b bd 47 bd c8 26 a3 bd
       -0.03557205 -1.7792139 -0.048764687 -0.07966381
000270 c7 5c 91 bd 53 8f d3 bf 4a 5c 87 bf 26 a3 4f bd
       -0.07097774 -1.6528114 -1.0575039 -0.0506927
000280 a9 9c 9b bf 1f d9 4d bf 5d e4 96 bc 57 97 f2 bc
       -1.2157184 -0.80409425 -0.018419439 -0.02961318
000290 4c b6 c2 ba 47 c8 af bd ed ff d4 bc 9d ec 6a bd
       -0.0014855354 -0.08583122 -0.026000941 -0.05735456
0002a0 76 ea 6d bd 61 55 3d bd c3 e5 28 bd 55 1c 86 bc
       -0.058084927 -0.046224 -0.041234743 -0.016370932
0002b0 21 24 cc bc c4 cb 31 bc 3f 7f 7e bd c3 37 2c bd
       -0.024919571 -0.010851804 -0.06213307 -0.042045366
0002c0 80 23 7c bd 4c 36 26 bc 3a df 1b bd 99 8d bd bd
       -0.061557293 -0.010144781 -0.038054682 -0.09255523
0002d0 f3 c9 16 bf 72 27 77 bd e1 ab 52 bd e8 d4 aa bc
       -0.589019 -0.060340352 -0.051433448 -0.020853475
0002e0 51 4c 10 bd 83 fc 40 bc 57 9d 73 bd 6a 5a 03 bd
       -0.03522903 -0.0117789535 -0.059476223 -0.032068647
0002f0 de 2c 1a bd f8 94 6e bd d9 f4 e5 be 86 ac 08 c0
       -0.037640445 -0.058247536 -0.44913366 -2.13553
000300 41 0f 10 bd 5d 48 87 bd 05 09 ec bc bf a1 3a bd
       -0.035170797 -0.06605599 -0.028812895 -0.04556441
000310 38 b9 60 bd 7b 4d 91 bd d8 d8 c8 bc 31 03 0e bd
       -0.05486414 -0.07094856 -0.024517462 -0.034671012
000320 b8 db 4b 3f c0 7b 89 bc 56 3d d0 bc 85 96 04 be
       0.7963214 -0.016782641 -0.025419872 -0.12948044
000330 85 f5 28 bd d9 53 9c bd 5d c1 ac bd 6e 5b ba bd
       -0.04124977 -0.0763318 -0.084353186 -0.0909947
000340 1e 6f 64 bd 95 fa b2 bd da da 3c bd 03 0b 7a 3f
       -0.055770032 -0.08739201 -0.04610715 0.9767305
000350 db b0 ec be 7a d0 93 bc a7 2a a3 bd 8c 5b c2 bd
       -0.4622868 -0.018043745 -0.0796712 -0.094901174
000360 e0 18 8f bd 07 25 4e bd 3c 9a 7e bd a1 12 d4 be
       -0.069871664 -0.05032828 -0.062158808 -0.41420463
000370 21 b4 1a bd f7 51 27 bc 43 c0 ee bf 91 06 c5 bb
       -0.03776944 -0.010212413 -1.8652424 -0.0060127457
000380 13 4c 9a bd 80 11 74 bd f0 21 38 bd 8b 6e a9 bd
       -0.07534041 -0.059587 -0.04495424 -0.082730375
000390 cd 4b cd bd 85 76 96 be b9 de a5 bc 2c b3 7d bd
       -0.100242235 -0.29387298 -0.020247804 -0.06193845
0003a0 24 80 90 bd 17 01 53 bd 6d 66 48 bd 04 87 8a bd
       -0.07055691 -0.05151471 -0.048925806 -0.067640334
0003b0 4b a9 78 bd 51 8e 5a bd 8a dd 09 bc 97 4a 95 bd
       -0.060708325 -0.05335838 -0.008414635 -0.072896175
0003c0 f0 8f 48 bd ad 3a a5 bf 90 f5 71 bc 11 75 b8 bc
       -0.048965394 -1.2908531 -0.014768019 -0.02251676
0003d0 cc 74 17 bd 49 fe f0 bc a8 21 18 bd ce df a5 bd
       -0.03697662 -0.029418128 -0.037141472 -0.08099328
0003e0 2f 66 d9 bd c5 8b 41 bd 8e d1 e9 3f 6f 27 70 3f
       -0.10615193 -0.047252435 1.8267076 0.9381017
0003f0 08 ed 81 bd af 9e ae bd 63 3a 21 bc 5b cc 3f bd
       -0.06344038 -0.0852636 -0.009840581 -0.046825748

fc1.weight f4 [128, 256]
000000 d0 53 10 3a d1 06 a6 bb eb c1 19 3a 05 08 dc be
       0.0005505653 -0.0050667305 0.0005865383 -0.42974868
000010 51 d2 c8 b8 dd d0 63 ba 21 ec 6f 3b ab e4 40 3a
       -9.575918e-05 -0.0008690486 0.003660925 0.0007358293
000020 dc eb 8a ba 03 4e 0d 3a ee 08 3c 3b 5e db 3e c0
       -0.0010598856 0.0005390348 0.0028691846 -2.982139
000030 9f b9 b6 be 78 22 e6 bc b7 6c c7 bf 68 8e f2 3a
       -0.35688493 -0.028092608 -1.5580052 0.0018505575
000040 e0 81 02 3b 30 87 2f bb d5 00 80 3b 00 88 4d 3a
       0.0019913837 -0.002678346 0.003906349 0.0007840395
000050 8e 31 8d bb 34 1e 08 bb ed 71 78 3a 5b 6d 80 3b
       -0.004308886 -0.0020769956 0.00094774255 0.003919286
000060 3c fb a3 bb 7f cf 9d b9 4d 32 a2 bb 9b f2 5b b8
       -0.0050043147 -0.0003009997 -0.004949844 -5.2439613e-05
000070 35 5e 8d 3a 24 8b fd 39 d1 bd 06 bb 67 36 7e 3a
       0.0010785522 0.00048359588 -0.0020559917 0.00096974376
000080 77 b6 b3 bb bb aa 42 b8 98 bb 10 38 21 98 bb ba
       -0.005484398 -4.641221e-05 3.4506986e-05 -0.0014312306
000090 7b 94 80 bb 73 a6 2b 3b cc e6 c3 bb f0 89 14 bb
       -0.0039239503 0.002619174 -0.005978441 -0.0022665225
0000a0 6c 45 9b 3a 6e 02 56 bb 1e 96 68 ba 86 69 2a 3a
       0.0011846251 -0.0032655257 -0.0008872467 0.00065007096
0000b0 3a df 1f ba f9 5f 5d bb 41 7f d0 b8 5c b8 d8 ba
       -0.0006098632 -0.0033779128 -9.941916e-05 -0.0016534436
0000c0 b8 f5 5d ba f8 cc c8 bb 21 59 39 ba 2d b6 b1 bb
       -0.0008467096 -0.00612795 -0.0007070471 -0.0054233284
0000d0 6c 66 d8 be 54 8a eb b9 da 4e 31 ba b8 89 9a ba
       -0.42265642 -0.00044925755 -0.0006763764 -0.0011790311
0000e0 b5 c2 2e 3a c3 7b 78 bb fd bf df 3b 9a 2f 8a bb
       0.0006666587 -0.0037915565 0.0068283067 -0.0042171003
0000f0 dc 96 22 c0 2d e8 e9 38 69 dd 94 bf 95 69 8b 3a
       -2.5404577 0.00011153552 -1.1630069 0.0010636324
000100 48 c6 52 3b fd b0 94 3a f6 ee 34 ba 79 55 c8 38
       0.0032161642 0.001134425 -0.0006902063 9.552664e-05
000110 1e 16 35 bb f2 8d 9e bb bf a4 68 3a 16 81 87 ba
       -0.002763159 -0.0048386985 0.0008874647 -0.0010338153
000120 0f 89 27 bb 3b 27 32 3a 3f 74 5c ba 0e e4 a2 bb
       -0.002556387 0.0006796007 -0.0008409656 -0.004971034
000130 b7 f2 40 3a 65 42 ad 3a 34 31 9f 3a 64 5a c9 bb
       0.0007360386 0.001321864 0.0012145401 -0.0061448086
000140 17 9c dd ba 82 e7 e7 3b 00 38 40 ba 93 c7 97 b9
       -0.001690748 0.0070771584 -0.00073325634 -0.0002894966
000150 eb 22 55 3b 53 c6 c9 39 7a 69 09 bb 08 2f 8c bb
       0.0032522033 0.0003848547 -0.002096741 -0.0042780675
000160 fd 9f 9e bb 6f 4f 68 3b 3b 08 e0 be 9f f2 75 bb
       -0.0048408494 0.0035447737 -0.4375628 -0.0037528647
000170 b9 6b b2 3b 50 02 88 bb d3 54 b8 bb bf 09 27 3a
       0.0054449704 -0.0041506663 -0.005625346 0.0006371997
000180 ba 3d 3a bb c5 f4 11 c0 46 30 83 3b 4c 80 9f bb
       -0.002841814 -2.2805645 0.0040035574 -0.004867589
000190 a8 ab a5 bb d1 fe 91 ba ba fd e5 3c f7 f5 12 bb
       -0.0050558634 -0.0011138563 0.028075088 -0.0022424439
0001a0 6e 4b 89 bb 12 3b 7f 3b d3 db 83 ba 95 82 d6 b8
       -0.0041899 0.003894512 -0.001006002 -0.00010228638
0001b0 c0 81 57 ba a6 c6 8c bb fc 9d 81 ba 60 51 a3 bb
       -0.00082209334 -0.0042961417 -0.0009889002 -0.004984066
0001c0 3f 12 aa bb ad 9f 9f bb c1 51 6c bb e6 c1 40 3b
       -0.0051901634 -0.0048713298 -0.0036059471 0.0029412447
0001d0 03 a9 99 bb 71 ae 82 39 f5 9a 25 bb 71 12 44 bb
       -0.004689337 0.000249255 -0.0025269364 -0.0029918218
0001e0 09 b5 83 bb b0 18 40 3b fc b2 9c bb 91 c5 54 ba
       -0.004019384 0.002931159 -0.004782079 -0.0008116598
0001f0 d3 18 00 bb ff b1 1d bb 7c d2 74 bb 92 63 7a bb
       -0.0019546046 -0.0024062393 -0.0037356904 -0.0038206321
000200 e4 6c 8d b9 be d9 b7 bb 6d 66 92 bb d1 72 b4 3b
       -0.00026974746 -0.0056106737 -0.0044677765 0.0055068512
000210 38 2c 32 3a 45 7d 8a bb 53 e0 c1 bb 49 f2 8b bb
       0.000679675 -0.004226359 -0.005916634 -0.004270826
000220 da 1b 63 bb cf 60 b1 bb 97 ad e6 ba 69 d1 7c bf
       -0.0034654052 -0.005413152 -0.0017599341 -0.98757035
000230 82 8e 2a bb 80 f0 b6 bb 11 09 da 3b ac 5e aa bd
       -0.0026024883 -0.005582869 0.006653913 -0.083188385
000240 eb 4e a8 ba ce 53 f6 3a 00 72 76 bb be f4 5a bf
       -0.0012840902 0.0018793286 -0.003760457 -0.85529697
000250 97 9f e1 bf 23 f5 ee ba 16 96 e4 be dd 90 10 c0
       -1.7626828 -0.0018231015 -0.44645756 -2.2588418
000260 5c fc 40 3a e9 89 2c c0 cf 31 b2 ba d2 29 dd 3b
       0.0007361823 -2.6959174 -0.0013595166 0.00674937
000270 af 61 d6 bb 4c d9 f9 be d3 1c c1 bd 70 7c cd bb
       -0.0065424065 -0.48798597 -0.09429326 -0.0062709376
000280 4c 39 a9 bf c2 09 5d bf a4 4b 8b bb df 6d ca bb
       -1.3220611 -0.86343014 -0.0042509604 -0.0061776484
000290 42 a9 d5 ba 48 6f 93 bb f1 39 65 bb ae ee d6 39
       -0.0016301053 -0.0044993497 -0.0034977163 0.0004099509
0002a0 52 b1 92 bb 70 b3 d6 ba 1c 9b dc 3a 35 5a 9d bb
       -0.0044767046 -0.0016380381 0.0016830894 -0.0048020133
0002b0 3f 1d 54 ba 22 fd 50 3a 76 5d a8 3a 56 01 eb 3b
       -0.0008091516 0.000797229 0.0012845236 0.00717179
0002c0 91 9b 70 ba 10 ee 3b b9 ff fc 9d 3a 3b ba 2a 3b
       -0.00091784546 -0.00017922395 0.0012053548 0.0026050943
0002d0 a7 fa 83 bf 56 80 a5 b9 37 5c 84 39 62 64 59 bb
       -1.0310868 -0.0003156687 0.00025245707 -0.0033171405
0002e0 c0 75 17 3a f6 4e e7 3b 32 f6 65 39 e2 e8 a1 bb
       0.0005777739 0.0070589734 0.00021930857 -0.004941092
0002f0 4a 91 af bb e4 1b 82 3b ec 06 2f be 09 73 0b c0
       -0.005357896 0.00397061 -0.17092484 -2.1788962
000300 9b e8 88 3a a1 e4 7a bb 24 42 85 bb b4 85 00 3a
       0.0010445298 -0.0038283246 -0.0040667225 0.0004902736
000310 ce 69 90 bb f8 fa a1 3b de a2 b4 ba 10 3a b7 bb
       -0.004407144 0.004943248 -0.0013781448 -0.0055916384
000320 93 56 5e be d0 0c 75 bb 30 bf 3b b9 80 62 08 3a
       -0.21712713 -0.003739167 -0.00017904933 0.0005202666
000330 17 d3 7a 3b b6 0a a9 3b 6a ad c2 37 be 8b 25 b9
       0.0038272792 0.0051587475 2.3207354e-05 -0.00015787684
000340 40 e8 f0 3a 4f 1f 7f 3b bd 79 d2 3a 8e e0 9e bf
       0.0018379763 0.0038928573 0.0016058009 -1.2412279
000350 1b 2a 9e bf a4 b4 33 bb 43 14 5b 3b 92 d5 2c 3b
       -1.23566 -0.0027420903 0.0033428825 0.0026372415
000360 34 81 ca 3a 70 4f c8 3b 98 a1 e4 3b 72 14 2b bd
       0.0015449882 0.0061129853 0.0069772713 -0.041767545
000370 dd b5 e3 ba 8b 45 74 38 70 9a 06 c0 aa 32 c8 ba
       -0.0017372925 5.82389e-05 -2.103176 -0.0015273888
000380 a3 36 f7 37 d4 5b 37 bb 94 34 26 39 16 be 95 3b
       2.9470137e-05 -0.0027978318 0.0001585058 0.004569779
000390 00 cb 6d ba 7a 6a 90 bc 18 46 e4 ba aa dd 43 ba
       -0.0009071082 -0.017628897 -0.0017415909 -0.000747169
0003a0 fa 49 f1 ba c6 cd a6 3b 07 11 7f bb d5 96 b4 bb
       -0.0018408888 0.005090448 -0.0038920061 -0.0055111446
0003b0 0f 08 0d bb 40 ff 2c bb 4a 3c 3a 3a ac a8 8a ba
       -0.0021519696 -0.0026397258 0.00071043207 -0.0010578833
0003c0 31 fc b1 bb 9f d5 39 be 02 d7 a6 bb b3 ac 7d 39
       -0.005431675 -0.18147896 -0.005091549 0.00024192296
0003d0 e6 66 ad 3b fd da 58 ba 5b 54 b4 39 bb ec 5e 3b
       0.0052918075 -0.0008272378 0.00034395125 0.0034015614
0003e0 56 3d 3b 3b ce 09 a5 3b 2e a8 27 bf ab 07 0c bf
       0.0028570495 0.005036569 -0.65490997 -0.546992
0003f0 da 87 27 bb a3 4f d4 3a 2f db 91 bb 7a 4b b0 39
       -0.0025563152 0.001619805 -0.0044511775 0.0003362557

fc1.bias f4 [128]
000000 f8 f6 83 be a7 47 a8 bd 80 cf 5c bf d2 76 11 be
       -0.2577436 -0.082167916 -0.8625412 -0.14205483
000010 90 04 64 bf 77 38 d1 bf 52 78 75 be 8b d8 66 bf
       -0.8906946 -1.6345357 -0.2397168 -0.9017417
000020 bc c6 91 be bd 5b d9 bd f3 63 02 bf af ea 8e 40
       -0.28471935 -0.10613201 -0.5093376 4.466148
000030 47 00 68 bd 3e 6f e5 be 0a 23 c7 c0 b7 37 a5 be
       -0.05664089 -0.44811434 -6.223027 -0.3226907
000040 3f b4 3d be 72 42 82 bf b1 ae 33 bf fd b8 5b be
       -0.1852579 -1.0176528 -0.7018843 -0.21457286
000050 73 04 c5 bd 79 01 2f bf e0 93 00 bf fe aa d1 be
       -0.09619989 -0.6836162 -0.5022564 -0.4095077
000060 44 1d 4d bf 6d 65 c6 be 04 31 71 be c1 23 e3 be
       -0.8012278 -0.38749257 -0.23553854 -0.44363216
000070 de 6d a3 bf fc e7 fd bc 34 d3 0e bf dc ed b9 bd
       -1.2767904 -0.030994408 -0.5579102 -0.09078571
000080 d5 e4 0b bf 9a 6a 8f be ca 31 f8 be 96 fe 85 bc
       -0.54646045 -0.28011018 -0.48475486 -0.016356748
000090 ea 3c 45 be 07 5a cd c0 82 1f 22 be 4e 1a 94 3f
       -0.19261518 -6.4172397 -0.15832332 1.1570528
0000a0 fc 89 ea be b3 79 6a bf be 86 e4 3e 76 d5 f1 3f
       -0.458084 -0.9159195 0.4463405 1.8893268
0000b0 3d 2d 37 bf af e2 9d be 0c 2b 45 be 50 03 4c b9
       -0.71553403 -0.30837008 -0.19254702 -0.0001945619
0000c0 ff 0b 37 bd 5e 65 40 be 71 7a 1d bd a4 ca 3e bd
       -0.044689175 -0.18788669 -0.038446847 -0.046579972
0000d0 ac 5e c7 be 09 32 cd bd 73 1e fb be 80 c2 4b be
       -0.38939416 -0.10019309 -0.49046668 -0.19898415
0000e0 b0 e9 5d 3f e6 97 8d bf cd 59 3c be c8 a0 17 bb
       0.86684704 -1.1061981 -0.18393631 -0.0023136605
0000f0 97 21 a6 bd ea 4e 13 3f ed fb 2d bf 97 46 25 bc
       -0.081118755 0.5754229 -0.67962533 -0.010087631
000100 45 09 9d bd 11 44 d4 bd 96 ce fb bd fc e2 08 bf
       -0.07667784 -0.10364545 -0.122952625 -0.5347135
000110 73 4b ce bf 50 76 9e be 99 00 90 bc a1 8e 86 bf
       -1.6116775 -0.3094964 -0.01757841 -1.0512277
000120 4a d1 13 be 04 35 02 bf 58 f7 82 bf 2b 13 55 be
       -0.14435306 -0.50862145 -1.0231733 -0.20808093
000130 a5 06 49 bf 0f a1 db bd 8a 55 9f be 51 3e 28 bd
       -0.78525764 -0.10724079 -0.3111995 -0.041075055
000140 de b9 e6 bd c3 a5 29 bf 92 66 d4 bd a3 25 72 3c
       -0.1126592 -0.6626856 -0.10371126 0.014779481
000150 76 f0 9e be cb ad 28 bc dd f7 30 bf 20 ed c4 be
       -0.31042832 -0.010295342 -0.6912821 -0.38462162
000160 52 5b 13 40 dd 41 f9 be 6c 22 61 bd 1d fc 08 bf
       2.3024487 -0.48683062 -0.054964468 -0.53509694
000170 2d d0 ee bc 79 d0 a8 bf 37 37 f4 be e2 df f3 bd
       -0.029152 -1.3188621 -0.47698376 -0.11907937
000180 66 2d c4 bb 0f 19 cf be 7c 8a 03 be 47 3a b4 be
       -0.005986857 -0.40448806 -0.12845796 -0.35200712
000190 3f 84 12 be 8d 36 aa bc 1f c3 56 ba 4c c5 aa be
       -0.1430826 -0.020777965 -0.00081925275 -0.3335365
0001a0 40 a6 f2 be f3 2e 42 bf 4f d1 21 be 4a ce aa 3d
       -0.47392464 -0.7585289 -0.15802501 0.08340128
0001b0 45 f0 06 bf 00 dd 89 bf a4 77 0d bf 38 d0 f6 be
       -0.5271037 -1.0770569 -0.5526068 -0.48205733
0001c0 42 24 fc bd 11 a5 b6 be 73 a7 f1 be 3d 52 d4 3f
       -0.12311603 -0.3567281 -0.47198066 1.6587597
0001d0 37 a9 a3 be cb c3 b2 be 1c 0d 27 bf 89 ea 59 bf
       -0.31965038 -0.34915003 -0.6525438 -0.851235
0001e0 e1 01 18 bf c7 32 1d be a1 64 4f bf 1e 6a 17 c0
       -0.59377867 -0.15351401 -0.8101292 -2.3658519
0001f0 bb ea 21 40 9c 56 7b bd 22 1b 6e bd a9 c2 20 bf
       2.5299518 -0.061361894 -0.058131345 -0.6279703

fc2.weight f4 [64, 128]
000000 40 f8 62 3f da 02 fe 3f 99 27 b9 be 1b bb 38 bf
       0.8866005 1.984462 -0.36163023 -0.721605
000010 b4 3f a4 bf 17 0c 0b c0 19 d2 f3 3e 7c 55 67 3f
       -1.2831941 -2.172613 0.4762123 0.90364814
000020 16 48 29 bf 22 61 0f 3f 4f fd 7b bf 59 18 f7 bf
       -0.6612562 0.5600759 -0.98433393 -1.9304305
000030 01 20 42 c0 e6 6a 09 3e 07 86 02 c0 81 d1 bd be
       -3.0332034 0.13419685 -2.0394304 -0.370739
000040 d7 ad 46 be c9 5e 32 c0 ae de 84 3f 76 99 ca 3e
       -0.19402252 -2.7870352 1.0380456 0.39570206
000050 61 74 7c be 4c 01 25 c0 a8 ba dd be f4 8e 1f bf
       -0.2465377 -2.5782042 -0.4330647 -0.62327504
000060 f1 b6 8d bf df 7a 38 3e b0 4c 0c c0 e3 91 18 be
       -1.1071454 0.18015622 -2.1921806 -0.14899401
000070 dc f3 0f c0 c4 7f b0 3e 92 54 85 bf 8d e3 0f 3f
       -2.249259 0.34472477 -1.0416434 0.5620659
000080 f3 fd 3e 3e 02 50 2a be 70 3e d8 bf 9e aa 34 c0
       0.18651561 -0.16632083 -1.6894054 -2.8229136
000090 1c 19 c8 bf 7d 00 e2 3e 68 e2 4d be 91 54 81 bf
       -1.5632663 0.44140998 -0.20105898 -1.0103933
0000a0 e4 ee 17 bf 8e 46 18 c0 c8 3b 74 bf 89 e3 ca bf
       -0.59348893 -2.3793063 -0.9540372 -1.5850688
0000b0 6e d5 a9 bf 98 5d ed bf 3a 66 b0 be 0d 96 f2 3d
       -1.3268259 -1.8544188 -0.34452993 0.11845026
0000c0 ca b9 d9 3d 97 2e 1e be 1c 09 66 bf 2c 53 0e c0
       0.106311396 -0.1544746 -0.8985765 -2.2238264
0000d0 ab c3 81 bf 18 a5 07 3f 21 ec d0 bf fc a7 b6 3e
       -1.0137838 0.5298629 -1.6322061 0.35675037
0000e0 37 cb b5 be 5d 6a c4 bf 69 c9 ee bf e5 8b 8c 3f
       -0.35506603 -1.534496 -1.8655216 1.0980192
0000f0 33 be f3 bf 3f d1 fc bf c7 c6 79 3d 9a d7 bb bf
       -1.9042419 -1.9751357 0.060980584 -1.4675171
000100 8a e6 90 3e 58 1b 94 3e 6e b3 1e 3e 8e a9 ad 3f
       0.28300887 0.28927112 0.15498134 1.3567369
000110 6b 74 5f be fd 66 95 3d c4 16 9b bf 43 04 70 bf
       -0.21821754 0.07295034 -1.2116323 -0.937565
000120 8b 1e 18 bf 2a 48 9d be e6 70 c8 bf e6 1a b9 bf
       -0.59421605 -0.3071912 -1.5659454 -1.4461334
000130 b4 66 22 be ab ff 57 bf 93 df f2 bd 58 32 0d be
       -0.1585949 -0.84374493 -0.1185905 -0.13788736
000140 dd 0b e5 be 8b 1c 51 be 06 77 b9 3e 30 70 86 3e
       -0.44735613 -0.20421045 0.3622362 0.26257467
000150 7c 92 7c 3f f6 d8 60 c0 7b b4 67 3d 43 8f 02 bf
       0.9866102 -3.5132422 0.056568604 -0.5099985
000160 d0 7f ba bf 73 61 c2 3e d0 a3 6d be c7 a5 75 bf
       -1.4570255 0.37964973 -0.23207021 -0.9595608
000170 68 89 c0 3d 37 c4 ed bf a7 ba 78 bf eb 0f 77 3d
       0.09401208 -1.8575505 -0.9715981 0.060317915
000180 91 bd e0 bf c1 fc 0d 3e 29 b3 02 bf 72 4c 0d 3f
       -1.7557851 0.13865949 -0.51054627 0.5519477
000190 97 9b 7a 3e 4f 0a 8e 3e 54 79 8d bd 74 4f 12 bf
       0.24473415 0.2774224 -0.06907907 -0.57152486
0001a0 66 fb 08 be b1 eb 44 bf f6 26 3a bf 2d dc a0 bf
       -0.13377151 -0.76922137 -0.727157 -1.2567192
0001b0 87 9e 8d bf 48 8c 14 bf 86 9a 60 bf 82 eb c4 bf
       -1.1064004 -0.5802655 -0.87735784 -1.5384371
0001c0 b0 e8 b3 3f 96 12 e9 3d 1c 4c 22 be 0d 3c fc be
       1.4055386 0.11380498 -0.15849346 -0.49264565
0001d0 db ef 12 c0 26 1a 69 c0 3c 5f b4 3e 9d 18 cb bf
       -2.2958896 -3.642221 0.35228908 -1.5866886
0001e0 25 2e 00 be 89 06 85 be 9b 2c 23 bf 36 d6 c5 3d
       -0.12517603 -0.25981548 -0.6373994 0.09659998
0001f0 54 6e b8 bf 11 4d 83 3f 63 42 0b 40 78 43 4e be
       -1.440867 1.0257894 2.175927 -0.20142925
000200 c9 cc e8 bf 6b f1 82 bf a8 d0 9d bf 7c 5d 03 c0
       -1.8187495 -1.0229925 -1.2329302 -2.0525808
000210 46 e9 8b bf 4d f1 a8 bf 70 d4 84 bf 78 2c 8a 3e
       -1.0930564 -1.3198639 -1.0377331 0.26987052
000220 f6 2a 5f 3f 8c f8 b5 bf 3b 83 b3 bf de f8 82 bf
       0.8717493 -1.4216475 -1.4024423 -1.0232198
000230 ae 03 c1 bf e4 56 db 3e 7e 24 10 be a1 f1 e9 3e
       -1.5079248 0.4283973 -0.1407642 0.4569216
000240 37 35 18 bf af 4d 83 be e1 d3 d2 3f 4f ce 9f bd
       -0.594562 -0.25645205 1.647091 -0.07803022
000250 83 0c d0 3f 2f 73 03 3f 1d 2e a3 bf d0 8c d2 3d
       1.6253818 0.5134763 -1.2748448 0.10280764
000260 9c e7 18 3f dc 0e da be af f5 c8 3f a2 f6 5c bf
       0.5972841 -0.42589462 1.5699977 -0.8631383
000270 b7 a9 2b c0 c4 1f 49 bf 87 6e 95 3e 10 cf 98 bc
       -2.6822336 -0.78564095 0.29185888 -0.018653423
000280 53 a5 a8 3f 3e 46 2c be 51 e2 8c bf 33 88 03 c0
       1.3175453 -0.1682367 -1.1006566 -2.055188
000290 a1 96 cc be ab 4a 1b bf 26 64 94 3f 45 1b df be
       -0.3995867 -0.6066081 1.1593063 -0.43575493
0002a0 28 a4 a2 be 4c 45 9a bf 83 27 50 bf 63 b2 9a bd
       -0.31765866 -1.2052398 -0.8131029 -0.07553556
0002b0 b4 b5 08 3e 93 e5 97 bf c5 67 11 3f 12 06 75 3f
       0.13350564 -1.1866935 0.56798965 0.9571239
0002c0 15 4b ef 3e e3 40 37 bf ca 9a dd 3e 00 a6 bf bf
       0.4673697 -0.71583384 0.43282157 -1.4972534
0002d0 85 72 23 c0 19 54 0c be 93 e0 cc bf be 98 3b 3e
       -2.5538647 -0.13703956 -1.6006035 0.18319985
0002e0 06 dc 70 bf ec 97 66 be 00 ed 84 3f 53 82 d9 3e
       -0.9408573 -0.22518891 1.0384827 0.42482242
0002f0 65 29 6e be b5 ae c5 be 16 fd 6c 3e 1e 61 e3 bf
       -0.23257978 -0.38609853 0.2314342 -1.7764013
000300 e7 02 3a 3f ab 1b 5c bf c2 48 07 be 3e 41 a2 be
       0.7266068 -0.8597972 -0.13211349 -0.316904
000310 5d 2c 87 3f 3a c5 84 3e 95 27 29 be ea 5c 05 bf
       1.0560414 0.25931722 -0.16519006 -0.520949
000320 e1 d8 17 bf bd 39 75 bf 7a 1a 4b 3e 84 d4 e4 be
       -0.59315306 -0.95791227 0.19834319 -0.44693387
000330 40 ba 65 bf 7f 5c 83 be 50 2a 8d be df 2c 82 bf
       -0.8973732 -0.25656506 -0.27571344 -1.0169944
000340 94 fe 7d bd 1b 2d 44 bf 44 3c 9a bf d0 ac 43 bf
       -0.062010363 -0.76631325 -1.2049642 -0.76435566
000350 7e 7a 50 3e be 9e 5d bf 2c 4f 13 bf 23 04 dc bf
       0.20359227 -0.86570346 -0.5754268 -1.7188762
000360 45 65 81 be 20 57 4d 3f 91 57 0d bc 3c 36 56 be
       -0.25272575 0.8021107 -0.0086268345 -0.20919126
000370 d1 d4 9f bd e2 2f 99 be 92 3f c8 bf 0b 17 8e bf
       -0.078042634 -0.29919344 -1.56444 -1.1100782
000380 41 df 1d 3f f0 49 0b bf 29 20 51 bf 36 f8 01 40
       0.61668783 -0.54409695 -0.816897 2.0307746
000390 81 c1 ac 3f eb 9e 8b 3f bc 5f 78 bf 2e 07 c9 3e
       1.3496553 1.0907873 -0.9702108 0.3926329
0003a0 a7 8b cd be f4 b9 eb 3f a3 98 4f bf f3 23 e5 be
       -0.4014561 1.8416123 -0.8109228 -0.4475399
0003b0 0a 09 c7 bf 2c 3f 4f be f6 35 39 be 50 a7 98 bf
       -1.5549634 -0.20238942 -0.1808699 -1.192606
0003c0 f5 3a 14 3f a3 8b fe 3e 7a f7 9c 3e 64 c3 08 3f
       0.5790246 0.4971591 0.3065756 0.5342314
0003d0 0f d6 bd bf 9d e1 cf bf 8d af ac 3f 6d a1 40 bf
       -1.483095 -1.6240727 1.3491074 -0.75246316
0003e0 30 31 56 bf c5 e4 af bf 2c 51 05 be 4e 37 3f be
       -0.83668804 -1.374169 -0.13019246 -0.18673441
0003f0 52 9e 99 bf 57 0a be be ae 78 9c bf fe a2 00 bf
       -1.200144 -0.37117264 -1.2224329 -0.50248706

fc2.bias f4 [64]
000000 21 0c df bc ad 43 a8 bf f6 e3 04 bf 67 53 b4 3e
       -0.027227463 -1.3145653 -0.5191034 0.3521988
000010 ac 77 52 3f 0c dd 2b be b9 88 a9 3d 07 25 78 bc
       0.82213855 -0.16783541 0.08278031 -0.015145547
000020 8e de 89 3f fd d3 1d bf 34 77 7c 3f 8c b1 85 be
       1.0771043 -0.61651593 0.9861939 -0.2611202
000030 d1 0e b5 be 24 db ce bc 9d 88 96 bc 92 7f 94 be
       -0.35362867 -0.025250979 -0.01837569 -0.29003578
000040 a1 ab df bb 35 2d 11 bd a9 70 a3 3d 8f 86 05 bf
       -0.0068258797 -0.035443503 0.079804726 -0.52158445
000050 f8 4d de bc fe 98 a1 3e 37 84 60 be bc 34 03 bd
       -0.027136788 0.31562036 -0.21925436 -0.032032713
000060 9c 6d 40 3f f8 ce 0b bf e6 ec aa bc 7f e7 68 bd
       0.7516725 -0.54612684 -0.020864915 -0.056861397
000070 46 8a 5f be c4 10 8a 3f ca ce 06 bf 5f 45 eb be
       -0.21830091 1.0786366 -0.52659285 -0.45951363
000080 c1 11 c7 be 1a e3 de bd 7d ac 86 bc 8a 3a 03 3e
       -0.38880733 -0.1088316 -0.01643967 0.128153
000090 c8 7b 4e 3f e3 11 4f bd 30 b2 cf be 22 eb 8d 3d
       0.80657625 -0.050554167 -0.40565634 0.06929614
0000a0 21 65 53 be b4 47 72 bc df 31 00 bf 19 7a 09 bf
       -0.20644046 -0.014787603 -0.500761 -0.5370193
0000b0 44 53 af be 2f 2e 9d be b0 39 55 3e 11 0e 62 3f
       -0.34243214 -0.30699298 0.20822787 0.88302714
0000c0 d8 e5 93 bd dd f9 03 bf 64 8b 3e bf ce d3 3f bf
       -0.072215736 -0.51553136 -0.74431443 -0.74932563
0000d0 9e 03 28 bd 48 ea 24 bd f0 98 05 bd 9a 35 a6 be
       -0.041019075 -0.04026249 -0.032616556 -0.3246277
0000e0 24 2c 8d 3e a0 d0 bc bb 29 03 e3 be a6 7a ca be
       0.2757274 -0.0057621747 -0.44338349 -0.39546698
0000f0 b6 95 5c bf 39 72 68 3f c3 f6 7d be bb 1d 22 be
       -0.8616594 0.9079929 -0.24801163 -0.15831654

out.weight f4 [10, 64]
000000 6d 99 ff 3f e3 1d 44 be 10 59 ed c0 17 f6 9f bc
       1.9968697 -0.19152026 -7.417122 -0.019526524
000010 41 af 95 be f9 2b fc 3f 7c f7 bd 3e c8 86 0d c0
       -0.2923527 1.9700919 0.37102878 -2.2113514
000020 69 f5 af 3e a3 75 d9 3f ed cb 53 be 54 ec 03 41
       0.3436692 1.6989025 -0.2068326 8.245197
000030 3a fe b4 40 d2 cc 05 3f 6c 68 d0 bf 58 cb 97 bf
       5.6560335 0.52265656 -1.6281867 -1.185893
000040 f0 c8 9d c0 25 13 9a c0 56 43 5f be 24 01 06 40
       -4.9307785 -4.814837 -0.2180303 2.0938196
000050 5a b8 2c c0 c2 36 53 bd b0 47 21 c0 49 18 66 bd
       -2.698752 -0.051565893 -2.5200005 -0.056175504
000060 45 26 70 be 9a 0d 65 c0 32 07 37 c0 eb e8 66 bf
       -0.23452099 -3.5789552 -2.8598142 -0.90199155
000070 77 4a ea 40 b2 4b 0a be 94 25 86 40 0f 02 0c 3f
       7.32159 -0.13505438 4.192087 0.5469064
000080 85 19 f9 c0 b9 74 79 c0 93 29 17 3f c9 9d 55 be
       -7.784365 -3.8977492 0.5904781 -0.20860972
000090 d5 1a bf 3e df eb 07 bf 81 a6 ce c0 a2 e4 69 bd
       0.3732516 -0.53094286 -6.457825 -0.057102807
0000a0 3b 55 e7 c0 a4 95 33 40 9f af e9 c0 e3 3e 02 c0
       -7.229154 2.8060083 -7.302688 -2.0350883
0000b0 5e 15 99 c0 3f 91 fc 3f 92 bd a9 bd 7c d1 14 be
       -4.7838583 1.9731826 -0.08288111 -0.14533037
0000c0 2f a3 21 c0 56 a7 36 40 e0 65 82 bf f6 e5 e6 bf
       -2.525585 2.8539634 -1.018734 -1.8038929
0000d0 2c 19 6b bf 64 32 3e bf e3 ee 89 40 7f 44 1f 40
       -0.91835284 -0.7429564 4.310411 2.4885557
0000e0 4c b2 63 be e5 54 da 3e 00 0c 7c c0 48 23 ad 40
       -0.22235984 0.42642894 -3.9382324 5.410557
0000f0 2d 55 df 3e 49 48 a3 3e 41 f7 7a 3e d5 b0 14 40
       0.4361967 0.31891087 0.24508382 2.323293
000100 25 9d ae 3d a3 d1 80 c0 f0 78 fb c0 b1 e5 0c be
       0.08526067 -4.0255904 -7.858513 -0.13759495
000110 51 e0 99 3e b4 d0 a5 40 cb 07 e1 be 18 71 5d 40
       0.30053952 5.1817265 -0.43951258 3.4600277
000120 25 be ad 3e 3c 34 59 40 e9 1d a1 3e 38 63 a2 c0
       0.3393413 3.3938131 0.31468132 -5.0746117
000130 67 11 11 c0 a0 5a 4b bf 67 97 0f c0 78 1b 7a 40
       -2.2666872 -0.7943516 -2.2436159 3.9079266
000140 28 a1 14 3f 69 c1 58 bf fb b1 49 bf bc bb c6 c0
       0.58058405 -0.8467012 -0.787872 -6.210417
000150 75 bb 78 bf 65 89 6a bd 5c 2e 8e bf 15 59 34 40
       -0.97161037 -0.057259936 -1.1107898 2.8179371
000160 0b 95 72 be f5 9a 80 3f f8 ac 11 c1 ca ea ad 40
       -0.23689668 1.0047289 -9.104729 5.434911
000170 ae 1d c1 3f b8 7f 04 be 8c a3 79 40 a8 46 1e 40
       1.5087183 -0.12939346 3.900607 2.4730625
000180 02 a6 8e bf b8 6f 62 40 4c e7 06 c1 fb 21 96 3f
       -1.1144412 3.5380688 -8.431469 1.172912
000190 78 8e 9e be b0 aa 15 40 46 67 17 bf 42 53 90 bd
       -0.3096807 2.338543 -0.5914196 -0.0704713
0001a0 db 0b 22 41 9f d9 83 41 97 4f b0 c0 5a 09 fe c0
       10.127894 16.48126 -5.5097156 -7.9386415
0001b0 9c 0a a4 40 20 0f c9 c0 67 a2 98 bd f5 7c 12 be
       5.126295 -6.2830963 -0.07452851 -0.1430548
0001c0 fa 26 f5 c0 35 e3 8e 41 57 18 1a c0 5f a9 5c c0
       -7.661008 17.86094 -2.4077356 -3.4478376
0001d0 7a 26 12 3f 3e 23 c4 bf 9a 1a 9b 3f 15 3f 30 41
       0.5708996 -1.5323255 1.2117493 11.015401
0001e0 ca ce d2 be 4b 45 66 3f 12 db 4a 40 fb b9 7e c0
       -0.41173393 0.8994948 3.169621 -3.9801013
0001f0 2e cf 25 40 70 b5 77 be 77 9e c3 c0 ac df 6c c0
       2.5907702 -0.24190307 -6.113094 -3.7011518
000200 f4 be 29 3f cd 2f 58 40 b3 3d 09 c0 0c e1 b7 3c
       0.66306996 3.3779175 -2.1443908 0.022446178
000210 a6 3a ae bd aa 2c cb 40 d5 90 9b be 5b 40 49 c0
       -0.0850728 6.349202 -0.30383936 -3.144553
000220 04 da bc bd 6d b7 93 be a0 d3 58 3b 51 2c 36 bf
       -0.09221271 -0.2885088 0.0033085123 -0.7116137
000230 85 7f 60 40 98 4c 87 c0 fe 74 68 be 5b ac 14 3f
       3.5077832 -4.2281 -0.22700879 0.58075494
000240 0d 6b 6e 40 b1 ed 6b 40 06 b1 c3 be 9a 88 19 40
       3.7252839 3.6863825 -0.38220996 2.3989625
000250 5f 28 3b bf 84 88 fa 3e 49 80 99 bf 5d 2c f5 bf
       -0.73108476 0.48932278 -1.1992275 -1.9154164
000260 8c b0 d4 bd fb 90 38 c0 0f d6 e6 c0 19 6e c9 bf
       -0.10385236 -2.883849 -7.21363 -1.5736724
000270 67 8d 1c c0 cc 52 95 3c e5 23 93 40 f0 70 84 40
       -2.4461305 0.018227957 4.5981317 4.1387863
000280 3c 81 75 40 13 94 81 40 7f 87 87 3e ce 77 2b be
       3.8360128 4.0493255 0.26470563 -0.1674492
000290 c5 55 80 3d 84 17 a9 bf f7 63 02 bf 34 6a cc bd
       0.06266359 -1.3210301 -0.50933784 -0.09981194
0002a0 c9 f3 ce 3f 9a e8 a4 c0 65 f6 d0 3f 92 50 b8 3f
       1.6168147 -5.1533937 1.6325194 1.4399588
0002b0 16 7c 8c 40 41 33 22 40 18 1c ff bd 95 ff 85 3c
       4.390147 2.5343783 -0.1245653 0.016357223
0002c0 d2 df a9 3f 59 3a b1 c0 75 66 62 3f 6e bf c7 c0
       1.327143 -5.5383725 0.8843759 -6.242118
0002d0 22 bd cb be 38 3d 88 be 0c 16 0c bf 9d 9d fa 40
       -0.39792734 -0.26609206 -0.5472114 7.83174
0002e0 04 42 cf 3d 55 b5 53 3b 46 78 4e c0 3d 9e 54 3e
       0.10120013 0.0032304127 -3.226091 0.20763488
0002f0 be bb b7 be d6 99 f4 bd b2 ce 92 bf ab a8 8b c0
       -0.35885423 -0.119434044 -1.1469328 -4.3643394
000300 d4 0e 1a 3f a1 ec b1 c0 3a 0c 0a 40 1f 61 e3 3d
       0.60178876 -5.5601354 2.1569963 0.11102509
000310 7d d2 3b bd e4 ce 11 41 99 c2 8b bd ff 96 21 c0
       -0.045855034 9.11301 -0.06824226 -2.524841
000320 08 13 ab bd d3 fb bc bf 95 2e 0b 3c 35 eb 02 41
       -0.08353239 -1.4764351 0.008494993 8.182424
000330 c5 34 43 be 34 b4 86 3f b8 08 b9 40 cc 9c 92 c0
       -0.19063099 1.0523744 5.7823143 -4.5816402
000340 41 93 94 bf df fc 09 40 37 48 e4 be c6 46 5e bf
       -1.1607438 2.156059 -0.44586346 -0.8682674
000350 f0 ae 14 bd 88 6e 8b bd bf cf 0a c1 29 88 cf 40
       -0.036299646 -0.068081915 -8.675719 6.485371
000360 fd 7a 88 bd 57 20 dc 3e 32 7f b9 3f e3 16 09 c0
       -0.06664083 0.42993423 1.4491942 -2.142022
000370 6e 15 9d 3f 84 e5 27 3d 0a 7c 8a bf d2 c3 aa 40
       1.2272165 0.040990368 -1.0819104 5.336404
000380 d5 d1 a0 bf 70 46 0b 40 79 42 a7 c0 84 23 81 be
       -1.2564036 2.1761742 -5.2268643 -0.2522241
000390 b8 fa 02 3e 64 6b 9e 3f fd 90 17 41 e3 15 0b 3f
       0.12790954 1.2376523 9.472898 0.5433027
0003a0 fa 15 0f c1 af f9 83 bf 85 7d 42 bf 11 1e e4 3e
       -8.942865 -1.0310572 -0.7597278 0.4455419
0003b0 cd 9f c6 40 08 79 f2 be ed 87 d5 bd 1c 7c 30 3d
       6.207007 -0.47357965 -0.104263164 0.04308711
0003c0 82 35 86 40 f1 1e 4c c0 b3 19 b0 3f 14 e7 d6 be
       4.1940317 -3.1893885 1.3757843 -0.41973174
0003d0 48 0b 3b bf e0 cf b6 bf 70 50 3c 40 90 ee 9e be
       -0.7306409 -1.4282188 2.9424095 -0.31041384
0003e0 a0 0c af 3d 43 7a 96 40 5b 75 62 40 eb 81 c4 3e
       0.0854733 4.7024245 3.5384128 0.3838037
0003f0 8f 9d 8b 40 b6 0f 0a be 8d 7b 26 40 f0 85 a3 3e
       4.362983 -0.13482556 2.601291 0.31938124

out.bias f4 [10]
000000 09 b3 b6 3d bd d7 de 3d 68 ea 1c 3e 95 0b 03 3e
       0.08920867 0.108809926 0.15323794 0.12797387
000010 7a 57 d2 bc 74 4e a1 3d a8 c4 d0 3d 9c 5d de 3d
       -0.025676478 0.07876292 0.10193759 0.10857698
000020 93 dd e6 3d 6b b0 c5 3d
       0.11272731 0.0965279
